{"format": "graph-model", "generatedBy": "2.9.1", "convertedBy": "TensorFlow.js Converter v4.16.0", "signature": {"inputs": {"tokenized_sequence": {"name": "tokenized_sequence:0", "dtype": "DT_INT64", "tensorShape": {"dim": [{"size": "-1"}, {"size": "3"}]}}}, "outputs": {"Identity_8:0": {"name": "Identity_8:0", "dtype": "DT_FLOAT", "tensorShape": {"dim": [{"size": "-1"}, {"size": "1"}]}}, "Identity_2:0": {"name": "Identity_2:0", "dtype": "DT_FLOAT", "tensorShape": {"dim": [{"size": "-1"}, {"size": "1"}]}}, "Identity_9:0": {"name": "Identity_9:0", "dtype": "DT_FLOAT", "tensorShape": {"dim": [{"size": "-1"}, {"size": "1"}]}}, "Identity_5:0": {"name": "Identity_5:0", "dtype": "DT_FLOAT", "tensorShape": {"dim": [{"size": "-1"}, {"size": "1"}]}}, "Identity:0": {"name": "Identity:0", "dtype": "DT_FLOAT", "tensorShape": {"dim": [{"size": "-1"}, {"size": "1"}]}}, "Identity_3:0": {"name": "Identity_3:0", "dtype": "DT_FLOAT", "tensorShape": {"dim": [{"size": "-1"}, {"size": "1"}]}}, "j_allele": {"name": "Identity_1:0", "dtype": "DT_FLOAT", "tensorShape": {"dim": [{"size": "-1"}, {"size": "14"}]}}, "Identity_4:0": {"name": "Identity_4:0", "dtype": "DT_FLOAT", "tensorShape": {"dim": [{"size": "-1"}, {"size": "1"}]}}, "Identity_6:0": {"name": "Identity_6:0", "dtype": "DT_FLOAT", "tensorShape": {"dim": [{"size": "-1"}, {"size": "1"}]}}, "v_allele": {"name": "Identity_7:0", "dtype": "DT_FLOAT", "tensorShape": {"dim": [{"size": "-1"}, {"size": "144"}]}}}}, "modelTopology": {"node": [{"name": "StatefulPartitionedCall/light_chain_align_airr_1/indel_count_mid/Gelu/mul/x", "op": "Const", "attr": {"value": {"tensor": {"dtype": "DT_FLOAT", "tensorShape": {}}}, "dtype": {"type": "DT_FLOAT"}}}, {"name": "StatefulPartitionedCall/light_chain_align_airr_1/indel_count_mid/Gelu/add/x", "op": "Const", "attr": {"value": {"tensor": {"dtype": "DT_FLOAT", "tensorShape": {}}}, "dtype": {"type": "DT_FLOAT"}}}, {"name": "StatefulPartitionedCall/light_chain_align_airr_1/indel_count_mid/MatMul/ReadVariableOp", "op": "Const", "attr": {"value": {"tensor": {"dtype": "DT_FLOAT", "tensorShape": {"dim": [{"size": "576"}, {"size": "576"}]}}}, "dtype": {"type": "DT_FLOAT"}}}, {"name": "StatefulPartitionedCall/light_chain_align_airr_1/indel_count_mid/BiasAdd/ReadVariableOp", "op": "Const", "attr": {"value": {"tensor": {"dtype": "DT_FLOAT", "tensorShape": {"dim": [{"size": "576"}]}}}, "dtype": {"type": "DT_FLOAT"}}}, {"name": "ConstantFolding/StatefulPartitionedCall/light_chain_align_airr_1/indel_count_mid/Gelu/truediv_recip", "op": "Const", "attr": {"value": {"tensor": {"dtype": "DT_FLOAT", "tensorShape": {}}}, "dtype": {"type": "DT_FLOAT"}}}, {"name": "StatefulPartitionedCall/light_chain_align_airr_1/indel_count/MatMul/ReadVariableOp", "op": "Const", "attr": {"value": {"tensor": {"dtype": "DT_FLOAT", "tensorShape": {"dim": [{"size": "576"}, {"size": "1"}]}}}, "dtype": {"type": "DT_FLOAT"}}}, {"name": "StatefulPartitionedCall/light_chain_align_airr_1/indel_count/BiasAdd/ReadVariableOp", "op": "Const", "attr": {"value": {"tensor": {"dtype": "DT_FLOAT", "tensorShape": {"dim": [{"size": "1"}]}}}, "dtype": {"type": "DT_FLOAT"}}}, {"name": "StatefulPartitionedCall/light_chain_align_airr_1/conv_residual_feature_extraction_block_4/conv1d_and__batch_norm_25/conv1d_79/Conv1D/ExpandDims/dim", "op": "Const", "attr": {"value": {"tensor": {"dtype": "DT_INT32", "tensorShape": {}}}, "dtype": {"type": "DT_INT32"}}}, {"name": "StatefulPartitionedCall/light_chain_align_airr_1/conv_residual_feature_extraction_block_4/conv1d_and__batch_norm_25/conv1d_79/Conv1D/ExpandDims_1", "op": "Const", "attr": {"value": {"tensor": {"dtype": "DT_FLOAT", "tensorShape": {"dim": [{"size": "1"}, {"size": "2"}, {"size": "128"}, {"size": "128"}]}}}, "dtype": {"type": "DT_FLOAT"}}}, {"name": "StatefulPartitionedCall/light_chain_align_airr_1/conv_residual_feature_extraction_block_4/conv1d_and__batch_norm_25/conv1d_79/BiasAdd/ReadVariableOp", "op": "Const", "attr": {"value": {"tensor": {"dtype": "DT_FLOAT", "tensorShape": {"dim": [{"size": "128"}]}}}, "dtype": {"type": "DT_FLOAT"}}}, {"name": "StatefulPartitionedCall/light_chain_align_airr_1/conv_residual_feature_extraction_block_4/conv1d_and__batch_norm_25/conv1d_80/Conv1D/ExpandDims/dim", "op": "Const", "attr": {"value": {"tensor": {"dtype": "DT_INT32", "tensorShape": {}}}, "dtype": {"type": "DT_INT32"}}}, {"name": "StatefulPartitionedCall/light_chain_align_airr_1/conv_residual_feature_extraction_block_4/conv1d_and__batch_norm_25/conv1d_80/Conv1D/ExpandDims_1", "op": "Const", "attr": {"value": {"tensor": {"dtype": "DT_FLOAT", "tensorShape": {"dim": [{"size": "1"}, {"size": "2"}, {"size": "128"}, {"size": "128"}]}}}, "dtype": {"type": "DT_FLOAT"}}}, {"name": "StatefulPartitionedCall/light_chain_align_airr_1/conv_residual_feature_extraction_block_4/conv1d_and__batch_norm_25/conv1d_80/BiasAdd/ReadVariableOp", "op": "Const", "attr": {"value": {"tensor": {"dtype": "DT_FLOAT", "tensorShape": {"dim": [{"size": "128"}]}}}, "dtype": {"type": "DT_FLOAT"}}}, {"name": "StatefulPartitionedCall/light_chain_align_airr_1/conv_residual_feature_extraction_block_4/conv1d_and__batch_norm_25/conv1d_81/Conv1D/ExpandDims/dim", "op": "Const", "attr": {"value": {"tensor": {"dtype": "DT_INT32", "tensorShape": {}}}, "dtype": {"type": "DT_INT32"}}}, {"name": "StatefulPartitionedCall/light_chain_align_airr_1/conv_residual_feature_extraction_block_4/conv1d_and__batch_norm_25/conv1d_81/Conv1D/ExpandDims_1", "op": "Const", "attr": {"value": {"tensor": {"dtype": "DT_FLOAT", "tensorShape": {"dim": [{"size": "1"}, {"size": "2"}, {"size": "128"}, {"size": "128"}]}}}, "dtype": {"type": "DT_FLOAT"}}}, {"name": "StatefulPartitionedCall/light_chain_align_airr_1/conv_residual_feature_extraction_block_4/conv1d_and__batch_norm_25/conv1d_81/BiasAdd/ReadVariableOp", "op": "Const", "attr": {"value": {"tensor": {"dtype": "DT_FLOAT", "tensorShape": {"dim": [{"size": "128"}]}}}, "dtype": {"type": "DT_FLOAT"}}}, {"name": "StatefulPartitionedCall/light_chain_align_airr_1/conv_residual_feature_extraction_block_4/conv1d_and__batch_norm_25/batch_normalization_25/batchnorm/mul", "op": "Const", "attr": {"value": {"tensor": {"dtype": "DT_FLOAT", "tensorShape": {"dim": [{"size": "128"}]}}}, "dtype": {"type": "DT_FLOAT"}}}, {"name": "StatefulPartitionedCall/light_chain_align_airr_1/conv_residual_feature_extraction_block_4/conv1d_and__batch_norm_25/batch_normalization_25/batchnorm/sub", "op": "Const", "attr": {"value": {"tensor": {"dtype": "DT_FLOAT", "tensorShape": {"dim": [{"size": "128"}]}}}, "dtype": {"type": "DT_FLOAT"}}}, {"name": "StatefulPartitionedCall/light_chain_align_airr_1/conv_residual_feature_extraction_block_4/conv1d_and__batch_norm_25/max_pooling1d_45/ExpandDims/dim", "op": "Const", "attr": {"value": {"tensor": {"dtype": "DT_INT32", "tensorShape": {}}}, "dtype": {"type": "DT_INT32"}}}, {"name": "StatefulPartitionedCall/light_chain_align_airr_1/conv_residual_feature_extraction_block_4/conv1d_and__batch_norm_24/conv1d_76/Conv1D/ExpandDims/dim", "op": "Const", "attr": {"value": {"tensor": {"dtype": "DT_INT32", "tensorShape": {}}}, "dtype": {"type": "DT_INT32"}}}, {"name": "StatefulPartitionedCall/light_chain_align_airr_1/conv_residual_feature_extraction_block_4/conv1d_and__batch_norm_24/conv1d_76/Conv1D/ExpandDims_1", "op": "Const", "attr": {"value": {"tensor": {"dtype": "DT_FLOAT", "tensorShape": {"dim": [{"size": "1"}, {"size": "2"}, {"size": "128"}, {"size": "128"}]}}}, "dtype": {"type": "DT_FLOAT"}}}, {"name": "StatefulPartitionedCall/light_chain_align_airr_1/conv_residual_feature_extraction_block_4/conv1d_and__batch_norm_24/conv1d_76/BiasAdd/ReadVariableOp", "op": "Const", "attr": {"value": {"tensor": {"dtype": "DT_FLOAT", "tensorShape": {"dim": [{"size": "128"}]}}}, "dtype": {"type": "DT_FLOAT"}}}, {"name": "StatefulPartitionedCall/light_chain_align_airr_1/conv_residual_feature_extraction_block_4/conv1d_and__batch_norm_24/conv1d_77/Conv1D/ExpandDims/dim", "op": "Const", "attr": {"value": {"tensor": {"dtype": "DT_INT32", "tensorShape": {}}}, "dtype": {"type": "DT_INT32"}}}, {"name": "StatefulPartitionedCall/light_chain_align_airr_1/conv_residual_feature_extraction_block_4/conv1d_and__batch_norm_24/conv1d_77/Conv1D/ExpandDims_1", "op": "Const", "attr": {"value": {"tensor": {"dtype": "DT_FLOAT", "tensorShape": {"dim": [{"size": "1"}, {"size": "2"}, {"size": "128"}, {"size": "128"}]}}}, "dtype": {"type": "DT_FLOAT"}}}, {"name": "StatefulPartitionedCall/light_chain_align_airr_1/conv_residual_feature_extraction_block_4/conv1d_and__batch_norm_24/conv1d_77/BiasAdd/ReadVariableOp", "op": "Const", "attr": {"value": {"tensor": {"dtype": "DT_FLOAT", "tensorShape": {"dim": [{"size": "128"}]}}}, "dtype": {"type": "DT_FLOAT"}}}, {"name": "StatefulPartitionedCall/light_chain_align_airr_1/conv_residual_feature_extraction_block_4/conv1d_and__batch_norm_24/conv1d_78/Conv1D/ExpandDims/dim", "op": "Const", "attr": {"value": {"tensor": {"dtype": "DT_INT32", "tensorShape": {}}}, "dtype": {"type": "DT_INT32"}}}, {"name": "StatefulPartitionedCall/light_chain_align_airr_1/conv_residual_feature_extraction_block_4/conv1d_and__batch_norm_24/conv1d_78/Conv1D/ExpandDims_1", "op": "Const", "attr": {"value": {"tensor": {"dtype": "DT_FLOAT", "tensorShape": {"dim": [{"size": "1"}, {"size": "2"}, {"size": "128"}, {"size": "128"}]}}}, "dtype": {"type": "DT_FLOAT"}}}, {"name": "StatefulPartitionedCall/light_chain_align_airr_1/conv_residual_feature_extraction_block_4/conv1d_and__batch_norm_24/conv1d_78/BiasAdd/ReadVariableOp", "op": "Const", "attr": {"value": {"tensor": {"dtype": "DT_FLOAT", "tensorShape": {"dim": [{"size": "128"}]}}}, "dtype": {"type": "DT_FLOAT"}}}, {"name": "StatefulPartitionedCall/light_chain_align_airr_1/conv_residual_feature_extraction_block_4/conv1d_and__batch_norm_24/batch_normalization_24/batchnorm/mul", "op": "Const", "attr": {"value": {"tensor": {"dtype": "DT_FLOAT", "tensorShape": {"dim": [{"size": "128"}]}}}, "dtype": {"type": "DT_FLOAT"}}}, {"name": "StatefulPartitionedCall/light_chain_align_airr_1/conv_residual_feature_extraction_block_4/conv1d_and__batch_norm_24/batch_normalization_24/batchnorm/sub", "op": "Const", "attr": {"value": {"tensor": {"dtype": "DT_FLOAT", "tensorShape": {"dim": [{"size": "128"}]}}}, "dtype": {"type": "DT_FLOAT"}}}, {"name": "StatefulPartitionedCall/light_chain_align_airr_1/conv_residual_feature_extraction_block_4/conv1d_and__batch_norm_24/max_pooling1d_44/ExpandDims/dim", "op": "Const", "attr": {"value": {"tensor": {"dtype": "DT_INT32", "tensorShape": {}}}, "dtype": {"type": "DT_INT32"}}}, {"name": "StatefulPartitionedCall/light_chain_align_airr_1/conv_residual_feature_extraction_block_4/conv1d_and__batch_norm_23/conv1d_73/Conv1D/ExpandDims/dim", "op": "Const", "attr": {"value": {"tensor": {"dtype": "DT_INT32", "tensorShape": {}}}, "dtype": {"type": "DT_INT32"}}}, {"name": "StatefulPartitionedCall/light_chain_align_airr_1/conv_residual_feature_extraction_block_4/conv1d_and__batch_norm_23/conv1d_73/Conv1D/ExpandDims_1", "op": "Const", "attr": {"value": {"tensor": {"dtype": "DT_FLOAT", "tensorShape": {"dim": [{"size": "1"}, {"size": "2"}, {"size": "128"}, {"size": "128"}]}}}, "dtype": {"type": "DT_FLOAT"}}}, {"name": "StatefulPartitionedCall/light_chain_align_airr_1/conv_residual_feature_extraction_block_4/conv1d_and__batch_norm_23/conv1d_73/BiasAdd/ReadVariableOp", "op": "Const", "attr": {"value": {"tensor": {"dtype": "DT_FLOAT", "tensorShape": {"dim": [{"size": "128"}]}}}, "dtype": {"type": "DT_FLOAT"}}}, {"name": "StatefulPartitionedCall/light_chain_align_airr_1/conv_residual_feature_extraction_block_4/conv1d_and__batch_norm_23/conv1d_74/Conv1D/ExpandDims/dim", "op": "Const", "attr": {"value": {"tensor": {"dtype": "DT_INT32", "tensorShape": {}}}, "dtype": {"type": "DT_INT32"}}}, {"name": "StatefulPartitionedCall/light_chain_align_airr_1/conv_residual_feature_extraction_block_4/conv1d_and__batch_norm_23/conv1d_74/Conv1D/ExpandDims_1", "op": "Const", "attr": {"value": {"tensor": {"dtype": "DT_FLOAT", "tensorShape": {"dim": [{"size": "1"}, {"size": "2"}, {"size": "128"}, {"size": "128"}]}}}, "dtype": {"type": "DT_FLOAT"}}}, {"name": "StatefulPartitionedCall/light_chain_align_airr_1/conv_residual_feature_extraction_block_4/conv1d_and__batch_norm_23/conv1d_74/BiasAdd/ReadVariableOp", "op": "Const", "attr": {"value": {"tensor": {"dtype": "DT_FLOAT", "tensorShape": {"dim": [{"size": "128"}]}}}, "dtype": {"type": "DT_FLOAT"}}}, {"name": "StatefulPartitionedCall/light_chain_align_airr_1/conv_residual_feature_extraction_block_4/conv1d_and__batch_norm_23/conv1d_75/Conv1D/ExpandDims/dim", "op": "Const", "attr": {"value": {"tensor": {"dtype": "DT_INT32", "tensorShape": {}}}, "dtype": {"type": "DT_INT32"}}}, {"name": "StatefulPartitionedCall/light_chain_align_airr_1/conv_residual_feature_extraction_block_4/conv1d_and__batch_norm_23/conv1d_75/Conv1D/ExpandDims_1", "op": "Const", "attr": {"value": {"tensor": {"dtype": "DT_FLOAT", "tensorShape": {"dim": [{"size": "1"}, {"size": "2"}, {"size": "128"}, {"size": "128"}]}}}, "dtype": {"type": "DT_FLOAT"}}}, {"name": "StatefulPartitionedCall/light_chain_align_airr_1/conv_residual_feature_extraction_block_4/conv1d_and__batch_norm_23/conv1d_75/BiasAdd/ReadVariableOp", "op": "Const", "attr": {"value": {"tensor": {"dtype": "DT_FLOAT", "tensorShape": {"dim": [{"size": "128"}]}}}, "dtype": {"type": "DT_FLOAT"}}}, {"name": "StatefulPartitionedCall/light_chain_align_airr_1/conv_residual_feature_extraction_block_4/conv1d_and__batch_norm_23/batch_normalization_23/batchnorm/mul", "op": "Const", "attr": {"value": {"tensor": {"dtype": "DT_FLOAT", "tensorShape": {"dim": [{"size": "128"}]}}}, "dtype": {"type": "DT_FLOAT"}}}, {"name": "StatefulPartitionedCall/light_chain_align_airr_1/conv_residual_feature_extraction_block_4/conv1d_and__batch_norm_23/batch_normalization_23/batchnorm/sub", "op": "Const", "attr": {"value": {"tensor": {"dtype": "DT_FLOAT", "tensorShape": {"dim": [{"size": "128"}]}}}, "dtype": {"type": "DT_FLOAT"}}}, {"name": "StatefulPartitionedCall/light_chain_align_airr_1/conv_residual_feature_extraction_block_4/conv1d_and__batch_norm_23/max_pooling1d_43/ExpandDims/dim", "op": "Const", "attr": {"value": {"tensor": {"dtype": "DT_INT32", "tensorShape": {}}}, "dtype": {"type": "DT_INT32"}}}, {"name": "StatefulPartitionedCall/light_chain_align_airr_1/conv_residual_feature_extraction_block_4/conv1d_and__batch_norm_22/conv1d_70/Conv1D/ExpandDims/dim", "op": "Const", "attr": {"value": {"tensor": {"dtype": "DT_INT32", "tensorShape": {}}}, "dtype": {"type": "DT_INT32"}}}, {"name": "StatefulPartitionedCall/light_chain_align_airr_1/conv_residual_feature_extraction_block_4/conv1d_and__batch_norm_22/conv1d_70/Conv1D/ExpandDims_1", "op": "Const", "attr": {"value": {"tensor": {"dtype": "DT_FLOAT", "tensorShape": {"dim": [{"size": "1"}, {"size": "3"}, {"size": "128"}, {"size": "128"}]}}}, "dtype": {"type": "DT_FLOAT"}}}, {"name": "StatefulPartitionedCall/light_chain_align_airr_1/conv_residual_feature_extraction_block_4/conv1d_and__batch_norm_22/conv1d_70/BiasAdd/ReadVariableOp", "op": "Const", "attr": {"value": {"tensor": {"dtype": "DT_FLOAT", "tensorShape": {"dim": [{"size": "128"}]}}}, "dtype": {"type": "DT_FLOAT"}}}, {"name": "StatefulPartitionedCall/light_chain_align_airr_1/conv_residual_feature_extraction_block_4/conv1d_and__batch_norm_22/conv1d_71/Conv1D/ExpandDims/dim", "op": "Const", "attr": {"value": {"tensor": {"dtype": "DT_INT32", "tensorShape": {}}}, "dtype": {"type": "DT_INT32"}}}, {"name": "StatefulPartitionedCall/light_chain_align_airr_1/conv_residual_feature_extraction_block_4/conv1d_and__batch_norm_22/conv1d_71/Conv1D/ExpandDims_1", "op": "Const", "attr": {"value": {"tensor": {"dtype": "DT_FLOAT", "tensorShape": {"dim": [{"size": "1"}, {"size": "3"}, {"size": "128"}, {"size": "128"}]}}}, "dtype": {"type": "DT_FLOAT"}}}, {"name": "StatefulPartitionedCall/light_chain_align_airr_1/conv_residual_feature_extraction_block_4/conv1d_and__batch_norm_22/conv1d_71/BiasAdd/ReadVariableOp", "op": "Const", "attr": {"value": {"tensor": {"dtype": "DT_FLOAT", "tensorShape": {"dim": [{"size": "128"}]}}}, "dtype": {"type": "DT_FLOAT"}}}, {"name": "StatefulPartitionedCall/light_chain_align_airr_1/conv_residual_feature_extraction_block_4/conv1d_and__batch_norm_22/conv1d_72/Conv1D/ExpandDims/dim", "op": "Const", "attr": {"value": {"tensor": {"dtype": "DT_INT32", "tensorShape": {}}}, "dtype": {"type": "DT_INT32"}}}, {"name": "StatefulPartitionedCall/light_chain_align_airr_1/conv_residual_feature_extraction_block_4/conv1d_and__batch_norm_22/conv1d_72/Conv1D/ExpandDims_1", "op": "Const", "attr": {"value": {"tensor": {"dtype": "DT_FLOAT", "tensorShape": {"dim": [{"size": "1"}, {"size": "3"}, {"size": "128"}, {"size": "128"}]}}}, "dtype": {"type": "DT_FLOAT"}}}, {"name": "StatefulPartitionedCall/light_chain_align_airr_1/conv_residual_feature_extraction_block_4/conv1d_and__batch_norm_22/conv1d_72/BiasAdd/ReadVariableOp", "op": "Const", "attr": {"value": {"tensor": {"dtype": "DT_FLOAT", "tensorShape": {"dim": [{"size": "128"}]}}}, "dtype": {"type": "DT_FLOAT"}}}, {"name": "StatefulPartitionedCall/light_chain_align_airr_1/conv_residual_feature_extraction_block_4/conv1d_and__batch_norm_22/batch_normalization_22/batchnorm/mul", "op": "Const", "attr": {"value": {"tensor": {"dtype": "DT_FLOAT", "tensorShape": {"dim": [{"size": "128"}]}}}, "dtype": {"type": "DT_FLOAT"}}}, {"name": "StatefulPartitionedCall/light_chain_align_airr_1/conv_residual_feature_extraction_block_4/conv1d_and__batch_norm_22/batch_normalization_22/batchnorm/sub", "op": "Const", "attr": {"value": {"tensor": {"dtype": "DT_FLOAT", "tensorShape": {"dim": [{"size": "128"}]}}}, "dtype": {"type": "DT_FLOAT"}}}, {"name": "StatefulPartitionedCall/light_chain_align_airr_1/conv_residual_feature_extraction_block_4/conv1d_and__batch_norm_22/max_pooling1d_42/ExpandDims/dim", "op": "Const", "attr": {"value": {"tensor": {"dtype": "DT_INT32", "tensorShape": {}}}, "dtype": {"type": "DT_INT32"}}}, {"name": "StatefulPartitionedCall/light_chain_align_airr_1/conv_residual_feature_extraction_block_4/conv1d_and__batch_norm_21/conv1d_67/Conv1D/ExpandDims/dim", "op": "Const", "attr": {"value": {"tensor": {"dtype": "DT_INT32", "tensorShape": {}}}, "dtype": {"type": "DT_INT32"}}}, {"name": "StatefulPartitionedCall/light_chain_align_airr_1/conv_residual_feature_extraction_block_4/conv1d_and__batch_norm_21/conv1d_67/Conv1D/ExpandDims_1", "op": "Const", "attr": {"value": {"tensor": {"dtype": "DT_FLOAT", "tensorShape": {"dim": [{"size": "1"}, {"size": "3"}, {"size": "128"}, {"size": "128"}]}}}, "dtype": {"type": "DT_FLOAT"}}}, {"name": "StatefulPartitionedCall/light_chain_align_airr_1/conv_residual_feature_extraction_block_4/conv1d_and__batch_norm_21/conv1d_67/BiasAdd/ReadVariableOp", "op": "Const", "attr": {"value": {"tensor": {"dtype": "DT_FLOAT", "tensorShape": {"dim": [{"size": "128"}]}}}, "dtype": {"type": "DT_FLOAT"}}}, {"name": "StatefulPartitionedCall/light_chain_align_airr_1/conv_residual_feature_extraction_block_4/conv1d_and__batch_norm_21/conv1d_68/Conv1D/ExpandDims/dim", "op": "Const", "attr": {"value": {"tensor": {"dtype": "DT_INT32", "tensorShape": {}}}, "dtype": {"type": "DT_INT32"}}}, {"name": "StatefulPartitionedCall/light_chain_align_airr_1/conv_residual_feature_extraction_block_4/conv1d_and__batch_norm_21/conv1d_68/Conv1D/ExpandDims_1", "op": "Const", "attr": {"value": {"tensor": {"dtype": "DT_FLOAT", "tensorShape": {"dim": [{"size": "1"}, {"size": "3"}, {"size": "128"}, {"size": "128"}]}}}, "dtype": {"type": "DT_FLOAT"}}}, {"name": "StatefulPartitionedCall/light_chain_align_airr_1/conv_residual_feature_extraction_block_4/conv1d_and__batch_norm_21/conv1d_68/BiasAdd/ReadVariableOp", "op": "Const", "attr": {"value": {"tensor": {"dtype": "DT_FLOAT", "tensorShape": {"dim": [{"size": "128"}]}}}, "dtype": {"type": "DT_FLOAT"}}}, {"name": "StatefulPartitionedCall/light_chain_align_airr_1/conv_residual_feature_extraction_block_4/conv1d_and__batch_norm_21/conv1d_69/Conv1D/ExpandDims/dim", "op": "Const", "attr": {"value": {"tensor": {"dtype": "DT_INT32", "tensorShape": {}}}, "dtype": {"type": "DT_INT32"}}}, {"name": "StatefulPartitionedCall/light_chain_align_airr_1/conv_residual_feature_extraction_block_4/conv1d_and__batch_norm_21/conv1d_69/Conv1D/ExpandDims_1", "op": "Const", "attr": {"value": {"tensor": {"dtype": "DT_FLOAT", "tensorShape": {"dim": [{"size": "1"}, {"size": "3"}, {"size": "128"}, {"size": "128"}]}}}, "dtype": {"type": "DT_FLOAT"}}}, {"name": "StatefulPartitionedCall/light_chain_align_airr_1/conv_residual_feature_extraction_block_4/conv1d_and__batch_norm_21/conv1d_69/BiasAdd/ReadVariableOp", "op": "Const", "attr": {"value": {"tensor": {"dtype": "DT_FLOAT", "tensorShape": {"dim": [{"size": "128"}]}}}, "dtype": {"type": "DT_FLOAT"}}}, {"name": "StatefulPartitionedCall/light_chain_align_airr_1/conv_residual_feature_extraction_block_4/conv1d_and__batch_norm_21/batch_normalization_21/batchnorm/mul", "op": "Const", "attr": {"value": {"tensor": {"dtype": "DT_FLOAT", "tensorShape": {"dim": [{"size": "128"}]}}}, "dtype": {"type": "DT_FLOAT"}}}, {"name": "StatefulPartitionedCall/light_chain_align_airr_1/conv_residual_feature_extraction_block_4/conv1d_and__batch_norm_21/batch_normalization_21/batchnorm/sub", "op": "Const", "attr": {"value": {"tensor": {"dtype": "DT_FLOAT", "tensorShape": {"dim": [{"size": "128"}]}}}, "dtype": {"type": "DT_FLOAT"}}}, {"name": "StatefulPartitionedCall/light_chain_align_airr_1/conv_residual_feature_extraction_block_4/conv1d_and__batch_norm_21/max_pooling1d_41/ExpandDims/dim", "op": "Const", "attr": {"value": {"tensor": {"dtype": "DT_INT32", "tensorShape": {}}}, "dtype": {"type": "DT_INT32"}}}, {"name": "StatefulPartitionedCall/light_chain_align_airr_1/conv_residual_feature_extraction_block_4/conv1d_and__batch_norm_20/conv1d_64/Conv1D/ExpandDims/dim", "op": "Const", "attr": {"value": {"tensor": {"dtype": "DT_INT32", "tensorShape": {}}}, "dtype": {"type": "DT_INT32"}}}, {"name": "StatefulPartitionedCall/light_chain_align_airr_1/conv_residual_feature_extraction_block_4/conv1d_and__batch_norm_20/conv1d_64/Conv1D/ExpandDims_1", "op": "Const", "attr": {"value": {"tensor": {"dtype": "DT_FLOAT", "tensorShape": {"dim": [{"size": "1"}, {"size": "3"}, {"size": "32"}, {"size": "128"}]}}}, "dtype": {"type": "DT_FLOAT"}}}, {"name": "StatefulPartitionedCall/light_chain_align_airr_1/conv_residual_feature_extraction_block_4/conv1d_and__batch_norm_20/conv1d_64/BiasAdd/ReadVariableOp", "op": "Const", "attr": {"value": {"tensor": {"dtype": "DT_FLOAT", "tensorShape": {"dim": [{"size": "128"}]}}}, "dtype": {"type": "DT_FLOAT"}}}, {"name": "StatefulPartitionedCall/light_chain_align_airr_1/conv_residual_feature_extraction_block_4/conv1d_and__batch_norm_20/conv1d_65/Conv1D/ExpandDims/dim", "op": "Const", "attr": {"value": {"tensor": {"dtype": "DT_INT32", "tensorShape": {}}}, "dtype": {"type": "DT_INT32"}}}, {"name": "StatefulPartitionedCall/light_chain_align_airr_1/conv_residual_feature_extraction_block_4/conv1d_and__batch_norm_20/conv1d_65/Conv1D/ExpandDims_1", "op": "Const", "attr": {"value": {"tensor": {"dtype": "DT_FLOAT", "tensorShape": {"dim": [{"size": "1"}, {"size": "3"}, {"size": "128"}, {"size": "128"}]}}}, "dtype": {"type": "DT_FLOAT"}}}, {"name": "StatefulPartitionedCall/light_chain_align_airr_1/conv_residual_feature_extraction_block_4/conv1d_and__batch_norm_20/conv1d_65/BiasAdd/ReadVariableOp", "op": "Const", "attr": {"value": {"tensor": {"dtype": "DT_FLOAT", "tensorShape": {"dim": [{"size": "128"}]}}}, "dtype": {"type": "DT_FLOAT"}}}, {"name": "StatefulPartitionedCall/light_chain_align_airr_1/conv_residual_feature_extraction_block_4/conv1d_and__batch_norm_20/conv1d_66/Conv1D/ExpandDims/dim", "op": "Const", "attr": {"value": {"tensor": {"dtype": "DT_INT32", "tensorShape": {}}}, "dtype": {"type": "DT_INT32"}}}, {"name": "StatefulPartitionedCall/light_chain_align_airr_1/conv_residual_feature_extraction_block_4/conv1d_and__batch_norm_20/conv1d_66/Conv1D/ExpandDims_1", "op": "Const", "attr": {"value": {"tensor": {"dtype": "DT_FLOAT", "tensorShape": {"dim": [{"size": "1"}, {"size": "3"}, {"size": "128"}, {"size": "128"}]}}}, "dtype": {"type": "DT_FLOAT"}}}, {"name": "StatefulPartitionedCall/light_chain_align_airr_1/conv_residual_feature_extraction_block_4/conv1d_and__batch_norm_20/conv1d_66/BiasAdd/ReadVariableOp", "op": "Const", "attr": {"value": {"tensor": {"dtype": "DT_FLOAT", "tensorShape": {"dim": [{"size": "128"}]}}}, "dtype": {"type": "DT_FLOAT"}}}, {"name": "StatefulPartitionedCall/light_chain_align_airr_1/conv_residual_feature_extraction_block_4/conv1d_and__batch_norm_20/batch_normalization_20/batchnorm/mul", "op": "Const", "attr": {"value": {"tensor": {"dtype": "DT_FLOAT", "tensorShape": {"dim": [{"size": "128"}]}}}, "dtype": {"type": "DT_FLOAT"}}}, {"name": "StatefulPartitionedCall/light_chain_align_airr_1/conv_residual_feature_extraction_block_4/conv1d_and__batch_norm_20/batch_normalization_20/batchnorm/sub", "op": "Const", "attr": {"value": {"tensor": {"dtype": "DT_FLOAT", "tensorShape": {"dim": [{"size": "128"}]}}}, "dtype": {"type": "DT_FLOAT"}}}, {"name": "StatefulPartitionedCall/light_chain_align_airr_1/conv_residual_feature_extraction_block_4/conv1d_and__batch_norm_20/max_pooling1d_40/ExpandDims/dim", "op": "Const", "attr": {"value": {"tensor": {"dtype": "DT_INT32", "tensorShape": {}}}, "dtype": {"type": "DT_INT32"}}}, {"name": "StatefulPartitionedCall/light_chain_align_airr_1/cutout_layer_1/Max/reduction_indices", "op": "Const", "attr": {"value": {"tensor": {"dtype": "DT_INT32", "tensorShape": {}}}, "dtype": {"type": "DT_INT32"}}}, {"name": "StatefulPartitionedCall/light_chain_align_airr_1/cutout_layer_1/clip_by_value/Minimum/y", "op": "Const", "attr": {"value": {"tensor": {"dtype": "DT_FLOAT", "tensorShape": {}}}, "dtype": {"type": "DT_FLOAT"}}}, {"name": "StatefulPartitionedCall/light_chain_align_airr_1/cutout_layer_1/clip_by_value/y", "op": "Const", "attr": {"value": {"tensor": {"dtype": "DT_FLOAT", "tensorShape": {}}}, "dtype": {"type": "DT_FLOAT"}}}, {"name": "StatefulPartitionedCall/light_chain_align_airr_1/cutout_layer_1/Cast", "op": "Const", "attr": {"value": {"tensor": {"dtype": "DT_FLOAT", "tensorShape": {"dim": [{"size": "576"}]}}}, "dtype": {"type": "DT_FLOAT"}}}, {"name": "StatefulPartitionedCall/light_chain_align_airr_1/cutout_layer_1/Max_1/reduction_indices", "op": "Const", "attr": {"value": {"tensor": {"dtype": "DT_INT32", "tensorShape": {}}}, "dtype": {"type": "DT_INT32"}}}, {"name": "StatefulPartitionedCall/light_chain_align_airr_1/cutout_layer_1/clip_by_value_1/Minimum/y", "op": "Const", "attr": {"value": {"tensor": {"dtype": "DT_FLOAT", "tensorShape": {}}}, "dtype": {"type": "DT_FLOAT"}}}, {"name": "StatefulPartitionedCall/light_chain_align_airr_1/cutout_layer_1/clip_by_value_1/y", "op": "Const", "attr": {"value": {"tensor": {"dtype": "DT_FLOAT", "tensorShape": {}}}, "dtype": {"type": "DT_FLOAT"}}}, {"name": "StatefulPartitionedCall/light_chain_align_airr_1/ExpandDims_1/dim", "op": "Const", "attr": {"value": {"tensor": {"dtype": "DT_INT32", "tensorShape": {}}}, "dtype": {"type": "DT_INT32"}}}, {"name": "StatefulPartitionedCall/light_chain_align_airr_1/conv_residual_feature_extraction_block_4/conv1d_82/Conv1D/ExpandDims/dim", "op": "Const", "attr": {"value": {"tensor": {"dtype": "DT_INT32", "tensorShape": {}}}, "dtype": {"type": "DT_INT32"}}}, {"name": "StatefulPartitionedCall/light_chain_align_airr_1/conv_residual_feature_extraction_block_4/conv1d_82/Conv1D/ExpandDims_1", "op": "Const", "attr": {"value": {"tensor": {"dtype": "DT_FLOAT", "tensorShape": {"dim": [{"size": "1"}, {"size": "5"}, {"size": "32"}, {"size": "128"}]}}}, "dtype": {"type": "DT_FLOAT"}}}, {"name": "StatefulPartitionedCall/light_chain_align_airr_1/conv_residual_feature_extraction_block_4/conv1d_82/BiasAdd/ReadVariableOp", "op": "Const", "attr": {"value": {"tensor": {"dtype": "DT_FLOAT", "tensorShape": {"dim": [{"size": "128"}]}}}, "dtype": {"type": "DT_FLOAT"}}}, {"name": "StatefulPartitionedCall/light_chain_align_airr_1/conv_residual_feature_extraction_block_4/max_pooling1d_46/ExpandDims/dim", "op": "Const", "attr": {"value": {"tensor": {"dtype": "DT_INT32", "tensorShape": {}}}, "dtype": {"type": "DT_INT32"}}}, {"name": "StatefulPartitionedCall/light_chain_align_airr_1/conv_residual_feature_extraction_block_4/max_pooling1d_46/ExpandDims_1/dim", "op": "Const", "attr": {"value": {"tensor": {"dtype": "DT_INT32", "tensorShape": {}}}, "dtype": {"type": "DT_INT32"}}}, {"name": "StatefulPartitionedCall/light_chain_align_airr_1/conv_residual_feature_extraction_block_4/max_pooling1d_47/ExpandDims/dim", "op": "Const", "attr": {"value": {"tensor": {"dtype": "DT_INT32", "tensorShape": {}}}, "dtype": {"type": "DT_INT32"}}}, {"name": "StatefulPartitionedCall/light_chain_align_airr_1/conv_residual_feature_extraction_block_4/max_pooling1d_48/ExpandDims/dim", "op": "Const", "attr": {"value": {"tensor": {"dtype": "DT_INT32", "tensorShape": {}}}, "dtype": {"type": "DT_INT32"}}}, {"name": "StatefulPartitionedCall/light_chain_align_airr_1/conv_residual_feature_extraction_block_4/max_pooling1d_49/ExpandDims/dim", "op": "Const", "attr": {"value": {"tensor": {"dtype": "DT_INT32", "tensorShape": {}}}, "dtype": {"type": "DT_INT32"}}}, {"name": "StatefulPartitionedCall/light_chain_align_airr_1/conv_residual_feature_extraction_block_4/max_pooling1d_50/ExpandDims/dim", "op": "Const", "attr": {"value": {"tensor": {"dtype": "DT_INT32", "tensorShape": {}}}, "dtype": {"type": "DT_INT32"}}}, {"name": "StatefulPartitionedCall/light_chain_align_airr_1/conv_residual_feature_extraction_block_4/max_pooling1d_51/ExpandDims/dim", "op": "Const", "attr": {"value": {"tensor": {"dtype": "DT_INT32", "tensorShape": {}}}, "dtype": {"type": "DT_INT32"}}}, {"name": "StatefulPartitionedCall/light_chain_align_airr_1/conv_residual_feature_extraction_block_4/flatten_4/Const", "op": "Const", "attr": {"value": {"tensor": {"dtype": "DT_INT32", "tensorShape": {"dim": [{"size": "2"}]}}}, "dtype": {"type": "DT_INT32"}}}, {"name": "StatefulPartitionedCall/light_chain_align_airr_1/conv_residual_feature_extraction_block_4/dense_4/MatMul/ReadVariableOp", "op": "Const", "attr": {"value": {"tensor": {"dtype": "DT_FLOAT", "tensorShape": {"dim": [{"size": "512"}, {"size": "576"}]}}}, "dtype": {"type": "DT_FLOAT"}}}, {"name": "StatefulPartitionedCall/light_chain_align_airr_1/conv_residual_feature_extraction_block_4/dense_4/BiasAdd/ReadVariableOp", "op": "Const", "attr": {"value": {"tensor": {"dtype": "DT_FLOAT", "tensorShape": {"dim": [{"size": "576"}]}}}, "dtype": {"type": "DT_FLOAT"}}}, {"name": "StatefulPartitionedCall/light_chain_align_airr_1/j_allele_middle/MatMul/ReadVariableOp", "op": "Const", "attr": {"value": {"tensor": {"dtype": "DT_FLOAT", "tensorShape": {"dim": [{"size": "576"}, {"size": "28"}]}}}, "dtype": {"type": "DT_FLOAT"}}}, {"name": "StatefulPartitionedCall/light_chain_align_airr_1/j_allele_middle/BiasAdd/ReadVariableOp", "op": "Const", "attr": {"value": {"tensor": {"dtype": "DT_FLOAT", "tensorShape": {"dim": [{"size": "28"}]}}}, "dtype": {"type": "DT_FLOAT"}}}, {"name": "StatefulPartitionedCall/light_chain_align_airr_1/j_allele/MatMul/ReadVariableOp", "op": "Const", "attr": {"value": {"tensor": {"dtype": "DT_FLOAT", "tensorShape": {"dim": [{"size": "28"}, {"size": "14"}]}}}, "dtype": {"type": "DT_FLOAT"}}}, {"name": "StatefulPartitionedCall/light_chain_align_airr_1/j_allele/BiasAdd/ReadVariableOp", "op": "Const", "attr": {"value": {"tensor": {"dtype": "DT_FLOAT", "tensorShape": {"dim": [{"size": "14"}]}}}, "dtype": {"type": "DT_FLOAT"}}}, {"name": "StatefulPartitionedCall/light_chain_align_airr_1/j_end/Gelu/mul/x", "op": "Const", "attr": {"value": {"tensor": {"dtype": "DT_FLOAT", "tensorShape": {}}}, "dtype": {"type": "DT_FLOAT"}}}, {"name": "StatefulPartitionedCall/light_chain_align_airr_1/j_end/Gelu/add/x", "op": "Const", "attr": {"value": {"tensor": {"dtype": "DT_FLOAT", "tensorShape": {}}}, "dtype": {"type": "DT_FLOAT"}}}, {"name": "StatefulPartitionedCall/light_chain_align_airr_1/j_end/MatMul/ReadVariableOp", "op": "Const", "attr": {"value": {"tensor": {"dtype": "DT_FLOAT", "tensorShape": {"dim": [{"size": "576"}, {"size": "1"}]}}}, "dtype": {"type": "DT_FLOAT"}}}, {"name": "StatefulPartitionedCall/light_chain_align_airr_1/j_end/BiasAdd/ReadVariableOp", "op": "Const", "attr": {"value": {"tensor": {"dtype": "DT_FLOAT", "tensorShape": {"dim": [{"size": "1"}]}}}, "dtype": {"type": "DT_FLOAT"}}}, {"name": "ConstantFolding/StatefulPartitionedCall/light_chain_align_airr_1/j_end/Gelu/truediv_recip", "op": "Const", "attr": {"value": {"tensor": {"dtype": "DT_FLOAT", "tensorShape": {}}}, "dtype": {"type": "DT_FLOAT"}}}, {"name": "StatefulPartitionedCall/light_chain_align_airr_1/j_start/Gelu/mul/x", "op": "Const", "attr": {"value": {"tensor": {"dtype": "DT_FLOAT", "tensorShape": {}}}, "dtype": {"type": "DT_FLOAT"}}}, {"name": "StatefulPartitionedCall/light_chain_align_airr_1/j_start/Gelu/add/x", "op": "Const", "attr": {"value": {"tensor": {"dtype": "DT_FLOAT", "tensorShape": {}}}, "dtype": {"type": "DT_FLOAT"}}}, {"name": "StatefulPartitionedCall/light_chain_align_airr_1/conv_residual_feature_extraction_block_2/conv1d_and__batch_norm_13/conv1d_41/Conv1D/ExpandDims/dim", "op": "Const", "attr": {"value": {"tensor": {"dtype": "DT_INT32", "tensorShape": {}}}, "dtype": {"type": "DT_INT32"}}}, {"name": "StatefulPartitionedCall/light_chain_align_airr_1/conv_residual_feature_extraction_block_2/conv1d_and__batch_norm_13/conv1d_41/Conv1D/ExpandDims_1", "op": "Const", "attr": {"value": {"tensor": {"dtype": "DT_FLOAT", "tensorShape": {"dim": [{"size": "1"}, {"size": "2"}, {"size": "128"}, {"size": "128"}]}}}, "dtype": {"type": "DT_FLOAT"}}}, {"name": "StatefulPartitionedCall/light_chain_align_airr_1/conv_residual_feature_extraction_block_2/conv1d_and__batch_norm_13/conv1d_41/BiasAdd/ReadVariableOp", "op": "Const", "attr": {"value": {"tensor": {"dtype": "DT_FLOAT", "tensorShape": {"dim": [{"size": "128"}]}}}, "dtype": {"type": "DT_FLOAT"}}}, {"name": "StatefulPartitionedCall/light_chain_align_airr_1/conv_residual_feature_extraction_block_2/conv1d_and__batch_norm_13/conv1d_42/Conv1D/ExpandDims/dim", "op": "Const", "attr": {"value": {"tensor": {"dtype": "DT_INT32", "tensorShape": {}}}, "dtype": {"type": "DT_INT32"}}}, {"name": "StatefulPartitionedCall/light_chain_align_airr_1/conv_residual_feature_extraction_block_2/conv1d_and__batch_norm_13/conv1d_42/Conv1D/ExpandDims_1", "op": "Const", "attr": {"value": {"tensor": {"dtype": "DT_FLOAT", "tensorShape": {"dim": [{"size": "1"}, {"size": "2"}, {"size": "128"}, {"size": "128"}]}}}, "dtype": {"type": "DT_FLOAT"}}}, {"name": "StatefulPartitionedCall/light_chain_align_airr_1/conv_residual_feature_extraction_block_2/conv1d_and__batch_norm_13/conv1d_42/BiasAdd/ReadVariableOp", "op": "Const", "attr": {"value": {"tensor": {"dtype": "DT_FLOAT", "tensorShape": {"dim": [{"size": "128"}]}}}, "dtype": {"type": "DT_FLOAT"}}}, {"name": "StatefulPartitionedCall/light_chain_align_airr_1/conv_residual_feature_extraction_block_2/conv1d_and__batch_norm_13/conv1d_43/Conv1D/ExpandDims/dim", "op": "Const", "attr": {"value": {"tensor": {"dtype": "DT_INT32", "tensorShape": {}}}, "dtype": {"type": "DT_INT32"}}}, {"name": "StatefulPartitionedCall/light_chain_align_airr_1/conv_residual_feature_extraction_block_2/conv1d_and__batch_norm_13/conv1d_43/Conv1D/ExpandDims_1", "op": "Const", "attr": {"value": {"tensor": {"dtype": "DT_FLOAT", "tensorShape": {"dim": [{"size": "1"}, {"size": "2"}, {"size": "128"}, {"size": "128"}]}}}, "dtype": {"type": "DT_FLOAT"}}}, {"name": "StatefulPartitionedCall/light_chain_align_airr_1/conv_residual_feature_extraction_block_2/conv1d_and__batch_norm_13/conv1d_43/BiasAdd/ReadVariableOp", "op": "Const", "attr": {"value": {"tensor": {"dtype": "DT_FLOAT", "tensorShape": {"dim": [{"size": "128"}]}}}, "dtype": {"type": "DT_FLOAT"}}}, {"name": "StatefulPartitionedCall/light_chain_align_airr_1/conv_residual_feature_extraction_block_2/conv1d_and__batch_norm_13/batch_normalization_13/batchnorm/mul", "op": "Const", "attr": {"value": {"tensor": {"dtype": "DT_FLOAT", "tensorShape": {"dim": [{"size": "128"}]}}}, "dtype": {"type": "DT_FLOAT"}}}, {"name": "StatefulPartitionedCall/light_chain_align_airr_1/conv_residual_feature_extraction_block_2/conv1d_and__batch_norm_13/batch_normalization_13/batchnorm/sub", "op": "Const", "attr": {"value": {"tensor": {"dtype": "DT_FLOAT", "tensorShape": {"dim": [{"size": "128"}]}}}, "dtype": {"type": "DT_FLOAT"}}}, {"name": "StatefulPartitionedCall/light_chain_align_airr_1/conv_residual_feature_extraction_block_2/conv1d_and__batch_norm_13/max_pooling1d_23/ExpandDims/dim", "op": "Const", "attr": {"value": {"tensor": {"dtype": "DT_INT32", "tensorShape": {}}}, "dtype": {"type": "DT_INT32"}}}, {"name": "StatefulPartitionedCall/light_chain_align_airr_1/conv_residual_feature_extraction_block_2/conv1d_and__batch_norm_12/conv1d_38/Conv1D/ExpandDims/dim", "op": "Const", "attr": {"value": {"tensor": {"dtype": "DT_INT32", "tensorShape": {}}}, "dtype": {"type": "DT_INT32"}}}, {"name": "StatefulPartitionedCall/light_chain_align_airr_1/conv_residual_feature_extraction_block_2/conv1d_and__batch_norm_12/conv1d_38/Conv1D/ExpandDims_1", "op": "Const", "attr": {"value": {"tensor": {"dtype": "DT_FLOAT", "tensorShape": {"dim": [{"size": "1"}, {"size": "3"}, {"size": "128"}, {"size": "128"}]}}}, "dtype": {"type": "DT_FLOAT"}}}, {"name": "StatefulPartitionedCall/light_chain_align_airr_1/conv_residual_feature_extraction_block_2/conv1d_and__batch_norm_12/conv1d_38/BiasAdd/ReadVariableOp", "op": "Const", "attr": {"value": {"tensor": {"dtype": "DT_FLOAT", "tensorShape": {"dim": [{"size": "128"}]}}}, "dtype": {"type": "DT_FLOAT"}}}, {"name": "StatefulPartitionedCall/light_chain_align_airr_1/conv_residual_feature_extraction_block_2/conv1d_and__batch_norm_12/conv1d_39/Conv1D/ExpandDims/dim", "op": "Const", "attr": {"value": {"tensor": {"dtype": "DT_INT32", "tensorShape": {}}}, "dtype": {"type": "DT_INT32"}}}, {"name": "StatefulPartitionedCall/light_chain_align_airr_1/conv_residual_feature_extraction_block_2/conv1d_and__batch_norm_12/conv1d_39/Conv1D/ExpandDims_1", "op": "Const", "attr": {"value": {"tensor": {"dtype": "DT_FLOAT", "tensorShape": {"dim": [{"size": "1"}, {"size": "3"}, {"size": "128"}, {"size": "128"}]}}}, "dtype": {"type": "DT_FLOAT"}}}, {"name": "StatefulPartitionedCall/light_chain_align_airr_1/conv_residual_feature_extraction_block_2/conv1d_and__batch_norm_12/conv1d_39/BiasAdd/ReadVariableOp", "op": "Const", "attr": {"value": {"tensor": {"dtype": "DT_FLOAT", "tensorShape": {"dim": [{"size": "128"}]}}}, "dtype": {"type": "DT_FLOAT"}}}, {"name": "StatefulPartitionedCall/light_chain_align_airr_1/conv_residual_feature_extraction_block_2/conv1d_and__batch_norm_12/conv1d_40/Conv1D/ExpandDims/dim", "op": "Const", "attr": {"value": {"tensor": {"dtype": "DT_INT32", "tensorShape": {}}}, "dtype": {"type": "DT_INT32"}}}, {"name": "StatefulPartitionedCall/light_chain_align_airr_1/conv_residual_feature_extraction_block_2/conv1d_and__batch_norm_12/conv1d_40/Conv1D/ExpandDims_1", "op": "Const", "attr": {"value": {"tensor": {"dtype": "DT_FLOAT", "tensorShape": {"dim": [{"size": "1"}, {"size": "3"}, {"size": "128"}, {"size": "128"}]}}}, "dtype": {"type": "DT_FLOAT"}}}, {"name": "StatefulPartitionedCall/light_chain_align_airr_1/conv_residual_feature_extraction_block_2/conv1d_and__batch_norm_12/conv1d_40/BiasAdd/ReadVariableOp", "op": "Const", "attr": {"value": {"tensor": {"dtype": "DT_FLOAT", "tensorShape": {"dim": [{"size": "128"}]}}}, "dtype": {"type": "DT_FLOAT"}}}, {"name": "StatefulPartitionedCall/light_chain_align_airr_1/conv_residual_feature_extraction_block_2/conv1d_and__batch_norm_12/batch_normalization_12/batchnorm/mul", "op": "Const", "attr": {"value": {"tensor": {"dtype": "DT_FLOAT", "tensorShape": {"dim": [{"size": "128"}]}}}, "dtype": {"type": "DT_FLOAT"}}}, {"name": "StatefulPartitionedCall/light_chain_align_airr_1/conv_residual_feature_extraction_block_2/conv1d_and__batch_norm_12/batch_normalization_12/batchnorm/sub", "op": "Const", "attr": {"value": {"tensor": {"dtype": "DT_FLOAT", "tensorShape": {"dim": [{"size": "128"}]}}}, "dtype": {"type": "DT_FLOAT"}}}, {"name": "StatefulPartitionedCall/light_chain_align_airr_1/conv_residual_feature_extraction_block_2/conv1d_and__batch_norm_12/max_pooling1d_22/ExpandDims/dim", "op": "Const", "attr": {"value": {"tensor": {"dtype": "DT_INT32", "tensorShape": {}}}, "dtype": {"type": "DT_INT32"}}}, {"name": "StatefulPartitionedCall/light_chain_align_airr_1/conv_residual_feature_extraction_block_2/conv1d_and__batch_norm_11/conv1d_35/Conv1D/ExpandDims/dim", "op": "Const", "attr": {"value": {"tensor": {"dtype": "DT_INT32", "tensorShape": {}}}, "dtype": {"type": "DT_INT32"}}}, {"name": "StatefulPartitionedCall/light_chain_align_airr_1/conv_residual_feature_extraction_block_2/conv1d_and__batch_norm_11/conv1d_35/Conv1D/ExpandDims_1", "op": "Const", "attr": {"value": {"tensor": {"dtype": "DT_FLOAT", "tensorShape": {"dim": [{"size": "1"}, {"size": "3"}, {"size": "128"}, {"size": "128"}]}}}, "dtype": {"type": "DT_FLOAT"}}}, {"name": "StatefulPartitionedCall/light_chain_align_airr_1/conv_residual_feature_extraction_block_2/conv1d_and__batch_norm_11/conv1d_35/BiasAdd/ReadVariableOp", "op": "Const", "attr": {"value": {"tensor": {"dtype": "DT_FLOAT", "tensorShape": {"dim": [{"size": "128"}]}}}, "dtype": {"type": "DT_FLOAT"}}}, {"name": "StatefulPartitionedCall/light_chain_align_airr_1/conv_residual_feature_extraction_block_2/conv1d_and__batch_norm_11/conv1d_36/Conv1D/ExpandDims/dim", "op": "Const", "attr": {"value": {"tensor": {"dtype": "DT_INT32", "tensorShape": {}}}, "dtype": {"type": "DT_INT32"}}}, {"name": "StatefulPartitionedCall/light_chain_align_airr_1/conv_residual_feature_extraction_block_2/conv1d_and__batch_norm_11/conv1d_36/Conv1D/ExpandDims_1", "op": "Const", "attr": {"value": {"tensor": {"dtype": "DT_FLOAT", "tensorShape": {"dim": [{"size": "1"}, {"size": "3"}, {"size": "128"}, {"size": "128"}]}}}, "dtype": {"type": "DT_FLOAT"}}}, {"name": "StatefulPartitionedCall/light_chain_align_airr_1/conv_residual_feature_extraction_block_2/conv1d_and__batch_norm_11/conv1d_36/BiasAdd/ReadVariableOp", "op": "Const", "attr": {"value": {"tensor": {"dtype": "DT_FLOAT", "tensorShape": {"dim": [{"size": "128"}]}}}, "dtype": {"type": "DT_FLOAT"}}}, {"name": "StatefulPartitionedCall/light_chain_align_airr_1/conv_residual_feature_extraction_block_2/conv1d_and__batch_norm_11/conv1d_37/Conv1D/ExpandDims/dim", "op": "Const", "attr": {"value": {"tensor": {"dtype": "DT_INT32", "tensorShape": {}}}, "dtype": {"type": "DT_INT32"}}}, {"name": "StatefulPartitionedCall/light_chain_align_airr_1/conv_residual_feature_extraction_block_2/conv1d_and__batch_norm_11/conv1d_37/Conv1D/ExpandDims_1", "op": "Const", "attr": {"value": {"tensor": {"dtype": "DT_FLOAT", "tensorShape": {"dim": [{"size": "1"}, {"size": "3"}, {"size": "128"}, {"size": "128"}]}}}, "dtype": {"type": "DT_FLOAT"}}}, {"name": "StatefulPartitionedCall/light_chain_align_airr_1/conv_residual_feature_extraction_block_2/conv1d_and__batch_norm_11/conv1d_37/BiasAdd/ReadVariableOp", "op": "Const", "attr": {"value": {"tensor": {"dtype": "DT_FLOAT", "tensorShape": {"dim": [{"size": "128"}]}}}, "dtype": {"type": "DT_FLOAT"}}}, {"name": "StatefulPartitionedCall/light_chain_align_airr_1/conv_residual_feature_extraction_block_2/conv1d_and__batch_norm_11/batch_normalization_11/batchnorm/mul", "op": "Const", "attr": {"value": {"tensor": {"dtype": "DT_FLOAT", "tensorShape": {"dim": [{"size": "128"}]}}}, "dtype": {"type": "DT_FLOAT"}}}, {"name": "StatefulPartitionedCall/light_chain_align_airr_1/conv_residual_feature_extraction_block_2/conv1d_and__batch_norm_11/batch_normalization_11/batchnorm/sub", "op": "Const", "attr": {"value": {"tensor": {"dtype": "DT_FLOAT", "tensorShape": {"dim": [{"size": "128"}]}}}, "dtype": {"type": "DT_FLOAT"}}}, {"name": "StatefulPartitionedCall/light_chain_align_airr_1/conv_residual_feature_extraction_block_2/conv1d_and__batch_norm_11/max_pooling1d_21/ExpandDims/dim", "op": "Const", "attr": {"value": {"tensor": {"dtype": "DT_INT32", "tensorShape": {}}}, "dtype": {"type": "DT_INT32"}}}, {"name": "StatefulPartitionedCall/light_chain_align_airr_1/conv_residual_feature_extraction_block_2/conv1d_and__batch_norm_10/conv1d_32/Conv1D/ExpandDims/dim", "op": "Const", "attr": {"value": {"tensor": {"dtype": "DT_INT32", "tensorShape": {}}}, "dtype": {"type": "DT_INT32"}}}, {"name": "StatefulPartitionedCall/light_chain_align_airr_1/conv_residual_feature_extraction_block_2/conv1d_and__batch_norm_10/conv1d_32/Conv1D/ExpandDims_1", "op": "Const", "attr": {"value": {"tensor": {"dtype": "DT_FLOAT", "tensorShape": {"dim": [{"size": "1"}, {"size": "3"}, {"size": "32"}, {"size": "128"}]}}}, "dtype": {"type": "DT_FLOAT"}}}, {"name": "StatefulPartitionedCall/light_chain_align_airr_1/conv_residual_feature_extraction_block_2/conv1d_and__batch_norm_10/conv1d_32/BiasAdd/ReadVariableOp", "op": "Const", "attr": {"value": {"tensor": {"dtype": "DT_FLOAT", "tensorShape": {"dim": [{"size": "128"}]}}}, "dtype": {"type": "DT_FLOAT"}}}, {"name": "StatefulPartitionedCall/light_chain_align_airr_1/conv_residual_feature_extraction_block_2/conv1d_and__batch_norm_10/conv1d_33/Conv1D/ExpandDims/dim", "op": "Const", "attr": {"value": {"tensor": {"dtype": "DT_INT32", "tensorShape": {}}}, "dtype": {"type": "DT_INT32"}}}, {"name": "StatefulPartitionedCall/light_chain_align_airr_1/conv_residual_feature_extraction_block_2/conv1d_and__batch_norm_10/conv1d_33/Conv1D/ExpandDims_1", "op": "Const", "attr": {"value": {"tensor": {"dtype": "DT_FLOAT", "tensorShape": {"dim": [{"size": "1"}, {"size": "3"}, {"size": "128"}, {"size": "128"}]}}}, "dtype": {"type": "DT_FLOAT"}}}, {"name": "StatefulPartitionedCall/light_chain_align_airr_1/conv_residual_feature_extraction_block_2/conv1d_and__batch_norm_10/conv1d_33/BiasAdd/ReadVariableOp", "op": "Const", "attr": {"value": {"tensor": {"dtype": "DT_FLOAT", "tensorShape": {"dim": [{"size": "128"}]}}}, "dtype": {"type": "DT_FLOAT"}}}, {"name": "StatefulPartitionedCall/light_chain_align_airr_1/conv_residual_feature_extraction_block_2/conv1d_and__batch_norm_10/conv1d_34/Conv1D/ExpandDims/dim", "op": "Const", "attr": {"value": {"tensor": {"dtype": "DT_INT32", "tensorShape": {}}}, "dtype": {"type": "DT_INT32"}}}, {"name": "StatefulPartitionedCall/light_chain_align_airr_1/conv_residual_feature_extraction_block_2/conv1d_and__batch_norm_10/conv1d_34/Conv1D/ExpandDims_1", "op": "Const", "attr": {"value": {"tensor": {"dtype": "DT_FLOAT", "tensorShape": {"dim": [{"size": "1"}, {"size": "3"}, {"size": "128"}, {"size": "128"}]}}}, "dtype": {"type": "DT_FLOAT"}}}, {"name": "StatefulPartitionedCall/light_chain_align_airr_1/conv_residual_feature_extraction_block_2/conv1d_and__batch_norm_10/conv1d_34/BiasAdd/ReadVariableOp", "op": "Const", "attr": {"value": {"tensor": {"dtype": "DT_FLOAT", "tensorShape": {"dim": [{"size": "128"}]}}}, "dtype": {"type": "DT_FLOAT"}}}, {"name": "StatefulPartitionedCall/light_chain_align_airr_1/conv_residual_feature_extraction_block_2/conv1d_and__batch_norm_10/batch_normalization_10/batchnorm/mul", "op": "Const", "attr": {"value": {"tensor": {"dtype": "DT_FLOAT", "tensorShape": {"dim": [{"size": "128"}]}}}, "dtype": {"type": "DT_FLOAT"}}}, {"name": "StatefulPartitionedCall/light_chain_align_airr_1/conv_residual_feature_extraction_block_2/conv1d_and__batch_norm_10/batch_normalization_10/batchnorm/sub", "op": "Const", "attr": {"value": {"tensor": {"dtype": "DT_FLOAT", "tensorShape": {"dim": [{"size": "128"}]}}}, "dtype": {"type": "DT_FLOAT"}}}, {"name": "StatefulPartitionedCall/light_chain_align_airr_1/conv_residual_feature_extraction_block_2/conv1d_and__batch_norm_10/max_pooling1d_20/ExpandDims/dim", "op": "Const", "attr": {"value": {"tensor": {"dtype": "DT_INT32", "tensorShape": {}}}, "dtype": {"type": "DT_INT32"}}}, {"name": "StatefulPartitionedCall/light_chain_align_airr_1/conv_residual_feature_extraction_block_2/conv1d_44/Conv1D/ExpandDims/dim", "op": "Const", "attr": {"value": {"tensor": {"dtype": "DT_INT32", "tensorShape": {}}}, "dtype": {"type": "DT_INT32"}}}, {"name": "StatefulPartitionedCall/light_chain_align_airr_1/conv_residual_feature_extraction_block_2/conv1d_44/Conv1D/ExpandDims_1", "op": "Const", "attr": {"value": {"tensor": {"dtype": "DT_FLOAT", "tensorShape": {"dim": [{"size": "1"}, {"size": "5"}, {"size": "32"}, {"size": "128"}]}}}, "dtype": {"type": "DT_FLOAT"}}}, {"name": "StatefulPartitionedCall/light_chain_align_airr_1/conv_residual_feature_extraction_block_2/conv1d_44/BiasAdd/ReadVariableOp", "op": "Const", "attr": {"value": {"tensor": {"dtype": "DT_FLOAT", "tensorShape": {"dim": [{"size": "128"}]}}}, "dtype": {"type": "DT_FLOAT"}}}, {"name": "StatefulPartitionedCall/light_chain_align_airr_1/conv_residual_feature_extraction_block_2/max_pooling1d_24/ExpandDims/dim", "op": "Const", "attr": {"value": {"tensor": {"dtype": "DT_INT32", "tensorShape": {}}}, "dtype": {"type": "DT_INT32"}}}, {"name": "StatefulPartitionedCall/light_chain_align_airr_1/conv_residual_feature_extraction_block_2/max_pooling1d_24/ExpandDims_1/dim", "op": "Const", "attr": {"value": {"tensor": {"dtype": "DT_INT32", "tensorShape": {}}}, "dtype": {"type": "DT_INT32"}}}, {"name": "StatefulPartitionedCall/light_chain_align_airr_1/conv_residual_feature_extraction_block_2/max_pooling1d_25/ExpandDims/dim", "op": "Const", "attr": {"value": {"tensor": {"dtype": "DT_INT32", "tensorShape": {}}}, "dtype": {"type": "DT_INT32"}}}, {"name": "StatefulPartitionedCall/light_chain_align_airr_1/conv_residual_feature_extraction_block_2/max_pooling1d_26/ExpandDims/dim", "op": "Const", "attr": {"value": {"tensor": {"dtype": "DT_INT32", "tensorShape": {}}}, "dtype": {"type": "DT_INT32"}}}, {"name": "StatefulPartitionedCall/light_chain_align_airr_1/conv_residual_feature_extraction_block_2/max_pooling1d_27/ExpandDims/dim", "op": "Const", "attr": {"value": {"tensor": {"dtype": "DT_INT32", "tensorShape": {}}}, "dtype": {"type": "DT_INT32"}}}, {"name": "StatefulPartitionedCall/light_chain_align_airr_1/conv_residual_feature_extraction_block_2/flatten_2/Const", "op": "Const", "attr": {"value": {"tensor": {"dtype": "DT_INT32", "tensorShape": {"dim": [{"size": "2"}]}}}, "dtype": {"type": "DT_INT32"}}}, {"name": "StatefulPartitionedCall/light_chain_align_airr_1/conv_residual_feature_extraction_block_2/dense_2/MatMul/ReadVariableOp", "op": "Const", "attr": {"value": {"tensor": {"dtype": "DT_FLOAT", "tensorShape": {"dim": [{"size": "2304"}, {"size": "576"}]}}}, "dtype": {"type": "DT_FLOAT"}}}, {"name": "StatefulPartitionedCall/light_chain_align_airr_1/conv_residual_feature_extraction_block_2/dense_2/BiasAdd/ReadVariableOp", "op": "Const", "attr": {"value": {"tensor": {"dtype": "DT_FLOAT", "tensorShape": {"dim": [{"size": "576"}]}}}, "dtype": {"type": "DT_FLOAT"}}}, {"name": "StatefulPartitionedCall/light_chain_align_airr_1/j_start/MatMul/ReadVariableOp", "op": "Const", "attr": {"value": {"tensor": {"dtype": "DT_FLOAT", "tensorShape": {"dim": [{"size": "576"}, {"size": "1"}]}}}, "dtype": {"type": "DT_FLOAT"}}}, {"name": "StatefulPartitionedCall/light_chain_align_airr_1/j_start/BiasAdd/ReadVariableOp", "op": "Const", "attr": {"value": {"tensor": {"dtype": "DT_FLOAT", "tensorShape": {"dim": [{"size": "1"}]}}}, "dtype": {"type": "DT_FLOAT"}}}, {"name": "ConstantFolding/StatefulPartitionedCall/light_chain_align_airr_1/j_start/Gelu/truediv_recip", "op": "Const", "attr": {"value": {"tensor": {"dtype": "DT_FLOAT", "tensorShape": {}}}, "dtype": {"type": "DT_FLOAT"}}}, {"name": "StatefulPartitionedCall/light_chain_align_airr_1/mutation_rate_mid/Gelu/mul/x", "op": "Const", "attr": {"value": {"tensor": {"dtype": "DT_FLOAT", "tensorShape": {}}}, "dtype": {"type": "DT_FLOAT"}}}, {"name": "StatefulPartitionedCall/light_chain_align_airr_1/mutation_rate_mid/Gelu/add/x", "op": "Const", "attr": {"value": {"tensor": {"dtype": "DT_FLOAT", "tensorShape": {}}}, "dtype": {"type": "DT_FLOAT"}}}, {"name": "StatefulPartitionedCall/light_chain_align_airr_1/mutation_rate_mid/MatMul/ReadVariableOp", "op": "Const", "attr": {"value": {"tensor": {"dtype": "DT_FLOAT", "tensorShape": {"dim": [{"size": "576"}, {"size": "576"}]}}}, "dtype": {"type": "DT_FLOAT"}}}, {"name": "StatefulPartitionedCall/light_chain_align_airr_1/mutation_rate_mid/BiasAdd/ReadVariableOp", "op": "Const", "attr": {"value": {"tensor": {"dtype": "DT_FLOAT", "tensorShape": {"dim": [{"size": "576"}]}}}, "dtype": {"type": "DT_FLOAT"}}}, {"name": "ConstantFolding/StatefulPartitionedCall/light_chain_align_airr_1/mutation_rate_mid/Gelu/truediv_recip", "op": "Const", "attr": {"value": {"tensor": {"dtype": "DT_FLOAT", "tensorShape": {}}}, "dtype": {"type": "DT_FLOAT"}}}, {"name": "StatefulPartitionedCall/light_chain_align_airr_1/mutation_rate/MatMul/ReadVariableOp", "op": "Const", "attr": {"value": {"tensor": {"dtype": "DT_FLOAT", "tensorShape": {"dim": [{"size": "576"}, {"size": "1"}]}}}, "dtype": {"type": "DT_FLOAT"}}}, {"name": "StatefulPartitionedCall/light_chain_align_airr_1/mutation_rate/BiasAdd/ReadVariableOp", "op": "Const", "attr": {"value": {"tensor": {"dtype": "DT_FLOAT", "tensorShape": {"dim": [{"size": "1"}]}}}, "dtype": {"type": "DT_FLOAT"}}}, {"name": "StatefulPartitionedCall/light_chain_align_airr_1/productive/MatMul/ReadVariableOp", "op": "Const", "attr": {"value": {"tensor": {"dtype": "DT_FLOAT", "tensorShape": {"dim": [{"size": "576"}, {"size": "1"}]}}}, "dtype": {"type": "DT_FLOAT"}}}, {"name": "StatefulPartitionedCall/light_chain_align_airr_1/productive/BiasAdd/ReadVariableOp", "op": "Const", "attr": {"value": {"tensor": {"dtype": "DT_FLOAT", "tensorShape": {"dim": [{"size": "1"}]}}}, "dtype": {"type": "DT_FLOAT"}}}, {"name": "StatefulPartitionedCall/light_chain_align_airr_1/chain_type_mid/Gelu/mul/x", "op": "Const", "attr": {"value": {"tensor": {"dtype": "DT_FLOAT", "tensorShape": {}}}, "dtype": {"type": "DT_FLOAT"}}}, {"name": "StatefulPartitionedCall/light_chain_align_airr_1/chain_type_mid/Gelu/add/x", "op": "Const", "attr": {"value": {"tensor": {"dtype": "DT_FLOAT", "tensorShape": {}}}, "dtype": {"type": "DT_FLOAT"}}}, {"name": "StatefulPartitionedCall/light_chain_align_airr_1/conv_residual_feature_extraction_block/conv1d_and__batch_norm_5/conv1d_15/Conv1D/ExpandDims/dim", "op": "Const", "attr": {"value": {"tensor": {"dtype": "DT_INT32", "tensorShape": {}}}, "dtype": {"type": "DT_INT32"}}}, {"name": "StatefulPartitionedCall/light_chain_align_airr_1/conv_residual_feature_extraction_block/conv1d_and__batch_norm_5/conv1d_15/Conv1D/ExpandDims_1", "op": "Const", "attr": {"value": {"tensor": {"dtype": "DT_FLOAT", "tensorShape": {"dim": [{"size": "1"}, {"size": "2"}, {"size": "128"}, {"size": "128"}]}}}, "dtype": {"type": "DT_FLOAT"}}}, {"name": "StatefulPartitionedCall/light_chain_align_airr_1/conv_residual_feature_extraction_block/conv1d_and__batch_norm_5/conv1d_15/BiasAdd/ReadVariableOp", "op": "Const", "attr": {"value": {"tensor": {"dtype": "DT_FLOAT", "tensorShape": {"dim": [{"size": "128"}]}}}, "dtype": {"type": "DT_FLOAT"}}}, {"name": "StatefulPartitionedCall/light_chain_align_airr_1/conv_residual_feature_extraction_block/conv1d_and__batch_norm_5/conv1d_16/Conv1D/ExpandDims/dim", "op": "Const", "attr": {"value": {"tensor": {"dtype": "DT_INT32", "tensorShape": {}}}, "dtype": {"type": "DT_INT32"}}}, {"name": "StatefulPartitionedCall/light_chain_align_airr_1/conv_residual_feature_extraction_block/conv1d_and__batch_norm_5/conv1d_16/Conv1D/ExpandDims_1", "op": "Const", "attr": {"value": {"tensor": {"dtype": "DT_FLOAT", "tensorShape": {"dim": [{"size": "1"}, {"size": "2"}, {"size": "128"}, {"size": "128"}]}}}, "dtype": {"type": "DT_FLOAT"}}}, {"name": "StatefulPartitionedCall/light_chain_align_airr_1/conv_residual_feature_extraction_block/conv1d_and__batch_norm_5/conv1d_16/BiasAdd/ReadVariableOp", "op": "Const", "attr": {"value": {"tensor": {"dtype": "DT_FLOAT", "tensorShape": {"dim": [{"size": "128"}]}}}, "dtype": {"type": "DT_FLOAT"}}}, {"name": "StatefulPartitionedCall/light_chain_align_airr_1/conv_residual_feature_extraction_block/conv1d_and__batch_norm_5/conv1d_17/Conv1D/ExpandDims/dim", "op": "Const", "attr": {"value": {"tensor": {"dtype": "DT_INT32", "tensorShape": {}}}, "dtype": {"type": "DT_INT32"}}}, {"name": "StatefulPartitionedCall/light_chain_align_airr_1/conv_residual_feature_extraction_block/conv1d_and__batch_norm_5/conv1d_17/Conv1D/ExpandDims_1", "op": "Const", "attr": {"value": {"tensor": {"dtype": "DT_FLOAT", "tensorShape": {"dim": [{"size": "1"}, {"size": "2"}, {"size": "128"}, {"size": "128"}]}}}, "dtype": {"type": "DT_FLOAT"}}}, {"name": "StatefulPartitionedCall/light_chain_align_airr_1/conv_residual_feature_extraction_block/conv1d_and__batch_norm_5/conv1d_17/BiasAdd/ReadVariableOp", "op": "Const", "attr": {"value": {"tensor": {"dtype": "DT_FLOAT", "tensorShape": {"dim": [{"size": "128"}]}}}, "dtype": {"type": "DT_FLOAT"}}}, {"name": "StatefulPartitionedCall/light_chain_align_airr_1/conv_residual_feature_extraction_block/conv1d_and__batch_norm_5/batch_normalization_5/batchnorm/mul", "op": "Const", "attr": {"value": {"tensor": {"dtype": "DT_FLOAT", "tensorShape": {"dim": [{"size": "128"}]}}}, "dtype": {"type": "DT_FLOAT"}}}, {"name": "StatefulPartitionedCall/light_chain_align_airr_1/conv_residual_feature_extraction_block/conv1d_and__batch_norm_5/batch_normalization_5/batchnorm/sub", "op": "Const", "attr": {"value": {"tensor": {"dtype": "DT_FLOAT", "tensorShape": {"dim": [{"size": "128"}]}}}, "dtype": {"type": "DT_FLOAT"}}}, {"name": "StatefulPartitionedCall/light_chain_align_airr_1/conv_residual_feature_extraction_block/conv1d_and__batch_norm_5/max_pooling1d_5/ExpandDims/dim", "op": "Const", "attr": {"value": {"tensor": {"dtype": "DT_INT32", "tensorShape": {}}}, "dtype": {"type": "DT_INT32"}}}, {"name": "StatefulPartitionedCall/light_chain_align_airr_1/conv_residual_feature_extraction_block/conv1d_and__batch_norm_4/conv1d_12/Conv1D/ExpandDims/dim", "op": "Const", "attr": {"value": {"tensor": {"dtype": "DT_INT32", "tensorShape": {}}}, "dtype": {"type": "DT_INT32"}}}, {"name": "StatefulPartitionedCall/light_chain_align_airr_1/conv_residual_feature_extraction_block/conv1d_and__batch_norm_4/conv1d_12/Conv1D/ExpandDims_1", "op": "Const", "attr": {"value": {"tensor": {"dtype": "DT_FLOAT", "tensorShape": {"dim": [{"size": "1"}, {"size": "2"}, {"size": "128"}, {"size": "128"}]}}}, "dtype": {"type": "DT_FLOAT"}}}, {"name": "StatefulPartitionedCall/light_chain_align_airr_1/conv_residual_feature_extraction_block/conv1d_and__batch_norm_4/conv1d_12/BiasAdd/ReadVariableOp", "op": "Const", "attr": {"value": {"tensor": {"dtype": "DT_FLOAT", "tensorShape": {"dim": [{"size": "128"}]}}}, "dtype": {"type": "DT_FLOAT"}}}, {"name": "StatefulPartitionedCall/light_chain_align_airr_1/conv_residual_feature_extraction_block/conv1d_and__batch_norm_4/conv1d_13/Conv1D/ExpandDims/dim", "op": "Const", "attr": {"value": {"tensor": {"dtype": "DT_INT32", "tensorShape": {}}}, "dtype": {"type": "DT_INT32"}}}, {"name": "StatefulPartitionedCall/light_chain_align_airr_1/conv_residual_feature_extraction_block/conv1d_and__batch_norm_4/conv1d_13/Conv1D/ExpandDims_1", "op": "Const", "attr": {"value": {"tensor": {"dtype": "DT_FLOAT", "tensorShape": {"dim": [{"size": "1"}, {"size": "2"}, {"size": "128"}, {"size": "128"}]}}}, "dtype": {"type": "DT_FLOAT"}}}, {"name": "StatefulPartitionedCall/light_chain_align_airr_1/conv_residual_feature_extraction_block/conv1d_and__batch_norm_4/conv1d_13/BiasAdd/ReadVariableOp", "op": "Const", "attr": {"value": {"tensor": {"dtype": "DT_FLOAT", "tensorShape": {"dim": [{"size": "128"}]}}}, "dtype": {"type": "DT_FLOAT"}}}, {"name": "StatefulPartitionedCall/light_chain_align_airr_1/conv_residual_feature_extraction_block/conv1d_and__batch_norm_4/conv1d_14/Conv1D/ExpandDims/dim", "op": "Const", "attr": {"value": {"tensor": {"dtype": "DT_INT32", "tensorShape": {}}}, "dtype": {"type": "DT_INT32"}}}, {"name": "StatefulPartitionedCall/light_chain_align_airr_1/conv_residual_feature_extraction_block/conv1d_and__batch_norm_4/conv1d_14/Conv1D/ExpandDims_1", "op": "Const", "attr": {"value": {"tensor": {"dtype": "DT_FLOAT", "tensorShape": {"dim": [{"size": "1"}, {"size": "2"}, {"size": "128"}, {"size": "128"}]}}}, "dtype": {"type": "DT_FLOAT"}}}, {"name": "StatefulPartitionedCall/light_chain_align_airr_1/conv_residual_feature_extraction_block/conv1d_and__batch_norm_4/conv1d_14/BiasAdd/ReadVariableOp", "op": "Const", "attr": {"value": {"tensor": {"dtype": "DT_FLOAT", "tensorShape": {"dim": [{"size": "128"}]}}}, "dtype": {"type": "DT_FLOAT"}}}, {"name": "StatefulPartitionedCall/light_chain_align_airr_1/conv_residual_feature_extraction_block/conv1d_and__batch_norm_4/batch_normalization_4/batchnorm/mul", "op": "Const", "attr": {"value": {"tensor": {"dtype": "DT_FLOAT", "tensorShape": {"dim": [{"size": "128"}]}}}, "dtype": {"type": "DT_FLOAT"}}}, {"name": "StatefulPartitionedCall/light_chain_align_airr_1/conv_residual_feature_extraction_block/conv1d_and__batch_norm_4/batch_normalization_4/batchnorm/sub", "op": "Const", "attr": {"value": {"tensor": {"dtype": "DT_FLOAT", "tensorShape": {"dim": [{"size": "128"}]}}}, "dtype": {"type": "DT_FLOAT"}}}, {"name": "StatefulPartitionedCall/light_chain_align_airr_1/conv_residual_feature_extraction_block/conv1d_and__batch_norm_4/max_pooling1d_4/ExpandDims/dim", "op": "Const", "attr": {"value": {"tensor": {"dtype": "DT_INT32", "tensorShape": {}}}, "dtype": {"type": "DT_INT32"}}}, {"name": "StatefulPartitionedCall/light_chain_align_airr_1/conv_residual_feature_extraction_block/conv1d_and__batch_norm_3/conv1d_9/Conv1D/ExpandDims/dim", "op": "Const", "attr": {"value": {"tensor": {"dtype": "DT_INT32", "tensorShape": {}}}, "dtype": {"type": "DT_INT32"}}}, {"name": "StatefulPartitionedCall/light_chain_align_airr_1/conv_residual_feature_extraction_block/conv1d_and__batch_norm_3/conv1d_9/Conv1D/ExpandDims_1", "op": "Const", "attr": {"value": {"tensor": {"dtype": "DT_FLOAT", "tensorShape": {"dim": [{"size": "1"}, {"size": "2"}, {"size": "128"}, {"size": "128"}]}}}, "dtype": {"type": "DT_FLOAT"}}}, {"name": "StatefulPartitionedCall/light_chain_align_airr_1/conv_residual_feature_extraction_block/conv1d_and__batch_norm_3/conv1d_9/BiasAdd/ReadVariableOp", "op": "Const", "attr": {"value": {"tensor": {"dtype": "DT_FLOAT", "tensorShape": {"dim": [{"size": "128"}]}}}, "dtype": {"type": "DT_FLOAT"}}}, {"name": "StatefulPartitionedCall/light_chain_align_airr_1/conv_residual_feature_extraction_block/conv1d_and__batch_norm_3/conv1d_10/Conv1D/ExpandDims/dim", "op": "Const", "attr": {"value": {"tensor": {"dtype": "DT_INT32", "tensorShape": {}}}, "dtype": {"type": "DT_INT32"}}}, {"name": "StatefulPartitionedCall/light_chain_align_airr_1/conv_residual_feature_extraction_block/conv1d_and__batch_norm_3/conv1d_10/Conv1D/ExpandDims_1", "op": "Const", "attr": {"value": {"tensor": {"dtype": "DT_FLOAT", "tensorShape": {"dim": [{"size": "1"}, {"size": "2"}, {"size": "128"}, {"size": "128"}]}}}, "dtype": {"type": "DT_FLOAT"}}}, {"name": "StatefulPartitionedCall/light_chain_align_airr_1/conv_residual_feature_extraction_block/conv1d_and__batch_norm_3/conv1d_10/BiasAdd/ReadVariableOp", "op": "Const", "attr": {"value": {"tensor": {"dtype": "DT_FLOAT", "tensorShape": {"dim": [{"size": "128"}]}}}, "dtype": {"type": "DT_FLOAT"}}}, {"name": "StatefulPartitionedCall/light_chain_align_airr_1/conv_residual_feature_extraction_block/conv1d_and__batch_norm_3/conv1d_11/Conv1D/ExpandDims/dim", "op": "Const", "attr": {"value": {"tensor": {"dtype": "DT_INT32", "tensorShape": {}}}, "dtype": {"type": "DT_INT32"}}}, {"name": "StatefulPartitionedCall/light_chain_align_airr_1/conv_residual_feature_extraction_block/conv1d_and__batch_norm_3/conv1d_11/Conv1D/ExpandDims_1", "op": "Const", "attr": {"value": {"tensor": {"dtype": "DT_FLOAT", "tensorShape": {"dim": [{"size": "1"}, {"size": "2"}, {"size": "128"}, {"size": "128"}]}}}, "dtype": {"type": "DT_FLOAT"}}}, {"name": "StatefulPartitionedCall/light_chain_align_airr_1/conv_residual_feature_extraction_block/conv1d_and__batch_norm_3/conv1d_11/BiasAdd/ReadVariableOp", "op": "Const", "attr": {"value": {"tensor": {"dtype": "DT_FLOAT", "tensorShape": {"dim": [{"size": "128"}]}}}, "dtype": {"type": "DT_FLOAT"}}}, {"name": "StatefulPartitionedCall/light_chain_align_airr_1/conv_residual_feature_extraction_block/conv1d_and__batch_norm_3/batch_normalization_3/batchnorm/mul", "op": "Const", "attr": {"value": {"tensor": {"dtype": "DT_FLOAT", "tensorShape": {"dim": [{"size": "128"}]}}}, "dtype": {"type": "DT_FLOAT"}}}, {"name": "StatefulPartitionedCall/light_chain_align_airr_1/conv_residual_feature_extraction_block/conv1d_and__batch_norm_3/batch_normalization_3/batchnorm/sub", "op": "Const", "attr": {"value": {"tensor": {"dtype": "DT_FLOAT", "tensorShape": {"dim": [{"size": "128"}]}}}, "dtype": {"type": "DT_FLOAT"}}}, {"name": "StatefulPartitionedCall/light_chain_align_airr_1/conv_residual_feature_extraction_block/conv1d_and__batch_norm_3/max_pooling1d_3/ExpandDims/dim", "op": "Const", "attr": {"value": {"tensor": {"dtype": "DT_INT32", "tensorShape": {}}}, "dtype": {"type": "DT_INT32"}}}, {"name": "StatefulPartitionedCall/light_chain_align_airr_1/conv_residual_feature_extraction_block/conv1d_and__batch_norm_2/conv1d_6/Conv1D/ExpandDims/dim", "op": "Const", "attr": {"value": {"tensor": {"dtype": "DT_INT32", "tensorShape": {}}}, "dtype": {"type": "DT_INT32"}}}, {"name": "StatefulPartitionedCall/light_chain_align_airr_1/conv_residual_feature_extraction_block/conv1d_and__batch_norm_2/conv1d_6/Conv1D/ExpandDims_1", "op": "Const", "attr": {"value": {"tensor": {"dtype": "DT_FLOAT", "tensorShape": {"dim": [{"size": "1"}, {"size": "3"}, {"size": "128"}, {"size": "128"}]}}}, "dtype": {"type": "DT_FLOAT"}}}, {"name": "StatefulPartitionedCall/light_chain_align_airr_1/conv_residual_feature_extraction_block/conv1d_and__batch_norm_2/conv1d_6/BiasAdd/ReadVariableOp", "op": "Const", "attr": {"value": {"tensor": {"dtype": "DT_FLOAT", "tensorShape": {"dim": [{"size": "128"}]}}}, "dtype": {"type": "DT_FLOAT"}}}, {"name": "StatefulPartitionedCall/light_chain_align_airr_1/conv_residual_feature_extraction_block/conv1d_and__batch_norm_2/conv1d_7/Conv1D/ExpandDims/dim", "op": "Const", "attr": {"value": {"tensor": {"dtype": "DT_INT32", "tensorShape": {}}}, "dtype": {"type": "DT_INT32"}}}, {"name": "StatefulPartitionedCall/light_chain_align_airr_1/conv_residual_feature_extraction_block/conv1d_and__batch_norm_2/conv1d_7/Conv1D/ExpandDims_1", "op": "Const", "attr": {"value": {"tensor": {"dtype": "DT_FLOAT", "tensorShape": {"dim": [{"size": "1"}, {"size": "3"}, {"size": "128"}, {"size": "128"}]}}}, "dtype": {"type": "DT_FLOAT"}}}, {"name": "StatefulPartitionedCall/light_chain_align_airr_1/conv_residual_feature_extraction_block/conv1d_and__batch_norm_2/conv1d_7/BiasAdd/ReadVariableOp", "op": "Const", "attr": {"value": {"tensor": {"dtype": "DT_FLOAT", "tensorShape": {"dim": [{"size": "128"}]}}}, "dtype": {"type": "DT_FLOAT"}}}, {"name": "StatefulPartitionedCall/light_chain_align_airr_1/conv_residual_feature_extraction_block/conv1d_and__batch_norm_2/conv1d_8/Conv1D/ExpandDims/dim", "op": "Const", "attr": {"value": {"tensor": {"dtype": "DT_INT32", "tensorShape": {}}}, "dtype": {"type": "DT_INT32"}}}, {"name": "StatefulPartitionedCall/light_chain_align_airr_1/conv_residual_feature_extraction_block/conv1d_and__batch_norm_2/conv1d_8/Conv1D/ExpandDims_1", "op": "Const", "attr": {"value": {"tensor": {"dtype": "DT_FLOAT", "tensorShape": {"dim": [{"size": "1"}, {"size": "3"}, {"size": "128"}, {"size": "128"}]}}}, "dtype": {"type": "DT_FLOAT"}}}, {"name": "StatefulPartitionedCall/light_chain_align_airr_1/conv_residual_feature_extraction_block/conv1d_and__batch_norm_2/conv1d_8/BiasAdd/ReadVariableOp", "op": "Const", "attr": {"value": {"tensor": {"dtype": "DT_FLOAT", "tensorShape": {"dim": [{"size": "128"}]}}}, "dtype": {"type": "DT_FLOAT"}}}, {"name": "StatefulPartitionedCall/light_chain_align_airr_1/conv_residual_feature_extraction_block/conv1d_and__batch_norm_2/batch_normalization_2/batchnorm/mul", "op": "Const", "attr": {"value": {"tensor": {"dtype": "DT_FLOAT", "tensorShape": {"dim": [{"size": "128"}]}}}, "dtype": {"type": "DT_FLOAT"}}}, {"name": "StatefulPartitionedCall/light_chain_align_airr_1/conv_residual_feature_extraction_block/conv1d_and__batch_norm_2/batch_normalization_2/batchnorm/sub", "op": "Const", "attr": {"value": {"tensor": {"dtype": "DT_FLOAT", "tensorShape": {"dim": [{"size": "128"}]}}}, "dtype": {"type": "DT_FLOAT"}}}, {"name": "StatefulPartitionedCall/light_chain_align_airr_1/conv_residual_feature_extraction_block/conv1d_and__batch_norm_2/max_pooling1d_2/ExpandDims/dim", "op": "Const", "attr": {"value": {"tensor": {"dtype": "DT_INT32", "tensorShape": {}}}, "dtype": {"type": "DT_INT32"}}}, {"name": "StatefulPartitionedCall/light_chain_align_airr_1/conv_residual_feature_extraction_block/conv1d_and__batch_norm_1/conv1d_3/Conv1D/ExpandDims/dim", "op": "Const", "attr": {"value": {"tensor": {"dtype": "DT_INT32", "tensorShape": {}}}, "dtype": {"type": "DT_INT32"}}}, {"name": "StatefulPartitionedCall/light_chain_align_airr_1/conv_residual_feature_extraction_block/conv1d_and__batch_norm_1/conv1d_3/Conv1D/ExpandDims_1", "op": "Const", "attr": {"value": {"tensor": {"dtype": "DT_FLOAT", "tensorShape": {"dim": [{"size": "1"}, {"size": "3"}, {"size": "128"}, {"size": "128"}]}}}, "dtype": {"type": "DT_FLOAT"}}}, {"name": "StatefulPartitionedCall/light_chain_align_airr_1/conv_residual_feature_extraction_block/conv1d_and__batch_norm_1/conv1d_3/BiasAdd/ReadVariableOp", "op": "Const", "attr": {"value": {"tensor": {"dtype": "DT_FLOAT", "tensorShape": {"dim": [{"size": "128"}]}}}, "dtype": {"type": "DT_FLOAT"}}}, {"name": "StatefulPartitionedCall/light_chain_align_airr_1/conv_residual_feature_extraction_block/conv1d_and__batch_norm_1/conv1d_4/Conv1D/ExpandDims/dim", "op": "Const", "attr": {"value": {"tensor": {"dtype": "DT_INT32", "tensorShape": {}}}, "dtype": {"type": "DT_INT32"}}}, {"name": "StatefulPartitionedCall/light_chain_align_airr_1/conv_residual_feature_extraction_block/conv1d_and__batch_norm_1/conv1d_4/Conv1D/ExpandDims_1", "op": "Const", "attr": {"value": {"tensor": {"dtype": "DT_FLOAT", "tensorShape": {"dim": [{"size": "1"}, {"size": "3"}, {"size": "128"}, {"size": "128"}]}}}, "dtype": {"type": "DT_FLOAT"}}}, {"name": "StatefulPartitionedCall/light_chain_align_airr_1/conv_residual_feature_extraction_block/conv1d_and__batch_norm_1/conv1d_4/BiasAdd/ReadVariableOp", "op": "Const", "attr": {"value": {"tensor": {"dtype": "DT_FLOAT", "tensorShape": {"dim": [{"size": "128"}]}}}, "dtype": {"type": "DT_FLOAT"}}}, {"name": "StatefulPartitionedCall/light_chain_align_airr_1/conv_residual_feature_extraction_block/conv1d_and__batch_norm_1/conv1d_5/Conv1D/ExpandDims/dim", "op": "Const", "attr": {"value": {"tensor": {"dtype": "DT_INT32", "tensorShape": {}}}, "dtype": {"type": "DT_INT32"}}}, {"name": "StatefulPartitionedCall/light_chain_align_airr_1/conv_residual_feature_extraction_block/conv1d_and__batch_norm_1/conv1d_5/Conv1D/ExpandDims_1", "op": "Const", "attr": {"value": {"tensor": {"dtype": "DT_FLOAT", "tensorShape": {"dim": [{"size": "1"}, {"size": "3"}, {"size": "128"}, {"size": "128"}]}}}, "dtype": {"type": "DT_FLOAT"}}}, {"name": "StatefulPartitionedCall/light_chain_align_airr_1/conv_residual_feature_extraction_block/conv1d_and__batch_norm_1/conv1d_5/BiasAdd/ReadVariableOp", "op": "Const", "attr": {"value": {"tensor": {"dtype": "DT_FLOAT", "tensorShape": {"dim": [{"size": "128"}]}}}, "dtype": {"type": "DT_FLOAT"}}}, {"name": "StatefulPartitionedCall/light_chain_align_airr_1/conv_residual_feature_extraction_block/conv1d_and__batch_norm_1/batch_normalization_1/batchnorm/mul", "op": "Const", "attr": {"value": {"tensor": {"dtype": "DT_FLOAT", "tensorShape": {"dim": [{"size": "128"}]}}}, "dtype": {"type": "DT_FLOAT"}}}, {"name": "StatefulPartitionedCall/light_chain_align_airr_1/conv_residual_feature_extraction_block/conv1d_and__batch_norm_1/batch_normalization_1/batchnorm/sub", "op": "Const", "attr": {"value": {"tensor": {"dtype": "DT_FLOAT", "tensorShape": {"dim": [{"size": "128"}]}}}, "dtype": {"type": "DT_FLOAT"}}}, {"name": "StatefulPartitionedCall/light_chain_align_airr_1/conv_residual_feature_extraction_block/conv1d_and__batch_norm_1/max_pooling1d_1/ExpandDims/dim", "op": "Const", "attr": {"value": {"tensor": {"dtype": "DT_INT32", "tensorShape": {}}}, "dtype": {"type": "DT_INT32"}}}, {"name": "StatefulPartitionedCall/light_chain_align_airr_1/conv_residual_feature_extraction_block/conv1d_and__batch_norm/conv1d/Conv1D/ExpandDims/dim", "op": "Const", "attr": {"value": {"tensor": {"dtype": "DT_INT32", "tensorShape": {}}}, "dtype": {"type": "DT_INT32"}}}, {"name": "StatefulPartitionedCall/light_chain_align_airr_1/conv_residual_feature_extraction_block/conv1d_and__batch_norm/conv1d/Conv1D/ExpandDims_1", "op": "Const", "attr": {"value": {"tensor": {"dtype": "DT_FLOAT", "tensorShape": {"dim": [{"size": "1"}, {"size": "3"}, {"size": "32"}, {"size": "128"}]}}}, "dtype": {"type": "DT_FLOAT"}}}, {"name": "StatefulPartitionedCall/light_chain_align_airr_1/conv_residual_feature_extraction_block/conv1d_and__batch_norm/conv1d/BiasAdd/ReadVariableOp", "op": "Const", "attr": {"value": {"tensor": {"dtype": "DT_FLOAT", "tensorShape": {"dim": [{"size": "128"}]}}}, "dtype": {"type": "DT_FLOAT"}}}, {"name": "StatefulPartitionedCall/light_chain_align_airr_1/conv_residual_feature_extraction_block/conv1d_and__batch_norm/conv1d_1/Conv1D/ExpandDims/dim", "op": "Const", "attr": {"value": {"tensor": {"dtype": "DT_INT32", "tensorShape": {}}}, "dtype": {"type": "DT_INT32"}}}, {"name": "StatefulPartitionedCall/light_chain_align_airr_1/conv_residual_feature_extraction_block/conv1d_and__batch_norm/conv1d_1/Conv1D/ExpandDims_1", "op": "Const", "attr": {"value": {"tensor": {"dtype": "DT_FLOAT", "tensorShape": {"dim": [{"size": "1"}, {"size": "3"}, {"size": "128"}, {"size": "128"}]}}}, "dtype": {"type": "DT_FLOAT"}}}, {"name": "StatefulPartitionedCall/light_chain_align_airr_1/conv_residual_feature_extraction_block/conv1d_and__batch_norm/conv1d_1/BiasAdd/ReadVariableOp", "op": "Const", "attr": {"value": {"tensor": {"dtype": "DT_FLOAT", "tensorShape": {"dim": [{"size": "128"}]}}}, "dtype": {"type": "DT_FLOAT"}}}, {"name": "StatefulPartitionedCall/light_chain_align_airr_1/conv_residual_feature_extraction_block/conv1d_and__batch_norm/conv1d_2/Conv1D/ExpandDims/dim", "op": "Const", "attr": {"value": {"tensor": {"dtype": "DT_INT32", "tensorShape": {}}}, "dtype": {"type": "DT_INT32"}}}, {"name": "StatefulPartitionedCall/light_chain_align_airr_1/conv_residual_feature_extraction_block/conv1d_and__batch_norm/conv1d_2/Conv1D/ExpandDims_1", "op": "Const", "attr": {"value": {"tensor": {"dtype": "DT_FLOAT", "tensorShape": {"dim": [{"size": "1"}, {"size": "3"}, {"size": "128"}, {"size": "128"}]}}}, "dtype": {"type": "DT_FLOAT"}}}, {"name": "StatefulPartitionedCall/light_chain_align_airr_1/conv_residual_feature_extraction_block/conv1d_and__batch_norm/conv1d_2/BiasAdd/ReadVariableOp", "op": "Const", "attr": {"value": {"tensor": {"dtype": "DT_FLOAT", "tensorShape": {"dim": [{"size": "128"}]}}}, "dtype": {"type": "DT_FLOAT"}}}, {"name": "StatefulPartitionedCall/light_chain_align_airr_1/conv_residual_feature_extraction_block/conv1d_and__batch_norm/batch_normalization/batchnorm/mul", "op": "Const", "attr": {"value": {"tensor": {"dtype": "DT_FLOAT", "tensorShape": {"dim": [{"size": "128"}]}}}, "dtype": {"type": "DT_FLOAT"}}}, {"name": "StatefulPartitionedCall/light_chain_align_airr_1/conv_residual_feature_extraction_block/conv1d_and__batch_norm/batch_normalization/batchnorm/sub", "op": "Const", "attr": {"value": {"tensor": {"dtype": "DT_FLOAT", "tensorShape": {"dim": [{"size": "128"}]}}}, "dtype": {"type": "DT_FLOAT"}}}, {"name": "StatefulPartitionedCall/light_chain_align_airr_1/conv_residual_feature_extraction_block/conv1d_and__batch_norm/max_pooling1d/ExpandDims/dim", "op": "Const", "attr": {"value": {"tensor": {"dtype": "DT_INT32", "tensorShape": {}}}, "dtype": {"type": "DT_INT32"}}}, {"name": "StatefulPartitionedCall/light_chain_align_airr_1/conv_residual_feature_extraction_block/conv1d_18/Conv1D/ExpandDims/dim", "op": "Const", "attr": {"value": {"tensor": {"dtype": "DT_INT32", "tensorShape": {}}}, "dtype": {"type": "DT_INT32"}}}, {"name": "StatefulPartitionedCall/light_chain_align_airr_1/conv_residual_feature_extraction_block/conv1d_18/Conv1D/ExpandDims_1", "op": "Const", "attr": {"value": {"tensor": {"dtype": "DT_FLOAT", "tensorShape": {"dim": [{"size": "1"}, {"size": "5"}, {"size": "32"}, {"size": "128"}]}}}, "dtype": {"type": "DT_FLOAT"}}}, {"name": "StatefulPartitionedCall/light_chain_align_airr_1/conv_residual_feature_extraction_block/conv1d_18/BiasAdd/ReadVariableOp", "op": "Const", "attr": {"value": {"tensor": {"dtype": "DT_FLOAT", "tensorShape": {"dim": [{"size": "128"}]}}}, "dtype": {"type": "DT_FLOAT"}}}, {"name": "StatefulPartitionedCall/light_chain_align_airr_1/conv_residual_feature_extraction_block/max_pooling1d_6/ExpandDims/dim", "op": "Const", "attr": {"value": {"tensor": {"dtype": "DT_INT32", "tensorShape": {}}}, "dtype": {"type": "DT_INT32"}}}, {"name": "StatefulPartitionedCall/light_chain_align_airr_1/conv_residual_feature_extraction_block/max_pooling1d_6/ExpandDims_1/dim", "op": "Const", "attr": {"value": {"tensor": {"dtype": "DT_INT32", "tensorShape": {}}}, "dtype": {"type": "DT_INT32"}}}, {"name": "StatefulPartitionedCall/light_chain_align_airr_1/conv_residual_feature_extraction_block/max_pooling1d_7/ExpandDims/dim", "op": "Const", "attr": {"value": {"tensor": {"dtype": "DT_INT32", "tensorShape": {}}}, "dtype": {"type": "DT_INT32"}}}, {"name": "StatefulPartitionedCall/light_chain_align_airr_1/conv_residual_feature_extraction_block/max_pooling1d_8/ExpandDims/dim", "op": "Const", "attr": {"value": {"tensor": {"dtype": "DT_INT32", "tensorShape": {}}}, "dtype": {"type": "DT_INT32"}}}, {"name": "StatefulPartitionedCall/light_chain_align_airr_1/conv_residual_feature_extraction_block/max_pooling1d_9/ExpandDims/dim", "op": "Const", "attr": {"value": {"tensor": {"dtype": "DT_INT32", "tensorShape": {}}}, "dtype": {"type": "DT_INT32"}}}, {"name": "StatefulPartitionedCall/light_chain_align_airr_1/conv_residual_feature_extraction_block/max_pooling1d_10/ExpandDims/dim", "op": "Const", "attr": {"value": {"tensor": {"dtype": "DT_INT32", "tensorShape": {}}}, "dtype": {"type": "DT_INT32"}}}, {"name": "StatefulPartitionedCall/light_chain_align_airr_1/conv_residual_feature_extraction_block/max_pooling1d_11/ExpandDims/dim", "op": "Const", "attr": {"value": {"tensor": {"dtype": "DT_INT32", "tensorShape": {}}}, "dtype": {"type": "DT_INT32"}}}, {"name": "StatefulPartitionedCall/light_chain_align_airr_1/conv_residual_feature_extraction_block/flatten/Const", "op": "Const", "attr": {"value": {"tensor": {"dtype": "DT_INT32", "tensorShape": {"dim": [{"size": "2"}]}}}, "dtype": {"type": "DT_INT32"}}}, {"name": "StatefulPartitionedCall/light_chain_align_airr_1/conv_residual_feature_extraction_block/dense/MatMul/ReadVariableOp", "op": "Const", "attr": {"value": {"tensor": {"dtype": "DT_FLOAT", "tensorShape": {"dim": [{"size": "512"}, {"size": "576"}]}}}, "dtype": {"type": "DT_FLOAT"}}}, {"name": "StatefulPartitionedCall/light_chain_align_airr_1/conv_residual_feature_extraction_block/dense/BiasAdd/ReadVariableOp", "op": "Const", "attr": {"value": {"tensor": {"dtype": "DT_FLOAT", "tensorShape": {"dim": [{"size": "576"}]}}}, "dtype": {"type": "DT_FLOAT"}}}, {"name": "StatefulPartitionedCall/light_chain_align_airr_1/chain_type_mid/MatMul/ReadVariableOp", "op": "Const", "attr": {"value": {"tensor": {"dtype": "DT_FLOAT", "tensorShape": {"dim": [{"size": "576"}, {"size": "576"}]}}}, "dtype": {"type": "DT_FLOAT"}}}, {"name": "StatefulPartitionedCall/light_chain_align_airr_1/chain_type_mid/BiasAdd/ReadVariableOp", "op": "Const", "attr": {"value": {"tensor": {"dtype": "DT_FLOAT", "tensorShape": {"dim": [{"size": "576"}]}}}, "dtype": {"type": "DT_FLOAT"}}}, {"name": "ConstantFolding/StatefulPartitionedCall/light_chain_align_airr_1/chain_type_mid/Gelu/truediv_recip", "op": "Const", "attr": {"value": {"tensor": {"dtype": "DT_FLOAT", "tensorShape": {}}}, "dtype": {"type": "DT_FLOAT"}}}, {"name": "StatefulPartitionedCall/light_chain_align_airr_1/chain_type/MatMul/ReadVariableOp", "op": "Const", "attr": {"value": {"tensor": {"dtype": "DT_FLOAT", "tensorShape": {"dim": [{"size": "576"}, {"size": "1"}]}}}, "dtype": {"type": "DT_FLOAT"}}}, {"name": "StatefulPartitionedCall/light_chain_align_airr_1/chain_type/BiasAdd/ReadVariableOp", "op": "Const", "attr": {"value": {"tensor": {"dtype": "DT_FLOAT", "tensorShape": {"dim": [{"size": "1"}]}}}, "dtype": {"type": "DT_FLOAT"}}}, {"name": "StatefulPartitionedCall/light_chain_align_airr_1/conv_residual_feature_extraction_block_3/conv1d_and__batch_norm_19/conv1d_60/Conv1D/ExpandDims/dim", "op": "Const", "attr": {"value": {"tensor": {"dtype": "DT_INT32", "tensorShape": {}}}, "dtype": {"type": "DT_INT32"}}}, {"name": "StatefulPartitionedCall/light_chain_align_airr_1/conv_residual_feature_extraction_block_3/conv1d_and__batch_norm_19/conv1d_60/Conv1D/ExpandDims_1", "op": "Const", "attr": {"value": {"tensor": {"dtype": "DT_FLOAT", "tensorShape": {"dim": [{"size": "1"}, {"size": "2"}, {"size": "128"}, {"size": "128"}]}}}, "dtype": {"type": "DT_FLOAT"}}}, {"name": "StatefulPartitionedCall/light_chain_align_airr_1/conv_residual_feature_extraction_block_3/conv1d_and__batch_norm_19/conv1d_60/BiasAdd/ReadVariableOp", "op": "Const", "attr": {"value": {"tensor": {"dtype": "DT_FLOAT", "tensorShape": {"dim": [{"size": "128"}]}}}, "dtype": {"type": "DT_FLOAT"}}}, {"name": "StatefulPartitionedCall/light_chain_align_airr_1/conv_residual_feature_extraction_block_3/conv1d_and__batch_norm_19/conv1d_61/Conv1D/ExpandDims/dim", "op": "Const", "attr": {"value": {"tensor": {"dtype": "DT_INT32", "tensorShape": {}}}, "dtype": {"type": "DT_INT32"}}}, {"name": "StatefulPartitionedCall/light_chain_align_airr_1/conv_residual_feature_extraction_block_3/conv1d_and__batch_norm_19/conv1d_61/Conv1D/ExpandDims_1", "op": "Const", "attr": {"value": {"tensor": {"dtype": "DT_FLOAT", "tensorShape": {"dim": [{"size": "1"}, {"size": "2"}, {"size": "128"}, {"size": "128"}]}}}, "dtype": {"type": "DT_FLOAT"}}}, {"name": "StatefulPartitionedCall/light_chain_align_airr_1/conv_residual_feature_extraction_block_3/conv1d_and__batch_norm_19/conv1d_61/BiasAdd/ReadVariableOp", "op": "Const", "attr": {"value": {"tensor": {"dtype": "DT_FLOAT", "tensorShape": {"dim": [{"size": "128"}]}}}, "dtype": {"type": "DT_FLOAT"}}}, {"name": "StatefulPartitionedCall/light_chain_align_airr_1/conv_residual_feature_extraction_block_3/conv1d_and__batch_norm_19/conv1d_62/Conv1D/ExpandDims/dim", "op": "Const", "attr": {"value": {"tensor": {"dtype": "DT_INT32", "tensorShape": {}}}, "dtype": {"type": "DT_INT32"}}}, {"name": "StatefulPartitionedCall/light_chain_align_airr_1/conv_residual_feature_extraction_block_3/conv1d_and__batch_norm_19/conv1d_62/Conv1D/ExpandDims_1", "op": "Const", "attr": {"value": {"tensor": {"dtype": "DT_FLOAT", "tensorShape": {"dim": [{"size": "1"}, {"size": "2"}, {"size": "128"}, {"size": "128"}]}}}, "dtype": {"type": "DT_FLOAT"}}}, {"name": "StatefulPartitionedCall/light_chain_align_airr_1/conv_residual_feature_extraction_block_3/conv1d_and__batch_norm_19/conv1d_62/BiasAdd/ReadVariableOp", "op": "Const", "attr": {"value": {"tensor": {"dtype": "DT_FLOAT", "tensorShape": {"dim": [{"size": "128"}]}}}, "dtype": {"type": "DT_FLOAT"}}}, {"name": "StatefulPartitionedCall/light_chain_align_airr_1/conv_residual_feature_extraction_block_3/conv1d_and__batch_norm_19/batch_normalization_19/batchnorm/mul", "op": "Const", "attr": {"value": {"tensor": {"dtype": "DT_FLOAT", "tensorShape": {"dim": [{"size": "128"}]}}}, "dtype": {"type": "DT_FLOAT"}}}, {"name": "StatefulPartitionedCall/light_chain_align_airr_1/conv_residual_feature_extraction_block_3/conv1d_and__batch_norm_19/batch_normalization_19/batchnorm/sub", "op": "Const", "attr": {"value": {"tensor": {"dtype": "DT_FLOAT", "tensorShape": {"dim": [{"size": "128"}]}}}, "dtype": {"type": "DT_FLOAT"}}}, {"name": "StatefulPartitionedCall/light_chain_align_airr_1/conv_residual_feature_extraction_block_3/conv1d_and__batch_norm_19/max_pooling1d_33/ExpandDims/dim", "op": "Const", "attr": {"value": {"tensor": {"dtype": "DT_INT32", "tensorShape": {}}}, "dtype": {"type": "DT_INT32"}}}, {"name": "StatefulPartitionedCall/light_chain_align_airr_1/conv_residual_feature_extraction_block_3/conv1d_and__batch_norm_18/conv1d_57/Conv1D/ExpandDims/dim", "op": "Const", "attr": {"value": {"tensor": {"dtype": "DT_INT32", "tensorShape": {}}}, "dtype": {"type": "DT_INT32"}}}, {"name": "StatefulPartitionedCall/light_chain_align_airr_1/conv_residual_feature_extraction_block_3/conv1d_and__batch_norm_18/conv1d_57/Conv1D/ExpandDims_1", "op": "Const", "attr": {"value": {"tensor": {"dtype": "DT_FLOAT", "tensorShape": {"dim": [{"size": "1"}, {"size": "2"}, {"size": "128"}, {"size": "128"}]}}}, "dtype": {"type": "DT_FLOAT"}}}, {"name": "StatefulPartitionedCall/light_chain_align_airr_1/conv_residual_feature_extraction_block_3/conv1d_and__batch_norm_18/conv1d_57/BiasAdd/ReadVariableOp", "op": "Const", "attr": {"value": {"tensor": {"dtype": "DT_FLOAT", "tensorShape": {"dim": [{"size": "128"}]}}}, "dtype": {"type": "DT_FLOAT"}}}, {"name": "StatefulPartitionedCall/light_chain_align_airr_1/conv_residual_feature_extraction_block_3/conv1d_and__batch_norm_18/conv1d_58/Conv1D/ExpandDims/dim", "op": "Const", "attr": {"value": {"tensor": {"dtype": "DT_INT32", "tensorShape": {}}}, "dtype": {"type": "DT_INT32"}}}, {"name": "StatefulPartitionedCall/light_chain_align_airr_1/conv_residual_feature_extraction_block_3/conv1d_and__batch_norm_18/conv1d_58/Conv1D/ExpandDims_1", "op": "Const", "attr": {"value": {"tensor": {"dtype": "DT_FLOAT", "tensorShape": {"dim": [{"size": "1"}, {"size": "2"}, {"size": "128"}, {"size": "128"}]}}}, "dtype": {"type": "DT_FLOAT"}}}, {"name": "StatefulPartitionedCall/light_chain_align_airr_1/conv_residual_feature_extraction_block_3/conv1d_and__batch_norm_18/conv1d_58/BiasAdd/ReadVariableOp", "op": "Const", "attr": {"value": {"tensor": {"dtype": "DT_FLOAT", "tensorShape": {"dim": [{"size": "128"}]}}}, "dtype": {"type": "DT_FLOAT"}}}, {"name": "StatefulPartitionedCall/light_chain_align_airr_1/conv_residual_feature_extraction_block_3/conv1d_and__batch_norm_18/conv1d_59/Conv1D/ExpandDims/dim", "op": "Const", "attr": {"value": {"tensor": {"dtype": "DT_INT32", "tensorShape": {}}}, "dtype": {"type": "DT_INT32"}}}, {"name": "StatefulPartitionedCall/light_chain_align_airr_1/conv_residual_feature_extraction_block_3/conv1d_and__batch_norm_18/conv1d_59/Conv1D/ExpandDims_1", "op": "Const", "attr": {"value": {"tensor": {"dtype": "DT_FLOAT", "tensorShape": {"dim": [{"size": "1"}, {"size": "2"}, {"size": "128"}, {"size": "128"}]}}}, "dtype": {"type": "DT_FLOAT"}}}, {"name": "StatefulPartitionedCall/light_chain_align_airr_1/conv_residual_feature_extraction_block_3/conv1d_and__batch_norm_18/conv1d_59/BiasAdd/ReadVariableOp", "op": "Const", "attr": {"value": {"tensor": {"dtype": "DT_FLOAT", "tensorShape": {"dim": [{"size": "128"}]}}}, "dtype": {"type": "DT_FLOAT"}}}, {"name": "StatefulPartitionedCall/light_chain_align_airr_1/conv_residual_feature_extraction_block_3/conv1d_and__batch_norm_18/batch_normalization_18/batchnorm/mul", "op": "Const", "attr": {"value": {"tensor": {"dtype": "DT_FLOAT", "tensorShape": {"dim": [{"size": "128"}]}}}, "dtype": {"type": "DT_FLOAT"}}}, {"name": "StatefulPartitionedCall/light_chain_align_airr_1/conv_residual_feature_extraction_block_3/conv1d_and__batch_norm_18/batch_normalization_18/batchnorm/sub", "op": "Const", "attr": {"value": {"tensor": {"dtype": "DT_FLOAT", "tensorShape": {"dim": [{"size": "128"}]}}}, "dtype": {"type": "DT_FLOAT"}}}, {"name": "StatefulPartitionedCall/light_chain_align_airr_1/conv_residual_feature_extraction_block_3/conv1d_and__batch_norm_18/max_pooling1d_32/ExpandDims/dim", "op": "Const", "attr": {"value": {"tensor": {"dtype": "DT_INT32", "tensorShape": {}}}, "dtype": {"type": "DT_INT32"}}}, {"name": "StatefulPartitionedCall/light_chain_align_airr_1/conv_residual_feature_extraction_block_3/conv1d_and__batch_norm_17/conv1d_54/Conv1D/ExpandDims/dim", "op": "Const", "attr": {"value": {"tensor": {"dtype": "DT_INT32", "tensorShape": {}}}, "dtype": {"type": "DT_INT32"}}}, {"name": "StatefulPartitionedCall/light_chain_align_airr_1/conv_residual_feature_extraction_block_3/conv1d_and__batch_norm_17/conv1d_54/Conv1D/ExpandDims_1", "op": "Const", "attr": {"value": {"tensor": {"dtype": "DT_FLOAT", "tensorShape": {"dim": [{"size": "1"}, {"size": "2"}, {"size": "128"}, {"size": "128"}]}}}, "dtype": {"type": "DT_FLOAT"}}}, {"name": "StatefulPartitionedCall/light_chain_align_airr_1/conv_residual_feature_extraction_block_3/conv1d_and__batch_norm_17/conv1d_54/BiasAdd/ReadVariableOp", "op": "Const", "attr": {"value": {"tensor": {"dtype": "DT_FLOAT", "tensorShape": {"dim": [{"size": "128"}]}}}, "dtype": {"type": "DT_FLOAT"}}}, {"name": "StatefulPartitionedCall/light_chain_align_airr_1/conv_residual_feature_extraction_block_3/conv1d_and__batch_norm_17/conv1d_55/Conv1D/ExpandDims/dim", "op": "Const", "attr": {"value": {"tensor": {"dtype": "DT_INT32", "tensorShape": {}}}, "dtype": {"type": "DT_INT32"}}}, {"name": "StatefulPartitionedCall/light_chain_align_airr_1/conv_residual_feature_extraction_block_3/conv1d_and__batch_norm_17/conv1d_55/Conv1D/ExpandDims_1", "op": "Const", "attr": {"value": {"tensor": {"dtype": "DT_FLOAT", "tensorShape": {"dim": [{"size": "1"}, {"size": "2"}, {"size": "128"}, {"size": "128"}]}}}, "dtype": {"type": "DT_FLOAT"}}}, {"name": "StatefulPartitionedCall/light_chain_align_airr_1/conv_residual_feature_extraction_block_3/conv1d_and__batch_norm_17/conv1d_55/BiasAdd/ReadVariableOp", "op": "Const", "attr": {"value": {"tensor": {"dtype": "DT_FLOAT", "tensorShape": {"dim": [{"size": "128"}]}}}, "dtype": {"type": "DT_FLOAT"}}}, {"name": "StatefulPartitionedCall/light_chain_align_airr_1/conv_residual_feature_extraction_block_3/conv1d_and__batch_norm_17/conv1d_56/Conv1D/ExpandDims/dim", "op": "Const", "attr": {"value": {"tensor": {"dtype": "DT_INT32", "tensorShape": {}}}, "dtype": {"type": "DT_INT32"}}}, {"name": "StatefulPartitionedCall/light_chain_align_airr_1/conv_residual_feature_extraction_block_3/conv1d_and__batch_norm_17/conv1d_56/Conv1D/ExpandDims_1", "op": "Const", "attr": {"value": {"tensor": {"dtype": "DT_FLOAT", "tensorShape": {"dim": [{"size": "1"}, {"size": "2"}, {"size": "128"}, {"size": "128"}]}}}, "dtype": {"type": "DT_FLOAT"}}}, {"name": "StatefulPartitionedCall/light_chain_align_airr_1/conv_residual_feature_extraction_block_3/conv1d_and__batch_norm_17/conv1d_56/BiasAdd/ReadVariableOp", "op": "Const", "attr": {"value": {"tensor": {"dtype": "DT_FLOAT", "tensorShape": {"dim": [{"size": "128"}]}}}, "dtype": {"type": "DT_FLOAT"}}}, {"name": "StatefulPartitionedCall/light_chain_align_airr_1/conv_residual_feature_extraction_block_3/conv1d_and__batch_norm_17/batch_normalization_17/batchnorm/mul", "op": "Const", "attr": {"value": {"tensor": {"dtype": "DT_FLOAT", "tensorShape": {"dim": [{"size": "128"}]}}}, "dtype": {"type": "DT_FLOAT"}}}, {"name": "StatefulPartitionedCall/light_chain_align_airr_1/conv_residual_feature_extraction_block_3/conv1d_and__batch_norm_17/batch_normalization_17/batchnorm/sub", "op": "Const", "attr": {"value": {"tensor": {"dtype": "DT_FLOAT", "tensorShape": {"dim": [{"size": "128"}]}}}, "dtype": {"type": "DT_FLOAT"}}}, {"name": "StatefulPartitionedCall/light_chain_align_airr_1/conv_residual_feature_extraction_block_3/conv1d_and__batch_norm_17/max_pooling1d_31/ExpandDims/dim", "op": "Const", "attr": {"value": {"tensor": {"dtype": "DT_INT32", "tensorShape": {}}}, "dtype": {"type": "DT_INT32"}}}, {"name": "StatefulPartitionedCall/light_chain_align_airr_1/conv_residual_feature_extraction_block_3/conv1d_and__batch_norm_16/conv1d_51/Conv1D/ExpandDims/dim", "op": "Const", "attr": {"value": {"tensor": {"dtype": "DT_INT32", "tensorShape": {}}}, "dtype": {"type": "DT_INT32"}}}, {"name": "StatefulPartitionedCall/light_chain_align_airr_1/conv_residual_feature_extraction_block_3/conv1d_and__batch_norm_16/conv1d_51/Conv1D/ExpandDims_1", "op": "Const", "attr": {"value": {"tensor": {"dtype": "DT_FLOAT", "tensorShape": {"dim": [{"size": "1"}, {"size": "3"}, {"size": "128"}, {"size": "128"}]}}}, "dtype": {"type": "DT_FLOAT"}}}, {"name": "StatefulPartitionedCall/light_chain_align_airr_1/conv_residual_feature_extraction_block_3/conv1d_and__batch_norm_16/conv1d_51/BiasAdd/ReadVariableOp", "op": "Const", "attr": {"value": {"tensor": {"dtype": "DT_FLOAT", "tensorShape": {"dim": [{"size": "128"}]}}}, "dtype": {"type": "DT_FLOAT"}}}, {"name": "StatefulPartitionedCall/light_chain_align_airr_1/conv_residual_feature_extraction_block_3/conv1d_and__batch_norm_16/conv1d_52/Conv1D/ExpandDims/dim", "op": "Const", "attr": {"value": {"tensor": {"dtype": "DT_INT32", "tensorShape": {}}}, "dtype": {"type": "DT_INT32"}}}, {"name": "StatefulPartitionedCall/light_chain_align_airr_1/conv_residual_feature_extraction_block_3/conv1d_and__batch_norm_16/conv1d_52/Conv1D/ExpandDims_1", "op": "Const", "attr": {"value": {"tensor": {"dtype": "DT_FLOAT", "tensorShape": {"dim": [{"size": "1"}, {"size": "3"}, {"size": "128"}, {"size": "128"}]}}}, "dtype": {"type": "DT_FLOAT"}}}, {"name": "StatefulPartitionedCall/light_chain_align_airr_1/conv_residual_feature_extraction_block_3/conv1d_and__batch_norm_16/conv1d_52/BiasAdd/ReadVariableOp", "op": "Const", "attr": {"value": {"tensor": {"dtype": "DT_FLOAT", "tensorShape": {"dim": [{"size": "128"}]}}}, "dtype": {"type": "DT_FLOAT"}}}, {"name": "StatefulPartitionedCall/light_chain_align_airr_1/conv_residual_feature_extraction_block_3/conv1d_and__batch_norm_16/conv1d_53/Conv1D/ExpandDims/dim", "op": "Const", "attr": {"value": {"tensor": {"dtype": "DT_INT32", "tensorShape": {}}}, "dtype": {"type": "DT_INT32"}}}, {"name": "StatefulPartitionedCall/light_chain_align_airr_1/conv_residual_feature_extraction_block_3/conv1d_and__batch_norm_16/conv1d_53/Conv1D/ExpandDims_1", "op": "Const", "attr": {"value": {"tensor": {"dtype": "DT_FLOAT", "tensorShape": {"dim": [{"size": "1"}, {"size": "3"}, {"size": "128"}, {"size": "128"}]}}}, "dtype": {"type": "DT_FLOAT"}}}, {"name": "StatefulPartitionedCall/light_chain_align_airr_1/conv_residual_feature_extraction_block_3/conv1d_and__batch_norm_16/conv1d_53/BiasAdd/ReadVariableOp", "op": "Const", "attr": {"value": {"tensor": {"dtype": "DT_FLOAT", "tensorShape": {"dim": [{"size": "128"}]}}}, "dtype": {"type": "DT_FLOAT"}}}, {"name": "StatefulPartitionedCall/light_chain_align_airr_1/conv_residual_feature_extraction_block_3/conv1d_and__batch_norm_16/batch_normalization_16/batchnorm/mul", "op": "Const", "attr": {"value": {"tensor": {"dtype": "DT_FLOAT", "tensorShape": {"dim": [{"size": "128"}]}}}, "dtype": {"type": "DT_FLOAT"}}}, {"name": "StatefulPartitionedCall/light_chain_align_airr_1/conv_residual_feature_extraction_block_3/conv1d_and__batch_norm_16/batch_normalization_16/batchnorm/sub", "op": "Const", "attr": {"value": {"tensor": {"dtype": "DT_FLOAT", "tensorShape": {"dim": [{"size": "128"}]}}}, "dtype": {"type": "DT_FLOAT"}}}, {"name": "StatefulPartitionedCall/light_chain_align_airr_1/conv_residual_feature_extraction_block_3/conv1d_and__batch_norm_16/max_pooling1d_30/ExpandDims/dim", "op": "Const", "attr": {"value": {"tensor": {"dtype": "DT_INT32", "tensorShape": {}}}, "dtype": {"type": "DT_INT32"}}}, {"name": "StatefulPartitionedCall/light_chain_align_airr_1/conv_residual_feature_extraction_block_3/conv1d_and__batch_norm_15/conv1d_48/Conv1D/ExpandDims/dim", "op": "Const", "attr": {"value": {"tensor": {"dtype": "DT_INT32", "tensorShape": {}}}, "dtype": {"type": "DT_INT32"}}}, {"name": "StatefulPartitionedCall/light_chain_align_airr_1/conv_residual_feature_extraction_block_3/conv1d_and__batch_norm_15/conv1d_48/Conv1D/ExpandDims_1", "op": "Const", "attr": {"value": {"tensor": {"dtype": "DT_FLOAT", "tensorShape": {"dim": [{"size": "1"}, {"size": "3"}, {"size": "128"}, {"size": "128"}]}}}, "dtype": {"type": "DT_FLOAT"}}}, {"name": "StatefulPartitionedCall/light_chain_align_airr_1/conv_residual_feature_extraction_block_3/conv1d_and__batch_norm_15/conv1d_48/BiasAdd/ReadVariableOp", "op": "Const", "attr": {"value": {"tensor": {"dtype": "DT_FLOAT", "tensorShape": {"dim": [{"size": "128"}]}}}, "dtype": {"type": "DT_FLOAT"}}}, {"name": "StatefulPartitionedCall/light_chain_align_airr_1/conv_residual_feature_extraction_block_3/conv1d_and__batch_norm_15/conv1d_49/Conv1D/ExpandDims/dim", "op": "Const", "attr": {"value": {"tensor": {"dtype": "DT_INT32", "tensorShape": {}}}, "dtype": {"type": "DT_INT32"}}}, {"name": "StatefulPartitionedCall/light_chain_align_airr_1/conv_residual_feature_extraction_block_3/conv1d_and__batch_norm_15/conv1d_49/Conv1D/ExpandDims_1", "op": "Const", "attr": {"value": {"tensor": {"dtype": "DT_FLOAT", "tensorShape": {"dim": [{"size": "1"}, {"size": "3"}, {"size": "128"}, {"size": "128"}]}}}, "dtype": {"type": "DT_FLOAT"}}}, {"name": "StatefulPartitionedCall/light_chain_align_airr_1/conv_residual_feature_extraction_block_3/conv1d_and__batch_norm_15/conv1d_49/BiasAdd/ReadVariableOp", "op": "Const", "attr": {"value": {"tensor": {"dtype": "DT_FLOAT", "tensorShape": {"dim": [{"size": "128"}]}}}, "dtype": {"type": "DT_FLOAT"}}}, {"name": "StatefulPartitionedCall/light_chain_align_airr_1/conv_residual_feature_extraction_block_3/conv1d_and__batch_norm_15/conv1d_50/Conv1D/ExpandDims/dim", "op": "Const", "attr": {"value": {"tensor": {"dtype": "DT_INT32", "tensorShape": {}}}, "dtype": {"type": "DT_INT32"}}}, {"name": "StatefulPartitionedCall/light_chain_align_airr_1/conv_residual_feature_extraction_block_3/conv1d_and__batch_norm_15/conv1d_50/Conv1D/ExpandDims_1", "op": "Const", "attr": {"value": {"tensor": {"dtype": "DT_FLOAT", "tensorShape": {"dim": [{"size": "1"}, {"size": "3"}, {"size": "128"}, {"size": "128"}]}}}, "dtype": {"type": "DT_FLOAT"}}}, {"name": "StatefulPartitionedCall/light_chain_align_airr_1/conv_residual_feature_extraction_block_3/conv1d_and__batch_norm_15/conv1d_50/BiasAdd/ReadVariableOp", "op": "Const", "attr": {"value": {"tensor": {"dtype": "DT_FLOAT", "tensorShape": {"dim": [{"size": "128"}]}}}, "dtype": {"type": "DT_FLOAT"}}}, {"name": "StatefulPartitionedCall/light_chain_align_airr_1/conv_residual_feature_extraction_block_3/conv1d_and__batch_norm_15/batch_normalization_15/batchnorm/mul", "op": "Const", "attr": {"value": {"tensor": {"dtype": "DT_FLOAT", "tensorShape": {"dim": [{"size": "128"}]}}}, "dtype": {"type": "DT_FLOAT"}}}, {"name": "StatefulPartitionedCall/light_chain_align_airr_1/conv_residual_feature_extraction_block_3/conv1d_and__batch_norm_15/batch_normalization_15/batchnorm/sub", "op": "Const", "attr": {"value": {"tensor": {"dtype": "DT_FLOAT", "tensorShape": {"dim": [{"size": "128"}]}}}, "dtype": {"type": "DT_FLOAT"}}}, {"name": "StatefulPartitionedCall/light_chain_align_airr_1/conv_residual_feature_extraction_block_3/conv1d_and__batch_norm_15/max_pooling1d_29/ExpandDims/dim", "op": "Const", "attr": {"value": {"tensor": {"dtype": "DT_INT32", "tensorShape": {}}}, "dtype": {"type": "DT_INT32"}}}, {"name": "StatefulPartitionedCall/light_chain_align_airr_1/conv_residual_feature_extraction_block_3/conv1d_and__batch_norm_14/conv1d_45/Conv1D/ExpandDims/dim", "op": "Const", "attr": {"value": {"tensor": {"dtype": "DT_INT32", "tensorShape": {}}}, "dtype": {"type": "DT_INT32"}}}, {"name": "StatefulPartitionedCall/light_chain_align_airr_1/conv_residual_feature_extraction_block_3/conv1d_and__batch_norm_14/conv1d_45/Conv1D/ExpandDims_1", "op": "Const", "attr": {"value": {"tensor": {"dtype": "DT_FLOAT", "tensorShape": {"dim": [{"size": "1"}, {"size": "3"}, {"size": "32"}, {"size": "128"}]}}}, "dtype": {"type": "DT_FLOAT"}}}, {"name": "StatefulPartitionedCall/light_chain_align_airr_1/conv_residual_feature_extraction_block_3/conv1d_and__batch_norm_14/conv1d_45/BiasAdd/ReadVariableOp", "op": "Const", "attr": {"value": {"tensor": {"dtype": "DT_FLOAT", "tensorShape": {"dim": [{"size": "128"}]}}}, "dtype": {"type": "DT_FLOAT"}}}, {"name": "StatefulPartitionedCall/light_chain_align_airr_1/conv_residual_feature_extraction_block_3/conv1d_and__batch_norm_14/conv1d_46/Conv1D/ExpandDims/dim", "op": "Const", "attr": {"value": {"tensor": {"dtype": "DT_INT32", "tensorShape": {}}}, "dtype": {"type": "DT_INT32"}}}, {"name": "StatefulPartitionedCall/light_chain_align_airr_1/conv_residual_feature_extraction_block_3/conv1d_and__batch_norm_14/conv1d_46/Conv1D/ExpandDims_1", "op": "Const", "attr": {"value": {"tensor": {"dtype": "DT_FLOAT", "tensorShape": {"dim": [{"size": "1"}, {"size": "3"}, {"size": "128"}, {"size": "128"}]}}}, "dtype": {"type": "DT_FLOAT"}}}, {"name": "StatefulPartitionedCall/light_chain_align_airr_1/conv_residual_feature_extraction_block_3/conv1d_and__batch_norm_14/conv1d_46/BiasAdd/ReadVariableOp", "op": "Const", "attr": {"value": {"tensor": {"dtype": "DT_FLOAT", "tensorShape": {"dim": [{"size": "128"}]}}}, "dtype": {"type": "DT_FLOAT"}}}, {"name": "StatefulPartitionedCall/light_chain_align_airr_1/conv_residual_feature_extraction_block_3/conv1d_and__batch_norm_14/conv1d_47/Conv1D/ExpandDims/dim", "op": "Const", "attr": {"value": {"tensor": {"dtype": "DT_INT32", "tensorShape": {}}}, "dtype": {"type": "DT_INT32"}}}, {"name": "StatefulPartitionedCall/light_chain_align_airr_1/conv_residual_feature_extraction_block_3/conv1d_and__batch_norm_14/conv1d_47/Conv1D/ExpandDims_1", "op": "Const", "attr": {"value": {"tensor": {"dtype": "DT_FLOAT", "tensorShape": {"dim": [{"size": "1"}, {"size": "3"}, {"size": "128"}, {"size": "128"}]}}}, "dtype": {"type": "DT_FLOAT"}}}, {"name": "StatefulPartitionedCall/light_chain_align_airr_1/conv_residual_feature_extraction_block_3/conv1d_and__batch_norm_14/conv1d_47/BiasAdd/ReadVariableOp", "op": "Const", "attr": {"value": {"tensor": {"dtype": "DT_FLOAT", "tensorShape": {"dim": [{"size": "128"}]}}}, "dtype": {"type": "DT_FLOAT"}}}, {"name": "StatefulPartitionedCall/light_chain_align_airr_1/conv_residual_feature_extraction_block_3/conv1d_and__batch_norm_14/batch_normalization_14/batchnorm/mul", "op": "Const", "attr": {"value": {"tensor": {"dtype": "DT_FLOAT", "tensorShape": {"dim": [{"size": "128"}]}}}, "dtype": {"type": "DT_FLOAT"}}}, {"name": "StatefulPartitionedCall/light_chain_align_airr_1/conv_residual_feature_extraction_block_3/conv1d_and__batch_norm_14/batch_normalization_14/batchnorm/sub", "op": "Const", "attr": {"value": {"tensor": {"dtype": "DT_FLOAT", "tensorShape": {"dim": [{"size": "128"}]}}}, "dtype": {"type": "DT_FLOAT"}}}, {"name": "StatefulPartitionedCall/light_chain_align_airr_1/conv_residual_feature_extraction_block_3/conv1d_and__batch_norm_14/max_pooling1d_28/ExpandDims/dim", "op": "Const", "attr": {"value": {"tensor": {"dtype": "DT_INT32", "tensorShape": {}}}, "dtype": {"type": "DT_INT32"}}}, {"name": "StatefulPartitionedCall/light_chain_align_airr_1/cutout_layer/Max/reduction_indices", "op": "Const", "attr": {"value": {"tensor": {"dtype": "DT_INT32", "tensorShape": {}}}, "dtype": {"type": "DT_INT32"}}}, {"name": "StatefulPartitionedCall/light_chain_align_airr_1/cutout_layer/clip_by_value/Minimum/y", "op": "Const", "attr": {"value": {"tensor": {"dtype": "DT_FLOAT", "tensorShape": {}}}, "dtype": {"type": "DT_FLOAT"}}}, {"name": "StatefulPartitionedCall/light_chain_align_airr_1/cutout_layer/clip_by_value/y", "op": "Const", "attr": {"value": {"tensor": {"dtype": "DT_FLOAT", "tensorShape": {}}}, "dtype": {"type": "DT_FLOAT"}}}, {"name": "StatefulPartitionedCall/light_chain_align_airr_1/cutout_layer/Cast", "op": "Const", "attr": {"value": {"tensor": {"dtype": "DT_FLOAT", "tensorShape": {"dim": [{"size": "576"}]}}}, "dtype": {"type": "DT_FLOAT"}}}, {"name": "StatefulPartitionedCall/light_chain_align_airr_1/cutout_layer/Max_1/reduction_indices", "op": "Const", "attr": {"value": {"tensor": {"dtype": "DT_INT32", "tensorShape": {}}}, "dtype": {"type": "DT_INT32"}}}, {"name": "StatefulPartitionedCall/light_chain_align_airr_1/cutout_layer/clip_by_value_1/Minimum/y", "op": "Const", "attr": {"value": {"tensor": {"dtype": "DT_FLOAT", "tensorShape": {}}}, "dtype": {"type": "DT_FLOAT"}}}, {"name": "StatefulPartitionedCall/light_chain_align_airr_1/cutout_layer/clip_by_value_1/y", "op": "Const", "attr": {"value": {"tensor": {"dtype": "DT_FLOAT", "tensorShape": {}}}, "dtype": {"type": "DT_FLOAT"}}}, {"name": "StatefulPartitionedCall/light_chain_align_airr_1/ExpandDims/dim", "op": "Const", "attr": {"value": {"tensor": {"dtype": "DT_INT32", "tensorShape": {}}}, "dtype": {"type": "DT_INT32"}}}, {"name": "StatefulPartitionedCall/light_chain_align_airr_1/conv_residual_feature_extraction_block_3/conv1d_63/Conv1D/ExpandDims/dim", "op": "Const", "attr": {"value": {"tensor": {"dtype": "DT_INT32", "tensorShape": {}}}, "dtype": {"type": "DT_INT32"}}}, {"name": "StatefulPartitionedCall/light_chain_align_airr_1/conv_residual_feature_extraction_block_3/conv1d_63/Conv1D/ExpandDims_1", "op": "Const", "attr": {"value": {"tensor": {"dtype": "DT_FLOAT", "tensorShape": {"dim": [{"size": "1"}, {"size": "5"}, {"size": "32"}, {"size": "128"}]}}}, "dtype": {"type": "DT_FLOAT"}}}, {"name": "StatefulPartitionedCall/light_chain_align_airr_1/conv_residual_feature_extraction_block_3/conv1d_63/BiasAdd/ReadVariableOp", "op": "Const", "attr": {"value": {"tensor": {"dtype": "DT_FLOAT", "tensorShape": {"dim": [{"size": "128"}]}}}, "dtype": {"type": "DT_FLOAT"}}}, {"name": "StatefulPartitionedCall/light_chain_align_airr_1/conv_residual_feature_extraction_block_3/max_pooling1d_34/ExpandDims/dim", "op": "Const", "attr": {"value": {"tensor": {"dtype": "DT_INT32", "tensorShape": {}}}, "dtype": {"type": "DT_INT32"}}}, {"name": "StatefulPartitionedCall/light_chain_align_airr_1/conv_residual_feature_extraction_block_3/max_pooling1d_34/ExpandDims_1/dim", "op": "Const", "attr": {"value": {"tensor": {"dtype": "DT_INT32", "tensorShape": {}}}, "dtype": {"type": "DT_INT32"}}}, {"name": "StatefulPartitionedCall/light_chain_align_airr_1/conv_residual_feature_extraction_block_3/max_pooling1d_35/ExpandDims/dim", "op": "Const", "attr": {"value": {"tensor": {"dtype": "DT_INT32", "tensorShape": {}}}, "dtype": {"type": "DT_INT32"}}}, {"name": "StatefulPartitionedCall/light_chain_align_airr_1/conv_residual_feature_extraction_block_3/max_pooling1d_36/ExpandDims/dim", "op": "Const", "attr": {"value": {"tensor": {"dtype": "DT_INT32", "tensorShape": {}}}, "dtype": {"type": "DT_INT32"}}}, {"name": "StatefulPartitionedCall/light_chain_align_airr_1/conv_residual_feature_extraction_block_3/max_pooling1d_37/ExpandDims/dim", "op": "Const", "attr": {"value": {"tensor": {"dtype": "DT_INT32", "tensorShape": {}}}, "dtype": {"type": "DT_INT32"}}}, {"name": "StatefulPartitionedCall/light_chain_align_airr_1/conv_residual_feature_extraction_block_3/max_pooling1d_38/ExpandDims/dim", "op": "Const", "attr": {"value": {"tensor": {"dtype": "DT_INT32", "tensorShape": {}}}, "dtype": {"type": "DT_INT32"}}}, {"name": "StatefulPartitionedCall/light_chain_align_airr_1/conv_residual_feature_extraction_block_3/max_pooling1d_39/ExpandDims/dim", "op": "Const", "attr": {"value": {"tensor": {"dtype": "DT_INT32", "tensorShape": {}}}, "dtype": {"type": "DT_INT32"}}}, {"name": "StatefulPartitionedCall/light_chain_align_airr_1/conv_residual_feature_extraction_block_3/flatten_3/Const", "op": "Const", "attr": {"value": {"tensor": {"dtype": "DT_INT32", "tensorShape": {"dim": [{"size": "2"}]}}}, "dtype": {"type": "DT_INT32"}}}, {"name": "StatefulPartitionedCall/light_chain_align_airr_1/conv_residual_feature_extraction_block_3/dense_3/MatMul/ReadVariableOp", "op": "Const", "attr": {"value": {"tensor": {"dtype": "DT_FLOAT", "tensorShape": {"dim": [{"size": "512"}, {"size": "576"}]}}}, "dtype": {"type": "DT_FLOAT"}}}, {"name": "StatefulPartitionedCall/light_chain_align_airr_1/conv_residual_feature_extraction_block_3/dense_3/BiasAdd/ReadVariableOp", "op": "Const", "attr": {"value": {"tensor": {"dtype": "DT_FLOAT", "tensorShape": {"dim": [{"size": "576"}]}}}, "dtype": {"type": "DT_FLOAT"}}}, {"name": "StatefulPartitionedCall/light_chain_align_airr_1/v_allele_middle/MatMul/ReadVariableOp", "op": "Const", "attr": {"value": {"tensor": {"dtype": "DT_FLOAT", "tensorShape": {"dim": [{"size": "576"}, {"size": "288"}]}}}, "dtype": {"type": "DT_FLOAT"}}}, {"name": "StatefulPartitionedCall/light_chain_align_airr_1/v_allele_middle/BiasAdd/ReadVariableOp", "op": "Const", "attr": {"value": {"tensor": {"dtype": "DT_FLOAT", "tensorShape": {"dim": [{"size": "288"}]}}}, "dtype": {"type": "DT_FLOAT"}}}, {"name": "StatefulPartitionedCall/light_chain_align_airr_1/v_allele/MatMul/ReadVariableOp", "op": "Const", "attr": {"value": {"tensor": {"dtype": "DT_FLOAT", "tensorShape": {"dim": [{"size": "288"}, {"size": "144"}]}}}, "dtype": {"type": "DT_FLOAT"}}}, {"name": "StatefulPartitionedCall/light_chain_align_airr_1/v_allele/BiasAdd/ReadVariableOp", "op": "Const", "attr": {"value": {"tensor": {"dtype": "DT_FLOAT", "tensorShape": {"dim": [{"size": "144"}]}}}, "dtype": {"type": "DT_FLOAT"}}}, {"name": "StatefulPartitionedCall/light_chain_align_airr_1/v_end/Gelu/mul/x", "op": "Const", "attr": {"value": {"tensor": {"dtype": "DT_FLOAT", "tensorShape": {}}}, "dtype": {"type": "DT_FLOAT"}}}, {"name": "StatefulPartitionedCall/light_chain_align_airr_1/v_end/Gelu/add/x", "op": "Const", "attr": {"value": {"tensor": {"dtype": "DT_FLOAT", "tensorShape": {}}}, "dtype": {"type": "DT_FLOAT"}}}, {"name": "StatefulPartitionedCall/light_chain_align_airr_1/v_end/MatMul/ReadVariableOp", "op": "Const", "attr": {"value": {"tensor": {"dtype": "DT_FLOAT", "tensorShape": {"dim": [{"size": "576"}, {"size": "1"}]}}}, "dtype": {"type": "DT_FLOAT"}}}, {"name": "StatefulPartitionedCall/light_chain_align_airr_1/v_end/BiasAdd/ReadVariableOp", "op": "Const", "attr": {"value": {"tensor": {"dtype": "DT_FLOAT", "tensorShape": {"dim": [{"size": "1"}]}}}, "dtype": {"type": "DT_FLOAT"}}}, {"name": "ConstantFolding/StatefulPartitionedCall/light_chain_align_airr_1/v_end/Gelu/truediv_recip", "op": "Const", "attr": {"value": {"tensor": {"dtype": "DT_FLOAT", "tensorShape": {}}}, "dtype": {"type": "DT_FLOAT"}}}, {"name": "StatefulPartitionedCall/light_chain_align_airr_1/v_start/Gelu/mul/x", "op": "Const", "attr": {"value": {"tensor": {"dtype": "DT_FLOAT", "tensorShape": {}}}, "dtype": {"type": "DT_FLOAT"}}}, {"name": "StatefulPartitionedCall/light_chain_align_airr_1/v_start/Gelu/add/x", "op": "Const", "attr": {"value": {"tensor": {"dtype": "DT_FLOAT", "tensorShape": {}}}, "dtype": {"type": "DT_FLOAT"}}}, {"name": "StatefulPartitionedCall/light_chain_align_airr_1/conv_residual_feature_extraction_block_1/conv1d_and__batch_norm_9/conv1d_28/Conv1D/ExpandDims/dim", "op": "Const", "attr": {"value": {"tensor": {"dtype": "DT_INT32", "tensorShape": {}}}, "dtype": {"type": "DT_INT32"}}}, {"name": "StatefulPartitionedCall/light_chain_align_airr_1/conv_residual_feature_extraction_block_1/conv1d_and__batch_norm_9/conv1d_28/Conv1D/ExpandDims_1", "op": "Const", "attr": {"value": {"tensor": {"dtype": "DT_FLOAT", "tensorShape": {"dim": [{"size": "1"}, {"size": "2"}, {"size": "128"}, {"size": "128"}]}}}, "dtype": {"type": "DT_FLOAT"}}}, {"name": "StatefulPartitionedCall/light_chain_align_airr_1/conv_residual_feature_extraction_block_1/conv1d_and__batch_norm_9/conv1d_28/BiasAdd/ReadVariableOp", "op": "Const", "attr": {"value": {"tensor": {"dtype": "DT_FLOAT", "tensorShape": {"dim": [{"size": "128"}]}}}, "dtype": {"type": "DT_FLOAT"}}}, {"name": "StatefulPartitionedCall/light_chain_align_airr_1/conv_residual_feature_extraction_block_1/conv1d_and__batch_norm_9/conv1d_29/Conv1D/ExpandDims/dim", "op": "Const", "attr": {"value": {"tensor": {"dtype": "DT_INT32", "tensorShape": {}}}, "dtype": {"type": "DT_INT32"}}}, {"name": "StatefulPartitionedCall/light_chain_align_airr_1/conv_residual_feature_extraction_block_1/conv1d_and__batch_norm_9/conv1d_29/Conv1D/ExpandDims_1", "op": "Const", "attr": {"value": {"tensor": {"dtype": "DT_FLOAT", "tensorShape": {"dim": [{"size": "1"}, {"size": "2"}, {"size": "128"}, {"size": "128"}]}}}, "dtype": {"type": "DT_FLOAT"}}}, {"name": "StatefulPartitionedCall/light_chain_align_airr_1/conv_residual_feature_extraction_block_1/conv1d_and__batch_norm_9/conv1d_29/BiasAdd/ReadVariableOp", "op": "Const", "attr": {"value": {"tensor": {"dtype": "DT_FLOAT", "tensorShape": {"dim": [{"size": "128"}]}}}, "dtype": {"type": "DT_FLOAT"}}}, {"name": "StatefulPartitionedCall/light_chain_align_airr_1/conv_residual_feature_extraction_block_1/conv1d_and__batch_norm_9/conv1d_30/Conv1D/ExpandDims/dim", "op": "Const", "attr": {"value": {"tensor": {"dtype": "DT_INT32", "tensorShape": {}}}, "dtype": {"type": "DT_INT32"}}}, {"name": "StatefulPartitionedCall/light_chain_align_airr_1/conv_residual_feature_extraction_block_1/conv1d_and__batch_norm_9/conv1d_30/Conv1D/ExpandDims_1", "op": "Const", "attr": {"value": {"tensor": {"dtype": "DT_FLOAT", "tensorShape": {"dim": [{"size": "1"}, {"size": "2"}, {"size": "128"}, {"size": "128"}]}}}, "dtype": {"type": "DT_FLOAT"}}}, {"name": "StatefulPartitionedCall/light_chain_align_airr_1/conv_residual_feature_extraction_block_1/conv1d_and__batch_norm_9/conv1d_30/BiasAdd/ReadVariableOp", "op": "Const", "attr": {"value": {"tensor": {"dtype": "DT_FLOAT", "tensorShape": {"dim": [{"size": "128"}]}}}, "dtype": {"type": "DT_FLOAT"}}}, {"name": "StatefulPartitionedCall/light_chain_align_airr_1/conv_residual_feature_extraction_block_1/conv1d_and__batch_norm_9/batch_normalization_9/batchnorm/mul", "op": "Const", "attr": {"value": {"tensor": {"dtype": "DT_FLOAT", "tensorShape": {"dim": [{"size": "128"}]}}}, "dtype": {"type": "DT_FLOAT"}}}, {"name": "StatefulPartitionedCall/light_chain_align_airr_1/conv_residual_feature_extraction_block_1/conv1d_and__batch_norm_9/batch_normalization_9/batchnorm/sub", "op": "Const", "attr": {"value": {"tensor": {"dtype": "DT_FLOAT", "tensorShape": {"dim": [{"size": "128"}]}}}, "dtype": {"type": "DT_FLOAT"}}}, {"name": "StatefulPartitionedCall/light_chain_align_airr_1/conv_residual_feature_extraction_block_1/conv1d_and__batch_norm_9/max_pooling1d_15/ExpandDims/dim", "op": "Const", "attr": {"value": {"tensor": {"dtype": "DT_INT32", "tensorShape": {}}}, "dtype": {"type": "DT_INT32"}}}, {"name": "StatefulPartitionedCall/light_chain_align_airr_1/conv_residual_feature_extraction_block_1/conv1d_and__batch_norm_8/conv1d_25/Conv1D/ExpandDims/dim", "op": "Const", "attr": {"value": {"tensor": {"dtype": "DT_INT32", "tensorShape": {}}}, "dtype": {"type": "DT_INT32"}}}, {"name": "StatefulPartitionedCall/light_chain_align_airr_1/conv_residual_feature_extraction_block_1/conv1d_and__batch_norm_8/conv1d_25/Conv1D/ExpandDims_1", "op": "Const", "attr": {"value": {"tensor": {"dtype": "DT_FLOAT", "tensorShape": {"dim": [{"size": "1"}, {"size": "3"}, {"size": "128"}, {"size": "128"}]}}}, "dtype": {"type": "DT_FLOAT"}}}, {"name": "StatefulPartitionedCall/light_chain_align_airr_1/conv_residual_feature_extraction_block_1/conv1d_and__batch_norm_8/conv1d_25/BiasAdd/ReadVariableOp", "op": "Const", "attr": {"value": {"tensor": {"dtype": "DT_FLOAT", "tensorShape": {"dim": [{"size": "128"}]}}}, "dtype": {"type": "DT_FLOAT"}}}, {"name": "StatefulPartitionedCall/light_chain_align_airr_1/conv_residual_feature_extraction_block_1/conv1d_and__batch_norm_8/conv1d_26/Conv1D/ExpandDims/dim", "op": "Const", "attr": {"value": {"tensor": {"dtype": "DT_INT32", "tensorShape": {}}}, "dtype": {"type": "DT_INT32"}}}, {"name": "StatefulPartitionedCall/light_chain_align_airr_1/conv_residual_feature_extraction_block_1/conv1d_and__batch_norm_8/conv1d_26/Conv1D/ExpandDims_1", "op": "Const", "attr": {"value": {"tensor": {"dtype": "DT_FLOAT", "tensorShape": {"dim": [{"size": "1"}, {"size": "3"}, {"size": "128"}, {"size": "128"}]}}}, "dtype": {"type": "DT_FLOAT"}}}, {"name": "StatefulPartitionedCall/light_chain_align_airr_1/conv_residual_feature_extraction_block_1/conv1d_and__batch_norm_8/conv1d_26/BiasAdd/ReadVariableOp", "op": "Const", "attr": {"value": {"tensor": {"dtype": "DT_FLOAT", "tensorShape": {"dim": [{"size": "128"}]}}}, "dtype": {"type": "DT_FLOAT"}}}, {"name": "StatefulPartitionedCall/light_chain_align_airr_1/conv_residual_feature_extraction_block_1/conv1d_and__batch_norm_8/conv1d_27/Conv1D/ExpandDims/dim", "op": "Const", "attr": {"value": {"tensor": {"dtype": "DT_INT32", "tensorShape": {}}}, "dtype": {"type": "DT_INT32"}}}, {"name": "StatefulPartitionedCall/light_chain_align_airr_1/conv_residual_feature_extraction_block_1/conv1d_and__batch_norm_8/conv1d_27/Conv1D/ExpandDims_1", "op": "Const", "attr": {"value": {"tensor": {"dtype": "DT_FLOAT", "tensorShape": {"dim": [{"size": "1"}, {"size": "3"}, {"size": "128"}, {"size": "128"}]}}}, "dtype": {"type": "DT_FLOAT"}}}, {"name": "StatefulPartitionedCall/light_chain_align_airr_1/conv_residual_feature_extraction_block_1/conv1d_and__batch_norm_8/conv1d_27/BiasAdd/ReadVariableOp", "op": "Const", "attr": {"value": {"tensor": {"dtype": "DT_FLOAT", "tensorShape": {"dim": [{"size": "128"}]}}}, "dtype": {"type": "DT_FLOAT"}}}, {"name": "StatefulPartitionedCall/light_chain_align_airr_1/conv_residual_feature_extraction_block_1/conv1d_and__batch_norm_8/batch_normalization_8/batchnorm/mul", "op": "Const", "attr": {"value": {"tensor": {"dtype": "DT_FLOAT", "tensorShape": {"dim": [{"size": "128"}]}}}, "dtype": {"type": "DT_FLOAT"}}}, {"name": "StatefulPartitionedCall/light_chain_align_airr_1/conv_residual_feature_extraction_block_1/conv1d_and__batch_norm_8/batch_normalization_8/batchnorm/sub", "op": "Const", "attr": {"value": {"tensor": {"dtype": "DT_FLOAT", "tensorShape": {"dim": [{"size": "128"}]}}}, "dtype": {"type": "DT_FLOAT"}}}, {"name": "StatefulPartitionedCall/light_chain_align_airr_1/conv_residual_feature_extraction_block_1/conv1d_and__batch_norm_8/max_pooling1d_14/ExpandDims/dim", "op": "Const", "attr": {"value": {"tensor": {"dtype": "DT_INT32", "tensorShape": {}}}, "dtype": {"type": "DT_INT32"}}}, {"name": "StatefulPartitionedCall/light_chain_align_airr_1/conv_residual_feature_extraction_block_1/conv1d_and__batch_norm_7/conv1d_22/Conv1D/ExpandDims/dim", "op": "Const", "attr": {"value": {"tensor": {"dtype": "DT_INT32", "tensorShape": {}}}, "dtype": {"type": "DT_INT32"}}}, {"name": "StatefulPartitionedCall/light_chain_align_airr_1/conv_residual_feature_extraction_block_1/conv1d_and__batch_norm_7/conv1d_22/Conv1D/ExpandDims_1", "op": "Const", "attr": {"value": {"tensor": {"dtype": "DT_FLOAT", "tensorShape": {"dim": [{"size": "1"}, {"size": "3"}, {"size": "128"}, {"size": "128"}]}}}, "dtype": {"type": "DT_FLOAT"}}}, {"name": "StatefulPartitionedCall/light_chain_align_airr_1/conv_residual_feature_extraction_block_1/conv1d_and__batch_norm_7/conv1d_22/BiasAdd/ReadVariableOp", "op": "Const", "attr": {"value": {"tensor": {"dtype": "DT_FLOAT", "tensorShape": {"dim": [{"size": "128"}]}}}, "dtype": {"type": "DT_FLOAT"}}}, {"name": "StatefulPartitionedCall/light_chain_align_airr_1/conv_residual_feature_extraction_block_1/conv1d_and__batch_norm_7/conv1d_23/Conv1D/ExpandDims/dim", "op": "Const", "attr": {"value": {"tensor": {"dtype": "DT_INT32", "tensorShape": {}}}, "dtype": {"type": "DT_INT32"}}}, {"name": "StatefulPartitionedCall/light_chain_align_airr_1/conv_residual_feature_extraction_block_1/conv1d_and__batch_norm_7/conv1d_23/Conv1D/ExpandDims_1", "op": "Const", "attr": {"value": {"tensor": {"dtype": "DT_FLOAT", "tensorShape": {"dim": [{"size": "1"}, {"size": "3"}, {"size": "128"}, {"size": "128"}]}}}, "dtype": {"type": "DT_FLOAT"}}}, {"name": "StatefulPartitionedCall/light_chain_align_airr_1/conv_residual_feature_extraction_block_1/conv1d_and__batch_norm_7/conv1d_23/BiasAdd/ReadVariableOp", "op": "Const", "attr": {"value": {"tensor": {"dtype": "DT_FLOAT", "tensorShape": {"dim": [{"size": "128"}]}}}, "dtype": {"type": "DT_FLOAT"}}}, {"name": "StatefulPartitionedCall/light_chain_align_airr_1/conv_residual_feature_extraction_block_1/conv1d_and__batch_norm_7/conv1d_24/Conv1D/ExpandDims/dim", "op": "Const", "attr": {"value": {"tensor": {"dtype": "DT_INT32", "tensorShape": {}}}, "dtype": {"type": "DT_INT32"}}}, {"name": "StatefulPartitionedCall/light_chain_align_airr_1/conv_residual_feature_extraction_block_1/conv1d_and__batch_norm_7/conv1d_24/Conv1D/ExpandDims_1", "op": "Const", "attr": {"value": {"tensor": {"dtype": "DT_FLOAT", "tensorShape": {"dim": [{"size": "1"}, {"size": "3"}, {"size": "128"}, {"size": "128"}]}}}, "dtype": {"type": "DT_FLOAT"}}}, {"name": "StatefulPartitionedCall/light_chain_align_airr_1/conv_residual_feature_extraction_block_1/conv1d_and__batch_norm_7/conv1d_24/BiasAdd/ReadVariableOp", "op": "Const", "attr": {"value": {"tensor": {"dtype": "DT_FLOAT", "tensorShape": {"dim": [{"size": "128"}]}}}, "dtype": {"type": "DT_FLOAT"}}}, {"name": "StatefulPartitionedCall/light_chain_align_airr_1/conv_residual_feature_extraction_block_1/conv1d_and__batch_norm_7/batch_normalization_7/batchnorm/mul", "op": "Const", "attr": {"value": {"tensor": {"dtype": "DT_FLOAT", "tensorShape": {"dim": [{"size": "128"}]}}}, "dtype": {"type": "DT_FLOAT"}}}, {"name": "StatefulPartitionedCall/light_chain_align_airr_1/conv_residual_feature_extraction_block_1/conv1d_and__batch_norm_7/batch_normalization_7/batchnorm/sub", "op": "Const", "attr": {"value": {"tensor": {"dtype": "DT_FLOAT", "tensorShape": {"dim": [{"size": "128"}]}}}, "dtype": {"type": "DT_FLOAT"}}}, {"name": "StatefulPartitionedCall/light_chain_align_airr_1/conv_residual_feature_extraction_block_1/conv1d_and__batch_norm_7/max_pooling1d_13/ExpandDims/dim", "op": "Const", "attr": {"value": {"tensor": {"dtype": "DT_INT32", "tensorShape": {}}}, "dtype": {"type": "DT_INT32"}}}, {"name": "StatefulPartitionedCall/light_chain_align_airr_1/conv_residual_feature_extraction_block_1/conv1d_and__batch_norm_6/conv1d_19/Conv1D/ExpandDims/dim", "op": "Const", "attr": {"value": {"tensor": {"dtype": "DT_INT32", "tensorShape": {}}}, "dtype": {"type": "DT_INT32"}}}, {"name": "StatefulPartitionedCall/light_chain_align_airr_1/conv_residual_feature_extraction_block_1/conv1d_and__batch_norm_6/conv1d_19/Conv1D/ExpandDims_1", "op": "Const", "attr": {"value": {"tensor": {"dtype": "DT_FLOAT", "tensorShape": {"dim": [{"size": "1"}, {"size": "3"}, {"size": "32"}, {"size": "128"}]}}}, "dtype": {"type": "DT_FLOAT"}}}, {"name": "StatefulPartitionedCall/light_chain_align_airr_1/conv_residual_feature_extraction_block_1/conv1d_and__batch_norm_6/conv1d_19/BiasAdd/ReadVariableOp", "op": "Const", "attr": {"value": {"tensor": {"dtype": "DT_FLOAT", "tensorShape": {"dim": [{"size": "128"}]}}}, "dtype": {"type": "DT_FLOAT"}}}, {"name": "StatefulPartitionedCall/light_chain_align_airr_1/conv_residual_feature_extraction_block_1/conv1d_and__batch_norm_6/conv1d_20/Conv1D/ExpandDims/dim", "op": "Const", "attr": {"value": {"tensor": {"dtype": "DT_INT32", "tensorShape": {}}}, "dtype": {"type": "DT_INT32"}}}, {"name": "StatefulPartitionedCall/light_chain_align_airr_1/conv_residual_feature_extraction_block_1/conv1d_and__batch_norm_6/conv1d_20/Conv1D/ExpandDims_1", "op": "Const", "attr": {"value": {"tensor": {"dtype": "DT_FLOAT", "tensorShape": {"dim": [{"size": "1"}, {"size": "3"}, {"size": "128"}, {"size": "128"}]}}}, "dtype": {"type": "DT_FLOAT"}}}, {"name": "StatefulPartitionedCall/light_chain_align_airr_1/conv_residual_feature_extraction_block_1/conv1d_and__batch_norm_6/conv1d_20/BiasAdd/ReadVariableOp", "op": "Const", "attr": {"value": {"tensor": {"dtype": "DT_FLOAT", "tensorShape": {"dim": [{"size": "128"}]}}}, "dtype": {"type": "DT_FLOAT"}}}, {"name": "StatefulPartitionedCall/light_chain_align_airr_1/conv_residual_feature_extraction_block_1/conv1d_and__batch_norm_6/conv1d_21/Conv1D/ExpandDims/dim", "op": "Const", "attr": {"value": {"tensor": {"dtype": "DT_INT32", "tensorShape": {}}}, "dtype": {"type": "DT_INT32"}}}, {"name": "StatefulPartitionedCall/light_chain_align_airr_1/conv_residual_feature_extraction_block_1/conv1d_and__batch_norm_6/conv1d_21/Conv1D/ExpandDims_1", "op": "Const", "attr": {"value": {"tensor": {"dtype": "DT_FLOAT", "tensorShape": {"dim": [{"size": "1"}, {"size": "3"}, {"size": "128"}, {"size": "128"}]}}}, "dtype": {"type": "DT_FLOAT"}}}, {"name": "StatefulPartitionedCall/light_chain_align_airr_1/conv_residual_feature_extraction_block_1/conv1d_and__batch_norm_6/conv1d_21/BiasAdd/ReadVariableOp", "op": "Const", "attr": {"value": {"tensor": {"dtype": "DT_FLOAT", "tensorShape": {"dim": [{"size": "128"}]}}}, "dtype": {"type": "DT_FLOAT"}}}, {"name": "StatefulPartitionedCall/light_chain_align_airr_1/conv_residual_feature_extraction_block_1/conv1d_and__batch_norm_6/batch_normalization_6/batchnorm/mul", "op": "Const", "attr": {"value": {"tensor": {"dtype": "DT_FLOAT", "tensorShape": {"dim": [{"size": "128"}]}}}, "dtype": {"type": "DT_FLOAT"}}}, {"name": "StatefulPartitionedCall/light_chain_align_airr_1/conv_residual_feature_extraction_block_1/conv1d_and__batch_norm_6/batch_normalization_6/batchnorm/sub", "op": "Const", "attr": {"value": {"tensor": {"dtype": "DT_FLOAT", "tensorShape": {"dim": [{"size": "128"}]}}}, "dtype": {"type": "DT_FLOAT"}}}, {"name": "StatefulPartitionedCall/light_chain_align_airr_1/conv_residual_feature_extraction_block_1/conv1d_and__batch_norm_6/max_pooling1d_12/ExpandDims/dim", "op": "Const", "attr": {"value": {"tensor": {"dtype": "DT_INT32", "tensorShape": {}}}, "dtype": {"type": "DT_INT32"}}}, {"name": "unknown_0", "op": "Const", "attr": {"value": {"tensor": {"dtype": "DT_FLOAT", "tensorShape": {"dim": [{"size": "6"}, {"size": "32"}]}}}, "dtype": {"type": "DT_FLOAT"}}}, {"name": "StatefulPartitionedCall/light_chain_align_airr_1/Reshape/shape", "op": "Const", "attr": {"value": {"tensor": {"dtype": "DT_INT32", "tensorShape": {"dim": [{"size": "2"}]}}}, "dtype": {"type": "DT_INT32"}}}, {"name": "StatefulPartitionedCall/light_chain_align_airr_1/token_and_position_embedding/embedding/embedding_lookup/axis", "op": "Const", "attr": {"value": {"tensor": {"dtype": "DT_INT32", "tensorShape": {}}}, "dtype": {"type": "DT_INT32"}}}, {"name": "StatefulPartitionedCall/light_chain_align_airr_1/token_and_position_embedding/embedding_1/embedding_lookup", "op": "Const", "attr": {"value": {"tensor": {"dtype": "DT_FLOAT", "tensorShape": {"dim": [{"size": "576"}, {"size": "32"}]}}}, "dtype": {"type": "DT_FLOAT"}}}, {"name": "StatefulPartitionedCall/light_chain_align_airr_1/conv_residual_feature_extraction_block_1/conv1d_31/Conv1D/ExpandDims/dim", "op": "Const", "attr": {"value": {"tensor": {"dtype": "DT_INT32", "tensorShape": {}}}, "dtype": {"type": "DT_INT32"}}}, {"name": "StatefulPartitionedCall/light_chain_align_airr_1/conv_residual_feature_extraction_block_1/conv1d_31/Conv1D/ExpandDims_1", "op": "Const", "attr": {"value": {"tensor": {"dtype": "DT_FLOAT", "tensorShape": {"dim": [{"size": "1"}, {"size": "5"}, {"size": "32"}, {"size": "128"}]}}}, "dtype": {"type": "DT_FLOAT"}}}, {"name": "StatefulPartitionedCall/light_chain_align_airr_1/conv_residual_feature_extraction_block_1/conv1d_31/BiasAdd/ReadVariableOp", "op": "Const", "attr": {"value": {"tensor": {"dtype": "DT_FLOAT", "tensorShape": {"dim": [{"size": "128"}]}}}, "dtype": {"type": "DT_FLOAT"}}}, {"name": "StatefulPartitionedCall/light_chain_align_airr_1/conv_residual_feature_extraction_block_1/max_pooling1d_16/ExpandDims/dim", "op": "Const", "attr": {"value": {"tensor": {"dtype": "DT_INT32", "tensorShape": {}}}, "dtype": {"type": "DT_INT32"}}}, {"name": "StatefulPartitionedCall/light_chain_align_airr_1/conv_residual_feature_extraction_block_1/max_pooling1d_16/ExpandDims_1/dim", "op": "Const", "attr": {"value": {"tensor": {"dtype": "DT_INT32", "tensorShape": {}}}, "dtype": {"type": "DT_INT32"}}}, {"name": "StatefulPartitionedCall/light_chain_align_airr_1/conv_residual_feature_extraction_block_1/max_pooling1d_17/ExpandDims/dim", "op": "Const", "attr": {"value": {"tensor": {"dtype": "DT_INT32", "tensorShape": {}}}, "dtype": {"type": "DT_INT32"}}}, {"name": "StatefulPartitionedCall/light_chain_align_airr_1/conv_residual_feature_extraction_block_1/max_pooling1d_18/ExpandDims/dim", "op": "Const", "attr": {"value": {"tensor": {"dtype": "DT_INT32", "tensorShape": {}}}, "dtype": {"type": "DT_INT32"}}}, {"name": "StatefulPartitionedCall/light_chain_align_airr_1/conv_residual_feature_extraction_block_1/max_pooling1d_19/ExpandDims/dim", "op": "Const", "attr": {"value": {"tensor": {"dtype": "DT_INT32", "tensorShape": {}}}, "dtype": {"type": "DT_INT32"}}}, {"name": "StatefulPartitionedCall/light_chain_align_airr_1/conv_residual_feature_extraction_block_1/flatten_1/Const", "op": "Const", "attr": {"value": {"tensor": {"dtype": "DT_INT32", "tensorShape": {"dim": [{"size": "2"}]}}}, "dtype": {"type": "DT_INT32"}}}, {"name": "StatefulPartitionedCall/light_chain_align_airr_1/conv_residual_feature_extraction_block_1/dense_1/MatMul/ReadVariableOp", "op": "Const", "attr": {"value": {"tensor": {"dtype": "DT_FLOAT", "tensorShape": {"dim": [{"size": "2304"}, {"size": "576"}]}}}, "dtype": {"type": "DT_FLOAT"}}}, {"name": "StatefulPartitionedCall/light_chain_align_airr_1/conv_residual_feature_extraction_block_1/dense_1/BiasAdd/ReadVariableOp", "op": "Const", "attr": {"value": {"tensor": {"dtype": "DT_FLOAT", "tensorShape": {"dim": [{"size": "576"}]}}}, "dtype": {"type": "DT_FLOAT"}}}, {"name": "StatefulPartitionedCall/light_chain_align_airr_1/v_start/MatMul/ReadVariableOp", "op": "Const", "attr": {"value": {"tensor": {"dtype": "DT_FLOAT", "tensorShape": {"dim": [{"size": "576"}, {"size": "1"}]}}}, "dtype": {"type": "DT_FLOAT"}}}, {"name": "StatefulPartitionedCall/light_chain_align_airr_1/v_start/BiasAdd/ReadVariableOp", "op": "Const", "attr": {"value": {"tensor": {"dtype": "DT_FLOAT", "tensorShape": {"dim": [{"size": "1"}]}}}, "dtype": {"type": "DT_FLOAT"}}}, {"name": "ConstantFolding/StatefulPartitionedCall/light_chain_align_airr_1/v_start/Gelu/truediv_recip", "op": "Const", "attr": {"value": {"tensor": {"dtype": "DT_FLOAT", "tensorShape": {}}}, "dtype": {"type": "DT_FLOAT"}}}, {"name": "tokenized_sequence", "op": "Placeholder", "attr": {"shape": {"shape": {"dim": [{"size": "-1"}, {"size": "3"}]}}, "dtype": {"type": "DT_INT64"}}}, {"name": "StatefulPartitionedCall/light_chain_align_airr_1/Reshape", "op": "Reshape", "input": ["tokenized_sequence", "StatefulPartitionedCall/light_chain_align_airr_1/Reshape/shape"], "attr": {"T": {"type": "DT_INT64"}, "Tshape": {"type": "DT_INT32"}}}, {"name": "StatefulPartitionedCall/light_chain_align_airr_1/Cast", "op": "Cast", "input": ["StatefulPartitionedCall/light_chain_align_airr_1/Reshape"], "attr": {"SrcT": {"type": "DT_INT64"}, "DstT": {"type": "DT_FLOAT"}, "Truncate": {"b": false}}}, {"name": "StatefulPartitionedCall/light_chain_align_airr_1/token_and_position_embedding/embedding/Cast", "op": "Cast", "input": ["StatefulPartitionedCall/light_chain_align_airr_1/Cast"], "attr": {"SrcT": {"type": "DT_FLOAT"}, "DstT": {"type": "DT_INT32"}, "Truncate": {"b": false}}}, {"name": "StatefulPartitionedCall/light_chain_align_airr_1/token_and_position_embedding/embedding/embedding_lookup", "op": "GatherV2", "input": ["unknown_0", "StatefulPartitionedCall/light_chain_align_airr_1/token_and_position_embedding/embedding/Cast", "StatefulPartitionedCall/light_chain_align_airr_1/token_and_position_embedding/embedding/embedding_lookup/axis"], "attr": {"Tparams": {"type": "DT_FLOAT"}, "Taxis": {"type": "DT_INT32"}, "Tindices": {"type": "DT_INT32"}, "_has_manual_control_dependencies": {"b": true}, "batch_dims": {"i": "0"}}}, {"name": "StatefulPartitionedCall/light_chain_align_airr_1/token_and_position_embedding/add", "op": "AddV2", "input": ["StatefulPartitionedCall/light_chain_align_airr_1/token_and_position_embedding/embedding/embedding_lookup", "StatefulPartitionedCall/light_chain_align_airr_1/token_and_position_embedding/embedding_1/embedding_lookup"], "attr": {"T": {"type": "DT_FLOAT"}}}, {"name": "StatefulPartitionedCall/light_chain_align_airr_1/conv_residual_feature_extraction_block_2/conv1d_and__batch_norm_10/conv1d_32/Conv1D/ExpandDims", "op": "ExpandDims", "input": ["StatefulPartitionedCall/light_chain_align_airr_1/token_and_position_embedding/add", "StatefulPartitionedCall/light_chain_align_airr_1/conv_residual_feature_extraction_block_2/conv1d_and__batch_norm_10/conv1d_32/Conv1D/ExpandDims/dim"], "attr": {"Tdim": {"type": "DT_INT32"}, "T": {"type": "DT_FLOAT"}}}, {"name": "StatefulPartitionedCall/light_chain_align_airr_1/conv_residual_feature_extraction_block_2/conv1d_44/Conv1D/ExpandDims", "op": "ExpandDims", "input": ["StatefulPartitionedCall/light_chain_align_airr_1/token_and_position_embedding/add", "StatefulPartitionedCall/light_chain_align_airr_1/conv_residual_feature_extraction_block_2/conv1d_44/Conv1D/ExpandDims/dim"], "attr": {"Tdim": {"type": "DT_INT32"}, "T": {"type": "DT_FLOAT"}}}, {"name": "StatefulPartitionedCall/light_chain_align_airr_1/conv_residual_feature_extraction_block/conv1d_and__batch_norm/conv1d/Conv1D/ExpandDims", "op": "ExpandDims", "input": ["StatefulPartitionedCall/light_chain_align_airr_1/token_and_position_embedding/add", "StatefulPartitionedCall/light_chain_align_airr_1/conv_residual_feature_extraction_block/conv1d_and__batch_norm/conv1d/Conv1D/ExpandDims/dim"], "attr": {"Tdim": {"type": "DT_INT32"}, "T": {"type": "DT_FLOAT"}}}, {"name": "StatefulPartitionedCall/light_chain_align_airr_1/conv_residual_feature_extraction_block/conv1d_18/Conv1D/ExpandDims", "op": "ExpandDims", "input": ["StatefulPartitionedCall/light_chain_align_airr_1/token_and_position_embedding/add", "StatefulPartitionedCall/light_chain_align_airr_1/conv_residual_feature_extraction_block/conv1d_18/Conv1D/ExpandDims/dim"], "attr": {"Tdim": {"type": "DT_INT32"}, "T": {"type": "DT_FLOAT"}}}, {"name": "StatefulPartitionedCall/light_chain_align_airr_1/conv_residual_feature_extraction_block_1/conv1d_and__batch_norm_6/conv1d_19/Conv1D/ExpandDims", "op": "ExpandDims", "input": ["StatefulPartitionedCall/light_chain_align_airr_1/token_and_position_embedding/add", "StatefulPartitionedCall/light_chain_align_airr_1/conv_residual_feature_extraction_block_1/conv1d_and__batch_norm_6/conv1d_19/Conv1D/ExpandDims/dim"], "attr": {"Tdim": {"type": "DT_INT32"}, "T": {"type": "DT_FLOAT"}}}, {"name": "StatefulPartitionedCall/light_chain_align_airr_1/conv_residual_feature_extraction_block_1/conv1d_31/Conv1D/ExpandDims", "op": "ExpandDims", "input": ["StatefulPartitionedCall/light_chain_align_airr_1/token_and_position_embedding/add", "StatefulPartitionedCall/light_chain_align_airr_1/conv_residual_feature_extraction_block_1/conv1d_31/Conv1D/ExpandDims/dim"], "attr": {"Tdim": {"type": "DT_INT32"}, "T": {"type": "DT_FLOAT"}}}, {"name": "StatefulPartitionedCall/light_chain_align_airr_1/conv_residual_feature_extraction_block_2/conv1d_and__batch_norm_10/conv1d_32/Conv1D", "op": "_FusedConv2D", "input": ["StatefulPartitionedCall/light_chain_align_airr_1/conv_residual_feature_extraction_block_2/conv1d_and__batch_norm_10/conv1d_32/Conv1D/ExpandDims", "StatefulPartitionedCall/light_chain_align_airr_1/conv_residual_feature_extraction_block_2/conv1d_and__batch_norm_10/conv1d_32/Conv1D/ExpandDims_1", "StatefulPartitionedCall/light_chain_align_airr_1/conv_residual_feature_extraction_block_2/conv1d_and__batch_norm_10/conv1d_32/BiasAdd/ReadVariableOp"], "device": "/device:CPU:0", "attr": {"num_host_args": {"i": "0"}, "data_format": {"s": "TkhXQw=="}, "filter_format": {"s": "SFdJTw=="}, "fused_ops": {"list": {"s": ["Qmlhc0FkZA=="]}}, "num_args": {"i": "1"}, "strides": {"list": {"i": ["1", "1", "1", "1"]}}, "TArgs": {"list": {"type": ["DT_FLOAT"]}}, "padding": {"s": "U0FNRQ=="}, "use_cudnn_on_gpu": {"b": true}, "leakyrelu_alpha": {"f": 0.2}, "epsilon": {"f": 0.0}, "T": {"type": "DT_FLOAT"}, "explicit_paddings": {"list": {}}, "dilations": {"list": {"i": ["1", "1", "1", "1"]}}}}, {"name": "StatefulPartitionedCall/light_chain_align_airr_1/conv_residual_feature_extraction_block_2/conv1d_44/Conv1D", "op": "_FusedConv2D", "input": ["StatefulPartitionedCall/light_chain_align_airr_1/conv_residual_feature_extraction_block_2/conv1d_44/Conv1D/ExpandDims", "StatefulPartitionedCall/light_chain_align_airr_1/conv_residual_feature_extraction_block_2/conv1d_44/Conv1D/ExpandDims_1", "StatefulPartitionedCall/light_chain_align_airr_1/conv_residual_feature_extraction_block_2/conv1d_44/BiasAdd/ReadVariableOp"], "device": "/device:CPU:0", "attr": {"num_host_args": {"i": "0"}, "data_format": {"s": "TkhXQw=="}, "filter_format": {"s": "SFdJTw=="}, "strides": {"list": {"i": ["1", "1", "1", "1"]}}, "num_args": {"i": "1"}, "fused_ops": {"list": {"s": ["Qmlhc0FkZA=="]}}, "TArgs": {"list": {"type": ["DT_FLOAT"]}}, "padding": {"s": "U0FNRQ=="}, "use_cudnn_on_gpu": {"b": true}, "leakyrelu_alpha": {"f": 0.2}, "epsilon": {"f": 0.0}, "T": {"type": "DT_FLOAT"}, "explicit_paddings": {"list": {}}, "dilations": {"list": {"i": ["1", "1", "1", "1"]}}}}, {"name": "StatefulPartitionedCall/light_chain_align_airr_1/conv_residual_feature_extraction_block/conv1d_and__batch_norm/conv1d/Conv1D", "op": "_FusedConv2D", "input": ["StatefulPartitionedCall/light_chain_align_airr_1/conv_residual_feature_extraction_block/conv1d_and__batch_norm/conv1d/Conv1D/ExpandDims", "StatefulPartitionedCall/light_chain_align_airr_1/conv_residual_feature_extraction_block/conv1d_and__batch_norm/conv1d/Conv1D/ExpandDims_1", "StatefulPartitionedCall/light_chain_align_airr_1/conv_residual_feature_extraction_block/conv1d_and__batch_norm/conv1d/BiasAdd/ReadVariableOp"], "device": "/device:CPU:0", "attr": {"num_host_args": {"i": "0"}, "data_format": {"s": "TkhXQw=="}, "filter_format": {"s": "SFdJTw=="}, "strides": {"list": {"i": ["1", "1", "1", "1"]}}, "num_args": {"i": "1"}, "fused_ops": {"list": {"s": ["Qmlhc0FkZA=="]}}, "TArgs": {"list": {"type": ["DT_FLOAT"]}}, "padding": {"s": "U0FNRQ=="}, "use_cudnn_on_gpu": {"b": true}, "leakyrelu_alpha": {"f": 0.2}, "epsilon": {"f": 0.0}, "T": {"type": "DT_FLOAT"}, "explicit_paddings": {"list": {}}, "dilations": {"list": {"i": ["1", "1", "1", "1"]}}}}, {"name": "StatefulPartitionedCall/light_chain_align_airr_1/conv_residual_feature_extraction_block/conv1d_18/Conv1D", "op": "_FusedConv2D", "input": ["StatefulPartitionedCall/light_chain_align_airr_1/conv_residual_feature_extraction_block/conv1d_18/Conv1D/ExpandDims", "StatefulPartitionedCall/light_chain_align_airr_1/conv_residual_feature_extraction_block/conv1d_18/Conv1D/ExpandDims_1", "StatefulPartitionedCall/light_chain_align_airr_1/conv_residual_feature_extraction_block/conv1d_18/BiasAdd/ReadVariableOp"], "device": "/device:CPU:0", "attr": {"num_host_args": {"i": "0"}, "data_format": {"s": "TkhXQw=="}, "filter_format": {"s": "SFdJTw=="}, "fused_ops": {"list": {"s": ["Qmlhc0FkZA=="]}}, "num_args": {"i": "1"}, "strides": {"list": {"i": ["1", "1", "1", "1"]}}, "TArgs": {"list": {"type": ["DT_FLOAT"]}}, "padding": {"s": "U0FNRQ=="}, "use_cudnn_on_gpu": {"b": true}, "leakyrelu_alpha": {"f": 0.2}, "epsilon": {"f": 0.0}, "T": {"type": "DT_FLOAT"}, "explicit_paddings": {"list": {}}, "dilations": {"list": {"i": ["1", "1", "1", "1"]}}}}, {"name": "StatefulPartitionedCall/light_chain_align_airr_1/conv_residual_feature_extraction_block_1/conv1d_and__batch_norm_6/conv1d_19/Conv1D", "op": "_FusedConv2D", "input": ["StatefulPartitionedCall/light_chain_align_airr_1/conv_residual_feature_extraction_block_1/conv1d_and__batch_norm_6/conv1d_19/Conv1D/ExpandDims", "StatefulPartitionedCall/light_chain_align_airr_1/conv_residual_feature_extraction_block_1/conv1d_and__batch_norm_6/conv1d_19/Conv1D/ExpandDims_1", "StatefulPartitionedCall/light_chain_align_airr_1/conv_residual_feature_extraction_block_1/conv1d_and__batch_norm_6/conv1d_19/BiasAdd/ReadVariableOp"], "device": "/device:CPU:0", "attr": {"num_host_args": {"i": "0"}, "data_format": {"s": "TkhXQw=="}, "filter_format": {"s": "SFdJTw=="}, "fused_ops": {"list": {"s": ["Qmlhc0FkZA=="]}}, "num_args": {"i": "1"}, "strides": {"list": {"i": ["1", "1", "1", "1"]}}, "TArgs": {"list": {"type": ["DT_FLOAT"]}}, "padding": {"s": "U0FNRQ=="}, "use_cudnn_on_gpu": {"b": true}, "leakyrelu_alpha": {"f": 0.2}, "epsilon": {"f": 0.0}, "T": {"type": "DT_FLOAT"}, "explicit_paddings": {"list": {}}, "dilations": {"list": {"i": ["1", "1", "1", "1"]}}}}, {"name": "StatefulPartitionedCall/light_chain_align_airr_1/conv_residual_feature_extraction_block_1/conv1d_31/Conv1D", "op": "_FusedConv2D", "input": ["StatefulPartitionedCall/light_chain_align_airr_1/conv_residual_feature_extraction_block_1/conv1d_31/Conv1D/ExpandDims", "StatefulPartitionedCall/light_chain_align_airr_1/conv_residual_feature_extraction_block_1/conv1d_31/Conv1D/ExpandDims_1", "StatefulPartitionedCall/light_chain_align_airr_1/conv_residual_feature_extraction_block_1/conv1d_31/BiasAdd/ReadVariableOp"], "device": "/device:CPU:0", "attr": {"num_host_args": {"i": "0"}, "data_format": {"s": "TkhXQw=="}, "filter_format": {"s": "SFdJTw=="}, "fused_ops": {"list": {"s": ["Qmlhc0FkZA=="]}}, "num_args": {"i": "1"}, "strides": {"list": {"i": ["1", "1", "1", "1"]}}, "TArgs": {"list": {"type": ["DT_FLOAT"]}}, "padding": {"s": "U0FNRQ=="}, "use_cudnn_on_gpu": {"b": true}, "leakyrelu_alpha": {"f": 0.2}, "epsilon": {"f": 0.0}, "T": {"type": "DT_FLOAT"}, "explicit_paddings": {"list": {}}, "dilations": {"list": {"i": ["1", "1", "1", "1"]}}}}, {"name": "StatefulPartitionedCall/light_chain_align_airr_1/conv_residual_feature_extraction_block_2/conv1d_and__batch_norm_10/conv1d_32/BiasAdd", "op": "Squeeze", "input": ["StatefulPartitionedCall/light_chain_align_airr_1/conv_residual_feature_extraction_block_2/conv1d_and__batch_norm_10/conv1d_32/Conv1D"], "attr": {"T": {"type": "DT_FLOAT"}, "squeeze_dims": {"list": {"i": ["-3"]}}}}, {"name": "StatefulPartitionedCall/light_chain_align_airr_1/conv_residual_feature_extraction_block_2/conv1d_44/BiasAdd", "op": "Squeeze", "input": ["StatefulPartitionedCall/light_chain_align_airr_1/conv_residual_feature_extraction_block_2/conv1d_44/Conv1D"], "attr": {"T": {"type": "DT_FLOAT"}, "squeeze_dims": {"list": {"i": ["-3"]}}}}, {"name": "StatefulPartitionedCall/light_chain_align_airr_1/conv_residual_feature_extraction_block/conv1d_and__batch_norm/conv1d/BiasAdd", "op": "Squeeze", "input": ["StatefulPartitionedCall/light_chain_align_airr_1/conv_residual_feature_extraction_block/conv1d_and__batch_norm/conv1d/Conv1D"], "attr": {"T": {"type": "DT_FLOAT"}, "squeeze_dims": {"list": {"i": ["-3"]}}}}, {"name": "StatefulPartitionedCall/light_chain_align_airr_1/conv_residual_feature_extraction_block/conv1d_18/BiasAdd", "op": "Squeeze", "input": ["StatefulPartitionedCall/light_chain_align_airr_1/conv_residual_feature_extraction_block/conv1d_18/Conv1D"], "attr": {"T": {"type": "DT_FLOAT"}, "squeeze_dims": {"list": {"i": ["-3"]}}}}, {"name": "StatefulPartitionedCall/light_chain_align_airr_1/conv_residual_feature_extraction_block_1/conv1d_and__batch_norm_6/conv1d_19/BiasAdd", "op": "Squeeze", "input": ["StatefulPartitionedCall/light_chain_align_airr_1/conv_residual_feature_extraction_block_1/conv1d_and__batch_norm_6/conv1d_19/Conv1D"], "attr": {"T": {"type": "DT_FLOAT"}, "squeeze_dims": {"list": {"i": ["-3"]}}}}, {"name": "StatefulPartitionedCall/light_chain_align_airr_1/conv_residual_feature_extraction_block_1/conv1d_31/BiasAdd", "op": "Squeeze", "input": ["StatefulPartitionedCall/light_chain_align_airr_1/conv_residual_feature_extraction_block_1/conv1d_31/Conv1D"], "attr": {"T": {"type": "DT_FLOAT"}, "squeeze_dims": {"list": {"i": ["-3"]}}}}, {"name": "StatefulPartitionedCall/light_chain_align_airr_1/conv_residual_feature_extraction_block_2/conv1d_and__batch_norm_10/conv1d_33/Conv1D/ExpandDims", "op": "ExpandDims", "input": ["StatefulPartitionedCall/light_chain_align_airr_1/conv_residual_feature_extraction_block_2/conv1d_and__batch_norm_10/conv1d_32/BiasAdd", "StatefulPartitionedCall/light_chain_align_airr_1/conv_residual_feature_extraction_block_2/conv1d_and__batch_norm_10/conv1d_33/Conv1D/ExpandDims/dim"], "attr": {"Tdim": {"type": "DT_INT32"}, "T": {"type": "DT_FLOAT"}}}, {"name": "StatefulPartitionedCall/light_chain_align_airr_1/conv_residual_feature_extraction_block_2/max_pooling1d_24/ExpandDims", "op": "ExpandDims", "input": ["StatefulPartitionedCall/light_chain_align_airr_1/conv_residual_feature_extraction_block_2/conv1d_44/BiasAdd", "StatefulPartitionedCall/light_chain_align_airr_1/conv_residual_feature_extraction_block_2/max_pooling1d_24/ExpandDims/dim"], "attr": {"Tdim": {"type": "DT_INT32"}, "T": {"type": "DT_FLOAT"}}}, {"name": "StatefulPartitionedCall/light_chain_align_airr_1/conv_residual_feature_extraction_block/conv1d_and__batch_norm/conv1d_1/Conv1D/ExpandDims", "op": "ExpandDims", "input": ["StatefulPartitionedCall/light_chain_align_airr_1/conv_residual_feature_extraction_block/conv1d_and__batch_norm/conv1d/BiasAdd", "StatefulPartitionedCall/light_chain_align_airr_1/conv_residual_feature_extraction_block/conv1d_and__batch_norm/conv1d_1/Conv1D/ExpandDims/dim"], "attr": {"Tdim": {"type": "DT_INT32"}, "T": {"type": "DT_FLOAT"}}}, {"name": "StatefulPartitionedCall/light_chain_align_airr_1/conv_residual_feature_extraction_block/max_pooling1d_6/ExpandDims", "op": "ExpandDims", "input": ["StatefulPartitionedCall/light_chain_align_airr_1/conv_residual_feature_extraction_block/conv1d_18/BiasAdd", "StatefulPartitionedCall/light_chain_align_airr_1/conv_residual_feature_extraction_block/max_pooling1d_6/ExpandDims/dim"], "attr": {"Tdim": {"type": "DT_INT32"}, "T": {"type": "DT_FLOAT"}}}, {"name": "StatefulPartitionedCall/light_chain_align_airr_1/conv_residual_feature_extraction_block_1/conv1d_and__batch_norm_6/conv1d_20/Conv1D/ExpandDims", "op": "ExpandDims", "input": ["StatefulPartitionedCall/light_chain_align_airr_1/conv_residual_feature_extraction_block_1/conv1d_and__batch_norm_6/conv1d_19/BiasAdd", "StatefulPartitionedCall/light_chain_align_airr_1/conv_residual_feature_extraction_block_1/conv1d_and__batch_norm_6/conv1d_20/Conv1D/ExpandDims/dim"], "attr": {"Tdim": {"type": "DT_INT32"}, "T": {"type": "DT_FLOAT"}}}, {"name": "StatefulPartitionedCall/light_chain_align_airr_1/conv_residual_feature_extraction_block_1/max_pooling1d_16/ExpandDims", "op": "ExpandDims", "input": ["StatefulPartitionedCall/light_chain_align_airr_1/conv_residual_feature_extraction_block_1/conv1d_31/BiasAdd", "StatefulPartitionedCall/light_chain_align_airr_1/conv_residual_feature_extraction_block_1/max_pooling1d_16/ExpandDims/dim"], "attr": {"Tdim": {"type": "DT_INT32"}, "T": {"type": "DT_FLOAT"}}}, {"name": "StatefulPartitionedCall/light_chain_align_airr_1/conv_residual_feature_extraction_block_2/conv1d_and__batch_norm_10/conv1d_33/Conv1D", "op": "_FusedConv2D", "input": ["StatefulPartitionedCall/light_chain_align_airr_1/conv_residual_feature_extraction_block_2/conv1d_and__batch_norm_10/conv1d_33/Conv1D/ExpandDims", "StatefulPartitionedCall/light_chain_align_airr_1/conv_residual_feature_extraction_block_2/conv1d_and__batch_norm_10/conv1d_33/Conv1D/ExpandDims_1", "StatefulPartitionedCall/light_chain_align_airr_1/conv_residual_feature_extraction_block_2/conv1d_and__batch_norm_10/conv1d_33/BiasAdd/ReadVariableOp"], "device": "/device:CPU:0", "attr": {"num_host_args": {"i": "0"}, "data_format": {"s": "TkhXQw=="}, "filter_format": {"s": "SFdJTw=="}, "strides": {"list": {"i": ["1", "1", "1", "1"]}}, "num_args": {"i": "1"}, "fused_ops": {"list": {"s": ["Qmlhc0FkZA=="]}}, "TArgs": {"list": {"type": ["DT_FLOAT"]}}, "padding": {"s": "U0FNRQ=="}, "use_cudnn_on_gpu": {"b": true}, "leakyrelu_alpha": {"f": 0.2}, "epsilon": {"f": 0.0}, "T": {"type": "DT_FLOAT"}, "explicit_paddings": {"list": {}}, "dilations": {"list": {"i": ["1", "1", "1", "1"]}}}}, {"name": "StatefulPartitionedCall/light_chain_align_airr_1/conv_residual_feature_extraction_block_2/max_pooling1d_24/MaxPool", "op": "MaxPool", "input": ["StatefulPartitionedCall/light_chain_align_airr_1/conv_residual_feature_extraction_block_2/max_pooling1d_24/ExpandDims"], "attr": {"ksize": {"list": {"i": ["1", "2", "1", "1"]}}, "data_format": {"s": "TkhXQw=="}, "T": {"type": "DT_FLOAT"}, "explicit_paddings": {"list": {}}, "padding": {"s": "VkFMSUQ="}, "strides": {"list": {"i": ["1", "2", "1", "1"]}}}}, {"name": "StatefulPartitionedCall/light_chain_align_airr_1/conv_residual_feature_extraction_block/conv1d_and__batch_norm/conv1d_1/Conv1D", "op": "_FusedConv2D", "input": ["StatefulPartitionedCall/light_chain_align_airr_1/conv_residual_feature_extraction_block/conv1d_and__batch_norm/conv1d_1/Conv1D/ExpandDims", "StatefulPartitionedCall/light_chain_align_airr_1/conv_residual_feature_extraction_block/conv1d_and__batch_norm/conv1d_1/Conv1D/ExpandDims_1", "StatefulPartitionedCall/light_chain_align_airr_1/conv_residual_feature_extraction_block/conv1d_and__batch_norm/conv1d_1/BiasAdd/ReadVariableOp"], "device": "/device:CPU:0", "attr": {"num_host_args": {"i": "0"}, "data_format": {"s": "TkhXQw=="}, "filter_format": {"s": "SFdJTw=="}, "strides": {"list": {"i": ["1", "1", "1", "1"]}}, "num_args": {"i": "1"}, "fused_ops": {"list": {"s": ["Qmlhc0FkZA=="]}}, "TArgs": {"list": {"type": ["DT_FLOAT"]}}, "padding": {"s": "U0FNRQ=="}, "use_cudnn_on_gpu": {"b": true}, "leakyrelu_alpha": {"f": 0.2}, "epsilon": {"f": 0.0}, "T": {"type": "DT_FLOAT"}, "explicit_paddings": {"list": {}}, "dilations": {"list": {"i": ["1", "1", "1", "1"]}}}}, {"name": "StatefulPartitionedCall/light_chain_align_airr_1/conv_residual_feature_extraction_block/max_pooling1d_6/MaxPool", "op": "MaxPool", "input": ["StatefulPartitionedCall/light_chain_align_airr_1/conv_residual_feature_extraction_block/max_pooling1d_6/ExpandDims"], "attr": {"ksize": {"list": {"i": ["1", "2", "1", "1"]}}, "data_format": {"s": "TkhXQw=="}, "T": {"type": "DT_FLOAT"}, "explicit_paddings": {"list": {}}, "padding": {"s": "VkFMSUQ="}, "strides": {"list": {"i": ["1", "2", "1", "1"]}}}}, {"name": "StatefulPartitionedCall/light_chain_align_airr_1/conv_residual_feature_extraction_block_1/conv1d_and__batch_norm_6/conv1d_20/Conv1D", "op": "_FusedConv2D", "input": ["StatefulPartitionedCall/light_chain_align_airr_1/conv_residual_feature_extraction_block_1/conv1d_and__batch_norm_6/conv1d_20/Conv1D/ExpandDims", "StatefulPartitionedCall/light_chain_align_airr_1/conv_residual_feature_extraction_block_1/conv1d_and__batch_norm_6/conv1d_20/Conv1D/ExpandDims_1", "StatefulPartitionedCall/light_chain_align_ai…
ion_block_2/dense_2/MatMul/ReadVariableOp", "shape": [2304, 576], "dtype": "float32"}, {"name": "StatefulPartitionedCall/light_chain_align_airr_1/conv_residual_feature_extraction_block_2/dense_2/BiasAdd/ReadVariableOp", "shape": [576], "dtype": "float32"}, {"name": "StatefulPartitionedCall/light_chain_align_airr_1/j_start/MatMul/ReadVariableOp", "shape": [576, 1], "dtype": "float32"}, {"name": "StatefulPartitionedCall/light_chain_align_airr_1/j_start/BiasAdd/ReadVariableOp", "shape": [1], "dtype": "float32"}, {"name": "ConstantFolding/StatefulPartitionedCall/light_chain_align_airr_1/j_start/Gelu/truediv_recip", "shape": [], "dtype": "float32"}, {"name": "StatefulPartitionedCall/light_chain_align_airr_1/mutation_rate_mid/Gelu/mul/x", "shape": [], "dtype": "float32"}, {"name": "StatefulPartitionedCall/light_chain_align_airr_1/mutation_rate_mid/Gelu/add/x", "shape": [], "dtype": "float32"}, {"name": "StatefulPartitionedCall/light_chain_align_airr_1/mutation_rate_mid/MatMul/ReadVariableOp", "shape": [576, 576], "dtype": "float32"}, {"name": "StatefulPartitionedCall/light_chain_align_airr_1/mutation_rate_mid/BiasAdd/ReadVariableOp", "shape": [576], "dtype": "float32"}, {"name": "ConstantFolding/StatefulPartitionedCall/light_chain_align_airr_1/mutation_rate_mid/Gelu/truediv_recip", "shape": [], "dtype": "float32"}, {"name": "StatefulPartitionedCall/light_chain_align_airr_1/mutation_rate/MatMul/ReadVariableOp", "shape": [576, 1], "dtype": "float32"}, {"name": "StatefulPartitionedCall/light_chain_align_airr_1/mutation_rate/BiasAdd/ReadVariableOp", "shape": [1], "dtype": "float32"}, {"name": "StatefulPartitionedCall/light_chain_align_airr_1/productive/MatMul/ReadVariableOp", "shape": [576, 1], "dtype": "float32"}, {"name": "StatefulPartitionedCall/light_chain_align_airr_1/productive/BiasAdd/ReadVariableOp", "shape": [1], "dtype": "float32"}, {"name": "StatefulPartitionedCall/light_chain_align_airr_1/chain_type_mid/Gelu/mul/x", "shape": [], "dtype": "float32"}, {"name": "StatefulPartitionedCall/light_chain_align_airr_1/chain_type_mid/Gelu/add/x", "shape": [], "dtype": "float32"}, {"name": "StatefulPartitionedCall/light_chain_align_airr_1/conv_residual_feature_extraction_block/conv1d_and__batch_norm_5/conv1d_15/Conv1D/ExpandDims/dim", "shape": [], "dtype": "int32"}, {"name": "StatefulPartitionedCall/light_chain_align_airr_1/conv_residual_feature_extraction_block/conv1d_and__batch_norm_5/conv1d_15/Conv1D/ExpandDims_1", "shape": [1, 2, 128, 128], "dtype": "float32"}, {"name": "StatefulPartitionedCall/light_chain_align_airr_1/conv_residual_feature_extraction_block/conv1d_and__batch_norm_5/conv1d_15/BiasAdd/ReadVariableOp", "shape": [128], "dtype": "float32"}, {"name": "StatefulPartitionedCall/light_chain_align_airr_1/conv_residual_feature_extraction_block/conv1d_and__batch_norm_5/conv1d_16/Conv1D/ExpandDims/dim", "shape": [], "dtype": "int32"}, {"name": "StatefulPartitionedCall/light_chain_align_airr_1/conv_residual_feature_extraction_block/conv1d_and__batch_norm_5/conv1d_16/Conv1D/ExpandDims_1", "shape": [1, 2, 128, 128], "dtype": "float32"}, {"name": "StatefulPartitionedCall/light_chain_align_airr_1/conv_residual_feature_extraction_block/conv1d_and__batch_norm_5/conv1d_16/BiasAdd/ReadVariableOp", "shape": [128], "dtype": "float32"}, {"name": "StatefulPartitionedCall/light_chain_align_airr_1/conv_residual_feature_extraction_block/conv1d_and__batch_norm_5/conv1d_17/Conv1D/ExpandDims/dim", "shape": [], "dtype": "int32"}, {"name": "StatefulPartitionedCall/light_chain_align_airr_1/conv_residual_feature_extraction_block/conv1d_and__batch_norm_5/conv1d_17/Conv1D/ExpandDims_1", "shape": [1, 2, 128, 128], "dtype": "float32"}, {"name": "StatefulPartitionedCall/light_chain_align_airr_1/conv_residual_feature_extraction_block/conv1d_and__batch_norm_5/conv1d_17/BiasAdd/ReadVariableOp", "shape": [128], "dtype": "float32"}, {"name": "StatefulPartitionedCall/light_chain_align_airr_1/conv_residual_feature_extraction_block/conv1d_and__batch_norm_5/batch_normalization_5/batchnorm/mul", "shape": [128], "dtype": "float32"}, {"name": "StatefulPartitionedCall/light_chain_align_airr_1/conv_residual_feature_extraction_block/conv1d_and__batch_norm_5/batch_normalization_5/batchnorm/sub", "shape": [128], "dtype": "float32"}, {"name": "StatefulPartitionedCall/light_chain_align_airr_1/conv_residual_feature_extraction_block/conv1d_and__batch_norm_5/max_pooling1d_5/ExpandDims/dim", "shape": [], "dtype": "int32"}, {"name": "StatefulPartitionedCall/light_chain_align_airr_1/conv_residual_feature_extraction_block/conv1d_and__batch_norm_4/conv1d_12/Conv1D/ExpandDims/dim", "shape": [], "dtype": "int32"}, {"name": "StatefulPartitionedCall/light_chain_align_airr_1/conv_residual_feature_extraction_block/conv1d_and__batch_norm_4/conv1d_12/Conv1D/ExpandDims_1", "shape": [1, 2, 128, 128], "dtype": "float32"}, {"name": "StatefulPartitionedCall/light_chain_align_airr_1/conv_residual_feature_extraction_block/conv1d_and__batch_norm_4/conv1d_12/BiasAdd/ReadVariableOp", "shape": [128], "dtype": "float32"}, {"name": "StatefulPartitionedCall/light_chain_align_airr_1/conv_residual_feature_extraction_block/conv1d_and__batch_norm_4/conv1d_13/Conv1D/ExpandDims/dim", "shape": [], "dtype": "int32"}, {"name": "StatefulPartitionedCall/light_chain_align_airr_1/conv_residual_feature_extraction_block/conv1d_and__batch_norm_4/conv1d_13/Conv1D/ExpandDims_1", "shape": [1, 2, 128, 128], "dtype": "float32"}, {"name": "StatefulPartitionedCall/light_chain_align_airr_1/conv_residual_feature_extraction_block/conv1d_and__batch_norm_4/conv1d_13/BiasAdd/ReadVariableOp", "shape": [128], "dtype": "float32"}, {"name": "StatefulPartitionedCall/light_chain_align_airr_1/conv_residual_feature_extraction_block/conv1d_and__batch_norm_4/conv1d_14/Conv1D/ExpandDims/dim", "shape": [], "dtype": "int32"}, {"name": "StatefulPartitionedCall/light_chain_align_airr_1/conv_residual_feature_extraction_block/conv1d_and__batch_norm_4/conv1d_14/Conv1D/ExpandDims_1", "shape": [1, 2, 128, 128], "dtype": "float32"}, {"name": "StatefulPartitionedCall/light_chain_align_airr_1/conv_residual_feature_extraction_block/conv1d_and__batch_norm_4/conv1d_14/BiasAdd/ReadVariableOp", "shape": [128], "dtype": "float32"}, {"name": "StatefulPartitionedCall/light_chain_align_airr_1/conv_residual_feature_extraction_block/conv1d_and__batch_norm_4/batch_normalization_4/batchnorm/mul", "shape": [128], "dtype": "float32"}, {"name": "StatefulPartitionedCall/light_chain_align_airr_1/conv_residual_feature_extraction_block/conv1d_and__batch_norm_4/batch_normalization_4/batchnorm/sub", "shape": [128], "dtype": "float32"}, {"name": "StatefulPartitionedCall/light_chain_align_airr_1/conv_residual_feature_extraction_block/conv1d_and__batch_norm_4/max_pooling1d_4/ExpandDims/dim", "shape": [], "dtype": "int32"}, {"name": "StatefulPartitionedCall/light_chain_align_airr_1/conv_residual_feature_extraction_block/conv1d_and__batch_norm_3/conv1d_9/Conv1D/ExpandDims/dim", "shape": [], "dtype": "int32"}, {"name": "StatefulPartitionedCall/light_chain_align_airr_1/conv_residual_feature_extraction_block/conv1d_and__batch_norm_3/conv1d_9/Conv1D/ExpandDims_1", "shape": [1, 2, 128, 128], "dtype": "float32"}, {"name": "StatefulPartitionedCall/light_chain_align_airr_1/conv_residual_feature_extraction_block/conv1d_and__batch_norm_3/conv1d_9/BiasAdd/ReadVariableOp", "shape": [128], "dtype": "float32"}, {"name": "StatefulPartitionedCall/light_chain_align_airr_1/conv_residual_feature_extraction_block/conv1d_and__batch_norm_3/conv1d_10/Conv1D/ExpandDims/dim", "shape": [], "dtype": "int32"}, {"name": "StatefulPartitionedCall/light_chain_align_airr_1/conv_residual_feature_extraction_block/conv1d_and__batch_norm_3/conv1d_10/Conv1D/ExpandDims_1", "shape": [1, 2, 128, 128], "dtype": "float32"}, {"name": "StatefulPartitionedCall/light_chain_align_airr_1/conv_residual_feature_extraction_block/conv1d_and__batch_norm_3/conv1d_10/BiasAdd/ReadVariableOp", "shape": [128], "dtype": "float32"}, {"name": "StatefulPartitionedCall/light_chain_align_airr_1/conv_residual_feature_extraction_block/conv1d_and__batch_norm_3/conv1d_11/Conv1D/ExpandDims/dim", "shape": [], "dtype": "int32"}, {"name": "StatefulPartitionedCall/light_chain_align_airr_1/conv_residual_feature_extraction_block/conv1d_and__batch_norm_3/conv1d_11/Conv1D/ExpandDims_1", "shape": [1, 2, 128, 128], "dtype": "float32"}, {"name": "StatefulPartitionedCall/light_chain_align_airr_1/conv_residual_feature_extraction_block/conv1d_and__batch_norm_3/conv1d_11/BiasAdd/ReadVariableOp", "shape": [128], "dtype": "float32"}, {"name": "StatefulPartitionedCall/light_chain_align_airr_1/conv_residual_feature_extraction_block/conv1d_and__batch_norm_3/batch_normalization_3/batchnorm/mul", "shape": [128], "dtype": "float32"}, {"name": "StatefulPartitionedCall/light_chain_align_airr_1/conv_residual_feature_extraction_block/conv1d_and__batch_norm_3/batch_normalization_3/batchnorm/sub", "shape": [128], "dtype": "float32"}, {"name": "StatefulPartitionedCall/light_chain_align_airr_1/conv_residual_feature_extraction_block/conv1d_and__batch_norm_3/max_pooling1d_3/ExpandDims/dim", "shape": [], "dtype": "int32"}, {"name": "StatefulPartitionedCall/light_chain_align_airr_1/conv_residual_feature_extraction_block/conv1d_and__batch_norm_2/conv1d_6/Conv1D/ExpandDims/dim", "shape": [], "dtype": "int32"}, {"name": "StatefulPartitionedCall/light_chain_align_airr_1/conv_residual_feature_extraction_block/conv1d_and__batch_norm_2/conv1d_6/Conv1D/ExpandDims_1", "shape": [1, 3, 128, 128], "dtype": "float32"}, {"name": "StatefulPartitionedCall/light_chain_align_airr_1/conv_residual_feature_extraction_block/conv1d_and__batch_norm_2/conv1d_6/BiasAdd/ReadVariableOp", "shape": [128], "dtype": "float32"}, {"name": "StatefulPartitionedCall/light_chain_align_airr_1/conv_residual_feature_extraction_block/conv1d_and__batch_norm_2/conv1d_7/Conv1D/ExpandDims/dim", "shape": [], "dtype": "int32"}, {"name": "StatefulPartitionedCall/light_chain_align_airr_1/conv_residual_feature_extraction_block/conv1d_and__batch_norm_2/conv1d_7/Conv1D/ExpandDims_1", "shape": [1, 3, 128, 128], "dtype": "float32"}, {"name": "StatefulPartitionedCall/light_chain_align_airr_1/conv_residual_feature_extraction_block/conv1d_and__batch_norm_2/conv1d_7/BiasAdd/ReadVariableOp", "shape": [128], "dtype": "float32"}, {"name": "StatefulPartitionedCall/light_chain_align_airr_1/conv_residual_feature_extraction_block/conv1d_and__batch_norm_2/conv1d_8/Conv1D/ExpandDims/dim", "shape": [], "dtype": "int32"}, {"name": "StatefulPartitionedCall/light_chain_align_airr_1/conv_residual_feature_extraction_block/conv1d_and__batch_norm_2/conv1d_8/Conv1D/ExpandDims_1", "shape": [1, 3, 128, 128], "dtype": "float32"}, {"name": "StatefulPartitionedCall/light_chain_align_airr_1/conv_residual_feature_extraction_block/conv1d_and__batch_norm_2/conv1d_8/BiasAdd/ReadVariableOp", "shape": [128], "dtype": "float32"}, {"name": "StatefulPartitionedCall/light_chain_align_airr_1/conv_residual_feature_extraction_block/conv1d_and__batch_norm_2/batch_normalization_2/batchnorm/mul", "shape": [128], "dtype": "float32"}, {"name": "StatefulPartitionedCall/light_chain_align_airr_1/conv_residual_feature_extraction_block/conv1d_and__batch_norm_2/batch_normalization_2/batchnorm/sub", "shape": [128], "dtype": "float32"}, {"name": "StatefulPartitionedCall/light_chain_align_airr_1/conv_residual_feature_extraction_block/conv1d_and__batch_norm_2/max_pooling1d_2/ExpandDims/dim", "shape": [], "dtype": "int32"}, {"name": "StatefulPartitionedCall/light_chain_align_airr_1/conv_residual_feature_extraction_block/conv1d_and__batch_norm_1/conv1d_3/Conv1D/ExpandDims/dim", "shape": [], "dtype": "int32"}, {"name": "StatefulPartitionedCall/light_chain_align_airr_1/conv_residual_feature_extraction_block/conv1d_and__batch_norm_1/conv1d_3/Conv1D/ExpandDims_1", "shape": [1, 3, 128, 128], "dtype": "float32"}, {"name": "StatefulPartitionedCall/light_chain_align_airr_1/conv_residual_feature_extraction_block/conv1d_and__batch_norm_1/conv1d_3/BiasAdd/ReadVariableOp", "shape": [128], "dtype": "float32"}, {"name": "StatefulPartitionedCall/light_chain_align_airr_1/conv_residual_feature_extraction_block/conv1d_and__batch_norm_1/conv1d_4/Conv1D/ExpandDims/dim", "shape": [], "dtype": "int32"}, {"name": "StatefulPartitionedCall/light_chain_align_airr_1/conv_residual_feature_extraction_block/conv1d_and__batch_norm_1/conv1d_4/Conv1D/ExpandDims_1", "shape": [1, 3, 128, 128], "dtype": "float32"}, {"name": "StatefulPartitionedCall/light_chain_align_airr_1/conv_residual_feature_extraction_block/conv1d_and__batch_norm_1/conv1d_4/BiasAdd/ReadVariableOp", "shape": [128], "dtype": "float32"}, {"name": "StatefulPartitionedCall/light_chain_align_airr_1/conv_residual_feature_extraction_block/conv1d_and__batch_norm_1/conv1d_5/Conv1D/ExpandDims/dim", "shape": [], "dtype": "int32"}, {"name": "StatefulPartitionedCall/light_chain_align_airr_1/conv_residual_feature_extraction_block/conv1d_and__batch_norm_1/conv1d_5/Conv1D/ExpandDims_1", "shape": [1, 3, 128, 128], "dtype": "float32"}, {"name": "StatefulPartitionedCall/light_chain_align_airr_1/conv_residual_feature_extraction_block/conv1d_and__batch_norm_1/conv1d_5/BiasAdd/ReadVariableOp", "shape": [128], "dtype": "float32"}, {"name": "StatefulPartitionedCall/light_chain_align_airr_1/conv_residual_feature_extraction_block/conv1d_and__batch_norm_1/batch_normalization_1/batchnorm/mul", "shape": [128], "dtype": "float32"}, {"name": "StatefulPartitionedCall/light_chain_align_airr_1/conv_residual_feature_extraction_block/conv1d_and__batch_norm_1/batch_normalization_1/batchnorm/sub", "shape": [128], "dtype": "float32"}, {"name": "StatefulPartitionedCall/light_chain_align_airr_1/conv_residual_feature_extraction_block/conv1d_and__batch_norm_1/max_pooling1d_1/ExpandDims/dim", "shape": [], "dtype": "int32"}, {"name": "StatefulPartitionedCall/light_chain_align_airr_1/conv_residual_feature_extraction_block/conv1d_and__batch_norm/conv1d/Conv1D/ExpandDims/dim", "shape": [], "dtype": "int32"}, {"name": "StatefulPartitionedCall/light_chain_align_airr_1/conv_residual_feature_extraction_block/conv1d_and__batch_norm/conv1d/Conv1D/ExpandDims_1", "shape": [1, 3, 32, 128], "dtype": "float32"}, {"name": "StatefulPartitionedCall/light_chain_align_airr_1/conv_residual_feature_extraction_block/conv1d_and__batch_norm/conv1d/BiasAdd/ReadVariableOp", "shape": [128], "dtype": "float32"}, {"name": "StatefulPartitionedCall/light_chain_align_airr_1/conv_residual_feature_extraction_block/conv1d_and__batch_norm/conv1d_1/Conv1D/ExpandDims/dim", "shape": [], "dtype": "int32"}, {"name": "StatefulPartitionedCall/light_chain_align_airr_1/conv_residual_feature_extraction_block/conv1d_and__batch_norm/conv1d_1/Conv1D/ExpandDims_1", "shape": [1, 3, 128, 128], "dtype": "float32"}, {"name": "StatefulPartitionedCall/light_chain_align_airr_1/conv_residual_feature_extraction_block/conv1d_and__batch_norm/conv1d_1/BiasAdd/ReadVariableOp", "shape": [128], "dtype": "float32"}, {"name": "StatefulPartitionedCall/light_chain_align_airr_1/conv_residual_feature_extraction_block/conv1d_and__batch_norm/conv1d_2/Conv1D/ExpandDims/dim", "shape": [], "dtype": "int32"}, {"name": "StatefulPartitionedCall/light_chain_align_airr_1/conv_residual_feature_extraction_block/conv1d_and__batch_norm/conv1d_2/Conv1D/ExpandDims_1", "shape": [1, 3, 128, 128], "dtype": "float32"}, {"name": "StatefulPartitionedCall/light_chain_align_airr_1/conv_residual_feature_extraction_block/conv1d_and__batch_norm/conv1d_2/BiasAdd/ReadVariableOp", "shape": [128], "dtype": "float32"}, {"name": "StatefulPartitionedCall/light_chain_align_airr_1/conv_residual_feature_extraction_block/conv1d_and__batch_norm/batch_normalization/batchnorm/mul", "shape": [128], "dtype": "float32"}, {"name": "StatefulPartitionedCall/light_chain_align_airr_1/conv_residual_feature_extraction_block/conv1d_and__batch_norm/batch_normalization/batchnorm/sub", "shape": [128], "dtype": "float32"}, {"name": "StatefulPartitionedCall/light_chain_align_airr_1/conv_residual_feature_extraction_block/conv1d_and__batch_norm/max_pooling1d/ExpandDims/dim", "shape": [], "dtype": "int32"}, {"name": "StatefulPartitionedCall/light_chain_align_airr_1/conv_residual_feature_extraction_block/conv1d_18/Conv1D/ExpandDims/dim", "shape": [], "dtype": "int32"}, {"name": "StatefulPartitionedCall/light_chain_align_airr_1/conv_residual_feature_extraction_block/conv1d_18/Conv1D/ExpandDims_1", "shape": [1, 5, 32, 128], "dtype": "float32"}, {"name": "StatefulPartitionedCall/light_chain_align_airr_1/conv_residual_feature_extraction_block/conv1d_18/BiasAdd/ReadVariableOp", "shape": [128], "dtype": "float32"}, {"name": "StatefulPartitionedCall/light_chain_align_airr_1/conv_residual_feature_extraction_block/max_pooling1d_6/ExpandDims/dim", "shape": [], "dtype": "int32"}, {"name": "StatefulPartitionedCall/light_chain_align_airr_1/conv_residual_feature_extraction_block/max_pooling1d_6/ExpandDims_1/dim", "shape": [], "dtype": "int32"}, {"name": "StatefulPartitionedCall/light_chain_align_airr_1/conv_residual_feature_extraction_block/max_pooling1d_7/ExpandDims/dim", "shape": [], "dtype": "int32"}, {"name": "StatefulPartitionedCall/light_chain_align_airr_1/conv_residual_feature_extraction_block/max_pooling1d_8/ExpandDims/dim", "shape": [], "dtype": "int32"}, {"name": "StatefulPartitionedCall/light_chain_align_airr_1/conv_residual_feature_extraction_block/max_pooling1d_9/ExpandDims/dim", "shape": [], "dtype": "int32"}, {"name": "StatefulPartitionedCall/light_chain_align_airr_1/conv_residual_feature_extraction_block/max_pooling1d_10/ExpandDims/dim", "shape": [], "dtype": "int32"}, {"name": "StatefulPartitionedCall/light_chain_align_airr_1/conv_residual_feature_extraction_block/max_pooling1d_11/ExpandDims/dim", "shape": [], "dtype": "int32"}, {"name": "StatefulPartitionedCall/light_chain_align_airr_1/conv_residual_feature_extraction_block/flatten/Const", "shape": [2], "dtype": "int32"}, {"name": "StatefulPartitionedCall/light_chain_align_airr_1/conv_residual_feature_extraction_block/dense/MatMul/ReadVariableOp", "shape": [512, 576], "dtype": "float32"}, {"name": "StatefulPartitionedCall/light_chain_align_airr_1/conv_residual_feature_extraction_block/dense/BiasAdd/ReadVariableOp", "shape": [576], "dtype": "float32"}, {"name": "StatefulPartitionedCall/light_chain_align_airr_1/chain_type_mid/MatMul/ReadVariableOp", "shape": [576, 576], "dtype": "float32"}, {"name": "StatefulPartitionedCall/light_chain_align_airr_1/chain_type_mid/BiasAdd/ReadVariableOp", "shape": [576], "dtype": "float32"}, {"name": "ConstantFolding/StatefulPartitionedCall/light_chain_align_airr_1/chain_type_mid/Gelu/truediv_recip", "shape": [], "dtype": "float32"}, {"name": "StatefulPartitionedCall/light_chain_align_airr_1/chain_type/MatMul/ReadVariableOp", "shape": [576, 1], "dtype": "float32"}, {"name": "StatefulPartitionedCall/light_chain_align_airr_1/chain_type/BiasAdd/ReadVariableOp", "shape": [1], "dtype": "float32"}, {"name": "StatefulPartitionedCall/light_chain_align_airr_1/conv_residual_feature_extraction_block_3/conv1d_and__batch_norm_19/conv1d_60/Conv1D/ExpandDims/dim", "shape": [], "dtype": "int32"}, {"name": "StatefulPartitionedCall/light_chain_align_airr_1/conv_residual_feature_extraction_block_3/conv1d_and__batch_norm_19/conv1d_60/Conv1D/ExpandDims_1", "shape": [1, 2, 128, 128], "dtype": "float32"}, {"name": "StatefulPartitionedCall/light_chain_align_airr_1/conv_residual_feature_extraction_block_3/conv1d_and__batch_norm_19/conv1d_60/BiasAdd/ReadVariableOp", "shape": [128], "dtype": "float32"}, {"name": "StatefulPartitionedCall/light_chain_align_airr_1/conv_residual_feature_extraction_block_3/conv1d_and__batch_norm_19/conv1d_61/Conv1D/ExpandDims/dim", "shape": [], "dtype": "int32"}, {"name": "StatefulPartitionedCall/light_chain_align_airr_1/conv_residual_feature_extraction_block_3/conv1d_and__batch_norm_19/conv1d_61/Conv1D/ExpandDims_1", "shape": [1, 2, 128, 128], "dtype": "float32"}, {"name": "StatefulPartitionedCall/light_chain_align_airr_1/conv_residual_feature_extraction_block_3/conv1d_and__batch_norm_19/conv1d_61/BiasAdd/ReadVariableOp", "shape": [128], "dtype": "float32"}, {"name": "StatefulPartitionedCall/light_chain_align_airr_1/conv_residual_feature_extraction_block_3/conv1d_and__batch_norm_19/conv1d_62/Conv1D/ExpandDims/dim", "shape": [], "dtype": "int32"}, {"name": "StatefulPartitionedCall/light_chain_align_airr_1/conv_residual_feature_extraction_block_3/conv1d_and__batch_norm_19/conv1d_62/Conv1D/ExpandDims_1", "shape": [1, 2, 128, 128], "dtype": "float32"}, {"name": "StatefulPartitionedCall/light_chain_align_airr_1/conv_residual_feature_extraction_block_3/conv1d_and__batch_norm_19/conv1d_62/BiasAdd/ReadVariableOp", "shape": [128], "dtype": "float32"}, {"name": "StatefulPartitionedCall/light_chain_align_airr_1/conv_residual_feature_extraction_block_3/conv1d_and__batch_norm_19/batch_normalization_19/batchnorm/mul", "shape": [128], "dtype": "float32"}, {"name": "StatefulPartitionedCall/light_chain_align_airr_1/conv_residual_feature_extraction_block_3/conv1d_and__batch_norm_19/batch_normalization_19/batchnorm/sub", "shape": [128], "dtype": "float32"}, {"name": "StatefulPartitionedCall/light_chain_align_airr_1/conv_residual_feature_extraction_block_3/conv1d_and__batch_norm_19/max_pooling1d_33/ExpandDims/dim", "shape": [], "dtype": "int32"}, {"name": "StatefulPartitionedCall/light_chain_align_airr_1/conv_residual_feature_extraction_block_3/conv1d_and__batch_norm_18/conv1d_57/Conv1D/ExpandDims/dim", "shape": [], "dtype": "int32"}, {"name": "StatefulPartitionedCall/light_chain_align_airr_1/conv_residual_feature_extraction_block_3/conv1d_and__batch_norm_18/conv1d_57/Conv1D/ExpandDims_1", "shape": [1, 2, 128, 128], "dtype": "float32"}, {"name": "StatefulPartitionedCall/light_chain_align_airr_1/conv_residual_feature_extraction_block_3/conv1d_and__batch_norm_18/conv1d_57/BiasAdd/ReadVariableOp", "shape": [128], "dtype": "float32"}, {"name": "StatefulPartitionedCall/light_chain_align_airr_1/conv_residual_feature_extraction_block_3/conv1d_and__batch_norm_18/conv1d_58/Conv1D/ExpandDims/dim", "shape": [], "dtype": "int32"}, {"name": "StatefulPartitionedCall/light_chain_align_airr_1/conv_residual_feature_extraction_block_3/conv1d_and__batch_norm_18/conv1d_58/Conv1D/ExpandDims_1", "shape": [1, 2, 128, 128], "dtype": "float32"}, {"name": "StatefulPartitionedCall/light_chain_align_airr_1/conv_residual_feature_extraction_block_3/conv1d_and__batch_norm_18/conv1d_58/BiasAdd/ReadVariableOp", "shape": [128], "dtype": "float32"}, {"name": "StatefulPartitionedCall/light_chain_align_airr_1/conv_residual_feature_extraction_block_3/conv1d_and__batch_norm_18/conv1d_59/Conv1D/ExpandDims/dim", "shape": [], "dtype": "int32"}, {"name": "StatefulPartitionedCall/light_chain_align_airr_1/conv_residual_feature_extraction_block_3/conv1d_and__batch_norm_18/conv1d_59/Conv1D/ExpandDims_1", "shape": [1, 2, 128, 128], "dtype": "float32"}, {"name": "StatefulPartitionedCall/light_chain_align_airr_1/conv_residual_feature_extraction_block_3/conv1d_and__batch_norm_18/conv1d_59/BiasAdd/ReadVariableOp", "shape": [128], "dtype": "float32"}, {"name": "StatefulPartitionedCall/light_chain_align_airr_1/conv_residual_feature_extraction_block_3/conv1d_and__batch_norm_18/batch_normalization_18/batchnorm/mul", "shape": [128], "dtype": "float32"}, {"name": "StatefulPartitionedCall/light_chain_align_airr_1/conv_residual_feature_extraction_block_3/conv1d_and__batch_norm_18/batch_normalization_18/batchnorm/sub", "shape": [128], "dtype": "float32"}, {"name": "StatefulPartitionedCall/light_chain_align_airr_1/conv_residual_feature_extraction_block_3/conv1d_and__batch_norm_18/max_pooling1d_32/ExpandDims/dim", "shape": [], "dtype": "int32"}, {"name": "StatefulPartitionedCall/light_chain_align_airr_1/conv_residual_feature_extraction_block_3/conv1d_and__batch_norm_17/conv1d_54/Conv1D/ExpandDims/dim", "shape": [], "dtype": "int32"}, {"name": "StatefulPartitionedCall/light_chain_align_airr_1/conv_residual_feature_extraction_block_3/conv1d_and__batch_norm_17/conv1d_54/Conv1D/ExpandDims_1", "shape": [1, 2, 128, 128], "dtype": "float32"}, {"name": "StatefulPartitionedCall/light_chain_align_airr_1/conv_residual_feature_extraction_block_3/conv1d_and__batch_norm_17/conv1d_54/BiasAdd/ReadVariableOp", "shape": [128], "dtype": "float32"}, {"name": "StatefulPartitionedCall/light_chain_align_airr_1/conv_residual_feature_extraction_block_3/conv1d_and__batch_norm_17/conv1d_55/Conv1D/ExpandDims/dim", "shape": [], "dtype": "int32"}, {"name": "StatefulPartitionedCall/light_chain_align_airr_1/conv_residual_feature_extraction_block_3/conv1d_and__batch_norm_17/conv1d_55/Conv1D/ExpandDims_1", "shape": [1, 2, 128, 128], "dtype": "float32"}, {"name": "StatefulPartitionedCall/light_chain_align_airr_1/conv_residual_feature_extraction_block_3/conv1d_and__batch_norm_17/conv1d_55/BiasAdd/ReadVariableOp", "shape": [128], "dtype": "float32"}, {"name": "StatefulPartitionedCall/light_chain_align_airr_1/conv_residual_feature_extraction_block_3/conv1d_and__batch_norm_17/conv1d_56/Conv1D/ExpandDims/dim", "shape": [], "dtype": "int32"}, {"name": "StatefulPartitionedCall/light_chain_align_airr_1/conv_residual_feature_extraction_block_3/conv1d_and__batch_norm_17/conv1d_56/Conv1D/ExpandDims_1", "shape": [1, 2, 128, 128], "dtype": "float32"}, {"name": "StatefulPartitionedCall/light_chain_align_airr_1/conv_residual_feature_extraction_block_3/conv1d_and__batch_norm_17/conv1d_56/BiasAdd/ReadVariableOp", "shape": [128], "dtype": "float32"}, {"name": "StatefulPartitionedCall/light_chain_align_airr_1/conv_residual_feature_extraction_block_3/conv1d_and__batch_norm_17/batch_normalization_17/batchnorm/mul", "shape": [128], "dtype": "float32"}, {"name": "StatefulPartitionedCall/light_chain_align_airr_1/conv_residual_feature_extraction_block_3/conv1d_and__batch_norm_17/batch_normalization_17/batchnorm/sub", "shape": [128], "dtype": "float32"}, {"name": "StatefulPartitionedCall/light_chain_align_airr_1/conv_residual_feature_extraction_block_3/conv1d_and__batch_norm_17/max_pooling1d_31/ExpandDims/dim", "shape": [], "dtype": "int32"}, {"name": "StatefulPartitionedCall/light_chain_align_airr_1/conv_residual_feature_extraction_block_3/conv1d_and__batch_norm_16/conv1d_51/Conv1D/ExpandDims/dim", "shape": [], "dtype": "int32"}, {"name": "StatefulPartitionedCall/light_chain_align_airr_1/conv_residual_feature_extraction_block_3/conv1d_and__batch_norm_16/conv1d_51/Conv1D/ExpandDims_1", "shape": [1, 3, 128, 128], "dtype": "float32"}, {"name": "StatefulPartitionedCall/light_chain_align_airr_1/conv_residual_feature_extraction_block_3/conv1d_and__batch_norm_16/conv1d_51/BiasAdd/ReadVariableOp", "shape": [128], "dtype": "float32"}, {"name": "StatefulPartitionedCall/light_chain_align_airr_1/conv_residual_feature_extraction_block_3/conv1d_and__batch_norm_16/conv1d_52/Conv1D/ExpandDims/dim", "shape": [], "dtype": "int32"}, {"name": "StatefulPartitionedCall/light_chain_align_airr_1/conv_residual_feature_extraction_block_3/conv1d_and__batch_norm_16/conv1d_52/Conv1D/ExpandDims_1", "shape": [1, 3, 128, 128], "dtype": "float32"}, {"name": "StatefulPartitionedCall/light_chain_align_airr_1/conv_residual_feature_extraction_block_3/conv1d_and__batch_norm_16/conv1d_52/BiasAdd/ReadVariableOp", "shape": [128], "dtype": "float32"}, {"name": "StatefulPartitionedCall/light_chain_align_airr_1/conv_residual_feature_extraction_block_3/conv1d_and__batch_norm_16/conv1d_53/Conv1D/ExpandDims/dim", "shape": [], "dtype": "int32"}, {"name": "StatefulPartitionedCall/light_chain_align_airr_1/conv_residual_feature_extraction_block_3/conv1d_and__batch_norm_16/conv1d_53/Conv1D/ExpandDims_1", "shape": [1, 3, 128, 128], "dtype": "float32"}, {"name": "StatefulPartitionedCall/light_chain_align_airr_1/conv_residual_feature_extraction_block_3/conv1d_and__batch_norm_16/conv1d_53/BiasAdd/ReadVariableOp", "shape": [128], "dtype": "float32"}, {"name": "StatefulPartitionedCall/light_chain_align_airr_1/conv_residual_feature_extraction_block_3/conv1d_and__batch_norm_16/batch_normalization_16/batchnorm/mul", "shape": [128], "dtype": "float32"}, {"name": "StatefulPartitionedCall/light_chain_align_airr_1/conv_residual_feature_extraction_block_3/conv1d_and__batch_norm_16/batch_normalization_16/batchnorm/sub", "shape": [128], "dtype": "float32"}, {"name": "StatefulPartitionedCall/light_chain_align_airr_1/conv_residual_feature_extraction_block_3/conv1d_and__batch_norm_16/max_pooling1d_30/ExpandDims/dim", "shape": [], "dtype": "int32"}, {"name": "StatefulPartitionedCall/light_chain_align_airr_1/conv_residual_feature_extraction_block_3/conv1d_and__batch_norm_15/conv1d_48/Conv1D/ExpandDims/dim", "shape": [], "dtype": "int32"}, {"name": "StatefulPartitionedCall/light_chain_align_airr_1/conv_residual_feature_extraction_block_3/conv1d_and__batch_norm_15/conv1d_48/Conv1D/ExpandDims_1", "shape": [1, 3, 128, 128], "dtype": "float32"}, {"name": "StatefulPartitionedCall/light_chain_align_airr_1/conv_residual_feature_extraction_block_3/conv1d_and__batch_norm_15/conv1d_48/BiasAdd/ReadVariableOp", "shape": [128], "dtype": "float32"}, {"name": "StatefulPartitionedCall/light_chain_align_airr_1/conv_residual_feature_extraction_block_3/conv1d_and__batch_norm_15/conv1d_49/Conv1D/ExpandDims/dim", "shape": [], "dtype": "int32"}, {"name": "StatefulPartitionedCall/light_chain_align_airr_1/conv_residual_feature_extraction_block_3/conv1d_and__batch_norm_15/conv1d_49/Conv1D/ExpandDims_1", "shape": [1, 3, 128, 128], "dtype": "float32"}, {"name": "StatefulPartitionedCall/light_chain_align_airr_1/conv_residual_feature_extraction_block_3/conv1d_and__batch_norm_15/conv1d_49/BiasAdd/ReadVariableOp", "shape": [128], "dtype": "float32"}, {"name": "StatefulPartitionedCall/light_chain_align_airr_1/conv_residual_feature_extraction_block_3/conv1d_and__batch_norm_15/conv1d_50/Conv1D/ExpandDims/dim", "shape": [], "dtype": "int32"}, {"name": "StatefulPartitionedCall/light_chain_align_airr_1/conv_residual_feature_extraction_block_3/conv1d_and__batch_norm_15/conv1d_50/Conv1D/ExpandDims_1", "shape": [1, 3, 128, 128], "dtype": "float32"}, {"name": "StatefulPartitionedCall/light_chain_align_airr_1/conv_residual_feature_extraction_block_3/conv1d_and__batch_norm_15/conv1d_50/BiasAdd/ReadVariableOp", "shape": [128], "dtype": "float32"}, {"name": "StatefulPartitionedCall/light_chain_align_airr_1/conv_residual_feature_extraction_block_3/conv1d_and__batch_norm_15/batch_normalization_15/batchnorm/mul", "shape": [128], "dtype": "float32"}, {"name": "StatefulPartitionedCall/light_chain_align_airr_1/conv_residual_feature_extraction_block_3/conv1d_and__batch_norm_15/batch_normalization_15/batchnorm/sub", "shape": [128], "dtype": "float32"}, {"name": "StatefulPartitionedCall/light_chain_align_airr_1/conv_residual_feature_extraction_block_3/conv1d_and__batch_norm_15/max_pooling1d_29/ExpandDims/dim", "shape": [], "dtype": "int32"}, {"name": "StatefulPartitionedCall/light_chain_align_airr_1/conv_residual_feature_extraction_block_3/conv1d_and__batch_norm_14/conv1d_45/Conv1D/ExpandDims/dim", "shape": [], "dtype": "int32"}, {"name": "StatefulPartitionedCall/light_chain_align_airr_1/conv_residual_feature_extraction_block_3/conv1d_and__batch_norm_14/conv1d_45/Conv1D/ExpandDims_1", "shape": [1, 3, 32, 128], "dtype": "float32"}, {"name": "StatefulPartitionedCall/light_chain_align_airr_1/conv_residual_feature_extraction_block_3/conv1d_and__batch_norm_14/conv1d_45/BiasAdd/ReadVariableOp", "shape": [128], "dtype": "float32"}, {"name": "StatefulPartitionedCall/light_chain_align_airr_1/conv_residual_feature_extraction_block_3/conv1d_and__batch_norm_14/conv1d_46/Conv1D/ExpandDims/dim", "shape": [], "dtype": "int32"}, {"name": "StatefulPartitionedCall/light_chain_align_airr_1/conv_residual_feature_extraction_block_3/conv1d_and__batch_norm_14/conv1d_46/Conv1D/ExpandDims_1", "shape": [1, 3, 128, 128], "dtype": "float32"}, {"name": "StatefulPartitionedCall/light_chain_align_airr_1/conv_residual_feature_extraction_block_3/conv1d_and__batch_norm_14/conv1d_46/BiasAdd/ReadVariableOp", "shape": [128], "dtype": "float32"}, {"name": "StatefulPartitionedCall/light_chain_align_airr_1/conv_residual_feature_extraction_block_3/conv1d_and__batch_norm_14/conv1d_47/Conv1D/ExpandDims/dim", "shape": [], "dtype": "int32"}, {"name": "StatefulPartitionedCall/light_chain_align_airr_1/conv_residual_feature_extraction_block_3/conv1d_and__batch_norm_14/conv1d_47/Conv1D/ExpandDims_1", "shape": [1, 3, 128, 128], "dtype": "float32"}, {"name": "StatefulPartitionedCall/light_chain_align_airr_1/conv_residual_feature_extraction_block_3/conv1d_and__batch_norm_14/conv1d_47/BiasAdd/ReadVariableOp", "shape": [128], "dtype": "float32"}, {"name": "StatefulPartitionedCall/light_chain_align_airr_1/conv_residual_feature_extraction_block_3/conv1d_and__batch_norm_14/batch_normalization_14/batchnorm/mul", "shape": [128], "dtype": "float32"}, {"name": "StatefulPartitionedCall/light_chain_align_airr_1/conv_residual_feature_extraction_block_3/conv1d_and__batch_norm_14/batch_normalization_14/batchnorm/sub", "shape": [128], "dtype": "float32"}, {"name": "StatefulPartitionedCall/light_chain_align_airr_1/conv_residual_feature_extraction_block_3/conv1d_and__batch_norm_14/max_pooling1d_28/ExpandDims/dim", "shape": [], "dtype": "int32"}, {"name": "StatefulPartitionedCall/light_chain_align_airr_1/cutout_layer/Max/reduction_indices", "shape": [], "dtype": "int32"}, {"name": "StatefulPartitionedCall/light_chain_align_airr_1/cutout_layer/clip_by_value/Minimum/y", "shape": [], "dtype": "float32"}, {"name": "StatefulPartitionedCall/light_chain_align_airr_1/cutout_layer/clip_by_value/y", "shape": [], "dtype": "float32"}, {"name": "StatefulPartitionedCall/light_chain_align_airr_1/cutout_layer/Cast", "shape": [576], "dtype": "float32"}, {"name": "StatefulPartitionedCall/light_chain_align_airr_1/cutout_layer/Max_1/reduction_indices", "shape": [], "dtype": "int32"}, {"name": "StatefulPartitionedCall/light_chain_align_airr_1/cutout_layer/clip_by_value_1/Minimum/y", "shape": [], "dtype": "float32"}, {"name": "StatefulPartitionedCall/light_chain_align_airr_1/cutout_layer/clip_by_value_1/y", "shape": [], "dtype": "float32"}, {"name": "StatefulPartitionedCall/light_chain_align_airr_1/ExpandDims/dim", "shape": [], "dtype": "int32"}, {"name": "StatefulPartitionedCall/light_chain_align_airr_1/conv_residual_feature_extraction_block_3/conv1d_63/Conv1D/ExpandDims/dim", "shape": [], "dtype": "int32"}, {"name": "StatefulPartitionedCall/light_chain_align_airr_1/conv_residual_feature_extraction_block_3/conv1d_63/Conv1D/ExpandDims_1", "shape": [1, 5, 32, 128], "dtype": "float32"}, {"name": "StatefulPartitionedCall/light_chain_align_airr_1/conv_residual_feature_extraction_block_3/conv1d_63/BiasAdd/ReadVariableOp", "shape": [128], "dtype": "float32"}, {"name": "StatefulPartitionedCall/light_chain_align_airr_1/conv_residual_feature_extraction_block_3/max_pooling1d_34/ExpandDims/dim", "shape": [], "dtype": "int32"}, {"name": "StatefulPartitionedCall/light_chain_align_airr_1/conv_residual_feature_extraction_block_3/max_pooling1d_34/ExpandDims_1/dim", "shape": [], "dtype": "int32"}, {"name": "StatefulPartitionedCall/light_chain_align_airr_1/conv_residual_feature_extraction_block_3/max_pooling1d_35/ExpandDims/dim", "shape": [], "dtype": "int32"}, {"name": "StatefulPartitionedCall/light_chain_align_airr_1/conv_residual_feature_extraction_block_3/max_pooling1d_36/ExpandDims/dim", "shape": [], "dtype": "int32"}, {"name": "StatefulPartitionedCall/light_chain_align_airr_1/conv_residual_feature_extraction_block_3/max_pooling1d_37/ExpandDims/dim", "shape": [], "dtype": "int32"}, {"name": "StatefulPartitionedCall/light_chain_align_airr_1/conv_residual_feature_extraction_block_3/max_pooling1d_38/ExpandDims/dim", "shape": [], "dtype": "int32"}, {"name": "StatefulPartitionedCall/light_chain_align_airr_1/conv_residual_feature_extraction_block_3/max_pooling1d_39/ExpandDims/dim", "shape": [], "dtype": "int32"}, {"name": "StatefulPartitionedCall/light_chain_align_airr_1/conv_residual_feature_extraction_block_3/flatten_3/Const", "shape": [2], "dtype": "int32"}, {"name": "StatefulPartitionedCall/light_chain_align_airr_1/conv_residual_feature_extraction_block_3/dense_3/MatMul/ReadVariableOp", "shape": [512, 576], "dtype": "float32"}, {"name": "StatefulPartitionedCall/light_chain_align_airr_1/conv_residual_feature_extraction_block_3/dense_3/BiasAdd/ReadVariableOp", "shape": [576], "dtype": "float32"}, {"name": "StatefulPartitionedCall/light_chain_align_airr_1/v_allele_middle/MatMul/ReadVariableOp", "shape": [576, 288], "dtype": "float32"}, {"name": "StatefulPartitionedCall/light_chain_align_airr_1/v_allele_middle/BiasAdd/ReadVariableOp", "shape": [288], "dtype": "float32"}, {"name": "StatefulPartitionedCall/light_chain_align_airr_1/v_allele/MatMul/ReadVariableOp", "shape": [288, 144], "dtype": "float32"}, {"name": "StatefulPartitionedCall/light_chain_align_airr_1/v_allele/BiasAdd/ReadVariableOp", "shape": [144], "dtype": "float32"}, {"name": "StatefulPartitionedCall/light_chain_align_airr_1/v_end/Gelu/mul/x", "shape": [], "dtype": "float32"}, {"name": "StatefulPartitionedCall/light_chain_align_airr_1/v_end/Gelu/add/x", "shape": [], "dtype": "float32"}, {"name": "StatefulPartitionedCall/light_chain_align_airr_1/v_end/MatMul/ReadVariableOp", "shape": [576, 1], "dtype": "float32"}, {"name": "StatefulPartitionedCall/light_chain_align_airr_1/v_end/BiasAdd/ReadVariableOp", "shape": [1], "dtype": "float32"}, {"name": "ConstantFolding/StatefulPartitionedCall/light_chain_align_airr_1/v_end/Gelu/truediv_recip", "shape": [], "dtype": "float32"}, {"name": "StatefulPartitionedCall/light_chain_align_airr_1/v_start/Gelu/mul/x", "shape": [], "dtype": "float32"}, {"name": "StatefulPartitionedCall/light_chain_align_airr_1/v_start/Gelu/add/x", "shape": [], "dtype": "float32"}, {"name": "StatefulPartitionedCall/light_chain_align_airr_1/conv_residual_feature_extraction_block_1/conv1d_and__batch_norm_9/conv1d_28/Conv1D/ExpandDims/dim", "shape": [], "dtype": "int32"}, {"name": "StatefulPartitionedCall/light_chain_align_airr_1/conv_residual_feature_extraction_block_1/conv1d_and__batch_norm_9/conv1d_28/Conv1D/ExpandDims_1", "shape": [1, 2, 128, 128], "dtype": "float32"}, {"name": "StatefulPartitionedCall/light_chain_align_airr_1/conv_residual_feature_extraction_block_1/conv1d_and__batch_norm_9/conv1d_28/BiasAdd/ReadVariableOp", "shape": [128], "dtype": "float32"}, {"name": "StatefulPartitionedCall/light_chain_align_airr_1/conv_residual_feature_extraction_block_1/conv1d_and__batch_norm_9/conv1d_29/Conv1D/ExpandDims/dim", "shape": [], "dtype": "int32"}, {"name": "StatefulPartitionedCall/light_chain_align_airr_1/conv_residual_feature_extraction_block_1/conv1d_and__batch_norm_9/conv1d_29/Conv1D/ExpandDims_1", "shape": [1, 2, 128, 128], "dtype": "float32"}, {"name": "StatefulPartitionedCall/light_chain_align_airr_1/conv_residual_feature_extraction_block_1/conv1d_and__batch_norm_9/conv1d_29/BiasAdd/ReadVariableOp", "shape": [128], "dtype": "float32"}, {"name": "StatefulPartitionedCall/light_chain_align_airr_1/conv_residual_feature_extraction_block_1/conv1d_and__batch_norm_9/conv1d_30/Conv1D/ExpandDims/dim", "shape": [], "dtype": "int32"}, {"name": "StatefulPartitionedCall/light_chain_align_airr_1/conv_residual_feature_extraction_block_1/conv1d_and__batch_norm_9/conv1d_30/Conv1D/ExpandDims_1", "shape": [1, 2, 128, 128], "dtype": "float32"}, {"name": "StatefulPartitionedCall/light_chain_align_airr_1/conv_residual_feature_extraction_block_1/conv1d_and__batch_norm_9/conv1d_30/BiasAdd/ReadVariableOp", "shape": [128], "dtype": "float32"}, {"name": "StatefulPartitionedCall/light_chain_align_airr_1/conv_residual_feature_extraction_block_1/conv1d_and__batch_norm_9/batch_normalization_9/batchnorm/mul", "shape": [128], "dtype": "float32"}, {"name": "StatefulPartitionedCall/light_chain_align_airr_1/conv_residual_feature_extraction_block_1/conv1d_and__batch_norm_9/batch_normalization_9/batchnorm/sub", "shape": [128], "dtype": "float32"}, {"name": "StatefulPartitionedCall/light_chain_align_airr_1/conv_residual_feature_extraction_block_1/conv1d_and__batch_norm_9/max_pooling1d_15/ExpandDims/dim", "shape": [], "dtype": "int32"}, {"name": "StatefulPartitionedCall/light_chain_align_airr_1/conv_residual_feature_extraction_block_1/conv1d_and__batch_norm_8/conv1d_25/Conv1D/ExpandDims/dim", "shape": [], "dtype": "int32"}, {"name": "StatefulPartitionedCall/light_chain_align_airr_1/conv_residual_feature_extraction_block_1/conv1d_and__batch_norm_8/conv1d_25/Conv1D/ExpandDims_1", "shape": [1, 3, 128, 128], "dtype": "float32"}, {"name": "StatefulPartitionedCall/light_chain_align_airr_1/conv_residual_feature_extraction_block_1/conv1d_and__batch_norm_8/conv1d_25/BiasAdd/ReadVariableOp", "shape": [128], "dtype": "float32"}, {"name": "StatefulPartitionedCall/light_chain_align_airr_1/conv_residual_feature_extraction_block_1/conv1d_and__batch_norm_8/conv1d_26/Conv1D/ExpandDims/dim", "shape": [], "dtype": "int32"}, {"name": "StatefulPartitionedCall/light_chain_align_airr_1/conv_residual_feature_extraction_block_1/conv1d_and__batch_norm_8/conv1d_26/Conv1D/ExpandDims_1", "shape": [1, 3, 128, 128], "dtype": "float32"}, {"name": "StatefulPartitionedCall/light_chain_align_airr_1/conv_residual_feature_extraction_block_1/conv1d_and__batch_norm_8/conv1d_26/BiasAdd/ReadVariableOp", "shape": [128], "dtype": "float32"}, {"name": "StatefulPartitionedCall/light_chain_align_airr_1/conv_residual_feature_extraction_block_1/conv1d_and__batch_norm_8/conv1d_27/Conv1D/ExpandDims/dim", "shape": [], "dtype": "int32"}, {"name": "StatefulPartitionedCall/light_chain_align_airr_1/conv_residual_feature_extraction_block_1/conv1d_and__batch_norm_8/conv1d_27/Conv1D/ExpandDims_1", "shape": [1, 3, 128, 128], "dtype": "float32"}, {"name": "StatefulPartitionedCall/light_chain_align_airr_1/conv_residual_feature_extraction_block_1/conv1d_and__batch_norm_8/conv1d_27/BiasAdd/ReadVariableOp", "shape": [128], "dtype": "float32"}, {"name": "StatefulPartitionedCall/light_chain_align_airr_1/conv_residual_feature_extraction_block_1/conv1d_and__batch_norm_8/batch_normalization_8/batchnorm/mul", "shape": [128], "dtype": "float32"}, {"name": "StatefulPartitionedCall/light_chain_align_airr_1/conv_residual_feature_extraction_block_1/conv1d_and__batch_norm_8/batch_normalization_8/batchnorm/sub", "shape": [128], "dtype": "float32"}, {"name": "StatefulPartitionedCall/light_chain_align_airr_1/conv_residual_feature_extraction_block_1/conv1d_and__batch_norm_8/max_pooling1d_14/ExpandDims/dim", "shape": [], "dtype": "int32"}, {"name": "StatefulPartitionedCall/light_chain_align_airr_1/conv_residual_feature_extraction_block_1/conv1d_and__batch_norm_7/conv1d_22/Conv1D/ExpandDims/dim", "shape": [], "dtype": "int32"}, {"name": "StatefulPartitionedCall/light_chain_align_airr_1/conv_residual_feature_extraction_block_1/conv1d_and__batch_norm_7/conv1d_22/Conv1D/ExpandDims_1", "shape": [1, 3, 128, 128], "dtype": "float32"}, {"name": "StatefulPartitionedCall/light_chain_align_airr_1/conv_residual_feature_extraction_block_1/conv1d_and__batch_norm_7/conv1d_22/BiasAdd/ReadVariableOp", "shape": [128], "dtype": "float32"}, {"name": "StatefulPartitionedCall/light_chain_align_airr_1/conv_residual_feature_extraction_block_1/conv1d_and__batch_norm_7/conv1d_23/Conv1D/ExpandDims/dim", "shape": [], "dtype": "int32"}, {"name": "StatefulPartitionedCall/light_chain_align_airr_1/conv_residual_feature_extraction_block_1/conv1d_and__batch_norm_7/conv1d_23/Conv1D/ExpandDims_1", "shape": [1, 3, 128, 128], "dtype": "float32"}, {"name": "StatefulPartitionedCall/light_chain_align_airr_1/conv_residual_feature_extraction_block_1/conv1d_and__batch_norm_7/conv1d_23/BiasAdd/ReadVariableOp", "shape": [128], "dtype": "float32"}, {"name": "StatefulPartitionedCall/light_chain_align_airr_1/conv_residual_feature_extraction_block_1/conv1d_and__batch_norm_7/conv1d_24/Conv1D/ExpandDims/dim", "shape": [], "dtype": "int32"}, {"name": "StatefulPartitionedCall/light_chain_align_airr_1/conv_residual_feature_extraction_block_1/conv1d_and__batch_norm_7/conv1d_24/Conv1D/ExpandDims_1", "shape": [1, 3, 128, 128], "dtype": "float32"}, {"name": "StatefulPartitionedCall/light_chain_align_airr_1/conv_residual_feature_extraction_block_1/conv1d_and__batch_norm_7/conv1d_24/BiasAdd/ReadVariableOp", "shape": [128], "dtype": "float32"}, {"name": "StatefulPartitionedCall/light_chain_align_airr_1/conv_residual_feature_extraction_block_1/conv1d_and__batch_norm_7/batch_normalization_7/batchnorm/mul", "shape": [128], "dtype": "float32"}, {"name": "StatefulPartitionedCall/light_chain_align_airr_1/conv_residual_feature_extraction_block_1/conv1d_and__batch_norm_7/batch_normalization_7/batchnorm/sub", "shape": [128], "dtype": "float32"}, {"name": "StatefulPartitionedCall/light_chain_align_airr_1/conv_residual_feature_extraction_block_1/conv1d_and__batch_norm_7/max_pooling1d_13/ExpandDims/dim", "shape": [], "dtype": "int32"}, {"name": "StatefulPartitionedCall/light_chain_align_airr_1/conv_residual_feature_extraction_block_1/conv1d_and__batch_norm_6/conv1d_19/Conv1D/ExpandDims/dim", "shape": [], "dtype": "int32"}, {"name": "StatefulPartitionedCall/light_chain_align_airr_1/conv_residual_feature_extraction_block_1/conv1d_and__batch_norm_6/conv1d_19/Conv1D/ExpandDims_1", "shape": [1, 3, 32, 128], "dtype": "float32"}, {"name": "StatefulPartitionedCall/light_chain_align_airr_1/conv_residual_feature_extraction_block_1/conv1d_and__batch_norm_6/conv1d_19/BiasAdd/ReadVariableOp", "shape": [128], "dtype": "float32"}, {"name": "StatefulPartitionedCall/light_chain_align_airr_1/conv_residual_feature_extraction_block_1/conv1d_and__batch_norm_6/conv1d_20/Conv1D/ExpandDims/dim", "shape": [], "dtype": "int32"}, {"name": "StatefulPartitionedCall/light_chain_align_airr_1/conv_residual_feature_extraction_block_1/conv1d_and__batch_norm_6/conv1d_20/Conv1D/ExpandDims_1", "shape": [1, 3, 128, 128], "dtype": "float32"}, {"name": "StatefulPartitionedCall/light_chain_align_airr_1/conv_residual_feature_extraction_block_1/conv1d_and__batch_norm_6/conv1d_20/BiasAdd/ReadVariableOp", "shape": [128], "dtype": "float32"}, {"name": "StatefulPartitionedCall/light_chain_align_airr_1/conv_residual_feature_extraction_block_1/conv1d_and__batch_norm_6/conv1d_21/Conv1D/ExpandDims/dim", "shape": [], "dtype": "int32"}, {"name": "StatefulPartitionedCall/light_chain_align_airr_1/conv_residual_feature_extraction_block_1/conv1d_and__batch_norm_6/conv1d_21/Conv1D/ExpandDims_1", "shape": [1, 3, 128, 128], "dtype": "float32"}, {"name": "StatefulPartitionedCall/light_chain_align_airr_1/conv_residual_feature_extraction_block_1/conv1d_and__batch_norm_6/conv1d_21/BiasAdd/ReadVariableOp", "shape": [128], "dtype": "float32"}, {"name": "StatefulPartitionedCall/light_chain_align_airr_1/conv_residual_feature_extraction_block_1/conv1d_and__batch_norm_6/batch_normalization_6/batchnorm/mul", "shape": [128], "dtype": "float32"}, {"name": "StatefulPartitionedCall/light_chain_align_airr_1/conv_residual_feature_extraction_block_1/conv1d_and__batch_norm_6/batch_normalization_6/batchnorm/sub", "shape": [128], "dtype": "float32"}, {"name": "StatefulPartitionedCall/light_chain_align_airr_1/conv_residual_feature_extraction_block_1/conv1d_and__batch_norm_6/max_pooling1d_12/ExpandDims/dim", "shape": [], "dtype": "int32"}, {"name": "unknown_0", "shape": [6, 32], "dtype": "float32"}, {"name": "StatefulPartitionedCall/light_chain_align_airr_1/Reshape/shape", "shape": [2], "dtype": "int32"}, {"name": "StatefulPartitionedCall/light_chain_align_airr_1/token_and_position_embedding/embedding/embedding_lookup/axis", "shape": [], "dtype": "int32"}, {"name": "StatefulPartitionedCall/light_chain_align_airr_1/token_and_position_embedding/embedding_1/embedding_lookup", "shape": [576, 32], "dtype": "float32"}, {"name": "StatefulPartitionedCall/light_chain_align_airr_1/conv_residual_feature_extraction_block_1/conv1d_31/Conv1D/ExpandDims/dim", "shape": [], "dtype": "int32"}, {"name": "StatefulPartitionedCall/light_chain_align_airr_1/conv_residual_feature_extraction_block_1/conv1d_31/Conv1D/ExpandDims_1", "shape": [1, 5, 32, 128], "dtype": "float32"}, {"name": "StatefulPartitionedCall/light_chain_align_airr_1/conv_residual_feature_extraction_block_1/conv1d_31/BiasAdd/ReadVariableOp", "shape": [128], "dtype": "float32"}, {"name": "StatefulPartitionedCall/light_chain_align_airr_1/conv_residual_feature_extraction_block_1/max_pooling1d_16/ExpandDims/dim", "shape": [], "dtype": "int32"}, {"name": "StatefulPartitionedCall/light_chain_align_airr_1/conv_residual_feature_extraction_block_1/max_pooling1d_16/ExpandDims_1/dim", "shape": [], "dtype": "int32"}, {"name": "StatefulPartitionedCall/light_chain_align_airr_1/conv_residual_feature_extraction_block_1/max_pooling1d_17/ExpandDims/dim", "shape": [], "dtype": "int32"}, {"name": "StatefulPartitionedCall/light_chain_align_airr_1/conv_residual_feature_extraction_block_1/max_pooling1d_18/ExpandDims/dim", "shape": [], "dtype": "int32"}, {"name": "StatefulPartitionedCall/light_chain_align_airr_1/conv_residual_feature_extraction_block_1/max_pooling1d_19/ExpandDims/dim", "shape": [], "dtype": "int32"}, {"name": "StatefulPartitionedCall/light_chain_align_airr_1/conv_residual_feature_extraction_block_1/flatten_1/Const", "shape": [2], "dtype": "int32"}, {"name": "StatefulPartitionedCall/light_chain_align_airr_1/conv_residual_feature_extraction_block_1/dense_1/MatMul/ReadVariableOp", "shape": [2304, 576], "dtype": "float32"}, {"name": "StatefulPartitionedCall/light_chain_align_airr_1/conv_residual_feature_extraction_block_1/dense_1/BiasAdd/ReadVariableOp", "shape": [576], "dtype": "float32"}, {"name": "StatefulPartitionedCall/light_chain_align_airr_1/v_start/MatMul/ReadVariableOp", "shape": [576, 1], "dtype": "float32"}, {"name": "StatefulPartitionedCall/light_chain_align_airr_1/v_start/BiasAdd/ReadVariableOp", "shape": [1], "dtype": "float32"}, {"name": "ConstantFolding/StatefulPartitionedCall/light_chain_align_airr_1/v_start/Gelu/truediv_recip", "shape": [], "dtype": "float32"}]}]}