{"format": "graph-model", "generatedBy": "2.9.1", "convertedBy": "TensorFlow.js Converter v4.16.0", "signature": {"inputs": {"tokenized_sequence": {"name": "tokenized_sequence:0", "dtype": "DT_INT32", "tensorShape": {"dim": [{"size": "-1"}, {"size": "576"}]}}}, "outputs": {"v_segment": {"name": "Identity_7:0", "dtype": "DT_FLOAT", "tensorShape": {"dim": [{"size": "-1"}, {"size": "576"}]}}, "indel_count": {"name": "Identity_2:0", "dtype": "DT_FLOAT", "tensorShape": {"dim": [{"size": "-1"}, {"size": "1"}]}}, "d_segment": {"name": "Identity_1:0", "dtype": "DT_FLOAT", "tensorShape": {"dim": [{"size": "-1"}, {"size": "576"}]}}, "mutation_rate": {"name": "Identity_5:0", "dtype": "DT_FLOAT", "tensorShape": {"dim": [{"size": "-1"}, {"size": "1"}]}}, "j_allele": {"name": "Identity_3:0", "dtype": "DT_FLOAT", "tensorShape": {"dim": [{"size": "-1"}, {"size": "7"}]}}, "d_allele": {"name": "Identity:0", "dtype": "DT_FLOAT", "tensorShape": {"dim": [{"size": "-1"}, {"size": "34"}]}}, "j_segment": {"name": "Identity_4:0", "dtype": "DT_FLOAT", "tensorShape": {"dim": [{"size": "-1"}, {"size": "576"}]}}, "v_allele": {"name": "Identity_6:0", "dtype": "DT_FLOAT", "tensorShape": {"dim": [{"size": "-1"}, {"size": "198"}]}}}}, "modelTopology": {"node": [{"name": "StatefulPartitionedCall/heavy_chain_align_airr_2/conv_residual_feature_extraction_block_10/conv1d_and__batch_norm_52/conv1d_166/Conv1D/ExpandDims/dim", "op": "Const", "attr": {"value": {"tensor": {"dtype": "DT_INT32", "tensorShape": {}}}, "dtype": {"type": "DT_INT32"}}}, {"name": "StatefulPartitionedCall/heavy_chain_align_airr_2/conv_residual_feature_extraction_block_10/conv1d_and__batch_norm_52/conv1d_166/Conv1D/ExpandDims_1", "op": "Const", "attr": {"value": {"tensor": {"dtype": "DT_FLOAT", "tensorShape": {"dim": [{"size": "1"}, {"size": "3"}, {"size": "64"}, {"size": "64"}]}}}, "dtype": {"type": "DT_FLOAT"}}}, {"name": "StatefulPartitionedCall/heavy_chain_align_airr_2/conv_residual_feature_extraction_block_10/conv1d_and__batch_norm_52/conv1d_166/BiasAdd/ReadVariableOp", "op": "Const", "attr": {"value": {"tensor": {"dtype": "DT_FLOAT", "tensorShape": {"dim": [{"size": "64"}]}}}, "dtype": {"type": "DT_FLOAT"}}}, {"name": "StatefulPartitionedCall/heavy_chain_align_airr_2/conv_residual_feature_extraction_block_10/conv1d_and__batch_norm_52/conv1d_167/Conv1D/ExpandDims/dim", "op": "Const", "attr": {"value": {"tensor": {"dtype": "DT_INT32", "tensorShape": {}}}, "dtype": {"type": "DT_INT32"}}}, {"name": "StatefulPartitionedCall/heavy_chain_align_airr_2/conv_residual_feature_extraction_block_10/conv1d_and__batch_norm_52/conv1d_167/Conv1D/ExpandDims_1", "op": "Const", "attr": {"value": {"tensor": {"dtype": "DT_FLOAT", "tensorShape": {"dim": [{"size": "1"}, {"size": "3"}, {"size": "64"}, {"size": "64"}]}}}, "dtype": {"type": "DT_FLOAT"}}}, {"name": "StatefulPartitionedCall/heavy_chain_align_airr_2/conv_residual_feature_extraction_block_10/conv1d_and__batch_norm_52/conv1d_167/BiasAdd/ReadVariableOp", "op": "Const", "attr": {"value": {"tensor": {"dtype": "DT_FLOAT", "tensorShape": {"dim": [{"size": "64"}]}}}, "dtype": {"type": "DT_FLOAT"}}}, {"name": "StatefulPartitionedCall/heavy_chain_align_airr_2/conv_residual_feature_extraction_block_10/conv1d_and__batch_norm_52/conv1d_168/Conv1D/ExpandDims/dim", "op": "Const", "attr": {"value": {"tensor": {"dtype": "DT_INT32", "tensorShape": {}}}, "dtype": {"type": "DT_INT32"}}}, {"name": "StatefulPartitionedCall/heavy_chain_align_airr_2/conv_residual_feature_extraction_block_10/conv1d_and__batch_norm_52/conv1d_168/Conv1D/ExpandDims_1", "op": "Const", "attr": {"value": {"tensor": {"dtype": "DT_FLOAT", "tensorShape": {"dim": [{"size": "1"}, {"size": "3"}, {"size": "64"}, {"size": "64"}]}}}, "dtype": {"type": "DT_FLOAT"}}}, {"name": "StatefulPartitionedCall/heavy_chain_align_airr_2/conv_residual_feature_extraction_block_10/conv1d_and__batch_norm_52/conv1d_168/BiasAdd/ReadVariableOp", "op": "Const", "attr": {"value": {"tensor": {"dtype": "DT_FLOAT", "tensorShape": {"dim": [{"size": "64"}]}}}, "dtype": {"type": "DT_FLOAT"}}}, {"name": "StatefulPartitionedCall/heavy_chain_align_airr_2/conv_residual_feature_extraction_block_10/conv1d_and__batch_norm_52/batch_normalization_52/batchnorm/mul", "op": "Const", "attr": {"value": {"tensor": {"dtype": "DT_FLOAT", "tensorShape": {"dim": [{"size": "64"}]}}}, "dtype": {"type": "DT_FLOAT"}}}, {"name": "StatefulPartitionedCall/heavy_chain_align_airr_2/conv_residual_feature_extraction_block_10/conv1d_and__batch_norm_52/batch_normalization_52/batchnorm/sub", "op": "Const", "attr": {"value": {"tensor": {"dtype": "DT_FLOAT", "tensorShape": {"dim": [{"size": "64"}]}}}, "dtype": {"type": "DT_FLOAT"}}}, {"name": "StatefulPartitionedCall/heavy_chain_align_airr_2/conv_residual_feature_extraction_block_10/conv1d_and__batch_norm_52/max_pooling1d_101/ExpandDims/dim", "op": "Const", "attr": {"value": {"tensor": {"dtype": "DT_INT32", "tensorShape": {}}}, "dtype": {"type": "DT_INT32"}}}, {"name": "StatefulPartitionedCall/heavy_chain_align_airr_2/conv_residual_feature_extraction_block_10/conv1d_and__batch_norm_51/conv1d_163/Conv1D/ExpandDims/dim", "op": "Const", "attr": {"value": {"tensor": {"dtype": "DT_INT32", "tensorShape": {}}}, "dtype": {"type": "DT_INT32"}}}, {"name": "StatefulPartitionedCall/heavy_chain_align_airr_2/conv_residual_feature_extraction_block_10/conv1d_and__batch_norm_51/conv1d_163/Conv1D/ExpandDims_1", "op": "Const", "attr": {"value": {"tensor": {"dtype": "DT_FLOAT", "tensorShape": {"dim": [{"size": "1"}, {"size": "3"}, {"size": "64"}, {"size": "64"}]}}}, "dtype": {"type": "DT_FLOAT"}}}, {"name": "StatefulPartitionedCall/heavy_chain_align_airr_2/conv_residual_feature_extraction_block_10/conv1d_and__batch_norm_51/conv1d_163/BiasAdd/ReadVariableOp", "op": "Const", "attr": {"value": {"tensor": {"dtype": "DT_FLOAT", "tensorShape": {"dim": [{"size": "64"}]}}}, "dtype": {"type": "DT_FLOAT"}}}, {"name": "StatefulPartitionedCall/heavy_chain_align_airr_2/conv_residual_feature_extraction_block_10/conv1d_and__batch_norm_51/conv1d_164/Conv1D/ExpandDims/dim", "op": "Const", "attr": {"value": {"tensor": {"dtype": "DT_INT32", "tensorShape": {}}}, "dtype": {"type": "DT_INT32"}}}, {"name": "StatefulPartitionedCall/heavy_chain_align_airr_2/conv_residual_feature_extraction_block_10/conv1d_and__batch_norm_51/conv1d_164/Conv1D/ExpandDims_1", "op": "Const", "attr": {"value": {"tensor": {"dtype": "DT_FLOAT", "tensorShape": {"dim": [{"size": "1"}, {"size": "3"}, {"size": "64"}, {"size": "64"}]}}}, "dtype": {"type": "DT_FLOAT"}}}, {"name": "StatefulPartitionedCall/heavy_chain_align_airr_2/conv_residual_feature_extraction_block_10/conv1d_and__batch_norm_51/conv1d_164/BiasAdd/ReadVariableOp", "op": "Const", "attr": {"value": {"tensor": {"dtype": "DT_FLOAT", "tensorShape": {"dim": [{"size": "64"}]}}}, "dtype": {"type": "DT_FLOAT"}}}, {"name": "StatefulPartitionedCall/heavy_chain_align_airr_2/conv_residual_feature_extraction_block_10/conv1d_and__batch_norm_51/conv1d_165/Conv1D/ExpandDims/dim", "op": "Const", "attr": {"value": {"tensor": {"dtype": "DT_INT32", "tensorShape": {}}}, "dtype": {"type": "DT_INT32"}}}, {"name": "StatefulPartitionedCall/heavy_chain_align_airr_2/conv_residual_feature_extraction_block_10/conv1d_and__batch_norm_51/conv1d_165/Conv1D/ExpandDims_1", "op": "Const", "attr": {"value": {"tensor": {"dtype": "DT_FLOAT", "tensorShape": {"dim": [{"size": "1"}, {"size": "3"}, {"size": "64"}, {"size": "64"}]}}}, "dtype": {"type": "DT_FLOAT"}}}, {"name": "StatefulPartitionedCall/heavy_chain_align_airr_2/conv_residual_feature_extraction_block_10/conv1d_and__batch_norm_51/conv1d_165/BiasAdd/ReadVariableOp", "op": "Const", "attr": {"value": {"tensor": {"dtype": "DT_FLOAT", "tensorShape": {"dim": [{"size": "64"}]}}}, "dtype": {"type": "DT_FLOAT"}}}, {"name": "StatefulPartitionedCall/heavy_chain_align_airr_2/conv_residual_feature_extraction_block_10/conv1d_and__batch_norm_51/batch_normalization_51/batchnorm/mul", "op": "Const", "attr": {"value": {"tensor": {"dtype": "DT_FLOAT", "tensorShape": {"dim": [{"size": "64"}]}}}, "dtype": {"type": "DT_FLOAT"}}}, {"name": "StatefulPartitionedCall/heavy_chain_align_airr_2/conv_residual_feature_extraction_block_10/conv1d_and__batch_norm_51/batch_normalization_51/batchnorm/sub", "op": "Const", "attr": {"value": {"tensor": {"dtype": "DT_FLOAT", "tensorShape": {"dim": [{"size": "64"}]}}}, "dtype": {"type": "DT_FLOAT"}}}, {"name": "StatefulPartitionedCall/heavy_chain_align_airr_2/conv_residual_feature_extraction_block_10/conv1d_and__batch_norm_51/max_pooling1d_100/ExpandDims/dim", "op": "Const", "attr": {"value": {"tensor": {"dtype": "DT_INT32", "tensorShape": {}}}, "dtype": {"type": "DT_INT32"}}}, {"name": "StatefulPartitionedCall/heavy_chain_align_airr_2/conv_residual_feature_extraction_block_10/conv1d_and__batch_norm_50/conv1d_160/Conv1D/ExpandDims/dim", "op": "Const", "attr": {"value": {"tensor": {"dtype": "DT_INT32", "tensorShape": {}}}, "dtype": {"type": "DT_INT32"}}}, {"name": "StatefulPartitionedCall/heavy_chain_align_airr_2/conv_residual_feature_extraction_block_10/conv1d_and__batch_norm_50/conv1d_160/Conv1D/ExpandDims_1", "op": "Const", "attr": {"value": {"tensor": {"dtype": "DT_FLOAT", "tensorShape": {"dim": [{"size": "1"}, {"size": "3"}, {"size": "64"}, {"size": "64"}]}}}, "dtype": {"type": "DT_FLOAT"}}}, {"name": "StatefulPartitionedCall/heavy_chain_align_airr_2/conv_residual_feature_extraction_block_10/conv1d_and__batch_norm_50/conv1d_160/BiasAdd/ReadVariableOp", "op": "Const", "attr": {"value": {"tensor": {"dtype": "DT_FLOAT", "tensorShape": {"dim": [{"size": "64"}]}}}, "dtype": {"type": "DT_FLOAT"}}}, {"name": "StatefulPartitionedCall/heavy_chain_align_airr_2/conv_residual_feature_extraction_block_10/conv1d_and__batch_norm_50/conv1d_161/Conv1D/ExpandDims/dim", "op": "Const", "attr": {"value": {"tensor": {"dtype": "DT_INT32", "tensorShape": {}}}, "dtype": {"type": "DT_INT32"}}}, {"name": "StatefulPartitionedCall/heavy_chain_align_airr_2/conv_residual_feature_extraction_block_10/conv1d_and__batch_norm_50/conv1d_161/Conv1D/ExpandDims_1", "op": "Const", "attr": {"value": {"tensor": {"dtype": "DT_FLOAT", "tensorShape": {"dim": [{"size": "1"}, {"size": "3"}, {"size": "64"}, {"size": "64"}]}}}, "dtype": {"type": "DT_FLOAT"}}}, {"name": "StatefulPartitionedCall/heavy_chain_align_airr_2/conv_residual_feature_extraction_block_10/conv1d_and__batch_norm_50/conv1d_161/BiasAdd/ReadVariableOp", "op": "Const", "attr": {"value": {"tensor": {"dtype": "DT_FLOAT", "tensorShape": {"dim": [{"size": "64"}]}}}, "dtype": {"type": "DT_FLOAT"}}}, {"name": "StatefulPartitionedCall/heavy_chain_align_airr_2/conv_residual_feature_extraction_block_10/conv1d_and__batch_norm_50/conv1d_162/Conv1D/ExpandDims/dim", "op": "Const", "attr": {"value": {"tensor": {"dtype": "DT_INT32", "tensorShape": {}}}, "dtype": {"type": "DT_INT32"}}}, {"name": "StatefulPartitionedCall/heavy_chain_align_airr_2/conv_residual_feature_extraction_block_10/conv1d_and__batch_norm_50/conv1d_162/Conv1D/ExpandDims_1", "op": "Const", "attr": {"value": {"tensor": {"dtype": "DT_FLOAT", "tensorShape": {"dim": [{"size": "1"}, {"size": "3"}, {"size": "64"}, {"size": "64"}]}}}, "dtype": {"type": "DT_FLOAT"}}}, {"name": "StatefulPartitionedCall/heavy_chain_align_airr_2/conv_residual_feature_extraction_block_10/conv1d_and__batch_norm_50/conv1d_162/BiasAdd/ReadVariableOp", "op": "Const", "attr": {"value": {"tensor": {"dtype": "DT_FLOAT", "tensorShape": {"dim": [{"size": "64"}]}}}, "dtype": {"type": "DT_FLOAT"}}}, {"name": "StatefulPartitionedCall/heavy_chain_align_airr_2/conv_residual_feature_extraction_block_10/conv1d_and__batch_norm_50/batch_normalization_50/batchnorm/mul", "op": "Const", "attr": {"value": {"tensor": {"dtype": "DT_FLOAT", "tensorShape": {"dim": [{"size": "64"}]}}}, "dtype": {"type": "DT_FLOAT"}}}, {"name": "StatefulPartitionedCall/heavy_chain_align_airr_2/conv_residual_feature_extraction_block_10/conv1d_and__batch_norm_50/batch_normalization_50/batchnorm/sub", "op": "Const", "attr": {"value": {"tensor": {"dtype": "DT_FLOAT", "tensorShape": {"dim": [{"size": "64"}]}}}, "dtype": {"type": "DT_FLOAT"}}}, {"name": "StatefulPartitionedCall/heavy_chain_align_airr_2/conv_residual_feature_extraction_block_10/conv1d_and__batch_norm_50/max_pooling1d_99/ExpandDims/dim", "op": "Const", "attr": {"value": {"tensor": {"dtype": "DT_INT32", "tensorShape": {}}}, "dtype": {"type": "DT_INT32"}}}, {"name": "StatefulPartitionedCall/heavy_chain_align_airr_2/conv_residual_feature_extraction_block_10/conv1d_and__batch_norm_49/conv1d_157/Conv1D/ExpandDims/dim", "op": "Const", "attr": {"value": {"tensor": {"dtype": "DT_INT32", "tensorShape": {}}}, "dtype": {"type": "DT_INT32"}}}, {"name": "StatefulPartitionedCall/heavy_chain_align_airr_2/conv_residual_feature_extraction_block_10/conv1d_and__batch_norm_49/conv1d_157/Conv1D/ExpandDims_1", "op": "Const", "attr": {"value": {"tensor": {"dtype": "DT_FLOAT", "tensorShape": {"dim": [{"size": "1"}, {"size": "3"}, {"size": "32"}, {"size": "64"}]}}}, "dtype": {"type": "DT_FLOAT"}}}, {"name": "StatefulPartitionedCall/heavy_chain_align_airr_2/conv_residual_feature_extraction_block_10/conv1d_and__batch_norm_49/conv1d_157/BiasAdd/ReadVariableOp", "op": "Const", "attr": {"value": {"tensor": {"dtype": "DT_FLOAT", "tensorShape": {"dim": [{"size": "64"}]}}}, "dtype": {"type": "DT_FLOAT"}}}, {"name": "StatefulPartitionedCall/heavy_chain_align_airr_2/conv_residual_feature_extraction_block_10/conv1d_and__batch_norm_49/conv1d_158/Conv1D/ExpandDims/dim", "op": "Const", "attr": {"value": {"tensor": {"dtype": "DT_INT32", "tensorShape": {}}}, "dtype": {"type": "DT_INT32"}}}, {"name": "StatefulPartitionedCall/heavy_chain_align_airr_2/conv_residual_feature_extraction_block_10/conv1d_and__batch_norm_49/conv1d_158/Conv1D/ExpandDims_1", "op": "Const", "attr": {"value": {"tensor": {"dtype": "DT_FLOAT", "tensorShape": {"dim": [{"size": "1"}, {"size": "3"}, {"size": "64"}, {"size": "64"}]}}}, "dtype": {"type": "DT_FLOAT"}}}, {"name": "StatefulPartitionedCall/heavy_chain_align_airr_2/conv_residual_feature_extraction_block_10/conv1d_and__batch_norm_49/conv1d_158/BiasAdd/ReadVariableOp", "op": "Const", "attr": {"value": {"tensor": {"dtype": "DT_FLOAT", "tensorShape": {"dim": [{"size": "64"}]}}}, "dtype": {"type": "DT_FLOAT"}}}, {"name": "StatefulPartitionedCall/heavy_chain_align_airr_2/conv_residual_feature_extraction_block_10/conv1d_and__batch_norm_49/conv1d_159/Conv1D/ExpandDims/dim", "op": "Const", "attr": {"value": {"tensor": {"dtype": "DT_INT32", "tensorShape": {}}}, "dtype": {"type": "DT_INT32"}}}, {"name": "StatefulPartitionedCall/heavy_chain_align_airr_2/conv_residual_feature_extraction_block_10/conv1d_and__batch_norm_49/conv1d_159/Conv1D/ExpandDims_1", "op": "Const", "attr": {"value": {"tensor": {"dtype": "DT_FLOAT", "tensorShape": {"dim": [{"size": "1"}, {"size": "3"}, {"size": "64"}, {"size": "64"}]}}}, "dtype": {"type": "DT_FLOAT"}}}, {"name": "StatefulPartitionedCall/heavy_chain_align_airr_2/conv_residual_feature_extraction_block_10/conv1d_and__batch_norm_49/conv1d_159/BiasAdd/ReadVariableOp", "op": "Const", "attr": {"value": {"tensor": {"dtype": "DT_FLOAT", "tensorShape": {"dim": [{"size": "64"}]}}}, "dtype": {"type": "DT_FLOAT"}}}, {"name": "StatefulPartitionedCall/heavy_chain_align_airr_2/conv_residual_feature_extraction_block_10/conv1d_and__batch_norm_49/batch_normalization_49/batchnorm/mul", "op": "Const", "attr": {"value": {"tensor": {"dtype": "DT_FLOAT", "tensorShape": {"dim": [{"size": "64"}]}}}, "dtype": {"type": "DT_FLOAT"}}}, {"name": "StatefulPartitionedCall/heavy_chain_align_airr_2/conv_residual_feature_extraction_block_10/conv1d_and__batch_norm_49/batch_normalization_49/batchnorm/sub", "op": "Const", "attr": {"value": {"tensor": {"dtype": "DT_FLOAT", "tensorShape": {"dim": [{"size": "64"}]}}}, "dtype": {"type": "DT_FLOAT"}}}, {"name": "StatefulPartitionedCall/heavy_chain_align_airr_2/conv_residual_feature_extraction_block_10/conv1d_and__batch_norm_49/max_pooling1d_98/ExpandDims/dim", "op": "Const", "attr": {"value": {"tensor": {"dtype": "DT_INT32", "tensorShape": {}}}, "dtype": {"type": "DT_INT32"}}}, {"name": "StatefulPartitionedCall/heavy_chain_align_airr_2/reshape_7/strided_slice/stack", "op": "Const", "attr": {"value": {"tensor": {"dtype": "DT_INT32", "tensorShape": {"dim": [{"size": "1"}]}}}, "dtype": {"type": "DT_INT32"}}}, {"name": "StatefulPartitionedCall/heavy_chain_align_airr_2/reshape_7/strided_slice/stack_1", "op": "Const", "attr": {"value": {"tensor": {"dtype": "DT_INT32", "tensorShape": {"dim": [{"size": "1"}]}}}, "dtype": {"type": "DT_INT32"}}}, {"name": "StatefulPartitionedCall/heavy_chain_align_airr_2/reshape_7/strided_slice/stack_2", "op": "Const", "attr": {"value": {"tensor": {"dtype": "DT_INT32", "tensorShape": {"dim": [{"size": "1"}]}}}, "dtype": {"type": "DT_INT32"}}}, {"name": "StatefulPartitionedCall/heavy_chain_align_airr_2/reshape_7/Reshape/shape/1", "op": "Const", "attr": {"value": {"tensor": {"dtype": "DT_INT32", "tensorShape": {}}}, "dtype": {"type": "DT_INT32"}}}, {"name": "StatefulPartitionedCall/heavy_chain_align_airr_2/reshape_7/Reshape/shape/2", "op": "Const", "attr": {"value": {"tensor": {"dtype": "DT_INT32", "tensorShape": {}}}, "dtype": {"type": "DT_INT32"}}}, {"name": "StatefulPartitionedCall/heavy_chain_align_airr_2/conv_residual_feature_extraction_block_10/conv1d_169/Conv1D/ExpandDims/dim", "op": "Const", "attr": {"value": {"tensor": {"dtype": "DT_INT32", "tensorShape": {}}}, "dtype": {"type": "DT_INT32"}}}, {"name": "StatefulPartitionedCall/heavy_chain_align_airr_2/conv_residual_feature_extraction_block_10/conv1d_169/Conv1D/ExpandDims_1", "op": "Const", "attr": {"value": {"tensor": {"dtype": "DT_FLOAT", "tensorShape": {"dim": [{"size": "1"}, {"size": "5"}, {"size": "32"}, {"size": "64"}]}}}, "dtype": {"type": "DT_FLOAT"}}}, {"name": "StatefulPartitionedCall/heavy_chain_align_airr_2/conv_residual_feature_extraction_block_10/conv1d_169/BiasAdd/ReadVariableOp", "op": "Const", "attr": {"value": {"tensor": {"dtype": "DT_FLOAT", "tensorShape": {"dim": [{"size": "64"}]}}}, "dtype": {"type": "DT_FLOAT"}}}, {"name": "StatefulPartitionedCall/heavy_chain_align_airr_2/conv_residual_feature_extraction_block_10/max_pooling1d_102/ExpandDims/dim", "op": "Const", "attr": {"value": {"tensor": {"dtype": "DT_INT32", "tensorShape": {}}}, "dtype": {"type": "DT_INT32"}}}, {"name": "StatefulPartitionedCall/heavy_chain_align_airr_2/conv_residual_feature_extraction_block_10/max_pooling1d_102/ExpandDims_1/dim", "op": "Const", "attr": {"value": {"tensor": {"dtype": "DT_INT32", "tensorShape": {}}}, "dtype": {"type": "DT_INT32"}}}, {"name": "StatefulPartitionedCall/heavy_chain_align_airr_2/conv_residual_feature_extraction_block_10/max_pooling1d_103/ExpandDims/dim", "op": "Const", "attr": {"value": {"tensor": {"dtype": "DT_INT32", "tensorShape": {}}}, "dtype": {"type": "DT_INT32"}}}, {"name": "StatefulPartitionedCall/heavy_chain_align_airr_2/conv_residual_feature_extraction_block_10/max_pooling1d_104/ExpandDims/dim", "op": "Const", "attr": {"value": {"tensor": {"dtype": "DT_INT32", "tensorShape": {}}}, "dtype": {"type": "DT_INT32"}}}, {"name": "StatefulPartitionedCall/heavy_chain_align_airr_2/conv_residual_feature_extraction_block_10/max_pooling1d_105/ExpandDims/dim", "op": "Const", "attr": {"value": {"tensor": {"dtype": "DT_INT32", "tensorShape": {}}}, "dtype": {"type": "DT_INT32"}}}, {"name": "StatefulPartitionedCall/heavy_chain_align_airr_2/conv_residual_feature_extraction_block_10/flatten_10/Const", "op": "Const", "attr": {"value": {"tensor": {"dtype": "DT_INT32", "tensorShape": {"dim": [{"size": "2"}]}}}, "dtype": {"type": "DT_INT32"}}}, {"name": "StatefulPartitionedCall/heavy_chain_align_airr_2/d_allele_middle/MatMul/ReadVariableOp", "op": "Const", "attr": {"value": {"tensor": {"dtype": "DT_FLOAT", "tensorShape": {"dim": [{"size": "1152"}, {"size": "68"}]}}}, "dtype": {"type": "DT_FLOAT"}}}, {"name": "StatefulPartitionedCall/heavy_chain_align_airr_2/d_allele_middle/BiasAdd/ReadVariableOp", "op": "Const", "attr": {"value": {"tensor": {"dtype": "DT_FLOAT", "tensorShape": {"dim": [{"size": "68"}]}}}, "dtype": {"type": "DT_FLOAT"}}}, {"name": "StatefulPartitionedCall/heavy_chain_align_airr_2/d_allele/MatMul/ReadVariableOp", "op": "Const", "attr": {"value": {"tensor": {"dtype": "DT_FLOAT", "tensorShape": {"dim": [{"size": "68"}, {"size": "34"}]}}}, "dtype": {"type": "DT_FLOAT"}}}, {"name": "StatefulPartitionedCall/heavy_chain_align_airr_2/d_allele/BiasAdd/ReadVariableOp", "op": "Const", "attr": {"value": {"tensor": {"dtype": "DT_FLOAT", "tensorShape": {"dim": [{"size": "34"}]}}}, "dtype": {"type": "DT_FLOAT"}}}, {"name": "StatefulPartitionedCall/heavy_chain_align_airr_2/dense_7/MatMul/ReadVariableOp", "op": "Const", "attr": {"value": {"tensor": {"dtype": "DT_FLOAT", "tensorShape": {"dim": [{"size": "576"}, {"size": "32"}]}}}, "dtype": {"type": "DT_FLOAT"}}}, {"name": "StatefulPartitionedCall/heavy_chain_align_airr_2/dense_7/BiasAdd/ReadVariableOp", "op": "Const", "attr": {"value": {"tensor": {"dtype": "DT_FLOAT", "tensorShape": {"dim": [{"size": "32"}]}}}, "dtype": {"type": "DT_FLOAT"}}}, {"name": "StatefulPartitionedCall/heavy_chain_align_airr_2/d_segment/MatMul/ReadVariableOp", "op": "Const", "attr": {"value": {"tensor": {"dtype": "DT_FLOAT", "tensorShape": {"dim": [{"size": "32"}, {"size": "576"}]}}}, "dtype": {"type": "DT_FLOAT"}}}, {"name": "StatefulPartitionedCall/heavy_chain_align_airr_2/d_segment/BiasAdd/ReadVariableOp", "op": "Const", "attr": {"value": {"tensor": {"dtype": "DT_FLOAT", "tensorShape": {"dim": [{"size": "576"}]}}}, "dtype": {"type": "DT_FLOAT"}}}, {"name": "StatefulPartitionedCall/heavy_chain_align_airr_2/indel_count_mid/MatMul/ReadVariableOp", "op": "Const", "attr": {"value": {"tensor": {"dtype": "DT_FLOAT", "tensorShape": {"dim": [{"size": "576"}, {"size": "288"}]}}}, "dtype": {"type": "DT_FLOAT"}}}, {"name": "StatefulPartitionedCall/heavy_chain_align_airr_2/indel_count_mid/BiasAdd/ReadVariableOp", "op": "Const", "attr": {"value": {"tensor": {"dtype": "DT_FLOAT", "tensorShape": {"dim": [{"size": "288"}]}}}, "dtype": {"type": "DT_FLOAT"}}}, {"name": "StatefulPartitionedCall/heavy_chain_align_airr_2/indel_count/MatMul/ReadVariableOp", "op": "Const", "attr": {"value": {"tensor": {"dtype": "DT_FLOAT", "tensorShape": {"dim": [{"size": "288"}, {"size": "1"}]}}}, "dtype": {"type": "DT_FLOAT"}}}, {"name": "StatefulPartitionedCall/heavy_chain_align_airr_2/indel_count/BiasAdd/ReadVariableOp", "op": "Const", "attr": {"value": {"tensor": {"dtype": "DT_FLOAT", "tensorShape": {"dim": [{"size": "1"}]}}}, "dtype": {"type": "DT_FLOAT"}}}, {"name": "StatefulPartitionedCall/heavy_chain_align_airr_2/conv_residual_feature_extraction_block_11/conv1d_and__batch_norm_56/conv1d_179/Conv1D/ExpandDims/dim", "op": "Const", "attr": {"value": {"tensor": {"dtype": "DT_INT32", "tensorShape": {}}}, "dtype": {"type": "DT_INT32"}}}, {"name": "StatefulPartitionedCall/heavy_chain_align_airr_2/conv_residual_feature_extraction_block_11/conv1d_and__batch_norm_56/conv1d_179/Conv1D/ExpandDims_1", "op": "Const", "attr": {"value": {"tensor": {"dtype": "DT_FLOAT", "tensorShape": {"dim": [{"size": "1"}, {"size": "2"}, {"size": "64"}, {"size": "64"}]}}}, "dtype": {"type": "DT_FLOAT"}}}, {"name": "StatefulPartitionedCall/heavy_chain_align_airr_2/conv_residual_feature_extraction_block_11/conv1d_and__batch_norm_56/conv1d_179/BiasAdd/ReadVariableOp", "op": "Const", "attr": {"value": {"tensor": {"dtype": "DT_FLOAT", "tensorShape": {"dim": [{"size": "64"}]}}}, "dtype": {"type": "DT_FLOAT"}}}, {"name": "StatefulPartitionedCall/heavy_chain_align_airr_2/conv_residual_feature_extraction_block_11/conv1d_and__batch_norm_56/conv1d_180/Conv1D/ExpandDims/dim", "op": "Const", "attr": {"value": {"tensor": {"dtype": "DT_INT32", "tensorShape": {}}}, "dtype": {"type": "DT_INT32"}}}, {"name": "StatefulPartitionedCall/heavy_chain_align_airr_2/conv_residual_feature_extraction_block_11/conv1d_and__batch_norm_56/conv1d_180/Conv1D/ExpandDims_1", "op": "Const", "attr": {"value": {"tensor": {"dtype": "DT_FLOAT", "tensorShape": {"dim": [{"size": "1"}, {"size": "2"}, {"size": "64"}, {"size": "64"}]}}}, "dtype": {"type": "DT_FLOAT"}}}, {"name": "StatefulPartitionedCall/heavy_chain_align_airr_2/conv_residual_feature_extraction_block_11/conv1d_and__batch_norm_56/conv1d_180/BiasAdd/ReadVariableOp", "op": "Const", "attr": {"value": {"tensor": {"dtype": "DT_FLOAT", "tensorShape": {"dim": [{"size": "64"}]}}}, "dtype": {"type": "DT_FLOAT"}}}, {"name": "StatefulPartitionedCall/heavy_chain_align_airr_2/conv_residual_feature_extraction_block_11/conv1d_and__batch_norm_56/conv1d_181/Conv1D/ExpandDims/dim", "op": "Const", "attr": {"value": {"tensor": {"dtype": "DT_INT32", "tensorShape": {}}}, "dtype": {"type": "DT_INT32"}}}, {"name": "StatefulPartitionedCall/heavy_chain_align_airr_2/conv_residual_feature_extraction_block_11/conv1d_and__batch_norm_56/conv1d_181/Conv1D/ExpandDims_1", "op": "Const", "attr": {"value": {"tensor": {"dtype": "DT_FLOAT", "tensorShape": {"dim": [{"size": "1"}, {"size": "2"}, {"size": "64"}, {"size": "64"}]}}}, "dtype": {"type": "DT_FLOAT"}}}, {"name": "StatefulPartitionedCall/heavy_chain_align_airr_2/conv_residual_feature_extraction_block_11/conv1d_and__batch_norm_56/conv1d_181/BiasAdd/ReadVariableOp", "op": "Const", "attr": {"value": {"tensor": {"dtype": "DT_FLOAT", "tensorShape": {"dim": [{"size": "64"}]}}}, "dtype": {"type": "DT_FLOAT"}}}, {"name": "StatefulPartitionedCall/heavy_chain_align_airr_2/conv_residual_feature_extraction_block_11/conv1d_and__batch_norm_56/batch_normalization_56/batchnorm/mul", "op": "Const", "attr": {"value": {"tensor": {"dtype": "DT_FLOAT", "tensorShape": {"dim": [{"size": "64"}]}}}, "dtype": {"type": "DT_FLOAT"}}}, {"name": "StatefulPartitionedCall/heavy_chain_align_airr_2/conv_residual_feature_extraction_block_11/conv1d_and__batch_norm_56/batch_normalization_56/batchnorm/sub", "op": "Const", "attr": {"value": {"tensor": {"dtype": "DT_FLOAT", "tensorShape": {"dim": [{"size": "64"}]}}}, "dtype": {"type": "DT_FLOAT"}}}, {"name": "StatefulPartitionedCall/heavy_chain_align_airr_2/conv_residual_feature_extraction_block_11/conv1d_and__batch_norm_56/max_pooling1d_109/ExpandDims/dim", "op": "Const", "attr": {"value": {"tensor": {"dtype": "DT_INT32", "tensorShape": {}}}, "dtype": {"type": "DT_INT32"}}}, {"name": "StatefulPartitionedCall/heavy_chain_align_airr_2/conv_residual_feature_extraction_block_11/conv1d_and__batch_norm_55/conv1d_176/Conv1D/ExpandDims/dim", "op": "Const", "attr": {"value": {"tensor": {"dtype": "DT_INT32", "tensorShape": {}}}, "dtype": {"type": "DT_INT32"}}}, {"name": "StatefulPartitionedCall/heavy_chain_align_airr_2/conv_residual_feature_extraction_block_11/conv1d_and__batch_norm_55/conv1d_176/Conv1D/ExpandDims_1", "op": "Const", "attr": {"value": {"tensor": {"dtype": "DT_FLOAT", "tensorShape": {"dim": [{"size": "1"}, {"size": "3"}, {"size": "64"}, {"size": "64"}]}}}, "dtype": {"type": "DT_FLOAT"}}}, {"name": "StatefulPartitionedCall/heavy_chain_align_airr_2/conv_residual_feature_extraction_block_11/conv1d_and__batch_norm_55/conv1d_176/BiasAdd/ReadVariableOp", "op": "Const", "attr": {"value": {"tensor": {"dtype": "DT_FLOAT", "tensorShape": {"dim": [{"size": "64"}]}}}, "dtype": {"type": "DT_FLOAT"}}}, {"name": "StatefulPartitionedCall/heavy_chain_align_airr_2/conv_residual_feature_extraction_block_11/conv1d_and__batch_norm_55/conv1d_177/Conv1D/ExpandDims/dim", "op": "Const", "attr": {"value": {"tensor": {"dtype": "DT_INT32", "tensorShape": {}}}, "dtype": {"type": "DT_INT32"}}}, {"name": "StatefulPartitionedCall/heavy_chain_align_airr_2/conv_residual_feature_extraction_block_11/conv1d_and__batch_norm_55/conv1d_177/Conv1D/ExpandDims_1", "op": "Const", "attr": {"value": {"tensor": {"dtype": "DT_FLOAT", "tensorShape": {"dim": [{"size": "1"}, {"size": "3"}, {"size": "64"}, {"size": "64"}]}}}, "dtype": {"type": "DT_FLOAT"}}}, {"name": "StatefulPartitionedCall/heavy_chain_align_airr_2/conv_residual_feature_extraction_block_11/conv1d_and__batch_norm_55/conv1d_177/BiasAdd/ReadVariableOp", "op": "Const", "attr": {"value": {"tensor": {"dtype": "DT_FLOAT", "tensorShape": {"dim": [{"size": "64"}]}}}, "dtype": {"type": "DT_FLOAT"}}}, {"name": "StatefulPartitionedCall/heavy_chain_align_airr_2/conv_residual_feature_extraction_block_11/conv1d_and__batch_norm_55/conv1d_178/Conv1D/ExpandDims/dim", "op": "Const", "attr": {"value": {"tensor": {"dtype": "DT_INT32", "tensorShape": {}}}, "dtype": {"type": "DT_INT32"}}}, {"name": "StatefulPartitionedCall/heavy_chain_align_airr_2/conv_residual_feature_extraction_block_11/conv1d_and__batch_norm_55/conv1d_178/Conv1D/ExpandDims_1", "op": "Const", "attr": {"value": {"tensor": {"dtype": "DT_FLOAT", "tensorShape": {"dim": [{"size": "1"}, {"size": "3"}, {"size": "64"}, {"size": "64"}]}}}, "dtype": {"type": "DT_FLOAT"}}}, {"name": "StatefulPartitionedCall/heavy_chain_align_airr_2/conv_residual_feature_extraction_block_11/conv1d_and__batch_norm_55/conv1d_178/BiasAdd/ReadVariableOp", "op": "Const", "attr": {"value": {"tensor": {"dtype": "DT_FLOAT", "tensorShape": {"dim": [{"size": "64"}]}}}, "dtype": {"type": "DT_FLOAT"}}}, {"name": "StatefulPartitionedCall/heavy_chain_align_airr_2/conv_residual_feature_extraction_block_11/conv1d_and__batch_norm_55/batch_normalization_55/batchnorm/mul", "op": "Const", "attr": {"value": {"tensor": {"dtype": "DT_FLOAT", "tensorShape": {"dim": [{"size": "64"}]}}}, "dtype": {"type": "DT_FLOAT"}}}, {"name": "StatefulPartitionedCall/heavy_chain_align_airr_2/conv_residual_feature_extraction_block_11/conv1d_and__batch_norm_55/batch_normalization_55/batchnorm/sub", "op": "Const", "attr": {"value": {"tensor": {"dtype": "DT_FLOAT", "tensorShape": {"dim": [{"size": "64"}]}}}, "dtype": {"type": "DT_FLOAT"}}}, {"name": "StatefulPartitionedCall/heavy_chain_align_airr_2/conv_residual_feature_extraction_block_11/conv1d_and__batch_norm_55/max_pooling1d_108/ExpandDims/dim", "op": "Const", "attr": {"value": {"tensor": {"dtype": "DT_INT32", "tensorShape": {}}}, "dtype": {"type": "DT_INT32"}}}, {"name": "StatefulPartitionedCall/heavy_chain_align_airr_2/conv_residual_feature_extraction_block_11/conv1d_and__batch_norm_54/conv1d_173/Conv1D/ExpandDims/dim", "op": "Const", "attr": {"value": {"tensor": {"dtype": "DT_INT32", "tensorShape": {}}}, "dtype": {"type": "DT_INT32"}}}, {"name": "StatefulPartitionedCall/heavy_chain_align_airr_2/conv_residual_feature_extraction_block_11/conv1d_and__batch_norm_54/conv1d_173/Conv1D/ExpandDims_1", "op": "Const", "attr": {"value": {"tensor": {"dtype": "DT_FLOAT", "tensorShape": {"dim": [{"size": "1"}, {"size": "3"}, {"size": "64"}, {"size": "64"}]}}}, "dtype": {"type": "DT_FLOAT"}}}, {"name": "StatefulPartitionedCall/heavy_chain_align_airr_2/conv_residual_feature_extraction_block_11/conv1d_and__batch_norm_54/conv1d_173/BiasAdd/ReadVariableOp", "op": "Const", "attr": {"value": {"tensor": {"dtype": "DT_FLOAT", "tensorShape": {"dim": [{"size": "64"}]}}}, "dtype": {"type": "DT_FLOAT"}}}, {"name": "StatefulPartitionedCall/heavy_chain_align_airr_2/conv_residual_feature_extraction_block_11/conv1d_and__batch_norm_54/conv1d_174/Conv1D/ExpandDims/dim", "op": "Const", "attr": {"value": {"tensor": {"dtype": "DT_INT32", "tensorShape": {}}}, "dtype": {"type": "DT_INT32"}}}, {"name": "StatefulPartitionedCall/heavy_chain_align_airr_2/conv_residual_feature_extraction_block_11/conv1d_and__batch_norm_54/conv1d_174/Conv1D/ExpandDims_1", "op": "Const", "attr": {"value": {"tensor": {"dtype": "DT_FLOAT", "tensorShape": {"dim": [{"size": "1"}, {"size": "3"}, {"size": "64"}, {"size": "64"}]}}}, "dtype": {"type": "DT_FLOAT"}}}, {"name": "StatefulPartitionedCall/heavy_chain_align_airr_2/conv_residual_feature_extraction_block_11/conv1d_and__batch_norm_54/conv1d_174/BiasAdd/ReadVariableOp", "op": "Const", "attr": {"value": {"tensor": {"dtype": "DT_FLOAT", "tensorShape": {"dim": [{"size": "64"}]}}}, "dtype": {"type": "DT_FLOAT"}}}, {"name": "StatefulPartitionedCall/heavy_chain_align_airr_2/conv_residual_feature_extraction_block_11/conv1d_and__batch_norm_54/conv1d_175/Conv1D/ExpandDims/dim", "op": "Const", "attr": {"value": {"tensor": {"dtype": "DT_INT32", "tensorShape": {}}}, "dtype": {"type": "DT_INT32"}}}, {"name": "StatefulPartitionedCall/heavy_chain_align_airr_2/conv_residual_feature_extraction_block_11/conv1d_and__batch_norm_54/conv1d_175/Conv1D/ExpandDims_1", "op": "Const", "attr": {"value": {"tensor": {"dtype": "DT_FLOAT", "tensorShape": {"dim": [{"size": "1"}, {"size": "3"}, {"size": "64"}, {"size": "64"}]}}}, "dtype": {"type": "DT_FLOAT"}}}, {"name": "StatefulPartitionedCall/heavy_chain_align_airr_2/conv_residual_feature_extraction_block_11/conv1d_and__batch_norm_54/conv1d_175/BiasAdd/ReadVariableOp", "op": "Const", "attr": {"value": {"tensor": {"dtype": "DT_FLOAT", "tensorShape": {"dim": [{"size": "64"}]}}}, "dtype": {"type": "DT_FLOAT"}}}, {"name": "StatefulPartitionedCall/heavy_chain_align_airr_2/conv_residual_feature_extraction_block_11/conv1d_and__batch_norm_54/batch_normalization_54/batchnorm/mul", "op": "Const", "attr": {"value": {"tensor": {"dtype": "DT_FLOAT", "tensorShape": {"dim": [{"size": "64"}]}}}, "dtype": {"type": "DT_FLOAT"}}}, {"name": "StatefulPartitionedCall/heavy_chain_align_airr_2/conv_residual_feature_extraction_block_11/conv1d_and__batch_norm_54/batch_normalization_54/batchnorm/sub", "op": "Const", "attr": {"value": {"tensor": {"dtype": "DT_FLOAT", "tensorShape": {"dim": [{"size": "64"}]}}}, "dtype": {"type": "DT_FLOAT"}}}, {"name": "StatefulPartitionedCall/heavy_chain_align_airr_2/conv_residual_feature_extraction_block_11/conv1d_and__batch_norm_54/max_pooling1d_107/ExpandDims/dim", "op": "Const", "attr": {"value": {"tensor": {"dtype": "DT_INT32", "tensorShape": {}}}, "dtype": {"type": "DT_INT32"}}}, {"name": "StatefulPartitionedCall/heavy_chain_align_airr_2/conv_residual_feature_extraction_block_11/conv1d_and__batch_norm_53/conv1d_170/Conv1D/ExpandDims/dim", "op": "Const", "attr": {"value": {"tensor": {"dtype": "DT_INT32", "tensorShape": {}}}, "dtype": {"type": "DT_INT32"}}}, {"name": "StatefulPartitionedCall/heavy_chain_align_airr_2/conv_residual_feature_extraction_block_11/conv1d_and__batch_norm_53/conv1d_170/Conv1D/ExpandDims_1", "op": "Const", "attr": {"value": {"tensor": {"dtype": "DT_FLOAT", "tensorShape": {"dim": [{"size": "1"}, {"size": "3"}, {"size": "32"}, {"size": "64"}]}}}, "dtype": {"type": "DT_FLOAT"}}}, {"name": "StatefulPartitionedCall/heavy_chain_align_airr_2/conv_residual_feature_extraction_block_11/conv1d_and__batch_norm_53/conv1d_170/BiasAdd/ReadVariableOp", "op": "Const", "attr": {"value": {"tensor": {"dtype": "DT_FLOAT", "tensorShape": {"dim": [{"size": "64"}]}}}, "dtype": {"type": "DT_FLOAT"}}}, {"name": "StatefulPartitionedCall/heavy_chain_align_airr_2/conv_residual_feature_extraction_block_11/conv1d_and__batch_norm_53/conv1d_171/Conv1D/ExpandDims/dim", "op": "Const", "attr": {"value": {"tensor": {"dtype": "DT_INT32", "tensorShape": {}}}, "dtype": {"type": "DT_INT32"}}}, {"name": "StatefulPartitionedCall/heavy_chain_align_airr_2/conv_residual_feature_extraction_block_11/conv1d_and__batch_norm_53/conv1d_171/Conv1D/ExpandDims_1", "op": "Const", "attr": {"value": {"tensor": {"dtype": "DT_FLOAT", "tensorShape": {"dim": [{"size": "1"}, {"size": "3"}, {"size": "64"}, {"size": "64"}]}}}, "dtype": {"type": "DT_FLOAT"}}}, {"name": "StatefulPartitionedCall/heavy_chain_align_airr_2/conv_residual_feature_extraction_block_11/conv1d_and__batch_norm_53/conv1d_171/BiasAdd/ReadVariableOp", "op": "Const", "attr": {"value": {"tensor": {"dtype": "DT_FLOAT", "tensorShape": {"dim": [{"size": "64"}]}}}, "dtype": {"type": "DT_FLOAT"}}}, {"name": "StatefulPartitionedCall/heavy_chain_align_airr_2/conv_residual_feature_extraction_block_11/conv1d_and__batch_norm_53/conv1d_172/Conv1D/ExpandDims/dim", "op": "Const", "attr": {"value": {"tensor": {"dtype": "DT_INT32", "tensorShape": {}}}, "dtype": {"type": "DT_INT32"}}}, {"name": "StatefulPartitionedCall/heavy_chain_align_airr_2/conv_residual_feature_extraction_block_11/conv1d_and__batch_norm_53/conv1d_172/Conv1D/ExpandDims_1", "op": "Const", "attr": {"value": {"tensor": {"dtype": "DT_FLOAT", "tensorShape": {"dim": [{"size": "1"}, {"size": "3"}, {"size": "64"}, {"size": "64"}]}}}, "dtype": {"type": "DT_FLOAT"}}}, {"name": "StatefulPartitionedCall/heavy_chain_align_airr_2/conv_residual_feature_extraction_block_11/conv1d_and__batch_norm_53/conv1d_172/BiasAdd/ReadVariableOp", "op": "Const", "attr": {"value": {"tensor": {"dtype": "DT_FLOAT", "tensorShape": {"dim": [{"size": "64"}]}}}, "dtype": {"type": "DT_FLOAT"}}}, {"name": "StatefulPartitionedCall/heavy_chain_align_airr_2/conv_residual_feature_extraction_block_11/conv1d_and__batch_norm_53/batch_normalization_53/batchnorm/mul", "op": "Const", "attr": {"value": {"tensor": {"dtype": "DT_FLOAT", "tensorShape": {"dim": [{"size": "64"}]}}}, "dtype": {"type": "DT_FLOAT"}}}, {"name": "StatefulPartitionedCall/heavy_chain_align_airr_2/conv_residual_feature_extraction_block_11/conv1d_and__batch_norm_53/batch_normalization_53/batchnorm/sub", "op": "Const", "attr": {"value": {"tensor": {"dtype": "DT_FLOAT", "tensorShape": {"dim": [{"size": "64"}]}}}, "dtype": {"type": "DT_FLOAT"}}}, {"name": "StatefulPartitionedCall/heavy_chain_align_airr_2/conv_residual_feature_extraction_block_11/conv1d_and__batch_norm_53/max_pooling1d_106/ExpandDims/dim", "op": "Const", "attr": {"value": {"tensor": {"dtype": "DT_INT32", "tensorShape": {}}}, "dtype": {"type": "DT_INT32"}}}, {"name": "StatefulPartitionedCall/heavy_chain_align_airr_2/reshape_8/strided_slice/stack", "op": "Const", "attr": {"value": {"tensor": {"dtype": "DT_INT32", "tensorShape": {"dim": [{"size": "1"}]}}}, "dtype": {"type": "DT_INT32"}}}, {"name": "StatefulPartitionedCall/heavy_chain_align_airr_2/reshape_8/strided_slice/stack_1", "op": "Const", "attr": {"value": {"tensor": {"dtype": "DT_INT32", "tensorShape": {"dim": [{"size": "1"}]}}}, "dtype": {"type": "DT_INT32"}}}, {"name": "StatefulPartitionedCall/heavy_chain_align_airr_2/reshape_8/strided_slice/stack_2", "op": "Const", "attr": {"value": {"tensor": {"dtype": "DT_INT32", "tensorShape": {"dim": [{"size": "1"}]}}}, "dtype": {"type": "DT_INT32"}}}, {"name": "StatefulPartitionedCall/heavy_chain_align_airr_2/reshape_8/Reshape/shape/1", "op": "Const", "attr": {"value": {"tensor": {"dtype": "DT_INT32", "tensorShape": {}}}, "dtype": {"type": "DT_INT32"}}}, {"name": "StatefulPartitionedCall/heavy_chain_align_airr_2/reshape_8/Reshape/shape/2", "op": "Const", "attr": {"value": {"tensor": {"dtype": "DT_INT32", "tensorShape": {}}}, "dtype": {"type": "DT_INT32"}}}, {"name": "StatefulPartitionedCall/heavy_chain_align_airr_2/conv_residual_feature_extraction_block_11/conv1d_182/Conv1D/ExpandDims/dim", "op": "Const", "attr": {"value": {"tensor": {"dtype": "DT_INT32", "tensorShape": {}}}, "dtype": {"type": "DT_INT32"}}}, {"name": "StatefulPartitionedCall/heavy_chain_align_airr_2/conv_residual_feature_extraction_block_11/conv1d_182/Conv1D/ExpandDims_1", "op": "Const", "attr": {"value": {"tensor": {"dtype": "DT_FLOAT", "tensorShape": {"dim": [{"size": "1"}, {"size": "5"}, {"size": "32"}, {"size": "64"}]}}}, "dtype": {"type": "DT_FLOAT"}}}, {"name": "StatefulPartitionedCall/heavy_chain_align_airr_2/conv_residual_feature_extraction_block_11/conv1d_182/BiasAdd/ReadVariableOp", "op": "Const", "attr": {"value": {"tensor": {"dtype": "DT_FLOAT", "tensorShape": {"dim": [{"size": "64"}]}}}, "dtype": {"type": "DT_FLOAT"}}}, {"name": "StatefulPartitionedCall/heavy_chain_align_airr_2/conv_residual_feature_extraction_block_11/max_pooling1d_110/ExpandDims/dim", "op": "Const", "attr": {"value": {"tensor": {"dtype": "DT_INT32", "tensorShape": {}}}, "dtype": {"type": "DT_INT32"}}}, {"name": "StatefulPartitionedCall/heavy_chain_align_airr_2/conv_residual_feature_extraction_block_11/max_pooling1d_110/ExpandDims_1/dim", "op": "Const", "attr": {"value": {"tensor": {"dtype": "DT_INT32", "tensorShape": {}}}, "dtype": {"type": "DT_INT32"}}}, {"name": "StatefulPartitionedCall/heavy_chain_align_airr_2/conv_residual_feature_extraction_block_11/max_pooling1d_111/ExpandDims/dim", "op": "Const", "attr": {"value": {"tensor": {"dtype": "DT_INT32", "tensorShape": {}}}, "dtype": {"type": "DT_INT32"}}}, {"name": "StatefulPartitionedCall/heavy_chain_align_airr_2/conv_residual_feature_extraction_block_11/max_pooling1d_112/ExpandDims/dim", "op": "Const", "attr": {"value": {"tensor": {"dtype": "DT_INT32", "tensorShape": {}}}, "dtype": {"type": "DT_INT32"}}}, {"name": "StatefulPartitionedCall/heavy_chain_align_airr_2/conv_residual_feature_extraction_block_11/max_pooling1d_113/ExpandDims/dim", "op": "Const", "attr": {"value": {"tensor": {"dtype": "DT_INT32", "tensorShape": {}}}, "dtype": {"type": "DT_INT32"}}}, {"name": "StatefulPartitionedCall/heavy_chain_align_airr_2/conv_residual_feature_extraction_block_11/flatten_11/Const", "op": "Const", "attr": {"value": {"tensor": {"dtype": "DT_INT32", "tensorShape": {"dim": [{"size": "2"}]}}}, "dtype": {"type": "DT_INT32"}}}, {"name": "StatefulPartitionedCall/heavy_chain_align_airr_2/j_allele_middle/MatMul/ReadVariableOp", "op": "Const", "attr": {"value": {"tensor": {"dtype": "DT_FLOAT", "tensorShape": {"dim": [{"size": "1152"}, {"size": "14"}]}}}, "dtype": {"type": "DT_FLOAT"}}}, {"name": "StatefulPartitionedCall/heavy_chain_align_airr_2/j_allele_middle/BiasAdd/ReadVariableOp", "op": "Const", "attr": {"value": {"tensor": {"dtype": "DT_FLOAT", "tensorShape": {"dim": [{"size": "14"}]}}}, "dtype": {"type": "DT_FLOAT"}}}, {"name": "StatefulPartitionedCall/heavy_chain_align_airr_2/j_allele/MatMul/ReadVariableOp", "op": "Const", "attr": {"value": {"tensor": {"dtype": "DT_FLOAT", "tensorShape": {"dim": [{"size": "14"}, {"size": "7"}]}}}, "dtype": {"type": "DT_FLOAT"}}}, {"name": "StatefulPartitionedCall/heavy_chain_align_airr_2/j_allele/BiasAdd/ReadVariableOp", "op": "Const", "attr": {"value": {"tensor": {"dtype": "DT_FLOAT", "tensorShape": {"dim": [{"size": "7"}]}}}, "dtype": {"type": "DT_FLOAT"}}}, {"name": "StatefulPartitionedCall/heavy_chain_align_airr_2/dense_8/MatMul/ReadVariableOp", "op": "Const", "attr": {"value": {"tensor": {"dtype": "DT_FLOAT", "tensorShape": {"dim": [{"size": "576"}, {"size": "32"}]}}}, "dtype": {"type": "DT_FLOAT"}}}, {"name": "StatefulPartitionedCall/heavy_chain_align_airr_2/dense_8/BiasAdd/ReadVariableOp", "op": "Const", "attr": {"value": {"tensor": {"dtype": "DT_FLOAT", "tensorShape": {"dim": [{"size": "32"}]}}}, "dtype": {"type": "DT_FLOAT"}}}, {"name": "StatefulPartitionedCall/heavy_chain_align_airr_2/j_segment/MatMul/ReadVariableOp", "op": "Const", "attr": {"value": {"tensor": {"dtype": "DT_FLOAT", "tensorShape": {"dim": [{"size": "32"}, {"size": "576"}]}}}, "dtype": {"type": "DT_FLOAT"}}}, {"name": "StatefulPartitionedCall/heavy_chain_align_airr_2/j_segment/BiasAdd/ReadVariableOp", "op": "Const", "attr": {"value": {"tensor": {"dtype": "DT_FLOAT", "tensorShape": {"dim": [{"size": "576"}]}}}, "dtype": {"type": "DT_FLOAT"}}}, {"name": "StatefulPartitionedCall/heavy_chain_align_airr_2/mutation_rate_mid/MatMul/ReadVariableOp", "op": "Const", "attr": {"value": {"tensor": {"dtype": "DT_FLOAT", "tensorShape": {"dim": [{"size": "576"}, {"size": "288"}]}}}, "dtype": {"type": "DT_FLOAT"}}}, {"name": "StatefulPartitionedCall/heavy_chain_align_airr_2/mutation_rate_mid/BiasAdd/ReadVariableOp", "op": "Const", "attr": {"value": {"tensor": {"dtype": "DT_FLOAT", "tensorShape": {"dim": [{"size": "288"}]}}}, "dtype": {"type": "DT_FLOAT"}}}, {"name": "StatefulPartitionedCall/heavy_chain_align_airr_2/mutation_rate/MatMul/ReadVariableOp", "op": "Const", "attr": {"value": {"tensor": {"dtype": "DT_FLOAT", "tensorShape": {"dim": [{"size": "288"}, {"size": "1"}]}}}, "dtype": {"type": "DT_FLOAT"}}}, {"name": "StatefulPartitionedCall/heavy_chain_align_airr_2/mutation_rate/BiasAdd/ReadVariableOp", "op": "Const", "attr": {"value": {"tensor": {"dtype": "DT_FLOAT", "tensorShape": {"dim": [{"size": "1"}]}}}, "dtype": {"type": "DT_FLOAT"}}}, {"name": "StatefulPartitionedCall/heavy_chain_align_airr_2/conv_residual_feature_extraction_block_9/conv1d_and__batch_norm_48/conv1d_153/Conv1D/ExpandDims/dim", "op": "Const", "attr": {"value": {"tensor": {"dtype": "DT_INT32", "tensorShape": {}}}, "dtype": {"type": "DT_INT32"}}}, {"name": "StatefulPartitionedCall/heavy_chain_align_airr_2/conv_residual_feature_extraction_block_9/conv1d_and__batch_norm_48/conv1d_153/Conv1D/ExpandDims_1", "op": "Const", "attr": {"value": {"tensor": {"dtype": "DT_FLOAT", "tensorShape": {"dim": [{"size": "1"}, {"size": "2"}, {"size": "128"}, {"size": "128"}]}}}, "dtype": {"type": "DT_FLOAT"}}}, {"name": "StatefulPartitionedCall/heavy_chain_align_airr_2/conv_residual_feature_extraction_block_9/conv1d_and__batch_norm_48/conv1d_153/BiasAdd/ReadVariableOp", "op": "Const", "attr": {"value": {"tensor": {"dtype": "DT_FLOAT", "tensorShape": {"dim": [{"size": "128"}]}}}, "dtype": {"type": "DT_FLOAT"}}}, {"name": "StatefulPartitionedCall/heavy_chain_align_airr_2/conv_residual_feature_extraction_block_9/conv1d_and__batch_norm_48/conv1d_154/Conv1D/ExpandDims/dim", "op": "Const", "attr": {"value": {"tensor": {"dtype": "DT_INT32", "tensorShape": {}}}, "dtype": {"type": "DT_INT32"}}}, {"name": "StatefulPartitionedCall/heavy_chain_align_airr_2/conv_residual_feature_extraction_block_9/conv1d_and__batch_norm_48/conv1d_154/Conv1D/ExpandDims_1", "op": "Const", "attr": {"value": {"tensor": {"dtype": "DT_FLOAT", "tensorShape": {"dim": [{"size": "1"}, {"size": "2"}, {"size": "128"}, {"size": "128"}]}}}, "dtype": {"type": "DT_FLOAT"}}}, {"name": "StatefulPartitionedCall/heavy_chain_align_airr_2/conv_residual_feature_extraction_block_9/conv1d_and__batch_norm_48/conv1d_154/BiasAdd/ReadVariableOp", "op": "Const", "attr": {"value": {"tensor": {"dtype": "DT_FLOAT", "tensorShape": {"dim": [{"size": "128"}]}}}, "dtype": {"type": "DT_FLOAT"}}}, {"name": "StatefulPartitionedCall/heavy_chain_align_airr_2/conv_residual_feature_extraction_block_9/conv1d_and__batch_norm_48/conv1d_155/Conv1D/ExpandDims/dim", "op": "Const", "attr": {"value": {"tensor": {"dtype": "DT_INT32", "tensorShape": {}}}, "dtype": {"type": "DT_INT32"}}}, {"name": "StatefulPartitionedCall/heavy_chain_align_airr_2/conv_residual_feature_extraction_block_9/conv1d_and__batch_norm_48/conv1d_155/Conv1D/ExpandDims_1", "op": "Const", "attr": {"value": {"tensor": {"dtype": "DT_FLOAT", "tensorShape": {"dim": [{"size": "1"}, {"size": "2"}, {"size": "128"}, {"size": "128"}]}}}, "dtype": {"type": "DT_FLOAT"}}}, {"name": "StatefulPartitionedCall/heavy_chain_align_airr_2/conv_residual_feature_extraction_block_9/conv1d_and__batch_norm_48/conv1d_155/BiasAdd/ReadVariableOp", "op": "Const", "attr": {"value": {"tensor": {"dtype": "DT_FLOAT", "tensorShape": {"dim": [{"size": "128"}]}}}, "dtype": {"type": "DT_FLOAT"}}}, {"name": "StatefulPartitionedCall/heavy_chain_align_airr_2/conv_residual_feature_extraction_block_9/conv1d_and__batch_norm_48/batch_normalization_48/batchnorm/mul", "op": "Const", "attr": {"value": {"tensor": {"dtype": "DT_FLOAT", "tensorShape": {"dim": [{"size": "128"}]}}}, "dtype": {"type": "DT_FLOAT"}}}, {"name": "StatefulPartitionedCall/heavy_chain_align_airr_2/conv_residual_feature_extraction_block_9/conv1d_and__batch_norm_48/batch_normalization_48/batchnorm/sub", "op": "Const", "attr": {"value": {"tensor": {"dtype": "DT_FLOAT", "tensorShape": {"dim": [{"size": "128"}]}}}, "dtype": {"type": "DT_FLOAT"}}}, {"name": "StatefulPartitionedCall/heavy_chain_align_airr_2/conv_residual_feature_extraction_block_9/conv1d_and__batch_norm_48/max_pooling1d_91/ExpandDims/dim", "op": "Const", "attr": {"value": {"tensor": {"dtype": "DT_INT32", "tensorShape": {}}}, "dtype": {"type": "DT_INT32"}}}, {"name": "StatefulPartitionedCall/heavy_chain_align_airr_2/conv_residual_feature_extraction_block_9/conv1d_and__batch_norm_47/conv1d_150/Conv1D/ExpandDims/dim", "op": "Const", "attr": {"value": {"tensor": {"dtype": "DT_INT32", "tensorShape": {}}}, "dtype": {"type": "DT_INT32"}}}, {"name": "StatefulPartitionedCall/heavy_chain_align_airr_2/conv_residual_feature_extraction_block_9/conv1d_and__batch_norm_47/conv1d_150/Conv1D/ExpandDims_1", "op": "Const", "attr": {"value": {"tensor": {"dtype": "DT_FLOAT", "tensorShape": {"dim": [{"size": "1"}, {"size": "2"}, {"size": "128"}, {"size": "128"}]}}}, "dtype": {"type": "DT_FLOAT"}}}, {"name": "StatefulPartitionedCall/heavy_chain_align_airr_2/conv_residual_feature_extraction_block_9/conv1d_and__batch_norm_47/conv1d_150/BiasAdd/ReadVariableOp", "op": "Const", "attr": {"value": {"tensor": {"dtype": "DT_FLOAT", "tensorShape": {"dim": [{"size": "128"}]}}}, "dtype": {"type": "DT_FLOAT"}}}, {"name": "StatefulPartitionedCall/heavy_chain_align_airr_2/conv_residual_feature_extraction_block_9/conv1d_and__batch_norm_47/conv1d_151/Conv1D/ExpandDims/dim", "op": "Const", "attr": {"value": {"tensor": {"dtype": "DT_INT32", "tensorShape": {}}}, "dtype": {"type": "DT_INT32"}}}, {"name": "StatefulPartitionedCall/heavy_chain_align_airr_2/conv_residual_feature_extraction_block_9/conv1d_and__batch_norm_47/conv1d_151/Conv1D/ExpandDims_1", "op": "Const", "attr": {"value": {"tensor": {"dtype": "DT_FLOAT", "tensorShape": {"dim": [{"size": "1"}, {"size": "2"}, {"size": "128"}, {"size": "128"}]}}}, "dtype": {"type": "DT_FLOAT"}}}, {"name": "StatefulPartitionedCall/heavy_chain_align_airr_2/conv_residual_feature_extraction_block_9/conv1d_and__batch_norm_47/conv1d_151/BiasAdd/ReadVariableOp", "op": "Const", "attr": {"value": {"tensor": {"dtype": "DT_FLOAT", "tensorShape": {"dim": [{"size": "128"}]}}}, "dtype": {"type": "DT_FLOAT"}}}, {"name": "StatefulPartitionedCall/heavy_chain_align_airr_2/conv_residual_feature_extraction_block_9/conv1d_and__batch_norm_47/conv1d_152/Conv1D/ExpandDims/dim", "op": "Const", "attr": {"value": {"tensor": {"dtype": "DT_INT32", "tensorShape": {}}}, "dtype": {"type": "DT_INT32"}}}, {"name": "StatefulPartitionedCall/heavy_chain_align_airr_2/conv_residual_feature_extraction_block_9/conv1d_and__batch_norm_47/conv1d_152/Conv1D/ExpandDims_1", "op": "Const", "attr": {"value": {"tensor": {"dtype": "DT_FLOAT", "tensorShape": {"dim": [{"size": "1"}, {"size": "2"}, {"size": "128"}, {"size": "128"}]}}}, "dtype": {"type": "DT_FLOAT"}}}, {"name": "StatefulPartitionedCall/heavy_chain_align_airr_2/conv_residual_feature_extraction_block_9/conv1d_and__batch_norm_47/conv1d_152/BiasAdd/ReadVariableOp", "op": "Const", "attr": {"value": {"tensor": {"dtype": "DT_FLOAT", "tensorShape": {"dim": [{"size": "128"}]}}}, "dtype": {"type": "DT_FLOAT"}}}, {"name": "StatefulPartitionedCall/heavy_chain_align_airr_2/conv_residual_feature_extraction_block_9/conv1d_and__batch_norm_47/batch_normalization_47/batchnorm/mul", "op": "Const", "attr": {"value": {"tensor": {"dtype": "DT_FLOAT", "tensorShape": {"dim": [{"size": "128"}]}}}, "dtype": {"type": "DT_FLOAT"}}}, {"name": "StatefulPartitionedCall/heavy_chain_align_airr_2/conv_residual_feature_extraction_block_9/conv1d_and__batch_norm_47/batch_normalization_47/batchnorm/sub", "op": "Const", "attr": {"value": {"tensor": {"dtype": "DT_FLOAT", "tensorShape": {"dim": [{"size": "128"}]}}}, "dtype": {"type": "DT_FLOAT"}}}, {"name": "StatefulPartitionedCall/heavy_chain_align_airr_2/conv_residual_feature_extraction_block_9/conv1d_and__batch_norm_47/max_pooling1d_90/ExpandDims/dim", "op": "Const", "attr": {"value": {"tensor": {"dtype": "DT_INT32", "tensorShape": {}}}, "dtype": {"type": "DT_INT32"}}}, {"name": "StatefulPartitionedCall/heavy_chain_align_airr_2/conv_residual_feature_extraction_block_9/conv1d_and__batch_norm_46/conv1d_147/Conv1D/ExpandDims/dim", "op": "Const", "attr": {"value": {"tensor": {"dtype": "DT_INT32", "tensorShape": {}}}, "dtype": {"type": "DT_INT32"}}}, {"name": "StatefulPartitionedCall/heavy_chain_align_airr_2/conv_residual_feature_extraction_block_9/conv1d_and__batch_norm_46/conv1d_147/Conv1D/ExpandDims_1", "op": "Const", "attr": {"value": {"tensor": {"dtype": "DT_FLOAT", "tensorShape": {"dim": [{"size": "1"}, {"size": "2"}, {"size": "128"}, {"size": "128"}]}}}, "dtype": {"type": "DT_FLOAT"}}}, {"name": "StatefulPartitionedCall/heavy_chain_align_airr_2/conv_residual_feature_extraction_block_9/conv1d_and__batch_norm_46/conv1d_147/BiasAdd/ReadVariableOp", "op": "Const", "attr": {"value": {"tensor": {"dtype": "DT_FLOAT", "tensorShape": {"dim": [{"size": "128"}]}}}, "dtype": {"type": "DT_FLOAT"}}}, {"name": "StatefulPartitionedCall/heavy_chain_align_airr_2/conv_residual_feature_extraction_block_9/conv1d_and__batch_norm_46/conv1d_148/Conv1D/ExpandDims/dim", "op": "Const", "attr": {"value": {"tensor": {"dtype": "DT_INT32", "tensorShape": {}}}, "dtype": {"type": "DT_INT32"}}}, {"name": "StatefulPartitionedCall/heavy_chain_align_airr_2/conv_residual_feature_extraction_block_9/conv1d_and__batch_norm_46/conv1d_148/Conv1D/ExpandDims_1", "op": "Const", "attr": {"value": {"tensor": {"dtype": "DT_FLOAT", "tensorShape": {"dim": [{"size": "1"}, {"size": "2"}, {"size": "128"}, {"size": "128"}]}}}, "dtype": {"type": "DT_FLOAT"}}}, {"name": "StatefulPartitionedCall/heavy_chain_align_airr_2/conv_residual_feature_extraction_block_9/conv1d_and__batch_norm_46/conv1d_148/BiasAdd/ReadVariableOp", "op": "Const", "attr": {"value": {"tensor": {"dtype": "DT_FLOAT", "tensorShape": {"dim": [{"size": "128"}]}}}, "dtype": {"type": "DT_FLOAT"}}}, {"name": "StatefulPartitionedCall/heavy_chain_align_airr_2/conv_residual_feature_extraction_block_9/conv1d_and__batch_norm_46/conv1d_149/Conv1D/ExpandDims/dim", "op": "Const", "attr": {"value": {"tensor": {"dtype": "DT_INT32", "tensorShape": {}}}, "dtype": {"type": "DT_INT32"}}}, {"name": "StatefulPartitionedCall/heavy_chain_align_airr_2/conv_residual_feature_extraction_block_9/conv1d_and__batch_norm_46/conv1d_149/Conv1D/ExpandDims_1", "op": "Const", "attr": {"value": {"tensor": {"dtype": "DT_FLOAT", "tensorShape": {"dim": [{"size": "1"}, {"size": "2"}, {"size": "128"}, {"size": "128"}]}}}, "dtype": {"type": "DT_FLOAT"}}}, {"name": "StatefulPartitionedCall/heavy_chain_align_airr_2/conv_residual_feature_extraction_block_9/conv1d_and__batch_norm_46/conv1d_149/BiasAdd/ReadVariableOp", "op": "Const", "attr": {"value": {"tensor": {"dtype": "DT_FLOAT", "tensorShape": {"dim": [{"size": "128"}]}}}, "dtype": {"type": "DT_FLOAT"}}}, {"name": "StatefulPartitionedCall/heavy_chain_align_airr_2/conv_residual_feature_extraction_block_9/conv1d_and__batch_norm_46/batch_normalization_46/batchnorm/mul", "op": "Const", "attr": {"value": {"tensor": {"dtype": "DT_FLOAT", "tensorShape": {"dim": [{"size": "128"}]}}}, "dtype": {"type": "DT_FLOAT"}}}, {"name": "StatefulPartitionedCall/heavy_chain_align_airr_2/conv_residual_feature_extraction_block_9/conv1d_and__batch_norm_46/batch_normalization_46/batchnorm/sub", "op": "Const", "attr": {"value": {"tensor": {"dtype": "DT_FLOAT", "tensorShape": {"dim": [{"size": "128"}]}}}, "dtype": {"type": "DT_FLOAT"}}}, {"name": "StatefulPartitionedCall/heavy_chain_align_airr_2/conv_residual_feature_extraction_block_9/conv1d_and__batch_norm_46/max_pooling1d_89/ExpandDims/dim", "op": "Const", "attr": {"value": {"tensor": {"dtype": "DT_INT32", "tensorShape": {}}}, "dtype": {"type": "DT_INT32"}}}, {"name": "StatefulPartitionedCall/heavy_chain_align_airr_2/conv_residual_feature_extraction_block_9/conv1d_and__batch_norm_45/conv1d_144/Conv1D/ExpandDims/dim", "op": "Const", "attr": {"value": {"tensor": {"dtype": "DT_INT32", "tensorShape": {}}}, "dtype": {"type": "DT_INT32"}}}, {"name": "StatefulPartitionedCall/heavy_chain_align_airr_2/conv_residual_feature_extraction_block_9/conv1d_and__batch_norm_45/conv1d_144/Conv1D/ExpandDims_1", "op": "Const", "attr": {"value": {"tensor": {"dtype": "DT_FLOAT", "tensorShape": {"dim": [{"size": "1"}, {"size": "3"}, {"size": "128"}, {"size": "128"}]}}}, "dtype": {"type": "DT_FLOAT"}}}, {"name": "StatefulPartitionedCall/heavy_chain_align_airr_2/conv_residual_feature_extraction_block_9/conv1d_and__batch_norm_45/conv1d_144/BiasAdd/ReadVariableOp", "op": "Const", "attr": {"value": {"tensor": {"dtype": "DT_FLOAT", "tensorShape": {"dim": [{"size": "128"}]}}}, "dtype": {"type": "DT_FLOAT"}}}, {"name": "StatefulPartitionedCall/heavy_chain_align_airr_2/conv_residual_feature_extraction_block_9/conv1d_and__batch_norm_45/conv1d_145/Conv1D/ExpandDims/dim", "op": "Const", "attr": {"value": {"tensor": {"dtype": "DT_INT32", "tensorShape": {}}}, "dtype": {"type": "DT_INT32"}}}, {"name": "StatefulPartitionedCall/heavy_chain_align_airr_2/conv_residual_feature_extraction_block_9/conv1d_and__batch_norm_45/conv1d_145/Conv1D/ExpandDims_1", "op": "Const", "attr": {"value": {"tensor": {"dtype": "DT_FLOAT", "tensorShape": {"dim": [{"size": "1"}, {"size": "3"}, {"size": "128"}, {"size": "128"}]}}}, "dtype": {"type": "DT_FLOAT"}}}, {"name": "StatefulPartitionedCall/heavy_chain_align_airr_2/conv_residual_feature_extraction_block_9/conv1d_and__batch_norm_45/conv1d_145/BiasAdd/ReadVariableOp", "op": "Const", "attr": {"value": {"tensor": {"dtype": "DT_FLOAT", "tensorShape": {"dim": [{"size": "128"}]}}}, "dtype": {"type": "DT_FLOAT"}}}, {"name": "StatefulPartitionedCall/heavy_chain_align_airr_2/conv_residual_feature_extraction_block_9/conv1d_and__batch_norm_45/conv1d_146/Conv1D/ExpandDims/dim", "op": "Const", "attr": {"value": {"tensor": {"dtype": "DT_INT32", "tensorShape": {}}}, "dtype": {"type": "DT_INT32"}}}, {"name": "StatefulPartitionedCall/heavy_chain_align_airr_2/conv_residual_feature_extraction_block_9/conv1d_and__batch_norm_45/conv1d_146/Conv1D/ExpandDims_1", "op": "Const", "attr": {"value": {"tensor": {"dtype": "DT_FLOAT", "tensorShape": {"dim": [{"size": "1"}, {"size": "3"}, {"size": "128"}, {"size": "128"}]}}}, "dtype": {"type": "DT_FLOAT"}}}, {"name": "StatefulPartitionedCall/heavy_chain_align_airr_2/conv_residual_feature_extraction_block_9/conv1d_and__batch_norm_45/conv1d_146/BiasAdd/ReadVariableOp", "op": "Const", "attr": {"value": {"tensor": {"dtype": "DT_FLOAT", "tensorShape": {"dim": [{"size": "128"}]}}}, "dtype": {"type": "DT_FLOAT"}}}, {"name": "StatefulPartitionedCall/heavy_chain_align_airr_2/conv_residual_feature_extraction_block_9/conv1d_and__batch_norm_45/batch_normalization_45/batchnorm/mul", "op": "Const", "attr": {"value": {"tensor": {"dtype": "DT_FLOAT", "tensorShape": {"dim": [{"size": "128"}]}}}, "dtype": {"type": "DT_FLOAT"}}}, {"name": "StatefulPartitionedCall/heavy_chain_align_airr_2/conv_residual_feature_extraction_block_9/conv1d_and__batch_norm_45/batch_normalization_45/batchnorm/sub", "op": "Const", "attr": {"value": {"tensor": {"dtype": "DT_FLOAT", "tensorShape": {"dim": [{"size": "128"}]}}}, "dtype": {"type": "DT_FLOAT"}}}, {"name": "StatefulPartitionedCall/heavy_chain_align_airr_2/conv_residual_feature_extraction_block_9/conv1d_and__batch_norm_45/max_pooling1d_88/ExpandDims/dim", "op": "Const", "attr": {"value": {"tensor": {"dtype": "DT_INT32", "tensorShape": {}}}, "dtype": {"type": "DT_INT32"}}}, {"name": "StatefulPartitionedCall/heavy_chain_align_airr_2/conv_residual_feature_extraction_block_9/conv1d_and__batch_norm_44/conv1d_141/Conv1D/ExpandDims/dim", "op": "Const", "attr": {"value": {"tensor": {"dtype": "DT_INT32", "tensorShape": {}}}, "dtype": {"type": "DT_INT32"}}}, {"name": "StatefulPartitionedCall/heavy_chain_align_airr_2/conv_residual_feature_extraction_block_9/conv1d_and__batch_norm_44/conv1d_141/Conv1D/ExpandDims_1", "op": "Const", "attr": {"value": {"tensor": {"dtype": "DT_FLOAT", "tensorShape": {"dim": [{"size": "1"}, {"size": "3"}, {"size": "128"}, {"size": "128"}]}}}, "dtype": {"type": "DT_FLOAT"}}}, {"name": "StatefulPartitionedCall/heavy_chain_align_airr_2/conv_residual_feature_extraction_block_9/conv1d_and__batch_norm_44/conv1d_141/BiasAdd/ReadVariableOp", "op": "Const", "attr": {"value": {"tensor": {"dtype": "DT_FLOAT", "tensorShape": {"dim": [{"size": "128"}]}}}, "dtype": {"type": "DT_FLOAT"}}}, {"name": "StatefulPartitionedCall/heavy_chain_align_airr_2/conv_residual_feature_extraction_block_9/conv1d_and__batch_norm_44/conv1d_142/Conv1D/ExpandDims/dim", "op": "Const", "attr": {"value": {"tensor": {"dtype": "DT_INT32", "tensorShape": {}}}, "dtype": {"type": "DT_INT32"}}}, {"name": "StatefulPartitionedCall/heavy_chain_align_airr_2/conv_residual_feature_extraction_block_9/conv1d_and__batch_norm_44/conv1d_142/Conv1D/ExpandDims_1", "op": "Const", "attr": {"value": {"tensor": {"dtype": "DT_FLOAT", "tensorShape": {"dim": [{"size": "1"}, {"size": "3"}, {"size": "128"}, {"size": "128"}]}}}, "dtype": {"type": "DT_FLOAT"}}}, {"name": "StatefulPartitionedCall/heavy_chain_align_airr_2/conv_residual_feature_extraction_block_9/conv1d_and__batch_norm_44/conv1d_142/BiasAdd/ReadVariableOp", "op": "Const", "attr": {"value": {"tensor": {"dtype": "DT_FLOAT", "tensorShape": {"dim": [{"size": "128"}]}}}, "dtype": {"type": "DT_FLOAT"}}}, {"name": "StatefulPartitionedCall/heavy_chain_align_airr_2/conv_residual_feature_extraction_block_9/conv1d_and__batch_norm_44/conv1d_143/Conv1D/ExpandDims/dim", "op": "Const", "attr": {"value": {"tensor": {"dtype": "DT_INT32", "tensorShape": {}}}, "dtype": {"type": "DT_INT32"}}}, {"name": "StatefulPartitionedCall/heavy_chain_align_airr_2/conv_residual_feature_extraction_block_9/conv1d_and__batch_norm_44/conv1d_143/Conv1D/ExpandDims_1", "op": "Const", "attr": {"value": {"tensor": {"dtype": "DT_FLOAT", "tensorShape": {"dim": [{"size": "1"}, {"size": "3"}, {"size": "128"}, {"size": "128"}]}}}, "dtype": {"type": "DT_FLOAT"}}}, {"name": "StatefulPartitionedCall/heavy_chain_align_airr_2/conv_residual_feature_extraction_block_9/conv1d_and__batch_norm_44/conv1d_143/BiasAdd/ReadVariableOp", "op": "Const", "attr": {"value": {"tensor": {"dtype": "DT_FLOAT", "tensorShape": {"dim": [{"size": "128"}]}}}, "dtype": {"type": "DT_FLOAT"}}}, {"name": "StatefulPartitionedCall/heavy_chain_align_airr_2/conv_residual_feature_extraction_block_9/conv1d_and__batch_norm_44/batch_normalization_44/batchnorm/mul", "op": "Const", "attr": {"value": {"tensor": {"dtype": "DT_FLOAT", "tensorShape": {"dim": [{"size": "128"}]}}}, "dtype": {"type": "DT_FLOAT"}}}, {"name": "StatefulPartitionedCall/heavy_chain_align_airr_2/conv_residual_feature_extraction_block_9/conv1d_and__batch_norm_44/batch_normalization_44/batchnorm/sub", "op": "Const", "attr": {"value": {"tensor": {"dtype": "DT_FLOAT", "tensorShape": {"dim": [{"size": "128"}]}}}, "dtype": {"type": "DT_FLOAT"}}}, {"name": "StatefulPartitionedCall/heavy_chain_align_airr_2/conv_residual_feature_extraction_block_9/conv1d_and__batch_norm_44/max_pooling1d_87/ExpandDims/dim", "op": "Const", "attr": {"value": {"tensor": {"dtype": "DT_INT32", "tensorShape": {}}}, "dtype": {"type": "DT_INT32"}}}, {"name": "StatefulPartitionedCall/heavy_chain_align_airr_2/conv_residual_feature_extraction_block_9/conv1d_and__batch_norm_43/conv1d_138/Conv1D/ExpandDims/dim", "op": "Const", "attr": {"value": {"tensor": {"dtype": "DT_INT32", "tensorShape": {}}}, "dtype": {"type": "DT_INT32"}}}, {"name": "StatefulPartitionedCall/heavy_chain_align_airr_2/conv_residual_feature_extraction_block_9/conv1d_and__batch_norm_43/conv1d_138/Conv1D/ExpandDims_1", "op": "Const", "attr": {"value": {"tensor": {"dtype": "DT_FLOAT", "tensorShape": {"dim": [{"size": "1"}, {"size": "3"}, {"size": "32"}, {"size": "128"}]}}}, "dtype": {"type": "DT_FLOAT"}}}, {"name": "StatefulPartitionedCall/heavy_chain_align_airr_2/conv_residual_feature_extraction_block_9/conv1d_and__batch_norm_43/conv1d_138/BiasAdd/ReadVariableOp", "op": "Const", "attr": {"value": {"tensor": {"dtype": "DT_FLOAT", "tensorShape": {"dim": [{"size": "128"}]}}}, "dtype": {"type": "DT_FLOAT"}}}, {"name": "StatefulPartitionedCall/heavy_chain_align_airr_2/conv_residual_feature_extraction_block_9/conv1d_and__batch_norm_43/conv1d_139/Conv1D/ExpandDims/dim", "op": "Const", "attr": {"value": {"tensor": {"dtype": "DT_INT32", "tensorShape": {}}}, "dtype": {"type": "DT_INT32"}}}, {"name": "StatefulPartitionedCall/heavy_chain_align_airr_2/conv_residual_feature_extraction_block_9/conv1d_and__batch_norm_43/conv1d_139/Conv1D/ExpandDims_1", "op": "Const", "attr": {"value": {"tensor": {"dtype": "DT_FLOAT", "tensorShape": {"dim": [{"size": "1"}, {"size": "3"}, {"size": "128"}, {"size": "128"}]}}}, "dtype": {"type": "DT_FLOAT"}}}, {"name": "StatefulPartitionedCall/heavy_chain_align_airr_2/conv_residual_feature_extraction_block_9/conv1d_and__batch_norm_43/conv1d_139/BiasAdd/ReadVariableOp", "op": "Const", "attr": {"value": {"tensor": {"dtype": "DT_FLOAT", "tensorShape": {"dim": [{"size": "128"}]}}}, "dtype": {"type": "DT_FLOAT"}}}, {"name": "StatefulPartitionedCall/heavy_chain_align_airr_2/conv_residual_feature_extraction_block_9/conv1d_and__batch_norm_43/conv1d_140/Conv1D/ExpandDims/dim", "op": "Const", "attr": {"value": {"tensor": {"dtype": "DT_INT32", "tensorShape": {}}}, "dtype": {"type": "DT_INT32"}}}, {"name": "StatefulPartitionedCall/heavy_chain_align_airr_2/conv_residual_feature_extraction_block_9/conv1d_and__batch_norm_43/conv1d_140/Conv1D/ExpandDims_1", "op": "Const", "attr": {"value": {"tensor": {"dtype": "DT_FLOAT", "tensorShape": {"dim": [{"size": "1"}, {"size": "3"}, {"size": "128"}, {"size": "128"}]}}}, "dtype": {"type": "DT_FLOAT"}}}, {"name": "StatefulPartitionedCall/heavy_chain_align_airr_2/conv_residual_feature_extraction_block_9/conv1d_and__batch_norm_43/conv1d_140/BiasAdd/ReadVariableOp", "op": "Const", "attr": {"value": {"tensor": {"dtype": "DT_FLOAT", "tensorShape": {"dim": [{"size": "128"}]}}}, "dtype": {"type": "DT_FLOAT"}}}, {"name": "StatefulPartitionedCall/heavy_chain_align_airr_2/conv_residual_feature_extraction_block_9/conv1d_and__batch_norm_43/batch_normalization_43/batchnorm/mul", "op": "Const", "attr": {"value": {"tensor": {"dtype": "DT_FLOAT", "tensorShape": {"dim": [{"size": "128"}]}}}, "dtype": {"type": "DT_FLOAT"}}}, {"name": "StatefulPartitionedCall/heavy_chain_align_airr_2/conv_residual_feature_extraction_block_9/conv1d_and__batch_norm_43/batch_normalization_43/batchnorm/sub", "op": "Const", "attr": {"value": {"tensor": {"dtype": "DT_FLOAT", "tensorShape": {"dim": [{"size": "128"}]}}}, "dtype": {"type": "DT_FLOAT"}}}, {"name": "StatefulPartitionedCall/heavy_chain_align_airr_2/conv_residual_feature_extraction_block_9/conv1d_and__batch_norm_43/max_pooling1d_86/ExpandDims/dim", "op": "Const", "attr": {"value": {"tensor": {"dtype": "DT_INT32", "tensorShape": {}}}, "dtype": {"type": "DT_INT32"}}}, {"name": "StatefulPartitionedCall/heavy_chain_align_airr_2/reshape_6/strided_slice/stack", "op": "Const", "attr": {"value": {"tensor": {"dtype": "DT_INT32", "tensorShape": {"dim": [{"size": "1"}]}}}, "dtype": {"type": "DT_INT32"}}}, {"name": "StatefulPartitionedCall/heavy_chain_align_airr_2/reshape_6/strided_slice/stack_1", "op": "Const", "attr": {"value": {"tensor": {"dtype": "DT_INT32", "tensorShape": {"dim": [{"size": "1"}]}}}, "dtype": {"type": "DT_INT32"}}}, {"name": "StatefulPartitionedCall/heavy_chain_align_airr_2/reshape_6/strided_slice/stack_2", "op": "Const", "attr": {"value": {"tensor": {"dtype": "DT_INT32", "tensorShape": {"dim": [{"size": "1"}]}}}, "dtype": {"type": "DT_INT32"}}}, {"name": "StatefulPartitionedCall/heavy_chain_align_airr_2/reshape_6/Reshape/shape/1", "op": "Const", "attr": {"value": {"tensor": {"dtype": "DT_INT32", "tensorShape": {}}}, "dtype": {"type": "DT_INT32"}}}, {"name": "StatefulPartitionedCall/heavy_chain_align_airr_2/reshape_6/Reshape/shape/2", "op": "Const", "attr": {"value": {"tensor": {"dtype": "DT_INT32", "tensorShape": {}}}, "dtype": {"type": "DT_INT32"}}}, {"name": "StatefulPartitionedCall/heavy_chain_align_airr_2/conv_residual_feature_extraction_block_9/conv1d_156/Conv1D/ExpandDims/dim", "op": "Const", "attr": {"value": {"tensor": {"dtype": "DT_INT32", "tensorShape": {}}}, "dtype": {"type": "DT_INT32"}}}, {"name": "StatefulPartitionedCall/heavy_chain_align_airr_2/conv_residual_feature_extraction_block_9/conv1d_156/Conv1D/ExpandDims_1", "op": "Const", "attr": {"value": {"tensor": {"dtype": "DT_FLOAT", "tensorShape": {"dim": [{"size": "1"}, {"size": "5"}, {"size": "32"}, {"size": "128"}]}}}, "dtype": {"type": "DT_FLOAT"}}}, {"name": "StatefulPartitionedCall/heavy_chain_align_airr_2/conv_residual_feature_extraction_block_9/conv1d_156/BiasAdd/ReadVariableOp", "op": "Const", "attr": {"value": {"tensor": {"dtype": "DT_FLOAT", "tensorShape": {"dim": [{"size": "128"}]}}}, "dtype": {"type": "DT_FLOAT"}}}, {"name": "StatefulPartitionedCall/heavy_chain_align_airr_2/conv_residual_feature_extraction_block_9/max_pooling1d_92/ExpandDims/dim", "op": "Const", "attr": {"value": {"tensor": {"dtype": "DT_INT32", "tensorShape": {}}}, "dtype": {"type": "DT_INT32"}}}, {"name": "StatefulPartitionedCall/heavy_chain_align_airr_2/conv_residual_feature_extraction_block_9/max_pooling1d_92/ExpandDims_1/dim", "op": "Const", "attr": {"value": {"tensor": {"dtype": "DT_INT32", "tensorShape": {}}}, "dtype": {"type": "DT_INT32"}}}, {"name": "StatefulPartitionedCall/heavy_chain_align_airr_2/conv_residual_feature_extraction_block_9/max_pooling1d_93/ExpandDims/dim", "op": "Const", "attr": {"value": {"tensor": {"dtype": "DT_INT32", "tensorShape": {}}}, "dtype": {"type": "DT_INT32"}}}, {"name": "StatefulPartitionedCall/heavy_chain_align_airr_2/conv_residual_feature_extraction_block_9/max_pooling1d_94/ExpandDims/dim", "op": "Const", "attr": {"value": {"tensor": {"dtype": "DT_INT32", "tensorShape": {}}}, "dtype": {"type": "DT_INT32"}}}, {"name": "StatefulPartitionedCall/heavy_chain_align_airr_2/conv_residual_feature_extraction_block_9/max_pooling1d_95/ExpandDims/dim", "op": "Const", "attr": {"value": {"tensor": {"dtype": "DT_INT32", "tensorShape": {}}}, "dtype": {"type": "DT_INT32"}}}, {"name": "StatefulPartitionedCall/heavy_chain_align_airr_2/conv_residual_feature_extraction_block_9/max_pooling1d_96/ExpandDims/dim", "op": "Const", "attr": {"value": {"tensor": {"dtype": "DT_INT32", "tensorShape": {}}}, "dtype": {"type": "DT_INT32"}}}, {"name": "StatefulPartitionedCall/heavy_chain_align_airr_2/conv_residual_feature_extraction_block_9/max_pooling1d_97/ExpandDims/dim", "op": "Const", "attr": {"value": {"tensor": {"dtype": "DT_INT32", "tensorShape": {}}}, "dtype": {"type": "DT_INT32"}}}, {"name": "StatefulPartitionedCall/heavy_chain_align_airr_2/conv_residual_feature_extraction_block_9/flatten_9/Const", "op": "Const", "attr": {"value": {"tensor": {"dtype": "DT_INT32", "tensorShape": {"dim": [{"size": "2"}]}}}, "dtype": {"type": "DT_INT32"}}}, {"name": "StatefulPartitionedCall/heavy_chain_align_airr_2/v_allele_middle/MatMul/ReadVariableOp", "op": "Const", "attr": {"value": {"tensor": {"dtype": "DT_FLOAT", "tensorShape": {"dim": [{"size": "512"}, {"size": "396"}]}}}, "dtype": {"type": "DT_FLOAT"}}}, {"name": "StatefulPartitionedCall/heavy_chain_align_airr_2/v_allele_middle/BiasAdd/ReadVariableOp", "op": "Const", "attr": {"value": {"tensor": {"dtype": "DT_FLOAT", "tensorShape": {"dim": [{"size": "396"}]}}}, "dtype": {"type": "DT_FLOAT"}}}, {"name": "StatefulPartitionedCall/heavy_chain_align_airr_2/v_allele/MatMul/ReadVariableOp", "op": "Const", "attr": {"value": {"tensor": {"dtype": "DT_FLOAT", "tensorShape": {"dim": [{"size": "396"}, {"size": "198"}]}}}, "dtype": {"type": "DT_FLOAT"}}}, {"name": "StatefulPartitionedCall/heavy_chain_align_airr_2/v_allele/BiasAdd/ReadVariableOp", "op": "Const", "attr": {"value": {"tensor": {"dtype": "DT_FLOAT", "tensorShape": {"dim": [{"size": "198"}]}}}, "dtype": {"type": "DT_FLOAT"}}}, {"name": "StatefulPartitionedCall/heavy_chain_align_airr_2/conv_residual_feature_extraction_block_8/conv1d_and__batch_norm_42/conv1d_134/Conv1D/ExpandDims/dim", "op": "Const", "attr": {"value": {"tensor": {"dtype": "DT_INT32", "tensorShape": {}}}, "dtype": {"type": "DT_INT32"}}}, {"name": "StatefulPartitionedCall/heavy_chain_align_airr_2/conv_residual_feature_extraction_block_8/conv1d_and__batch_norm_42/conv1d_134/Conv1D/ExpandDims_1", "op": "Const", "attr": {"value": {"tensor": {"dtype": "DT_FLOAT", "tensorShape": {"dim": [{"size": "1"}, {"size": "5"}, {"size": "64"}, {"size": "64"}]}}}, "dtype": {"type": "DT_FLOAT"}}}, {"name": "StatefulPartitionedCall/heavy_chain_align_airr_2/conv_residual_feature_extraction_block_8/conv1d_and__batch_norm_42/conv1d_134/BiasAdd/ReadVariableOp", "op": "Const", "attr": {"value": {"tensor": {"dtype": "DT_FLOAT", "tensorShape": {"dim": [{"size": "64"}]}}}, "dtype": {"type": "DT_FLOAT"}}}, {"name": "StatefulPartitionedCall/heavy_chain_align_airr_2/conv_residual_feature_extraction_block_8/conv1d_and__batch_norm_42/conv1d_135/Conv1D/ExpandDims/dim", "op": "Const", "attr": {"value": {"tensor": {"dtype": "DT_INT32", "tensorShape": {}}}, "dtype": {"type": "DT_INT32"}}}, {"name": "StatefulPartitionedCall/heavy_chain_align_airr_2/conv_residual_feature_extraction_block_8/conv1d_and__batch_norm_42/conv1d_135/Conv1D/ExpandDims_1", "op": "Const", "attr": {"value": {"tensor": {"dtype": "DT_FLOAT", "tensorShape": {"dim": [{"size": "1"}, {"size": "5"}, {"size": "64"}, {"size": "64"}]}}}, "dtype": {"type": "DT_FLOAT"}}}, {"name": "StatefulPartitionedCall/heavy_chain_align_airr_2/conv_residual_feature_extraction_block_8/conv1d_and__batch_norm_42/conv1d_135/BiasAdd/ReadVariableOp", "op": "Const", "attr": {"value": {"tensor": {"dtype": "DT_FLOAT", "tensorShape": {"dim": [{"size": "64"}]}}}, "dtype": {"type": "DT_FLOAT"}}}, {"name": "StatefulPartitionedCall/heavy_chain_align_airr_2/conv_residual_feature_extraction_block_8/conv1d_and__batch_norm_42/conv1d_136/Conv1D/ExpandDims/dim", "op": "Const", "attr": {"value": {"tensor": {"dtype": "DT_INT32", "tensorShape": {}}}, "dtype": {"type": "DT_INT32"}}}, {"name": "StatefulPartitionedCall/heavy_chain_align_airr_2/conv_residual_feature_extraction_block_8/conv1d_and__batch_norm_42/conv1d_136/Conv1D/ExpandDims_1", "op": "Const", "attr": {"value": {"tensor": {"dtype": "DT_FLOAT", "tensorShape": {"dim": [{"size": "1"}, {"size": "5"}, {"size": "64"}, {"size": "64"}]}}}, "dtype": {"type": "DT_FLOAT"}}}, {"name": "StatefulPartitionedCall/heavy_chain_align_airr_2/conv_residual_feature_extraction_block_8/conv1d_and__batch_norm_42/conv1d_136/BiasAdd/ReadVariableOp", "op": "Const", "attr": {"value": {"tensor": {"dtype": "DT_FLOAT", "tensorShape": {"dim": [{"size": "64"}]}}}, "dtype": {"type": "DT_FLOAT"}}}, {"name": "StatefulPartitionedCall/heavy_chain_align_airr_2/conv_residual_feature_extraction_block_8/conv1d_and__batch_norm_42/batch_normalization_42/batchnorm/mul", "op": "Const", "attr": {"value": {"tensor": {"dtype": "DT_FLOAT", "tensorShape": {"dim": [{"size": "64"}]}}}, "dtype": {"type": "DT_FLOAT"}}}, {"name": "StatefulPartitionedCall/heavy_chain_align_airr_2/conv_residual_feature_extraction_block_8/conv1d_and__batch_norm_42/batch_normalization_42/batchnorm/sub", "op": "Const", "attr": {"value": {"tensor": {"dtype": "DT_FLOAT", "tensorShape": {"dim": [{"size": "64"}]}}}, "dtype": {"type": "DT_FLOAT"}}}, {"name": "StatefulPartitionedCall/heavy_chain_align_airr_2/conv_residual_feature_extraction_block_8/conv1d_and__batch_norm_42/max_pooling1d_80/ExpandDims/dim", "op": "Const", "attr": {"value": {"tensor": {"dtype": "DT_INT32", "tensorShape": {}}}, "dtype": {"type": "DT_INT32"}}}, {"name": "StatefulPartitionedCall/heavy_chain_align_airr_2/conv_residual_feature_extraction_block_8/conv1d_and__batch_norm_41/conv1d_131/Conv1D/ExpandDims/dim", "op": "Const", "attr": {"value": {"tensor": {"dtype": "DT_INT32", "tensorShape": {}}}, "dtype": {"type": "DT_INT32"}}}, {"name": "StatefulPartitionedCall/heavy_chain_align_airr_2/conv_residual_feature_extraction_block_8/conv1d_and__batch_norm_41/conv1d_131/Conv1D/ExpandDims_1", "op": "Const", "attr": {"value": {"tensor": {"dtype": "DT_FLOAT", "tensorShape": {"dim": [{"size": "1"}, {"size": "3"}, {"size": "64"}, {"size": "64"}]}}}, "dtype": {"type": "DT_FLOAT"}}}, {"name": "StatefulPartitionedCall/heavy_chain_align_airr_2/conv_residual_feature_extraction_block_8/conv1d_and__batch_norm_41/conv1d_131/BiasAdd/ReadVariableOp", "op": "Const", "attr": {"value": {"tensor": {"dtype": "DT_FLOAT", "tensorShape": {"dim": [{"size": "64"}]}}}, "dtype": {"type": "DT_FLOAT"}}}, {"name": "StatefulPartitionedCall/heavy_chain_align_airr_2/conv_residual_feature_extraction_block_8/conv1d_and__batch_norm_41/conv1d_132/Conv1D/ExpandDims/dim", "op": "Const", "attr": {"value": {"tensor": {"dtype": "DT_INT32", "tensorShape": {}}}, "dtype": {"type": "DT_INT32"}}}, {"name": "StatefulPartitionedCall/heavy_chain_align_airr_2/conv_residual_feature_extraction_block_8/conv1d_and__batch_norm_41/conv1d_132/Conv1D/ExpandDims_1", "op": "Const", "attr": {"value": {"tensor": {"dtype": "DT_FLOAT", "tensorShape": {"dim": [{"size": "1"}, {"size": "3"}, {"size": "64"}, {"size": "64"}]}}}, "dtype": {"type": "DT_FLOAT"}}}, {"name": "StatefulPartitionedCall/heavy_chain_align_airr_2/conv_residual_feature_extraction_block_8/conv1d_and__batch_norm_41/conv1d_132/BiasAdd/ReadVariableOp", "op": "Const", "attr": {"value": {"tensor": {"dtype": "DT_FLOAT", "tensorShape": {"dim": [{"size": "64"}]}}}, "dtype": {"type": "DT_FLOAT"}}}, {"name": "StatefulPartitionedCall/heavy_chain_align_airr_2/conv_residual_feature_extraction_block_8/conv1d_and__batch_norm_41/conv1d_133/Conv1D/ExpandDims/dim", "op": "Const", "attr": {"value": {"tensor": {"dtype": "DT_INT32", "tensorShape": {}}}, "dtype": {"type": "DT_INT32"}}}, {"name": "StatefulPartitionedCall/heavy_chain_align_airr_2/conv_residual_feature_extraction_block_8/conv1d_and__batch_norm_41/conv1d_133/Conv1D/ExpandDims_1", "op": "Const", "attr": {"value": {"tensor": {"dtype": "DT_FLOAT", "tensorShape": {"dim": [{"size": "1"}, {"size": "3"}, {"size": "64"}, {"size": "64"}]}}}, "dtype": {"type": "DT_FLOAT"}}}, {"name": "StatefulPartitionedCall/heavy_chain_align_airr_2/conv_residual_feature_extraction_block_8/conv1d_and__batch_norm_41/conv1d_133/BiasAdd/ReadVariableOp", "op": "Const", "attr": {"value": {"tensor": {"dtype": "DT_FLOAT", "tensorShape": {"dim": [{"size": "64"}]}}}, "dtype": {"type": "DT_FLOAT"}}}, {"name": "StatefulPartitionedCall/heavy_chain_align_airr_2/conv_residual_feature_extraction_block_8/conv1d_and__batch_norm_41/batch_normalization_41/batchnorm/mul", "op": "Const", "attr": {"value": {"tensor": {"dtype": "DT_FLOAT", "tensorShape": {"dim": [{"size": "64"}]}}}, "dtype": {"type": "DT_FLOAT"}}}, {"name": "StatefulPartitionedCall/heavy_chain_align_airr_2/conv_residual_feature_extraction_block_8/conv1d_and__batch_norm_41/batch_normalization_41/batchnorm/sub", "op": "Const", "attr": {"value": {"tensor": {"dtype": "DT_FLOAT", "tensorShape": {"dim": [{"size": "64"}]}}}, "dtype": {"type": "DT_FLOAT"}}}, {"name": "StatefulPartitionedCall/heavy_chain_align_airr_2/conv_residual_feature_extraction_block_8/conv1d_and__batch_norm_41/max_pooling1d_79/ExpandDims/dim", "op": "Const", "attr": {"value": {"tensor": {"dtype": "DT_INT32", "tensorShape": {}}}, "dtype": {"type": "DT_INT32"}}}, {"name": "StatefulPartitionedCall/heavy_chain_align_airr_2/conv_residual_feature_extraction_block_8/conv1d_and__batch_norm_40/conv1d_128/Conv1D/ExpandDims/dim", "op": "Const", "attr": {"value": {"tensor": {"dtype": "DT_INT32", "tensorShape": {}}}, "dtype": {"type": "DT_INT32"}}}, {"name": "StatefulPartitionedCall/heavy_chain_align_airr_2/conv_residual_feature_extraction_block_8/conv1d_and__batch_norm_40/conv1d_128/Conv1D/ExpandDims_1", "op": "Const", "attr": {"value": {"tensor": {"dtype": "DT_FLOAT", "tensorShape": {"dim": [{"size": "1"}, {"size": "5"}, {"size": "64"}, {"size": "64"}]}}}, "dtype": {"type": "DT_FLOAT"}}}, {"name": "StatefulPartitionedCall/heavy_chain_align_airr_2/conv_residual_feature_extraction_block_8/conv1d_and__batch_norm_40/conv1d_128/BiasAdd/ReadVariableOp", "op": "Const", "attr": {"value": {"tensor": {"dtype": "DT_FLOAT", "tensorShape": {"dim": [{"size": "64"}]}}}, "dtype": {"type": "DT_FLOAT"}}}, {"name": "StatefulPartitionedCall/heavy_chain_align_airr_2/conv_residual_feature_extraction_block_8/conv1d_and__batch_norm_40/conv1d_129/Conv1D/ExpandDims/dim", "op": "Const", "attr": {"value": {"tensor": {"dtype": "DT_INT32", "tensorShape": {}}}, "dtype": {"type": "DT_INT32"}}}, {"name": "StatefulPartitionedCall/heavy_chain_align_airr_2/conv_residual_feature_extraction_block_8/conv1d_and__batch_norm_40/conv1d_129/Conv1D/ExpandDims_1", "op": "Const", "attr": {"value": {"tensor": {"dtype": "DT_FLOAT", "tensorShape": {"dim": [{"size": "1"}, {"size": "5"}, {"size": "64"}, {"size": "64"}]}}}, "dtype": {"type": "DT_FLOAT"}}}, {"name": "StatefulPartitionedCall/heavy_chain_align_airr_2/conv_residual_feature_extraction_block_8/conv1d_and__batch_norm_40/conv1d_129/BiasAdd/ReadVariableOp", "op": "Const", "attr": {"value": {"tensor": {"dtype": "DT_FLOAT", "tensorShape": {"dim": [{"size": "64"}]}}}, "dtype": {"type": "DT_FLOAT"}}}, {"name": "StatefulPartitionedCall/heavy_chain_align_airr_2/conv_residual_feature_extraction_block_8/conv1d_and__batch_norm_40/conv1d_130/Conv1D/ExpandDims/dim", "op": "Const", "attr": {"value": {"tensor": {"dtype": "DT_INT32", "tensorShape": {}}}, "dtype": {"type": "DT_INT32"}}}, {"name": "StatefulPartitionedCall/heavy_chain_align_airr_2/conv_residual_feature_extraction_block_8/conv1d_and__batch_norm_40/conv1d_130/Conv1D/ExpandDims_1", "op": "Const", "attr": {"value": {"tensor": {"dtype": "DT_FLOAT", "tensorShape": {"dim": [{"size": "1"}, {"size": "5"}, {"size": "64"}, {"size": "64"}]}}}, "dtype": {"type": "DT_FLOAT"}}}, {"name": "StatefulPartitionedCall/heavy_chain_align_airr_2/conv_residual_feature_extraction_block_8/conv1d_and__batch_norm_40/conv1d_130/BiasAdd/ReadVariableOp", "op": "Const", "attr": {"value": {"tensor": {"dtype": "DT_FLOAT", "tensorShape": {"dim": [{"size": "64"}]}}}, "dtype": {"type": "DT_FLOAT"}}}, {"name": "StatefulPartitionedCall/heavy_chain_align_airr_2/conv_residual_feature_extraction_block_8/conv1d_and__batch_norm_40/batch_normalization_40/batchnorm/mul", "op": "Const", "attr": {"value": {"tensor": {"dtype": "DT_FLOAT", "tensorShape": {"dim": [{"size": "64"}]}}}, "dtype": {"type": "DT_FLOAT"}}}, {"name": "StatefulPartitionedCall/heavy_chain_align_airr_2/conv_residual_feature_extraction_block_8/conv1d_and__batch_norm_40/batch_normalization_40/batchnorm/sub", "op": "Const", "attr": {"value": {"tensor": {"dtype": "DT_FLOAT", "tensorShape": {"dim": [{"size": "64"}]}}}, "dtype": {"type": "DT_FLOAT"}}}, {"name": "StatefulPartitionedCall/heavy_chain_align_airr_2/conv_residual_feature_extraction_block_8/conv1d_and__batch_norm_40/max_pooling1d_78/ExpandDims/dim", "op": "Const", "attr": {"value": {"tensor": {"dtype": "DT_INT32", "tensorShape": {}}}, "dtype": {"type": "DT_INT32"}}}, {"name": "StatefulPartitionedCall/heavy_chain_align_airr_2/conv_residual_feature_extraction_block_8/conv1d_and__batch_norm_39/conv1d_125/Conv1D/ExpandDims/dim", "op": "Const", "attr": {"value": {"tensor": {"dtype": "DT_INT32", "tensorShape": {}}}, "dtype": {"type": "DT_INT32"}}}, {"name": "StatefulPartitionedCall/heavy_chain_align_airr_2/conv_residual_feature_extraction_block_8/conv1d_and__batch_norm_39/conv1d_125/Conv1D/ExpandDims_1", "op": "Const", "attr": {"value": {"tensor": {"dtype": "DT_FLOAT", "tensorShape": {"dim": [{"size": "1"}, {"size": "5"}, {"size": "64"}, {"size": "64"}]}}}, "dtype": {"type": "DT_FLOAT"}}}, {"name": "StatefulPartitionedCall/heavy_chain_align_airr_2/conv_residual_feature_extraction_block_8/conv1d_and__batch_norm_39/conv1d_125/BiasAdd/ReadVariableOp", "op": "Const", "attr": {"value": {"tensor": {"dtype": "DT_FLOAT", "tensorShape": {"dim": [{"size": "64"}]}}}, "dtype": {"type": "DT_FLOAT"}}}, {"name": "StatefulPartitionedCall/heavy_chain_align_airr_2/conv_residual_feature_extraction_block_8/conv1d_and__batch_norm_39/conv1d_126/Conv1D/ExpandDims/dim", "op": "Const", "attr": {"value": {"tensor": {"dtype": "DT_INT32", "tensorShape": {}}}, "dtype": {"type": "DT_INT32"}}}, {"name": "StatefulPartitionedCall/heavy_chain_align_airr_2/conv_residual_feature_extraction_block_8/conv1d_and__batch_norm_39/conv1d_126/Conv1D/ExpandDims_1", "op": "Const", "attr": {"value": {"tensor": {"dtype": "DT_FLOAT", "tensorShape": {"dim": [{"size": "1"}, {"size": "5"}, {"size": "64"}, {"size": "64"}]}}}, "dtype": {"type": "DT_FLOAT"}}}, {"name": "StatefulPartitionedCall/heavy_chain_align_airr_2/conv_residual_feature_extraction_block_8/conv1d_and__batch_norm_39/conv1d_126/BiasAdd/ReadVariableOp", "op": "Const", "attr": {"value": {"tensor": {"dtype": "DT_FLOAT", "tensorShape": {"dim": [{"size": "64"}]}}}, "dtype": {"type": "DT_FLOAT"}}}, {"name": "StatefulPartitionedCall/heavy_chain_align_airr_2/conv_residual_feature_extraction_block_8/conv1d_and__batch_norm_39/conv1d_127/Conv1D/ExpandDims/dim", "op": "Const", "attr": {"value": {"tensor": {"dtype": "DT_INT32", "tensorShape": {}}}, "dtype": {"type": "DT_INT32"}}}, {"name": "StatefulPartitionedCall/heavy_chain_align_airr_2/conv_residual_feature_extraction_block_8/conv1d_and__batch_norm_39/conv1d_127/Conv1D/ExpandDims_1", "op": "Const", "attr": {"value": {"tensor": {"dtype": "DT_FLOAT", "tensorShape": {"dim": [{"size": "1"}, {"size": "5"}, {"size": "64"}, {"size": "64"}]}}}, "dtype": {"type": "DT_FLOAT"}}}, {"name": "StatefulPartitionedCall/heavy_chain_align_airr_2/conv_residual_feature_extraction_block_8/conv1d_and__batch_norm_39/conv1d_127/BiasAdd/ReadVariableOp", "op": "Const", "attr": {"value": {"tensor": {"dtype": "DT_FLOAT", "tensorShape": {"dim": [{"size": "64"}]}}}, "dtype": {"type": "DT_FLOAT"}}}, {"name": "StatefulPartitionedCall/heavy_chain_align_airr_2/conv_residual_feature_extraction_block_8/conv1d_and__batch_norm_39/batch_normalization_39/batchnorm/mul", "op": "Const", "attr": {"value": {"tensor": {"dtype": "DT_FLOAT", "tensorShape": {"dim": [{"size": "64"}]}}}, "dtype": {"type": "DT_FLOAT"}}}, {"name": "StatefulPartitionedCall/heavy_chain_align_airr_2/conv_residual_feature_extraction_block_8/conv1d_and__batch_norm_39/batch_normalization_39/batchnorm/sub", "op": "Const", "attr": {"value": {"tensor": {"dtype": "DT_FLOAT", "tensorShape": {"dim": [{"size": "64"}]}}}, "dtype": {"type": "DT_FLOAT"}}}, {"name": "StatefulPartitionedCall/heavy_chain_align_airr_2/conv_residual_feature_extraction_block_8/conv1d_and__batch_norm_39/max_pooling1d_77/ExpandDims/dim", "op": "Const", "attr": {"value": {"tensor": {"dtype": "DT_INT32", "tensorShape": {}}}, "dtype": {"type": "DT_INT32"}}}, {"name": "StatefulPartitionedCall/heavy_chain_align_airr_2/conv_residual_feature_extraction_block_8/conv1d_and__batch_norm_38/conv1d_122/Conv1D/ExpandDims/dim", "op": "Const", "attr": {"value": {"tensor": {"dtype": "DT_INT32", "tensorShape": {}}}, "dtype": {"type": "DT_INT32"}}}, {"name": "StatefulPartitionedCall/heavy_chain_align_airr_2/conv_residual_feature_extraction_block_8/conv1d_and__batch_norm_38/conv1d_122/Conv1D/ExpandDims_1", "op": "Const", "attr": {"value": {"tensor": {"dtype": "DT_FLOAT", "tensorShape": {"dim": [{"size": "1"}, {"size": "2"}, {"size": "32"}, {"size": "64"}]}}}, "dtype": {"type": "DT_FLOAT"}}}, {"name": "StatefulPartitionedCall/heavy_chain_align_airr_2/conv_residual_feature_extraction_block_8/conv1d_and__batch_norm_38/conv1d_122/BiasAdd/ReadVariableOp", "op": "Const", "attr": {"value": {"tensor": {"dtype": "DT_FLOAT", "tensorShape": {"dim": [{"size": "64"}]}}}, "dtype": {"type": "DT_FLOAT"}}}, {"name": "StatefulPartitionedCall/heavy_chain_align_airr_2/conv_residual_feature_extraction_block_8/conv1d_and__batch_norm_38/conv1d_123/Conv1D/ExpandDims/dim", "op": "Const", "attr": {"value": {"tensor": {"dtype": "DT_INT32", "tensorShape": {}}}, "dtype": {"type": "DT_INT32"}}}, {"name": "StatefulPartitionedCall/heavy_chain_align_airr_2/conv_residual_feature_extraction_block_8/conv1d_and__batch_norm_38/conv1d_123/Conv1D/ExpandDims_1", "op": "Const", "attr": {"value": {"tensor": {"dtype": "DT_FLOAT", "tensorShape": {"dim": [{"size": "1"}, {"size": "2"}, {"size": "64"}, {"size": "64"}]}}}, "dtype": {"type": "DT_FLOAT"}}}, {"name": "StatefulPartitionedCall/heavy_chain_align_airr_2/conv_residual_feature_extraction_block_8/conv1d_and__batch_norm_38/conv1d_123/BiasAdd/ReadVariableOp", "op": "Const", "attr": {"value": {"tensor": {"dtype": "DT_FLOAT", "tensorShape": {"dim": [{"size": "64"}]}}}, "dtype": {"type": "DT_FLOAT"}}}, {"name": "StatefulPartitionedCall/heavy_chain_align_airr_2/conv_residual_feature_extraction_block_8/conv1d_and__batch_norm_38/conv1d_124/Conv1D/ExpandDims/dim", "op": "Const", "attr": {"value": {"tensor": {"dtype": "DT_INT32", "tensorShape": {}}}, "dtype": {"type": "DT_INT32"}}}, {"name": "StatefulPartitionedCall/heavy_chain_align_airr_2/conv_residual_feature_extraction_block_8/conv1d_and__batch_norm_38/conv1d_124/Conv1D/ExpandDims_1", "op": "Const", "attr": {"value": {"tensor": {"dtype": "DT_FLOAT", "tensorShape": {"dim": [{"size": "1"}, {"size": "2"}, {"size": "64"}, {"size": "64"}]}}}, "dtype": {"type": "DT_FLOAT"}}}, {"name": "StatefulPartitionedCall/heavy_chain_align_airr_2/conv_residual_feature_extraction_block_8/conv1d_and__batch_norm_38/conv1d_124/BiasAdd/ReadVariableOp", "op": "Const", "attr": {"value": {"tensor": {"dtype": "DT_FLOAT", "tensorShape": {"dim": [{"size": "64"}]}}}, "dtype": {"type": "DT_FLOAT"}}}, {"name": "StatefulPartitionedCall/heavy_chain_align_airr_2/conv_residual_feature_extraction_block_8/conv1d_and__batch_norm_38/batch_normalization_38/batchnorm/mul", "op": "Const", "attr": {"value": {"tensor": {"dtype": "DT_FLOAT", "tensorShape": {"dim": [{"size": "64"}]}}}, "dtype": {"type": "DT_FLOAT"}}}, {"name": "StatefulPartitionedCall/heavy_chain_align_airr_2/conv_residual_feature_extraction_block_8/conv1d_and__batch_norm_38/batch_normalization_38/batchnorm/sub", "op": "Const", "attr": {"value": {"tensor": {"dtype": "DT_FLOAT", "tensorShape": {"dim": [{"size": "64"}]}}}, "dtype": {"type": "DT_FLOAT"}}}, {"name": "StatefulPartitionedCall/heavy_chain_align_airr_2/conv_residual_feature_extraction_block_8/conv1d_and__batch_norm_38/max_pooling1d_76/ExpandDims/dim", "op": "Const", "attr": {"value": {"tensor": {"dtype": "DT_INT32", "tensorShape": {}}}, "dtype": {"type": "DT_INT32"}}}, {"name": "unknown_0", "op": "Const", "attr": {"value": {"tensor": {"dtype": "DT_FLOAT", "tensorShape": {"dim": [{"size": "6"}, {"size": "32"}]}}}, "dtype": {"type": "DT_FLOAT"}}}, {"name": "StatefulPartitionedCall/heavy_chain_align_airr_2/Reshape/shape", "op": "Const", "attr": {"value": {"tensor": {"dtype": "DT_INT32", "tensorShape": {"dim": [{"size": "2"}]}}}, "dtype": {"type": "DT_INT32"}}}, {"name": "StatefulPartitionedCall/heavy_chain_align_airr_2/token_and_position_embedding_2/embedding_4/embedding_lookup/axis", "op": "Const", "attr": {"value": {"tensor": {"dtype": "DT_INT32", "tensorShape": {}}}, "dtype": {"type": "DT_INT32"}}}, {"name": "StatefulPartitionedCall/heavy_chain_align_airr_2/token_and_position_embedding_2/embedding_5/embedding_lookup", "op": "Const", "attr": {"value": {"tensor": {"dtype": "DT_FLOAT", "tensorShape": {"dim": [{"size": "576"}, {"size": "32"}]}}}, "dtype": {"type": "DT_FLOAT"}}}, {"name": "StatefulPartitionedCall/heavy_chain_align_airr_2/conv_residual_feature_extraction_block_8/conv1d_137/Conv1D/ExpandDims/dim", "op": "Const", "attr": {"value": {"tensor": {"dtype": "DT_INT32", "tensorShape": {}}}, "dtype": {"type": "DT_INT32"}}}, {"name": "StatefulPartitionedCall/heavy_chain_align_airr_2/conv_residual_feature_extraction_block_8/conv1d_137/Conv1D/ExpandDims_1", "op": "Const", "attr": {"value": {"tensor": {"dtype": "DT_FLOAT", "tensorShape": {"dim": [{"size": "1"}, {"size": "5"}, {"size": "32"}, {"size": "64"}]}}}, "dtype": {"type": "DT_FLOAT"}}}, {"name": "StatefulPartitionedCall/heavy_chain_align_airr_2/conv_residual_feature_extraction_block_8/conv1d_137/BiasAdd/ReadVariableOp", "op": "Const", "attr": {"value": {"tensor": {"dtype": "DT_FLOAT", "tensorShape": {"dim": [{"size": "64"}]}}}, "dtype": {"type": "DT_FLOAT"}}}, {"name": "StatefulPartitionedCall/heavy_chain_align_airr_2/conv_residual_feature_extraction_block_8/max_pooling1d_81/ExpandDims/dim", "op": "Const", "attr": {"value": {"tensor": {"dtype": "DT_INT32", "tensorShape": {}}}, "dtype": {"type": "DT_INT32"}}}, {"name": "StatefulPartitionedCall/heavy_chain_align_airr_2/conv_residual_feature_extraction_block_8/max_pooling1d_81/ExpandDims_1/dim", "op": "Const", "attr": {"value": {"tensor": {"dtype": "DT_INT32", "tensorShape": {}}}, "dtype": {"type": "DT_INT32"}}}, {"name": "StatefulPartitionedCall/heavy_chain_align_airr_2/conv_residual_feature_extraction_block_8/max_pooling1d_82/ExpandDims/dim", "op": "Const", "attr": {"value": {"tensor": {"dtype": "DT_INT32", "tensorShape": {}}}, "dtype": {"type": "DT_INT32"}}}, {"name": "StatefulPartitionedCall/heavy_chain_align_airr_2/conv_residual_feature_extraction_block_8/max_pooling1d_83/ExpandDims/dim", "op": "Const", "attr": {"value": {"tensor": {"dtype": "DT_INT32", "tensorShape": {}}}, "dtype": {"type": "DT_INT32"}}}, {"name": "StatefulPartitionedCall/heavy_chain_align_airr_2/conv_residual_feature_extraction_block_8/max_pooling1d_84/ExpandDims/dim", "op": "Const", "attr": {"value": {"tensor": {"dtype": "DT_INT32", "tensorShape": {}}}, "dtype": {"type": "DT_INT32"}}}, {"name": "StatefulPartitionedCall/heavy_chain_align_airr_2/conv_residual_feature_extraction_block_8/max_pooling1d_85/ExpandDims/dim", "op": "Const", "attr": {"value": {"tensor": {"dtype": "DT_INT32", "tensorShape": {}}}, "dtype": {"type": "DT_INT32"}}}, {"name": "StatefulPartitionedCall/heavy_chain_align_airr_2/conv_residual_feature_extraction_block_8/flatten_8/Const", "op": "Const", "attr": {"value": {"tensor": {"dtype": "DT_INT32", "tensorShape": {"dim": [{"size": "2"}]}}}, "dtype": {"type": "DT_INT32"}}}, {"name": "StatefulPartitionedCall/heavy_chain_align_airr_2/dense_6/MatMul/ReadVariableOp", "op": "Const", "attr": {"value": {"tensor": {"dtype": "DT_FLOAT", "tensorShape": {"dim": [{"size": "576"}, {"size": "128"}]}}}, "dtype": {"type": "DT_FLOAT"}}}, {"name": "StatefulPartitionedCall/heavy_chain_align_airr_2/dense_6/BiasAdd/ReadVariableOp", "op": "Const", "attr": {"value": {"tensor": {"dtype": "DT_FLOAT", "tensorShape": {"dim": [{"size": "128"}]}}}, "dtype": {"type": "DT_FLOAT"}}}, {"name": "StatefulPartitionedCall/heavy_chain_align_airr_2/v_segment/MatMul/ReadVariableOp", "op": "Const", "attr": {"value": {"tensor": {"dtype": "DT_FLOAT", "tensorShape": {"dim": [{"size": "128"}, {"size": "576"}]}}}, "dtype": {"type": "DT_FLOAT"}}}, {"name": "StatefulPartitionedCall/heavy_chain_align_airr_2/v_segment/BiasAdd/ReadVariableOp", "op": "Const", "attr": {"value": {"tensor": {"dtype": "DT_FLOAT", "tensorShape": {"dim": [{"size": "576"}]}}}, "dtype": {"type": "DT_FLOAT"}}}, {"name": "tokenized_sequence", "op": "Placeholder", "attr": {"shape": {"shape": {"dim": [{"size": "-1"}, {"size": "576"}]}}, "dtype": {"type": "DT_INT32"}}}, {"name": "StatefulPartitionedCall/heavy_chain_align_airr_2/Reshape", "op": "Reshape", "input": ["tokenized_sequence", "StatefulPartitionedCall/heavy_chain_align_airr_2/Reshape/shape"], "attr": {"T": {"type": "DT_INT32"}, "Tshape": {"type": "DT_INT32"}}}, {"name": "StatefulPartitionedCall/heavy_chain_align_airr_2/Cast", "op": "Cast", "input": ["StatefulPartitionedCall/heavy_chain_align_airr_2/Reshape"], "attr": {"SrcT": {"type": "DT_INT32"}, "DstT": {"type": "DT_FLOAT"}, "Truncate": {"b": false}}}, {"name": "StatefulPartitionedCall/heavy_chain_align_airr_2/token_and_position_embedding_2/embedding_4/Cast", "op": "Cast", "input": ["StatefulPartitionedCall/heavy_chain_align_airr_2/Cast"], "attr": {"SrcT": {"type": "DT_FLOAT"}, "DstT": {"type": "DT_INT32"}, "Truncate": {"b": false}}}, {"name": "StatefulPartitionedCall/heavy_chain_align_airr_2/token_and_position_embedding_2/embedding_4/embedding_lookup", "op": "GatherV2", "input": ["unknown_0", "StatefulPartitionedCall/heavy_chain_align_airr_2/token_and_position_embedding_2/embedding_4/Cast", "StatefulPartitionedCall/heavy_chain_align_airr_2/token_and_position_embedding_2/embedding_4/embedding_lookup/axis"], "attr": {"Tparams": {"type": "DT_FLOAT"}, "Taxis": {"type": "DT_INT32"}, "Tindices": {"type": "DT_INT32"}, "_has_manual_control_dependencies": {"b": true}, "batch_dims": {"i": "0"}}}, {"name": "StatefulPartitionedCall/heavy_chain_align_airr_2/token_and_position_embedding_2/add", "op": "AddV2", "input": ["StatefulPartitionedCall/heavy_chain_align_airr_2/token_and_position_embedding_2/embedding_4/embedding_lookup", "StatefulPartitionedCall/heavy_chain_align_airr_2/token_and_position_embedding_2/embedding_5/embedding_lookup"], "attr": {"T": {"type": "DT_FLOAT"}}}, {"name": "StatefulPartitionedCall/heavy_chain_align_airr_2/conv_residual_feature_extraction_block_8/conv1d_and__batch_norm_38/conv1d_122/Conv1D/ExpandDims", "op": "ExpandDims", "input": ["StatefulPartitionedCall/heavy_chain_align_airr_2/token_and_position_embedding_2/add", "StatefulPartitionedCall/heavy_chain_align_airr_2/conv_residual_feature_extraction_block_8/conv1d_and__batch_norm_38/conv1d_122/Conv1D/ExpandDims/dim"], "attr": {"Tdim": {"type": "DT_INT32"}, "T": {"type": "DT_FLOAT"}}}, {"name": "StatefulPartitionedCall/heavy_chain_align_airr_2/conv_residual_feature_extraction_block_8/conv1d_137/Conv1D/ExpandDims", "op": "ExpandDims", "input": ["StatefulPartitionedCall/heavy_chain_align_airr_2/token_and_position_embedding_2/add", "StatefulPartitionedCall/heavy_chain_align_airr_2/conv_residual_feature_extraction_block_8/conv1d_137/Conv1D/ExpandDims/dim"], "attr": {"Tdim": {"type": "DT_INT32"}, "T": {"type": "DT_FLOAT"}}}, {"name": "StatefulPartitionedCall/heavy_chain_align_airr_2/conv_residual_feature_extraction_block_8/conv1d_and__batch_norm_38/conv1d_122/Conv1D", "op": "_FusedConv2D", "input": ["StatefulPartitionedCall/heavy_chain_align_airr_2/conv_residual_feature_extraction_block_8/conv1d_and__batch_norm_38/conv1d_122/Conv1D/ExpandDims", "StatefulPartitionedCall/heavy_chain_align_airr_2/conv_residual_feature_extraction_block_8/conv1d_and__batch_norm_38/conv1d_122/Conv1D/ExpandDims_1", "StatefulPartitionedCall/heavy_chain_align_airr_2/conv_residual_feature_extraction_block_8/conv1d_and__batch_norm_38/conv1d_122/BiasAdd/ReadVariableOp"], "device": "/device:CPU:0", "attr": {"num_host_args": {"i": "0"}, "data_format": {"s": "TkhXQw=="}, "filter_format": {"s": "SFdJTw=="}, "strides": {"list": {"i": ["1", "1", "1", "1"]}}, "num_args": {"i": "1"}, "fused_ops": {"list": {"s": ["Qmlhc0FkZA=="]}}, "TArgs": {"list": {"type": ["DT_FLOAT"]}}, "padding": {"s": "U0FNRQ=="}, "use_cudnn_on_gpu": {"b": true}, "leakyrelu_alpha": {"f": 0.2}, "epsilon": {"f": 0.0}, "T": {"type": "DT_FLOAT"}, "explicit_paddings": {"list": {}}, "dilations": {"list": {"i": ["1", "1", "1", "1"]}}}}, {"name": "StatefulPartitionedCall/heavy_chain_align_airr_2/conv_residual_feature_extraction_block_8/conv1d_137/Conv1D", "op": "_FusedConv2D", "input": ["StatefulPartitionedCall/heavy_chain_align_airr_2/conv_residual_feature_extraction_block_8/conv1d_137/Conv1D/ExpandDims", "StatefulPartitionedCall/heavy_chain_align_airr_2/conv_residual_feature_extraction_block_8/conv1d_137/Conv1D/ExpandDims_1", "StatefulPartitionedCall/heavy_chain_align_airr_2/conv_residual_feature_extraction_block_8/conv1d_137/BiasAdd/ReadVariableOp"], "device": "/device:CPU:0", "attr": {"num_host_args": {"i": "0"}, "data_format": {"s": "TkhXQw=="}, "filter_format": {"s": "SFdJTw=="}, "fused_ops": {"list": {"s": ["Qmlhc0FkZA=="]}}, "num_args": {"i": "1"}, "strides": {"list": {"i": ["1", "1", "1", "1"]}}, "TArgs": {"list": {"type": ["DT_FLOAT"]}}, "padding": {"s": "U0FNRQ=="}, "use_cudnn_on_gpu": {"b": true}, "leakyrelu_alpha": {"f": 0.2}, "epsilon": {"f": 0.0}, "T": {"type": "DT_FLOAT"}, "explicit_paddings": {"list": {}}, "dilations": {"list": {"i": ["1", "1", "1", "1"]}}}}, {"name": "StatefulPartitionedCall/heavy_chain_align_airr_2/conv_residual_feature_extraction_block_8/conv1d_and__batch_norm_38/conv1d_122/BiasAdd", "op": "Squeeze", "input": ["StatefulPartitionedCall/heavy_chain_align_airr_2/conv_residual_feature_extraction_block_8/conv1d_and__batch_norm_38/conv1d_122/Conv1D"], "attr": {"T": {"type": "DT_FLOAT"}, "squeeze_dims": {"list": {"i": ["-3"]}}}}, {"name": "StatefulPartitionedCall/heavy_chain_align_airr_2/conv_residual_feature_extraction_block_8/conv1d_137/BiasAdd", "op": "Squeeze", "input": ["StatefulPartitionedCall/heavy_chain_align_airr_2/conv_residual_feature_extraction_block_8/conv1d_137/Conv1D"], "attr": {"T": {"type": "DT_FLOAT"}, "squeeze_dims": {"list": {"i": ["-3"]}}}}, {"name": "StatefulPartitionedCall/heavy_chain_align_airr_2/conv_residual_feature_extraction_block_8/conv1d_and__batch_norm_38/conv1d_123/Conv1D/ExpandDims", "op": "ExpandDims", "input": ["StatefulPartitionedCall/heavy_chain_align_airr_2/conv_residual_feature_extraction_block_8/conv1d_and__batch_norm_38/conv1d_122/BiasAdd", "StatefulPartitionedCall/heavy_chain_align_airr_2/conv_residual_feature_extraction_block_8/conv1d_and__batch_norm_38/conv1d_123/Conv1D/ExpandDims/dim"], "attr": {"Tdim": {"type": "DT_INT32"}, "T": {"type": "DT_FLOAT"}}}, {"name": "StatefulPartitionedCall/heavy_chain_align_airr_2/conv_residual_feature_extraction_block_8/max_pooling1d_81/ExpandDims", "op": "ExpandDims", "input": ["StatefulPartitionedCall/heavy_chain_align_airr_2/conv_residual_feature_extraction_block_8/conv1d_137/BiasAdd", "StatefulPartitionedCall/heavy_chain_align_airr_2/conv_residual_feature_extraction_block_8/max_pooling1d_81/ExpandDims/dim"], "attr": {"Tdim": {"type": "DT_INT32"}, "T": {"type": "DT_FLOAT"}}}, {"name": "StatefulPartitionedCall/heavy_chain_align_airr_2/conv_residual_feature_extraction_block_8/conv1d_and__batch_norm_38/conv1d_123/Conv1D", "op": "_FusedConv2D", "input": ["StatefulPartitionedCall/heavy_chain_align_airr_2/conv_residual_feature_extraction_block_8/conv1d_and__batch_norm_38/conv1d_123/Conv1D/ExpandDims", "StatefulPartitionedCall/heavy_chain_align_airr_2/conv_residual_feature_extraction_block_8/conv1d_and__batch_norm_38/conv1d_123/Conv1D/ExpandDims_1", "StatefulPartitionedCall/heavy_chain_align_airr_2/conv_residual_feature_extraction_block_8/conv1d_and__batch_norm_38/conv1d_123/BiasAdd/ReadVariableOp"], "device": "/device:CPU:0", "attr": {"num_host_args": {"i": "0"}, "data_format": {"s": "TkhXQw=="}, "filter_format": {"s": "SFdJTw=="}, "strides": {"list": {"i": ["1", "1", "1", "1"]}}, "num_args": {"i": "1"}, "fused_ops": {"list": {"s": ["Qmlhc0FkZA=="]}}, "TArgs": {"list": {"type": ["DT_FLOAT"]}}, "padding": {"s": "U0FNRQ=="}, "use_cudnn_on_gpu": {"b": true}, "leakyrelu_alpha": {"f": 0.2}, "epsilon": {"f": 0.0}, "T": {"type": "DT_FLOAT"}, "explicit_paddings": {"list": {}}, "dilations": {"list": {"i": ["1", "1", "1", "1"]}}}}, {"name": "StatefulPartitionedCall/heavy_chain_align_airr_2/conv_residual_feature_extraction_block_8/max_pooling1d_81/MaxPool", "op": "MaxPool", "input": ["StatefulPartitionedCall/heavy_chain_align_airr_2/conv_residual_feature_extraction_block_8/max_pooling1d_81/ExpandDims"], "attr": {"ksize": {"list": {"i": ["1", "2", "1", "1"]}}, "data_format": {"s": "TkhXQw=="}, "T": {"type": "DT_FLOAT"}, "explicit_paddings": {"list": {}}, "padding": {"s": "VkFMSUQ="}, "strides": {"list": {"i": ["1", "2", "1", "1"]}}}}, {"name": "StatefulPartitionedCall/heavy_chain_align_airr_2/conv_residual_feature_extraction_block_8/conv1d_and__batch_norm_38/conv1d_123/BiasAdd", "op": "Squeeze", "input": ["StatefulPartitionedCall/heavy_chain_align_airr_2/conv_residual_feature_extraction_block_8/conv1d_and__batch_norm_38/conv1d_123/Conv1D"], "attr": {"T": {"type": "DT_FLOAT"}, "squeeze_dims": {"list": {"i": ["-3"]}}}}, {"name": "StatefulPartitionedCall/heavy_chain_align_airr_2/conv_residual_feature_extraction_block_8/max_pooling1d_81/Squeeze", "op": "Squeeze", "input": ["StatefulPartitionedCall/heavy_chain_align_airr_2/conv_residual_feature_extraction_block_8/max_pooling1d_81/MaxPool"], "attr": {"T": {"type": "DT_FLOAT"}, "squeeze_dims": {"list": {"i": ["2"]}}}}, {"name": "StatefulPartitionedCall/heavy_chain_align_airr_2/conv_residual_feature_extraction_block_8/conv1d_and__batch_norm_38/conv1d_124/Conv1D/ExpandDims", "op": "ExpandDims", "input": ["StatefulPartitionedCall/heavy_chain_align_airr_2/conv_residual_feature_extraction_block_8/conv1d_and__batch_norm_38/conv1d_123/BiasAdd", "StatefulPartitionedCall/heavy_chain_align_airr_2/conv_residual_feature_extraction_block_8/conv1d_and__batch_norm_38/conv1d_124/Conv1D/ExpandDims/dim"], "attr": {"Tdim": {"type": "DT_INT32"}, "T": {"type": "DT_FLOAT"}}}, {"name": "StatefulPartitionedCall/heavy_chain_align_airr_2/conv_residual_feature_extraction_block_8/conv1d_and__batch_norm_38/conv1d_124/Conv1D", "op": "_FusedConv2D", "input": ["StatefulPartitionedCall/heavy_chain_align_airr_2/conv_residual_feature_extraction_block_8/conv1d_and__batch_norm_38/conv1d_124/Conv1D/ExpandDims", "StatefulPartitionedCall/heavy_chain_align_airr_2/conv_residual_feature_extraction_block_8/conv1d_and__batch_norm_38/conv1d_124/Conv1D/ExpandDims_1", "StatefulPartitionedCall/heavy_chain_align_airr_2/conv_residual_feature_extraction_block_8/conv1d_and__batch_norm_38/conv1d_124/BiasAdd/ReadVariableOp"], "device": "/device:CPU:0", "attr": {"num_host_args": {"i": "0"}, "data_format": {"s": "TkhXQw=="}, "filter_format": {"s": "SFdJTw=="}, "fused_ops": {"list": {"s": ["Qmlhc0FkZA=="]}}, "num_args": {"i": "1"}, "strides": {"list": {"i": ["1", "1", "1", "1"]}}, "TArgs": {"list": {"type": ["DT_FLOAT"]}}, "padding": {"s": "U0FNRQ=="}, "use_cudnn_on_gpu": {"b": true}, "leakyrelu_alpha": {"f": 0.2}, "epsilon": {"f": 0.0}, "T": {"type": "DT_FLOAT"}, "explicit_paddings": {"list": {}}, "dilations": {"list": {"i": ["1", "1", "1", "1"]}}}}, {"name": "StatefulPartitionedCall/heavy_chain_align_airr_2/conv_residual_feature_extraction_block_8/conv1d_and__batch_norm_38/conv1d_124/BiasAdd", "op": "Squeeze", "input": ["StatefulPartitionedCall/heavy_chain_align_airr_2/conv_residual_feature_extraction_block_8/conv1d_and__batch_norm_38/conv1d_124/Conv1D"], "attr": {"T": {"type": "DT_FLOAT"}, "squeeze_dims": {"list": {"i": ["-3"]}}}}, {"name": "StatefulPartitionedCall/heavy_chain_align_airr_2/conv_residual_feature_extraction_block_8/conv1d_and__batch_norm_38/batch_normalization_38/batchnorm/mul_1", "op": "Mul", "input": ["StatefulPartitionedCall/heavy_chain_align_airr_2/conv_residual_feature_extraction_block_8/conv1d_and__batch_norm_38/conv1d_124/BiasAdd", "StatefulPartitionedCall/heavy_chain_align_airr_2/conv_residual_feature_extraction_block_8/conv1d_and__batch_norm_38/batch_normalization_38/batchnorm/mul"], "attr": {"T": {"type": "DT_FLOAT"}}}, {"name": "StatefulPartitionedCall/heavy_chain_align_airr_2/conv_residual_feature_extraction_block_8/conv1d_and__batch_norm_38/batch_normalization_38/batchnorm/add_1", "op": "AddV2", "input": ["StatefulPartitionedCall/heavy_chain_align_airr_2/conv_residual_feature_extraction_block_8/conv1d_and__batch_norm_38/batch_normalization_38/batchnorm/mul_1", "StatefulPartitionedCall/heavy_chain_align_airr_2/conv_residual_feature_extraction_block_8/conv1d_and__batch_norm_38/batch_normalization_38/batchnorm/sub"], "attr": {"T": {"type": "DT_FLOAT"}}}, {"name": "StatefulPartitionedCall/heavy_chain_align_airr_2/conv_residual_feature_extraction_block_8/conv1d_and__batch_norm_38/leaky_re_lu_64/LeakyRelu", "op": "LeakyRelu", "input": ["StatefulPartitionedCall/heavy_chain_align_airr_2/conv_residual_feature_extraction_block_8/conv1d_and__batch_norm_38/batch_normalization_38/batchnorm/add_1"], "attr": {"alpha": {"f": 0.3}, "T": {"type": "DT_FLOAT"}}}, {"name": "StatefulPartitionedCall/heavy_chain_align_airr_2/conv_residual_feature_extraction_block_8/conv1d_and__batch_norm_38/max_pooling1d_76/ExpandDims", "op": "ExpandDims", "input": ["StatefulPartitionedCall/heavy_chain_align_airr_2/conv_residual_feature_extraction_block_8/conv1d_and__batch_norm_38/leaky_re_lu_64/LeakyRelu", "StatefulPartitionedCall/heavy_chain_align_airr_2/conv_residual_feature_extraction_block_8/conv1d_and__batch_norm_38/max_pooling1d_76/ExpandDims/dim"], "attr": {"Tdim": {"type": "DT_INT32"}, "T": {"type": "DT_FLOAT"}}}, {"name": "StatefulPartitionedCall/heavy_chain_align_airr_2/conv_residual_feature_extraction_block_8/conv1d_and__batch_norm_38/max_pooling1d_76/MaxPool", "op": "MaxPool", "input": ["StatefulPartitionedCall/heavy_chain_align_airr_2/conv_residual_feature_extraction_block_8/conv1d_and__batch_norm_38/max_pooling1d_76/ExpandDims"], "attr": {"ksize": {"list": {"i": ["1", "2", "1", "1"]}}, "data_format": {"s": "TkhXQw=="}, "T": {"type": "DT_FLOAT"}, "explicit_paddings": {"list": {}}, "padding": {"s": "VkFMSUQ="}, "strides": {"list": {"i": ["1", "2", "1", "1"]}}}}, {"name": "StatefulPartitionedCall/heavy_chain_align_airr_2/conv_residual_feature_extraction_block_8/conv1d_and__batch_norm_38/max_pooling1d_76/Squeeze", "op": "Squeeze", "input": ["StatefulPartitionedCall/heavy_chain_align_airr_2/conv_residual_feature_extraction_block_8/conv1d_and__batch_norm_38/max_pooling1d_76/MaxPool"], "attr": {"T": {"type": "DT_FLOAT"}, "squeeze_dims": {"list": {"i": ["2"]}}}}, {"name": "StatefulPartitionedCall/heavy_chain_align_airr_2/conv_residual_feature_extraction_block_8/add_38/add", "op": "AddV2", "input": ["StatefulPartitionedCall/heavy_chain_align_airr_2/conv_residual_feature_extraction_block_8/conv1d_and__batch_norm_38/max_pooling1d_76/Squeeze", "StatefulPartitionedCall/heavy_chain_align_airr_2/conv_residual_feature_extraction_block_8/max_pooling1d_81/Squeeze"], "attr": {"T": {"type": "DT_FLOAT"}}}, {"name": "StatefulPartitionedCall/heavy_chain_align_airr_2/conv_residual_feature_extraction_block_8/leaky_re_lu_69/LeakyRelu", "op": "LeakyRelu", "input": ["StatefulPartitionedCall/heavy_chain_align_airr_2/conv_residual_feature_extraction_block_8/add_38/add"], "attr": {"alpha": {"f": 0.3}, "T": {"type": "DT_FLOAT"}}}, {"name": "StatefulPartitionedCall/heavy_chain_align_airr_2/conv_residual_feature_extraction_block_8/max_pooling1d_81/ExpandDims_1", "op": "ExpandDims", "input": ["StatefulPartitionedCall/heavy_chain_align_airr_2/conv_residual_feature_extraction_block_8/leaky_re_lu_69/LeakyRelu", "StatefulPartitionedCall/heavy_chain_align_airr_2/conv_residual_feature_extraction_block_8/max_pooling1d_81/ExpandDims_1/dim"], "attr": {"Tdim": {"type": "DT_INT32"}, "T": {"type": "DT_FLOAT"}}}, {"name": "StatefulPartitionedCall/heavy_chain_align_airr_2/conv_residual_feature_extraction_block_8/max_pooling1d_81/MaxPool_1", "op": "MaxPool", "input": ["StatefulPartitionedCall/heavy_chain_align_airr_2/conv_residual_feature_extraction_block_8/max_pooling1d_81/ExpandDims_1"], "attr": {"padding": {"s": "VkFMSUQ="}, "data_format": {"s": "TkhXQw=="}, "T": {"type": "DT_FLOAT"}, "explicit_paddings": {"list": {}}, "ksize": {"list": {"i": ["1", "2", "1", "1"]}}, "strides": {"list": {"i": ["1", "2", "1", "1"]}}}}, {"name": "StatefulPartitionedCall/heavy_chain_align_airr_2/conv_residual_feature_extraction_block_8/max_pooling1d_81/Squeeze_1", "op": "Squeeze", "input": ["StatefulPartitionedCall/heavy_chain_align_airr_2/conv_residual_feature_extraction_block_8/max_pooling1d_81/MaxPool_1"], "attr": {"T": {"type": "DT_FLOAT"}, "squeeze_dims": {"list": {"i": ["2"]}}}}, {"name": "StatefulPartitionedCall/heavy_chain_align_airr_2/conv_residual_feature_extraction_block_8/conv1d_and__batch_norm_39/conv1d_125/Conv1D/ExpandDims", "op": "ExpandDims", "input": ["StatefulPartitionedCall/heavy_chain_align_airr_2/conv_residual_feature_extraction_block_8/max_pooling1d_81/Squeeze_1", "StatefulPartitionedCall/heavy_chain_align_airr_2/conv_residual_feature_extraction_block_8/conv1d_and__batch_norm_39/conv1d_125/Conv1D/ExpandDims/dim"], "attr": {"Tdim": {"type": "DT_INT32"}, "T": {"type": "DT_FLOAT"}}}, {"name": "StatefulPartitionedCall/heavy_chain_align_airr_2/conv_residual_feature_extraction_block_8/max_pooling1d_82/ExpandDims", "op": "ExpandDims", "input": ["StatefulPartitionedCall/heavy_chain_align_airr_2/conv_residual_feature_extraction_block_8/max_pooling1d_81/Squeeze_1", "StatefulPartitionedCall/heavy_chain_align_airr_2/conv_residual_feature_extraction_block_8/max_pooling1d_82/ExpandDims/dim"], "attr": {"Tdim": {"type": "DT_INT32"}, "T": {"type": "DT_FLOAT"}}}, {"name": "StatefulPartitionedCall/heavy_chain_align_airr_2/conv_residual_feature_extraction_block_8/conv1d_and__batch_norm_39/conv1d_125/Conv1D", "op": "_FusedConv2D", "input": ["StatefulPartitionedCall/heavy_chain_align_airr_2/conv_residual_feature_extraction_block_8/conv1d_and__batch_norm_39/conv1d_125/Conv1D/ExpandDims", "StatefulPartitionedCall/heavy_chain_align_airr_2/conv_residual_feature_extraction_block_8/conv1d_and__batch_norm_39/conv1d_125/Conv1D/ExpandDims_1", "StatefulPartitionedCall/heavy_chain_align_airr_2/conv_residual_feature_extraction_block_8/conv1d_and__batch_norm_39/conv1d_125/BiasAdd/ReadVariableOp"], "device": "/device:CPU:0", "attr": {"num_host_args": {"i": "0"}, "data_format": {"s": "TkhXQw=="}, "filter_format": {"s": "SFdJTw=="}, "fused_ops": {"list": {"s": ["Qmlhc0FkZA=="]}}, "num_args": {"i": "1"}, "strides": {"list": {"i": ["1", "1", "1", "1"]}}, "TArgs": {"list": {"type": ["DT_FLOAT"]}}, "padding": {"s": "U0FNRQ=="}, "use_cudnn_on_gpu": {"b": true}, "leakyrelu_alpha": {"f": 0.2}, "epsilon": {"f": 0.0}, "T": {"type": "DT_FLOAT"}, "explicit_paddings": {"list": {}}, "dilations": {"list": {"i": ["1", "1", "1", "1"]}}}}, {"name": "StatefulPartitionedCall/heavy_chain_align_airr_2/conv_residual_feature_extraction_block_8/max_pooling1d_82/MaxPool", "op": "MaxPool", "input": ["StatefulPartitionedCall/heavy_chain_align_airr_2/conv_residual_feature_extraction_block_8/max_pooling1d_82/ExpandDims"], "attr": {"ksize": {"list": {"i": ["1", "2", "1", "1"]}}, "data_format": {"s": "TkhXQw=="}, "T": {"type": "DT_FLOAT"}, "explicit_paddings": {"list": {}}, "padding": {"s": "VkFMSUQ="}, "strides": {"list": {"i": ["1", "2", "1", "1"]}}}}, {"name": "StatefulPartitionedCall/heavy_chain_align_airr_2/conv_residual_feature_extraction_block_8/conv1d_and__batch_norm_39/conv1d_125/BiasAdd", "op": "Squeeze", "input": ["StatefulPartitionedCall/heavy_chain_align_airr_2/conv_residual_feature_extraction_block_8/conv1d_and__batch_norm_39/conv1d_125/Conv1D"], "attr": {"T": {"type": "DT_FLOAT"}, "squeeze_dims": {"list": {"i": ["-3"]}}}}, {"name": "StatefulPartitionedCall/heavy_chain_align_airr_2/conv_residual_feature_extraction_block_8/max_pooling1d_82/Squeeze", "op": "Squeeze", "input": ["StatefulPartitionedCall/heavy_chain_align_airr_2/conv_residual_feature_extraction_block_8/max_pooling1d_82/MaxPool"], "attr": {"T": {"type": "DT_FLOAT"}, "squeeze_dims": {"list": {"i": ["2"]}}}}, {"name": "StatefulPartitionedCall/heavy_chain_align_airr_2/conv_residual_feature_extraction_block_8/conv1d_and__batch_norm_39/conv1d_126/Conv1D/ExpandDims", "op": "ExpandDims", "input": ["StatefulPartitionedCall/heavy_chain_align_airr_2/conv_residual_feature_extraction_block_8/conv1d_and__batch_norm_39/conv1d_125/BiasAdd", "StatefulPartitionedCall/heavy_chain_align_airr_2/conv_residual_feature_extraction_block_8/conv1d_and__batch_norm_39/conv1d_126/Conv1D/ExpandDims/dim"], "attr": {"Tdim": {"type": "DT_INT32"}, "T": {"type": "DT_FLOAT"}}}, {"name": "StatefulPartitionedCall/heavy_chain_align_airr_2/conv_residual_feature_extraction_block_8/conv1d_and__batch_norm_39/conv1d_126/Conv1D", "op": "_FusedConv2D", "input": ["StatefulPartitionedCall/heavy_chain_align_airr_2/conv_residual_feature_extraction_block_8/conv1d_and__batch_norm_39/conv1d_126/Conv1D/ExpandDims", "StatefulPartitionedCall/heavy_chain_align_airr_2/conv_residual_feature_extraction_block_8/conv1d_and__batch_norm_39/conv1d_126/Conv1D/ExpandDims_1", "StatefulPartitionedCall/heavy_chain_align_airr_2/conv_residual_feature_extraction_block_8/conv1d_and__batch_norm_39/conv1d_126/BiasAdd/ReadVariableOp"], "device": "/device:CPU:0", "attr": {"num_host_args": {"i": "0"}, "data_format": {"s": "TkhXQw=="}, "filter_format": {"s": "SFdJTw=="}, "strides": {"list": {"i": ["1", "1", "1", "1"]}}, "num_args": {"i": "1"}, "fused_ops": {"list": {"s": ["Qmlhc0FkZA=="]}}, "TArgs": {"list": {"type": ["DT_FLOAT"]}}, "padding": {"s": "U0FNRQ=="}, "use_cudnn_on_gpu": {"b": true}, "leakyrelu_alpha": {"f": 0.2}, "epsilon": {"f": 0.0}, "T": {"type": "DT_FLOAT"}, "explicit_paddings": {"list": {}}, "dilations": {"list": {"i": ["1", "1", "1", "1"]}}}}, {"name": "StatefulPartitionedCall/heavy_chain_align_airr_2/conv_residual_feature_extraction_block_8/conv1d_and__batch_norm_39/conv1d_126/BiasAdd", "op": "Squeeze", "input": ["StatefulPartitionedCall/heavy_chain_align_airr_2/conv_residual_feature_extraction_block_8/conv1d_and__batch_norm_39/conv1d_126/Conv1D"], "attr": {"T": {"type": "DT_FLOAT"}, "squeeze_dims": {"list": {"i": ["-3"]}}}}, {"name": "StatefulPartitionedCall/heavy_chain_align_airr_2/conv_residual_feature_extraction_block_8/conv1d_and__batch_norm_39/conv1d_127/Conv1D/ExpandDims", "op": "ExpandDims", "input": ["StatefulPartitionedCall/heavy_chain_align_airr_2/conv_residual_feature_extraction_block_8/conv1d_and__batch_norm_39/conv1d_126/BiasAdd", "StatefulPartitionedCall/heavy_chain_align_airr_2/conv_residual_feature_extraction_block_8/conv1d_and__batch_norm_39/conv1d_127/Conv1D/ExpandDims/dim"], "attr": {"Tdim": {"type": "DT_INT32"}, "T": {"type": "DT_FLOAT"}}}, {"name": "StatefulPartitionedCall/heavy_chain_align_airr_2/conv_residual_feature_extraction_block_8/conv1d_and__batch_norm_39/conv1d_127/Conv1D", "op": "_FusedConv2D", "input": ["StatefulPartitionedCall/heavy_chain_align_airr_2/conv_residual_feature_extraction_block_8/conv1d_and__batch_norm_39/conv1d_127/Conv1D/ExpandDims", "StatefulPartitionedCall/heavy_chain_align_airr_2/conv_residual_feature_extraction_block_8/conv1d_and__batch_norm_39/conv1d_127/Conv1D/ExpandDims_1", "StatefulPartitionedCall/heavy_chain_align_airr_2/conv_residual_feature_extraction_block_8/conv1d_and__batch_norm_39/conv1d_127/BiasAdd/ReadVariableOp"], "device": "/device:CPU:0", "attr": {"num_host_args": {"i": "0"}, "data_format": {"s": "TkhXQw=="}, "filter_format": {"s": "SFdJTw=="}, "fused_ops": {"list": {"s": ["Qmlhc0FkZA=="]}}, "num_args": {"i": "1"}, "strides": {"list": {"i": ["1", "1", "1", "1"]}}, "TArgs": {"list": {"type": ["DT_FLOAT"]}}, "padding": {"s": "U0FNRQ=="}, "use_cudnn_on_gpu": {"b": true}, "leakyrelu_alpha": {"f": 0.2}, "epsilon": {"f": 0.0}, "T": {"type": "DT_FLOAT"}, "explicit_paddings": {"list": {}}, "dilations": {"list": {"i": ["1", "1", "1", "1"]}}}}, {"name": "StatefulPartitionedCall/heavy_chain_align_airr_2/conv_residual_feature_extraction_block_8/conv1d_and__batch_norm_39/conv1d_127/BiasAdd", "op": "Squeeze", "input": ["StatefulPartitionedCall/heavy_chain_align_airr_2/conv_residual_feature_extraction_block_8/conv1d_and__batch_norm_39/conv1d_127/Conv1D"], "attr": {"T": {"type": "DT_FLOAT"}, "squeeze_dims": {"list": {"i": ["-3"]}}}}, {"name": "StatefulPartitionedCall/heavy_chain_align_airr_2/conv_residual_feature_extraction_block_8/conv1d_and__batch_norm_39/batch_normalization_39/batchnorm/mul_1", "op": "Mul", "input": ["StatefulPartitionedCall/heavy_chain_align_airr_2/conv_residual_feature_extraction_block_8/conv1d_and__batch_norm_39/conv1d_127/BiasAdd", "StatefulPartitionedCall/heavy_chain_align_airr_2/conv_residual_feature_extraction_block_8/conv1d_and__batch_norm_39/batch_normalization_39/batchnorm/mul"], "attr": {"T": {"type": "DT_FLOAT"}}}, {"name": "StatefulPartitionedCall/heavy_chain_align_airr_2/conv_residual_feature_extraction_block_8/conv1d_and__batch_norm_39/batch_normalization_39/batchnorm/add_1", "op": "AddV2", "input": ["StatefulPartitionedCall/heavy_chain_align_airr_2/conv_residual_feature_extraction_block_8/conv1d_and__batch_norm_39/batch_normalization_39/batchnorm/mul_1", "StatefulPartitionedCall/heavy_chain_align_airr_2/conv_residual_feature_extraction_block_8/conv1d_and__batch_norm_39/batch_normalization_39/batchnorm/sub"], "attr": {"T": {"type": "DT_FLOAT"}}}, {"name": "StatefulPartitionedCall/heavy_chain_align_airr_2/conv_residual_feature_extraction_block_8/conv1d_and__batch_norm_39/leaky_re_lu_65/LeakyRelu", "op": "LeakyRelu", "input": ["StatefulPartitionedCall/heavy_chain_align_airr_2/conv_residual_feature_extraction_block_8/conv1d_and__batch_norm_39/batch_normalization_39/batchnorm/add_1"], "attr": {"alpha": {"f": 0.3}, "T": {"type": "DT_FLOAT"}}}, {"name": "StatefulPartitionedCall/heavy_chain_align_airr_2/conv_residual_feature_extraction_block_8/conv1d_and__batch_norm_39/max_pooling1d_77/ExpandDims", "op": "ExpandDims", "input": ["StatefulPartitionedCall/heavy_chain_align_airr_2/conv_residual_feature_extraction_block_8/conv1d_and__batch_norm_39/leaky_re_lu_65/LeakyRelu", "StatefulPartitionedCall/heavy_chain_align_airr_2/conv_residual_feature_extraction_block_8/conv1d_and__batch_norm_39/max_pooling1d_77/ExpandDims/dim"], "attr": {"Tdim": {"type": "DT_INT32"}, "T": {"type": "DT_FLOAT"}}}, {"name": "StatefulPartitionedCall/heavy_chain_align_airr_2/conv_residual_feature_extraction_block_8/conv1d_and__batch_norm_39/max_pooling1d_77/MaxPool", "op": "MaxPool", "input": ["StatefulPartitionedCall/heavy_chain_align_airr_2/conv_residual_feature_extraction_block_8/conv1d_and__batch_norm_39/max_pooling1d_77/ExpandDims"], "attr": {"ksize": {"list": {"i": ["1", "2", "1", "1"]}}, "data_format": {"s": "TkhXQw=="}, "T": {"type": "DT_FLOAT"}, "explicit_paddings": {"list": {}}, "padding": {"s": "VkFMSUQ="}, "strides": {"list": {"i": ["1", "2", "1", "1"]}}}}, {"name": "StatefulPartitionedCall/heavy_chain_align_airr_2/conv_residual_feature_extraction_block_8/conv1d_and__batch_norm_39/max_pooling1d_77/Squeeze", "op": "Squeeze", "input": ["StatefulPartitionedCall/heavy_chain_align_airr_2/conv_residual_feature_extraction_block_8/conv1d_and__batch_norm_39/max_pooling1d_77/MaxPool"], "attr": {"T": {"type": "DT_FLOAT"}, "squeeze_dims": {"list": {"i": ["2"]}}}}, {"name": "StatefulPartitionedCall/heavy_chain_align_airr_2/conv_residual_feature_extraction_block_8/add_39/add", "op": "AddV2", "input": ["StatefulPartitionedCall/heavy_chain_align_airr_2/conv_residual_feature_extraction_block_8/conv1d_and__batch_norm_39/max_pooling1d_77/Squeeze", "StatefulPartitionedCall/heavy_chain_align_airr_2/conv_residual_feature_extraction_block_8/max_pooling1d_82/Squeeze"], "attr": {"T": {"type": "DT_FLOAT"}}}, {"name": "StatefulPartitionedCall/heavy_chain_align_airr_2/conv_residual_feature_extraction_block_8/leaky_re_lu_70/LeakyRelu", "op": "LeakyRelu", "input": ["StatefulPartitionedCall/heavy_chain_align_airr_2/conv_residual_feature_extraction_block_8/add_39/add"], "attr": {"alpha": {"f": 0.3}, "T": {"type": "DT_FLOAT"}}}, {"name": "StatefulPartitionedCall/heavy_chain_align_airr_2/conv_residual_feature_extraction_block_8/conv1d_and__batch_norm_40/conv1d_128/Conv1D/ExpandDims", "op": "ExpandDims", "input": ["StatefulPartitionedCall/heavy_chain_align_airr_2/conv_residual_feature_extraction_block_8/leaky_re_lu_70/LeakyRelu", "StatefulPartitionedCall/heavy_chain_align_airr_2/conv_residual_feature_extraction_block_8/conv1d_and__batch_norm_40/conv1d_128/Conv1D/ExpandDims/dim"], "attr": {"Tdim": {"type": "DT_INT32"}, "T": {"type": "DT_FLOAT"}}}, {"name": "StatefulPartitionedCall/heavy_chain_align_airr_2/conv_residual_feature_extraction_block_8/max_pooling1d_83/ExpandDims", "op": "ExpandDims", "input": ["StatefulPartitionedCall/heavy_chain_align_airr_2/conv_residual_feature_extraction_block_8/leaky_re_lu_70/LeakyRelu", "StatefulPartitionedCall/heavy_chain_align_airr_2/conv_residual_feature_extraction_block_8/max_pooling1d_83/ExpandDims/dim"], "attr": {"Tdim": {"type": "DT_INT32"}, "T": {"type": "DT_FLOAT"}}}, {"name": "StatefulPartitionedCall/heavy_chain_align_airr_2/conv_residual_feature_extraction_block_8/conv1d_and__batch_norm_40/conv1d_128/Conv1D", "op": "_FusedConv2D", "input": ["StatefulPartitionedCall/heavy_chain_align_airr_2/conv_residual_feature_extraction_block_8/conv1d_and__batch_norm_40/conv1d_128/Conv1D/ExpandDims", "StatefulPartitionedCall/heavy_chain_align_airr_2/conv_residual_feature_extraction_block_8/conv1d_and__batch_norm_40/conv1d_128/Conv1D/ExpandDims_1", "StatefulPartitionedCall/heavy_chain_align_airr_2/conv_residual_feature_extraction_block_8/conv1d_and__batch_norm_40/conv1d_128/BiasAdd/ReadVariableOp"], "device": "/device:CPU:0", "attr": {"num_host_args": {"i": "0"}, "data_format": {"s": "TkhXQw=="}, "filter_format": {"s": "SFdJTw=="}, "strides": {"list": {"i": ["1", "1", "1", "1"]}}, "num_args": {"i": "1"}, "fused_ops": {"list": {"s": ["Qmlhc0FkZA=="]}}, "TArgs": {"list": {"type": ["DT_FLOAT"]}}, "padding": {"s": "U0FNRQ=="}, "use_cudnn_on_gpu": {"b": true}, "leakyrelu_alpha": {"f": 0.2}, "epsilon": {"f": 0.0}, "T": {"type": "DT_FLOAT"}, "explicit_paddings": {"list": {}}, "dilations": {"list": {"i": ["1", "1", "1", "1"]}}}}, {"name": "StatefulPartitionedCall/heavy_chain_align_airr_2/conv_residual_feature_extraction_block_8/max_pooling1d_83/MaxPool", "op": "MaxPool", "input": ["StatefulPartitionedCall/heavy_chain_align_airr_2/conv_residual_feature_extraction_block_8/max_pooling1d_83/ExpandDims"], "attr": {"ksize": {"list": {"i": ["1", "2", "1", "1"]}}, "data_format": {"s": "TkhXQw=="}, "T": {"type": "DT_FLOAT"}, "explicit_paddings": {"list": {}}, "padding": {"s": "VkFMSUQ="}, "strides": {"list": {"i": ["1", "2", "1", "1"]}}}}, {"name": "StatefulPartitionedCall/heavy_chain_align_airr_2/conv_residual_feature_extraction_block_8/conv1d_and__batch_norm_40/conv1d_128/BiasAdd", "op": "Squeeze", "input": ["StatefulPartitionedCall/heavy_chain_align_airr_2/conv_residual_feature_extraction_block_8/conv1d_and__batch_norm_40/conv1d_128/Conv1D"], "attr": {"T": {"type": "DT_FLOAT"}, "squeeze_dims": {"list": {"i": ["-3"]}}}}, {"name": "StatefulPartitionedCall/heavy_chain_align_airr_2/conv_residual_feature_extraction_block_8/max_pooling1d_83/Squeeze", "op": "Squeeze", "input": ["StatefulPartitionedCall/heavy_chain_align_airr_2/conv_residual_feature_extraction_block_8/max_pooling1d_83/MaxPool"], "attr": {"T": {"type": "DT_FLOAT"}, "squeeze_dims": {"list": {"i": ["2"]}}}}, {"name": "StatefulPartitionedCall/heavy_chain_align_airr_2/conv_residual_feature_extraction_block_8/conv1d_and__batch_norm_40/conv1d_129/Conv1D/ExpandDims", "op": "ExpandDims", "input": ["StatefulPartitionedCall/heavy_chain_align_airr_2/conv_residual_feature_extraction_block_8/conv1d_and__batch_norm_40/conv1d_128/BiasAdd", "StatefulPartitionedCall/heavy_chain_align_airr_2/conv_residual_feature_extraction_block_8/conv1d_and__batch_norm_40/conv1d_129/Conv1D/ExpandDims/dim"], "attr": {"Tdim": {"type": "DT_INT32"}, "T": {"type": "DT_FLOAT"}}}, {"name": "StatefulPartitionedCall/heavy_chain_align_airr_2/conv_residual_feature_extraction_block_8/conv1d_and__batch_norm_40/conv1d_129/Conv1D", "op": "_FusedConv2D", "input": ["StatefulPartitionedCall/heavy_chain_align_airr_2/conv_residual_feature_extraction_block_8/conv1d_and__batch_norm_40/conv1d_129/Conv1D/ExpandDims", "StatefulPartitionedCall/heavy_chain_align_airr_2/conv_residual_feature_extraction_block_8/conv1d_and__batch_norm_40/conv1d_129/Conv1D/ExpandDims_1", "StatefulPartitionedCall/heavy_chain_align_airr_2/conv_residual_feature_extraction_block_8/conv1d_and__batch_norm_40/conv1d_129/BiasAdd/ReadVariableOp"], "device": "/device:CPU:0", "attr": {"num_host_args": {"i": "0"}, "data_format": {"s": "TkhXQw=="}, "filter_format": {"s": "SFdJTw=="}, "strides": {"list": {"i": ["1", "1", "1", "1"]}}, "num_args": {"i": "1"}, "fused_ops": {"list": {"s": ["Qmlhc0FkZA=="]}}, "TArgs": {"list": {"type": ["DT_FLOAT"]}}, "padding": {"s": "U0FNRQ=="}, "use_cudnn_on_gpu": {"b": true}, "leakyrelu_alpha": {"f": 0.2}, "epsilon": {"f": 0.0}, "T": {"type": "DT_FLOAT"}, "explicit_paddings": {"list": {}}, "dilations": {"list": {"i": ["1", "1", "1", "1"]}}}}, {"name": "StatefulPartitionedCall/heavy_chain_align_airr_2/conv_residual_feature_extraction_block_8/conv1d_and__batch_norm_40/conv1d_129/BiasAdd", "op": "Squeeze", "input": ["StatefulPartitionedCall/heavy_chain_align_airr_2/conv_residual_feature_extraction_block_8/conv1d_and__batch_norm_40/conv1d_129/Conv1D"], "attr": {"T": {"type": "DT_FLOAT"}, "squeeze_dims": {"list": {"i": ["-3"]}}}}, {"name": "StatefulPartitionedCall/heavy_chain_align_airr_2/conv_residual_feature_extraction_block_8/conv1d_and__batch_norm_40/conv1d_130/Conv1D/ExpandDims", "op": "ExpandDims", "input": ["StatefulPartitionedCall/heavy_chain_align_airr_2/conv_residual_feature_extraction_block_8/conv1d_and__batch_norm_40/conv1d_129/BiasAdd", "StatefulPartitionedCall/heavy_chain_align_airr_2/conv_residual_feature_extraction_block_8/conv1d_and__batch_norm_40/conv1d_130/Conv1D/ExpandDims/dim"], "attr": {"Tdim": {"type": "DT_INT32"}, "T": {"type": "DT_FLOAT"}}}, {"name": "StatefulPartitionedCall/heavy_chain_align_airr_2/conv_residual_feature_extraction_block_8/conv1d_and__batch_norm_40/conv1d_130/Conv1D", "op": "_FusedConv2D", "input": ["StatefulPartitionedCall/heavy_chain_align_airr_2/conv_residual_feature_extraction_block_8/conv1d_and__batch_norm_40/conv1d_130/Conv1D/ExpandDims", "StatefulPartitionedCall/heavy_chain_align_airr_2/conv_residual_feature_extraction_block_8/conv1d_and__batch_norm_40/conv1d_130/Conv1D/ExpandDims_1", "StatefulPartitionedCall/heavy_chain_align_airr_2/conv_residual_feature_extraction_block_8/conv1d_and__batch_norm_40/conv1d_130/BiasAdd/ReadVariableOp"], "device": "/device:CPU:0", "attr": {"num_host_args": {"i": "0"}, "data_format": {"s": "TkhXQw=="}, "filter_format": {"s": "SFdJTw=="}, "fused_ops": {"list": {"s": ["Qmlhc0FkZA=="]}}, "num_args": {"i": "1"}, "strides": {"list": {"i": ["1", "1", "1", "1"]}}, "TArgs": {"list": {"type": ["DT_FLOAT"]}}, "padding": {"s": "U0FNRQ=="}, "use_cudnn_on_gpu": {"b": true}, "leakyrelu_alpha": {"f": 0.2}, "epsilon": {"f": 0.0}, "T": {"type": "DT_FLOAT"}, "explicit_paddings": {"list": {}}, "dilations": {"list": {"i": ["1", "1", "1", "1"]}}}}, {"name": "StatefulPartitionedCall/heavy_chain_align_airr_2/conv_residual_feature_extraction_block_8/conv1d_and__batch_norm_40/conv1d_130/BiasAdd", "op": "Squeeze", "input": ["StatefulPartitionedCall/heavy_chain_align_airr_2/conv_residual_feature_extraction_block_8/conv1d_and__batch_norm_40/conv1d_130/Conv1D"], "attr": {"T": {"type": "DT_FLOAT"}, "squeeze_dims": {"list": {"i": ["-3"]}}}}, {"name": "StatefulPartitionedCall/heavy_chain_align_airr_2/conv_residual_feature_extraction_block_8/conv1d_and__batch_norm_40/batch_normalization_40/batchnorm/mul_1", "op": "Mul", "input": ["StatefulPartitionedCall/heavy_chain_align_airr_2/conv_residual_feature_extraction_block_8/conv1d_and__batch_norm_40/conv1d_130/BiasAdd", "StatefulPartitionedCall/heavy_chain_align_airr_2/conv_residual_feature_extraction_block_8/conv1d_and__batch_norm_40/batch_normalization_40/batchnorm/mul"], "attr": {"T": {"type": "DT_FLOAT"}}}, {"name": "StatefulPartitionedCall/heavy_chain_align_airr_2/conv_residual_feature_extraction_block_8/conv1d_and__batch_norm_40/batch_normalization_40/batchnorm/add_1", "op": "AddV2", "input": ["StatefulPartitionedCall/heavy_chain_align_airr_2/conv_residual_feature_extraction_block_8/conv1d_and__batch_norm_40/batch_normalization_40/batchnorm/mul_1", "StatefulPartitionedCall/heavy_chain_align_airr_2/conv_residual_feature_extraction_block_8/conv1d_and__batch_norm_40/batch_normalization_40/batchnorm/sub"], "attr": {"T": {"type": "DT_FLOAT"}}}, {"name": "StatefulPartitionedCall/heavy_chain_align_airr_2/conv_residual_feature_extraction_block_8/conv1d_and__batch_norm_40/leaky_re_lu_66/LeakyRelu", "op": "LeakyRelu", "input": ["StatefulPartitionedCall/heavy_chain_align_airr_2/conv_residual_feature_extraction_block_8/conv1d_and__batch_norm_40/batch_normalization_40/batchnorm/add_1"], "attr": {"alpha": {"f": 0.3}, "T": {"type": "DT_FLOAT"}}}, {"name": "StatefulPartitionedCall/heavy_chain_align_airr_2/conv_residual_feature_extraction_block_8/conv1d_and__batch_norm_40/max_pooling1d_78/ExpandDims", "op": "ExpandDims", "input": ["StatefulPartitionedCall/heavy_chain_align_airr_2/conv_residual_feature_extraction_block_8/conv1d_and__batch_norm_40/leaky_re_lu_66/LeakyRelu", "StatefulPartitionedCall/heavy_chain_align_airr_2/conv_residual_feature_extraction_block_8/conv1d_and__batch_norm_40/max_pooling1d_78/ExpandDims/dim"], "attr": {"Tdim": {"type": "DT_INT32"}, "T": {"type": "DT_FLOAT"}}}, {"name": "StatefulPartitionedCall/heavy_chain_align_airr_2/conv_residual_feature_extraction_block_8/conv1d_and__batch_norm_40/max_pooling1d_78/MaxPool", "op": "MaxPool", "input": ["StatefulPartitionedCall/heavy_chain_align_airr_2/conv_residual_feature_extraction_block_8/conv1d_and__batch_norm_40/max_pooling1d_78/ExpandDims"], "attr": {"padding": {"s": "VkFMSUQ="}, "data_format": {"s": "TkhXQw=="}, "T": {"type": "DT_FLOAT"}, "explicit_paddings": {"list": {}}, "ksize": {"list": {"i": ["1", "2", "1", "1"]}}, "strides": {"list": {"i": ["1", "2", "1", "1"]}}}}, {"name": "StatefulPartitionedCall/heavy_chain_align_airr_2/conv_residual_feature_extraction_block_8/conv1d_and__batch_norm_40/max_pooling1d_78/Squeeze", "op": "Squeeze", "input": ["StatefulPartitionedCall/heavy_chain_align_airr_2/conv_residual_feature_extraction_block_8/conv1d_and__batch_norm_40/max_pooling1d_78/MaxPool"], "attr": {"T": {"type": "DT_FLOAT"}, "squeeze_dims": {"list": {"i": ["2"]}}}}, {"name": "StatefulPartitionedCall/heavy_chain_align_airr_2/conv_residual_feature_extraction_block_8/add_40/add", "op": "AddV2", "input": ["StatefulPartitionedCall/heavy_chain_align_airr_2/conv_residual_feature_extraction_block_8/conv1d_and__batch_norm_40/max_pooling1d_78/Squeeze", "StatefulPartitionedCall/heavy_chain_align_airr_2/conv_residual_feature_extraction_block_8/max_pooling1d_83/Squeeze"], "attr": {"T": {"type": "DT_FLOAT"}}}, {"name": "StatefulPartitionedCall/heavy_chain_align_airr_2/conv_residual_feature_extraction_block_8/leaky_re_lu_71/LeakyRelu", "op": "LeakyRelu", "input": ["StatefulPartitionedCall/heavy_chain_align_airr_2/conv_residual_feature_extraction_block_8/add_40/add"], "attr": {"alpha": {"f": 0.3}, "T": {"type": "DT_FLOAT"}}}, {"name": "StatefulPartitionedCall/heavy_chain_align_airr_2/conv_residual_feature_extraction_block_8/conv1d_and__batch_norm_41/conv1d_131/Conv1D/ExpandDims", "op": "ExpandDims", "input": ["StatefulPartitionedCall/heavy_chain_align_airr_2/conv_residual_feature_extraction_block_8/leaky_re_lu_71/LeakyRelu", "StatefulPartitionedCall/heavy_chain_align_airr_2/conv_residual_feature_extraction_block_8/conv1d_and__batch_norm_41/conv1d_131/Conv1D/ExpandDims/dim"], "attr": {"Tdim": {"type": "DT_INT32"}, "T": {"type": "DT_FLOAT"}}}, {"name": "StatefulPartitionedCall/heavy_chain_align_airr_2/conv_residual_feature_extraction_block_8/max_pooling1d_84/ExpandDims", "op": "ExpandDims", "input": ["StatefulPartitionedCall/heavy_chain_align_airr_2/conv_residual_feature_extraction_block_8/leaky_re_lu_71/LeakyRelu", "StatefulPartitionedCall/heavy_chain_align_airr_2/conv_residual_feature_extraction_block_8/max_pooling1d_84/ExpandDims/dim"], "attr": {"Tdim": {"type": "DT_INT32"}, "T": {"type": "DT_FLOAT"}}}, {"name": "StatefulPartitionedCall/heavy_chain_align_airr_2/conv_residual_feature_extraction_block_8/conv1d_and__batch_norm_41/conv1d_131/Conv1D", "op": "_FusedConv2D", "input": ["StatefulPartitionedCall/heavy_chain_align_airr_2/conv_residual_feature_extraction_block_8/conv1d_and__batch_norm_41/conv1d_131/Conv1D/ExpandDims", "StatefulPartitionedCall/heavy_chain_align_airr_2/conv_residual_feature_extraction_block_8/conv1d_and__batch_norm_41/conv1d_131/Conv1D/ExpandDims_1", "StatefulPartitionedCall/heavy_chain_align_airr_2/conv_residual_feature_extraction_block_8/conv1d_and__batch_norm_41/conv1d_131/BiasAdd/ReadVariableOp"], "device": "/device:CPU:0", "attr": {"num_host_args": {"i": "0"}, "data_format": {"s": "TkhXQw=="}, "filter_format": {"s": "SFdJTw=="}, "fused_ops": {"list": {"s": ["Qmlhc0FkZA=="]}}, "num_args": {"i": "1"}, "strides": {"list": {"i": ["1", "1", "1", "1"]}}, "TArgs": {"list": {"type": ["DT_FLOAT"]}}, "padding": {"s": "U0FNRQ=="}, "use_cudnn_on_gpu": {"b": true}, "leakyrelu_alpha": {"f": 0.2}, "epsilon": {"f": 0.0}, "T": {"type": "DT_FLOAT"}, "explicit_paddings": {"list": {}}, "dilations": {"list": {"i": ["1", "1", "1", "1"]}}}}, {"name": "StatefulPartitionedCall/heavy_chain_align_airr_2/conv_residual_feature_extraction_block_8/max_pooling1d_84/MaxPool", "op": "MaxPool", "input": ["StatefulPartitionedCall/heavy_chain_align_airr_2/conv_residual_feature_extraction_block_8/max_pooling1d_84/ExpandDims"], "attr": {"ksize": {"list": {"i": ["1", "2", "1", "1"]}}, "data_format": {"s": "TkhXQw=="}, "T": {"type": "DT_FLOAT"}, "explicit_paddings": {"list": {}}, "padding": {"s": "VkFMSUQ="}, "strides": {"list": {"i": ["1", "2", "1", "1"]}}}}, {"name": "StatefulPartitionedCall/heavy_chain_align_airr_2/conv_residual_feature_extraction_block_8/conv1d_and__batch_norm_41/conv1d_131/BiasAdd", "op": "Squeeze", "input": ["StatefulPartitionedCall/heavy_chain_align_airr_2/conv_residual_feature_extraction_block_8/conv1d_and__batch_norm_41/conv1d_131/Conv1D"], "attr": {"T": {"type": "DT_FLOAT"}, "squeeze_dims": {"list": {"i": ["-3"]}}}}, {"name": "StatefulPartitionedCall/heavy_chain_align_airr_2/conv_residual_feature_extraction_block_8/max_pooling1d_84/Squeeze", "op": "Squeeze", "input": ["StatefulPartitionedCall/heavy_chain_align_airr_2/conv_residual_feature_extraction_block_8/max_pooling1d_84/MaxPool"], "attr": {"T": {"type": "DT_FLOAT"}, "squeeze_dims": {"list": {"i": ["2"]}}}}, {"name": "StatefulPartitionedCall/heavy_chain_align_airr_2/conv_residual_feature_extraction_block_8/conv1d_and__batch_norm_41/conv1d_132/Conv1D/ExpandDims", "op": "ExpandDims", "input": ["StatefulPartitionedCall/heavy_chain_align_airr_2/conv_residual_feature_extraction_block_8/conv1d_and__batch_norm_41/conv1d_131/BiasAdd", "StatefulPartitionedCall/heavy_chain_align_airr_2/conv_residual_feature_extraction_block_8/conv1d_and__batch_norm_41/conv1d_132/Conv1D/ExpandDims/dim"], "attr": {"Tdim": {"type": "DT_INT32"}, "T": {"type": "DT_FLOAT"}}}, {"name": "StatefulPartitionedCall/heavy_chain_align_airr_2/conv_residual_feature_extraction_block_8/conv1d_and__batch_norm_41/conv1d_132/Conv1D", "op": "_FusedConv2D", "input": ["StatefulPartitionedCall/heavy_chain_align_airr_2/conv_residual_feature_extraction_block_8/conv1d_and__batch_norm_41/conv1d_132/Conv1D/ExpandDims", "StatefulPartitionedCall/heavy_chain_align_airr_2/conv_residual_feature_extraction_block_8/conv1d_and__batch_norm_41/conv1d_132/Conv1D/ExpandDims_1", "StatefulPartitionedCall/heavy_chain_align_airr_2/conv_residual_feature_extraction_block_8/conv1d_and__batch_norm_41/conv1d_132/BiasAdd/ReadVariableOp"], "device": "/device:CPU:0", "attr": {"num_host_args": {"i": "0"}, "data_format": {"s": "TkhXQw=="}, "filter_format": {"s": "SFdJTw=="}, "strides": {"list": {"i": ["1", "1", "1", "1"]}}, "num_args": {"i": "1"}, "fused_ops": {"list": {"s": ["Qmlhc0FkZA=="]}}, "TArgs": {"list": {"type": ["DT_FLOAT"]}}, "padding": {"s": "U0FNRQ=="}, "use_cudnn_on_gpu": {"b": true}, "leakyrelu_alpha": {"f": 0.2}, "epsilon": {"f": 0.0}, "T": {"type": "DT_FLOAT"}, "explicit_paddings": {"list": {}}, "dilations": {"list": {"i": ["1", "1", "1", "1"]}}}}, {"name": "StatefulPartitionedCall/heavy_chain_align_airr_2/conv_residual_feature_extraction_block_8/conv1d_and__batch_norm_41/conv1d_132/BiasAdd", "op": "Squeeze", "input": ["StatefulPartitionedCall/heavy_chain_align_airr_2/conv_residual_feature_extraction_block_8/conv1d_and__batch_norm_41/conv1d_132/Conv1D"], "attr": {"T": {"type": "DT_FLOAT"}, "squeeze_dims": {"list": {"i": ["-3"]}}}}, {"name": "StatefulPartitionedCall/heavy_chain_align_airr_2/conv_residual_feature_extraction_block_8/conv1d_and__batch_norm_41/conv1d_133/Conv1D/ExpandDims", "op": "ExpandDims", "input": ["StatefulPartitionedCall/heavy_chain_align_airr_2/conv_residual_feature_extraction_block_8/conv1d_and__batch_norm_41/conv1d_132/BiasAdd", "StatefulPartitionedCall/heavy_chain_align_airr_2/conv_residual_feature_extraction_block_8/conv1d_and__batch_norm_41/conv1d_133/Conv1D/ExpandDims/dim"], "attr": {"Tdim": {"type": "DT_INT32"}, "T": {"type": "DT_FLOAT"}}}, {"name": "StatefulPartitionedCall/heavy_chain_align_airr_2/conv_residual_feature_extraction_block_8/conv1d_and__batch_norm_41/conv1d_133/Conv1D", "op": "_FusedConv2D", "input": ["StatefulPartitionedCall/heavy_chain_align_airr_2/conv_residual_feature_extraction_block_8/conv1d_and__batch_norm_41/conv1d_133/Conv1D/ExpandDims", "StatefulPartitionedCall/heavy_chain_align_airr_2/conv_residual_feature_extraction_block_8/conv1d_and__batch_norm_41/conv1d_133/Conv1D/ExpandDims_1", "StatefulPartitionedCall/heavy_chain_align_airr_2/conv_residual_feature_extraction_block_8/conv1d_and__batch_norm_41/conv1d_133/BiasAdd/ReadVariableOp"], "device": "/device:CPU:0", "attr": {"num_host_args": {"i": "0"}, "data_format": {"s": "TkhXQw=="}, "filter_format": {"s": "SFdJTw=="}, "fused_ops": {"list": {"s": ["Qmlhc0FkZA=="]}}, "num_args": {"i": "1"}, "strides": {"list": {"i": ["1", "1", "1", "1"]}}, "TArgs": {"list": {"type": ["DT_FLOAT"]}}, "padding": {"s": "U0FNRQ=="}, "use_cudnn_on_gpu": {"b": true}, "leakyrelu_alpha": {"f": 0.2}, "epsilon": {"f": 0.0}, "T": {"type": "DT_FLOAT"}, "explicit_paddings": {"list": {}}, "dilations": {"list": {"i": ["1", "1", "1", "1"]}}}}, {"name": "StatefulPartitionedCall/heavy_chain_align_airr_2/conv_residual_feature_extraction_block_8/conv1d_and__batch_norm_41/conv1d_133/BiasAdd", "op": "Squeeze", "input": ["StatefulPartitionedCall/heavy_chain_align_airr_2/conv_residual_feature_extraction_block_8/conv1d_and__batch_norm_41/conv1d_133/Conv1D"], "attr": {"T": {"type": "DT_FLOAT"}, "squeeze_dims": {"list": {"i": ["-3"]}}}}, {"name": "StatefulPartitionedCall/heavy_chain_align_airr_2/conv_residual_feature_extraction_block_8/conv1d_and__batch_norm_41/batch_normalization_41/batchnorm/mul_1", "op": "Mul", "input": ["StatefulPartitionedCall/heavy_chain_align_airr_2/conv_residual_feature_extraction_block_8/conv1d_and__batch_norm_41/conv1d_133/BiasAdd", "StatefulPartitionedCall/heavy_chain_align_airr_2/conv_residual_feature_extraction_block_8/conv1d_and__batch_norm_41/batch_normalization_41/batchnorm/mul"], "attr": {"T": {"type": "DT_FLOAT"}}}, {"name": "StatefulPartitionedCall/heavy_chain_align_airr_2/conv_residual_feature_extraction_block_8/conv1d_and__batch_norm_41/batch_normalization_41/batchnorm/add_1", "op": "AddV2", "input": ["StatefulPartitionedCall/heavy_chain_align_airr_2/conv_residual_feature_extraction_block_8/conv1d_and__batch_norm_41/batch_normalization_41/batchnorm/mul_1", "StatefulPartitionedCall/heavy_chain_align_airr_2/conv_residual_feature_extraction_block_8/conv1d_and__batch_norm_41/batch_normalization_41/batchnorm/sub"], "attr": {"T": {"type": "DT_FLOAT"}}}, {"name": "StatefulPartitionedCall/heavy_chain_align_airr_2/conv_residual_feature_extraction_block_8/conv1d_and__batch_norm_41/leaky_re_lu_67/LeakyRelu", "op": "LeakyRelu", "input": ["StatefulPartitionedCall/heavy_chain_align_airr_2/conv_residual_feature_extraction_block_8/conv1d_and__batch_norm_41/batch_normalization_41/batchnorm/add_1"], "attr": {"alpha": {"f": 0.3}, "T": {"type": "DT_FLOAT"}}}, {"name": "StatefulPartitionedCall/heavy_chain_align_airr_2/conv_residual_feature_extraction_block_8/conv1d_and__batch_norm_41/max_pooling1d_79/ExpandDims", "op": "ExpandDims", "input": ["StatefulPartitionedCall/heavy_chain_align_airr_2/conv_residual_feature_extraction_block_8/conv1d_and__batch_norm_41/leaky_re_lu_67/LeakyRelu", "StatefulPartitionedCall/heavy_chain_align_airr_2/conv_residual_feature_extraction_block_8/conv1d_and__batch_norm_41/max_pooling1d_79/ExpandDims/dim"], "attr": {"Tdim": {"type": "DT_INT32"}, "T": {"type": "DT_FLOAT"}}}, {"name": "StatefulPartitionedCall/heavy_chain_align_airr_2/conv_residual_feature_extraction_block_8/conv1d_and__batch_norm_41/max_pooling1d_79/MaxPool", "op": "MaxPool", "input": ["StatefulPartitionedCall/heavy_chain_align_airr_2/conv_residual_feature_extraction_block_8/conv1d_and__batch_norm_41/max_pooling1d_79/ExpandDims"], "attr": {"padding": {"s": "VkFMSUQ="}, "data_format": {"s": "TkhXQw=="}, "T": {"type": "DT_FLOAT"}, "explicit_paddings": {"list": {}}, "ksize": {"list": {"i": ["1", "2", "1", "1"]}}, "strides": {"list": {"i": ["1", "2", "1", "1"]}}}}, {"name": "StatefulPartitionedCall/heavy_chain_align_airr_2/conv_residual_feature_extraction_block_8/conv1d_and__batch_norm_41/max_pooling1d_79/Squeeze", "op": "Squeeze", "input": ["StatefulPartitionedCall/heavy_chain_align_airr_2/conv_residual_feature_extraction_block_8/conv1d_and__batch_norm_41/max_pooling1d_79/MaxPool"], "attr": {"T": {"type": "DT_FLOAT"}, "squeeze_dims": {"list": {"i": ["2"]}}}}, {"name": "StatefulPartitionedCall/heavy_chain_align_airr_2/conv_residual_feature_extraction_block_8/add_41/add", "op": "AddV2", "input": ["StatefulPartitionedCall/heavy_chain_align_airr_2/conv_residual_feature_extraction_block_8/conv1d_and__batch_norm_41/max_pooling1d_79/Squeeze", "StatefulPartitionedCall/heavy_chain_align_airr_2/conv_residual_feature_extraction_block_8/max_pooling1d_84/Squeeze"], "attr": {"T": {"type": "DT_FLOAT"}}}, {"name": "StatefulPartitionedCall/heavy_chain_align_airr_2/conv_residual_feature_extraction_block_8/leaky_re_lu_72/LeakyRelu", "op": "LeakyRelu", "input": ["StatefulPartitionedCall/heavy_chain_align_airr_2/conv_residual_feature_extraction_block_8/add_41/add"], "attr": {"alpha": {"f": 0.3}, "T": {"type": "DT_FLOAT"}}}, {"name": "StatefulPartitionedCall/heavy_chain_align_airr_2/conv_residual_feature_extraction_block_8/conv1d_and__batch_norm_42/conv1d_134/Conv1D/ExpandDims", "op": "ExpandDims", "input": ["StatefulPartitionedCall/heavy_chain_align_airr_2/conv_residual_feature_extraction_block_8/leaky_re_lu_72/LeakyRelu", "StatefulPartitionedCall/heavy_chain_align_airr_2/conv_residual_feature_extraction_block_8/conv1d_and__batch_norm_42/conv1d_134/Conv1D/ExpandDims/dim"], "attr": {"Tdim": {"type": "DT_INT32"}, "T": {"type": "DT_FLOAT"}}}, {"name": "StatefulPartitionedCall/heavy_chain_align_airr_2/conv_residual_feature_extraction_block_8/max_pooling1d_85/ExpandDims", "op": "ExpandDims", "input": ["StatefulPartitionedCall/heavy_chain_align_airr_2/conv_residual_feature_extraction_block_8/leaky_re_lu_72/LeakyRelu", "StatefulPartitionedCall/heavy_chain_align_airr_2/conv_residual_feature_extraction_block_8/max_pooling1d_85/ExpandDims/dim"], "attr": {"Tdim": {"type": "DT_INT32"}, "T": {"type": "DT_FLOAT"}}}, {"name": "StatefulPartitionedCall/heavy_chain_align_airr_2/conv_residual_feature_extraction_block_8/conv1d_and__batch_norm_42/conv1d_134/Conv1D", "op": "_FusedConv2D", "input": ["StatefulPartitionedCall/heavy_chain_align_airr_2/conv_residual_feature_extraction_block_8/conv1d_and__batch_norm_42/conv1d_134/Conv1D/ExpandDims", "StatefulPartitionedCall/heavy_chain_align_airr_2/conv_residual_feature_extraction_block_8/conv1d_and__batch_norm_42/conv1d_134/Conv1D/ExpandDims_1", "StatefulPartitionedCall/heavy_chain_align_airr_2/conv_residual_feature_extraction_block_8/conv1d_and__batch_norm_42/conv1d_134/BiasAdd/ReadVariableOp"], "device": "/device:CPU:0", "attr": {"num_host_args": {"i": "0"}, "data_format": {"s": "TkhXQw=="}, "filter_format": {"s": "SFdJTw=="}, "fused_ops": {"list": {"s": ["Qmlhc0FkZA=="]}}, "num_args": {"i": "1"}, "strides": {"list": {"i": ["1", "1", "1", "1"]}}, "TArgs": {"list": {"type": ["DT_FLOAT"]}}, "padding": {"s": "U0FNRQ=="}, "use_cudnn_on_gpu": {"b": true}, "leakyrelu_alpha": {"f": 0.2}, "epsilon": {"f": 0.0}, "T": {"type": "DT_FLOAT"}, "explicit_paddings": {"list": {}}, "dilations": {"list": {"i": ["1", "1", "1", "1"]}}}}, {"name": "StatefulPartitionedCall/heavy_chain_align_airr_2/conv_residual_feature_extraction_block_8/max_pooling1d_85/MaxPool", "op": "MaxPool", "input": ["StatefulPartitionedCall/heavy_chain_align_airr_2/conv_residual_feature_extraction_block_8/max_pooling1d_85/ExpandDims"], "attr": {"ksize": {"list": {"i": ["1", "2", "1", "1"]}}, "data_format": {"s": "TkhXQw=="}, "T": {"type": "DT_FLOAT"}, "explicit_paddings": {"list": {}}, "padding": {"s": "VkFMSUQ="}, "strides": {"list": {"i": ["1", "2", "1", "1"]}}}}, {"name": "StatefulPartitionedCall/heavy_chain_align_airr_2/conv_residual_feature_extraction_block_8/conv1d_and__batch_norm_42/conv1d_134/BiasAdd", "op": "Squeeze", "input": ["StatefulPartitionedCall/heavy_chain_align_airr_2/conv_residual_feature_extraction_block_8/conv1d_and__batch_norm_42/conv1d_134/Conv1D"], "attr": {"T": {"type": "DT_FLOAT"}, "squeeze_dims": {"list": {"i": ["-3"]}}}}, {"name": "StatefulPartitionedCall/heavy_chain_align_airr_2/conv_residual_feature_extraction_block_8/max_pooling1d_85/Squeeze", "op": "Squeeze", "input": ["StatefulPartitionedCall/heavy_chain_align_airr_2/conv_residual_feature_extraction_block_8/max_pooling1d_85/MaxPool"], "attr": {"T": {"type": "DT_FLOAT"}, "squeeze_dims": {"list": {"i": ["2"]}}}}, {"name": "StatefulPartitionedCall/heavy_chain_align_airr_2/conv_residual_feature_extraction_block_8/conv1d_and__batch_norm_42/conv1d_135/Conv1D/ExpandDims", "op": "ExpandDims", "input": ["StatefulPartitionedCall/heavy_chain_align_airr_2/conv_residual_feature_extraction_block_8/conv1d_and__batch_norm_42/conv1d_134/BiasAdd", "StatefulPartitionedCall/heavy_chain_align_airr_2/conv_residual_feature_extraction_block_8/conv1d_and__batch_norm_42/conv1d_135/Conv1D/ExpandDims/dim"], "attr": {"Tdim": {"type": "DT_INT32"}, "T": {"type": "DT_FLOAT"}}}, {"name": "StatefulPartitionedCall/heavy_chain_align_airr_2/conv_residual_feature_extraction_block_8/conv1d_and__batch_norm_42/conv1d_135/Conv1D", "op": "_FusedConv2D", "input": ["StatefulPartitionedCall/heavy_chain_align_airr_2/conv_residual_feature_extraction_block_8/conv1d_and__batch_norm_42/conv1d_135/Conv1D/ExpandDims", "StatefulPartitionedCall/heavy_chain_align_airr_2/conv_residual_feature_extraction_block_8/conv1d_and__batch_norm_42/conv1d_135/Conv1D/ExpandDims_1", "StatefulPartitionedCall/heavy_chain_align_airr_2/conv_residual_feature_extraction_block_8/conv1d_and__batch_norm_42/conv1d_135/BiasAdd/ReadVariableOp"], "device": "/device:CPU:0", "attr": {"num_host_args": {"i": "0"}, "data_format": {"s": "TkhXQw=="}, "filter_format": {"s": "SFdJTw=="}, "strides": {"list": {"i": ["1", "1", "1", "1"]}}, "num_args": {"i": "1"}, "fused_ops": {"list": {"s": ["Qmlhc0FkZA=="]}}, "TArgs": {"list": {"type": ["DT_FLOAT"]}}, "padding": {"s": "U0FNRQ=="}, "use_cudnn_on_gpu": {"b": true}, "leakyrelu_alpha": {"f": 0.2}, "epsilon": {"f": 0.0}, "T": {"type": "DT_FLOAT"}, "explicit_paddings": {"list": {}}, "dilations": {"list": {"i": ["1", "1", "1", "1"]}}}}, {"name": "StatefulPartitionedCall/heavy_chain_align_airr_2/conv_residual_feature_extraction_block_8/conv1d_and__batch_norm_42/conv1d_135/BiasAdd", "op": "Squeeze", "input": ["StatefulPartitione…
": "StatefulPartitionedCall/heavy_chain_align_airr_2/conv_residual_feature_extraction_block_10/conv1d_and__batch_norm_49/conv1d_159/Conv1D/ExpandDims_1", "shape": [1, 3, 64, 64], "dtype": "float32"}, {"name": "StatefulPartitionedCall/heavy_chain_align_airr_2/conv_residual_feature_extraction_block_10/conv1d_and__batch_norm_49/conv1d_159/BiasAdd/ReadVariableOp", "shape": [64], "dtype": "float32"}, {"name": "StatefulPartitionedCall/heavy_chain_align_airr_2/conv_residual_feature_extraction_block_10/conv1d_and__batch_norm_49/batch_normalization_49/batchnorm/mul", "shape": [64], "dtype": "float32"}, {"name": "StatefulPartitionedCall/heavy_chain_align_airr_2/conv_residual_feature_extraction_block_10/conv1d_and__batch_norm_49/batch_normalization_49/batchnorm/sub", "shape": [64], "dtype": "float32"}, {"name": "StatefulPartitionedCall/heavy_chain_align_airr_2/conv_residual_feature_extraction_block_10/conv1d_and__batch_norm_49/max_pooling1d_98/ExpandDims/dim", "shape": [], "dtype": "int32"}, {"name": "StatefulPartitionedCall/heavy_chain_align_airr_2/reshape_7/strided_slice/stack", "shape": [1], "dtype": "int32"}, {"name": "StatefulPartitionedCall/heavy_chain_align_airr_2/reshape_7/strided_slice/stack_1", "shape": [1], "dtype": "int32"}, {"name": "StatefulPartitionedCall/heavy_chain_align_airr_2/reshape_7/strided_slice/stack_2", "shape": [1], "dtype": "int32"}, {"name": "StatefulPartitionedCall/heavy_chain_align_airr_2/reshape_7/Reshape/shape/1", "shape": [], "dtype": "int32"}, {"name": "StatefulPartitionedCall/heavy_chain_align_airr_2/reshape_7/Reshape/shape/2", "shape": [], "dtype": "int32"}, {"name": "StatefulPartitionedCall/heavy_chain_align_airr_2/conv_residual_feature_extraction_block_10/conv1d_169/Conv1D/ExpandDims/dim", "shape": [], "dtype": "int32"}, {"name": "StatefulPartitionedCall/heavy_chain_align_airr_2/conv_residual_feature_extraction_block_10/conv1d_169/Conv1D/ExpandDims_1", "shape": [1, 5, 32, 64], "dtype": "float32"}, {"name": "StatefulPartitionedCall/heavy_chain_align_airr_2/conv_residual_feature_extraction_block_10/conv1d_169/BiasAdd/ReadVariableOp", "shape": [64], "dtype": "float32"}, {"name": "StatefulPartitionedCall/heavy_chain_align_airr_2/conv_residual_feature_extraction_block_10/max_pooling1d_102/ExpandDims/dim", "shape": [], "dtype": "int32"}, {"name": "StatefulPartitionedCall/heavy_chain_align_airr_2/conv_residual_feature_extraction_block_10/max_pooling1d_102/ExpandDims_1/dim", "shape": [], "dtype": "int32"}, {"name": "StatefulPartitionedCall/heavy_chain_align_airr_2/conv_residual_feature_extraction_block_10/max_pooling1d_103/ExpandDims/dim", "shape": [], "dtype": "int32"}, {"name": "StatefulPartitionedCall/heavy_chain_align_airr_2/conv_residual_feature_extraction_block_10/max_pooling1d_104/ExpandDims/dim", "shape": [], "dtype": "int32"}, {"name": "StatefulPartitionedCall/heavy_chain_align_airr_2/conv_residual_feature_extraction_block_10/max_pooling1d_105/ExpandDims/dim", "shape": [], "dtype": "int32"}, {"name": "StatefulPartitionedCall/heavy_chain_align_airr_2/conv_residual_feature_extraction_block_10/flatten_10/Const", "shape": [2], "dtype": "int32"}, {"name": "StatefulPartitionedCall/heavy_chain_align_airr_2/d_allele_middle/MatMul/ReadVariableOp", "shape": [1152, 68], "dtype": "float32"}, {"name": "StatefulPartitionedCall/heavy_chain_align_airr_2/d_allele_middle/BiasAdd/ReadVariableOp", "shape": [68], "dtype": "float32"}, {"name": "StatefulPartitionedCall/heavy_chain_align_airr_2/d_allele/MatMul/ReadVariableOp", "shape": [68, 34], "dtype": "float32"}, {"name": "StatefulPartitionedCall/heavy_chain_align_airr_2/d_allele/BiasAdd/ReadVariableOp", "shape": [34], "dtype": "float32"}, {"name": "StatefulPartitionedCall/heavy_chain_align_airr_2/dense_7/MatMul/ReadVariableOp", "shape": [576, 32], "dtype": "float32"}, {"name": "StatefulPartitionedCall/heavy_chain_align_airr_2/dense_7/BiasAdd/ReadVariableOp", "shape": [32], "dtype": "float32"}, {"name": "StatefulPartitionedCall/heavy_chain_align_airr_2/d_segment/MatMul/ReadVariableOp", "shape": [32, 576], "dtype": "float32"}, {"name": "StatefulPartitionedCall/heavy_chain_align_airr_2/d_segment/BiasAdd/ReadVariableOp", "shape": [576], "dtype": "float32"}, {"name": "StatefulPartitionedCall/heavy_chain_align_airr_2/indel_count_mid/MatMul/ReadVariableOp", "shape": [576, 288], "dtype": "float32"}, {"name": "StatefulPartitionedCall/heavy_chain_align_airr_2/indel_count_mid/BiasAdd/ReadVariableOp", "shape": [288], "dtype": "float32"}, {"name": "StatefulPartitionedCall/heavy_chain_align_airr_2/indel_count/MatMul/ReadVariableOp", "shape": [288, 1], "dtype": "float32"}, {"name": "StatefulPartitionedCall/heavy_chain_align_airr_2/indel_count/BiasAdd/ReadVariableOp", "shape": [1], "dtype": "float32"}, {"name": "StatefulPartitionedCall/heavy_chain_align_airr_2/conv_residual_feature_extraction_block_11/conv1d_and__batch_norm_56/conv1d_179/Conv1D/ExpandDims/dim", "shape": [], "dtype": "int32"}, {"name": "StatefulPartitionedCall/heavy_chain_align_airr_2/conv_residual_feature_extraction_block_11/conv1d_and__batch_norm_56/conv1d_179/Conv1D/ExpandDims_1", "shape": [1, 2, 64, 64], "dtype": "float32"}, {"name": "StatefulPartitionedCall/heavy_chain_align_airr_2/conv_residual_feature_extraction_block_11/conv1d_and__batch_norm_56/conv1d_179/BiasAdd/ReadVariableOp", "shape": [64], "dtype": "float32"}, {"name": "StatefulPartitionedCall/heavy_chain_align_airr_2/conv_residual_feature_extraction_block_11/conv1d_and__batch_norm_56/conv1d_180/Conv1D/ExpandDims/dim", "shape": [], "dtype": "int32"}, {"name": "StatefulPartitionedCall/heavy_chain_align_airr_2/conv_residual_feature_extraction_block_11/conv1d_and__batch_norm_56/conv1d_180/Conv1D/ExpandDims_1", "shape": [1, 2, 64, 64], "dtype": "float32"}, {"name": "StatefulPartitionedCall/heavy_chain_align_airr_2/conv_residual_feature_extraction_block_11/conv1d_and__batch_norm_56/conv1d_180/BiasAdd/ReadVariableOp", "shape": [64], "dtype": "float32"}, {"name": "StatefulPartitionedCall/heavy_chain_align_airr_2/conv_residual_feature_extraction_block_11/conv1d_and__batch_norm_56/conv1d_181/Conv1D/ExpandDims/dim", "shape": [], "dtype": "int32"}, {"name": "StatefulPartitionedCall/heavy_chain_align_airr_2/conv_residual_feature_extraction_block_11/conv1d_and__batch_norm_56/conv1d_181/Conv1D/ExpandDims_1", "shape": [1, 2, 64, 64], "dtype": "float32"}, {"name": "StatefulPartitionedCall/heavy_chain_align_airr_2/conv_residual_feature_extraction_block_11/conv1d_and__batch_norm_56/conv1d_181/BiasAdd/ReadVariableOp", "shape": [64], "dtype": "float32"}, {"name": "StatefulPartitionedCall/heavy_chain_align_airr_2/conv_residual_feature_extraction_block_11/conv1d_and__batch_norm_56/batch_normalization_56/batchnorm/mul", "shape": [64], "dtype": "float32"}, {"name": "StatefulPartitionedCall/heavy_chain_align_airr_2/conv_residual_feature_extraction_block_11/conv1d_and__batch_norm_56/batch_normalization_56/batchnorm/sub", "shape": [64], "dtype": "float32"}, {"name": "StatefulPartitionedCall/heavy_chain_align_airr_2/conv_residual_feature_extraction_block_11/conv1d_and__batch_norm_56/max_pooling1d_109/ExpandDims/dim", "shape": [], "dtype": "int32"}, {"name": "StatefulPartitionedCall/heavy_chain_align_airr_2/conv_residual_feature_extraction_block_11/conv1d_and__batch_norm_55/conv1d_176/Conv1D/ExpandDims/dim", "shape": [], "dtype": "int32"}, {"name": "StatefulPartitionedCall/heavy_chain_align_airr_2/conv_residual_feature_extraction_block_11/conv1d_and__batch_norm_55/conv1d_176/Conv1D/ExpandDims_1", "shape": [1, 3, 64, 64], "dtype": "float32"}, {"name": "StatefulPartitionedCall/heavy_chain_align_airr_2/conv_residual_feature_extraction_block_11/conv1d_and__batch_norm_55/conv1d_176/BiasAdd/ReadVariableOp", "shape": [64], "dtype": "float32"}, {"name": "StatefulPartitionedCall/heavy_chain_align_airr_2/conv_residual_feature_extraction_block_11/conv1d_and__batch_norm_55/conv1d_177/Conv1D/ExpandDims/dim", "shape": [], "dtype": "int32"}, {"name": "StatefulPartitionedCall/heavy_chain_align_airr_2/conv_residual_feature_extraction_block_11/conv1d_and__batch_norm_55/conv1d_177/Conv1D/ExpandDims_1", "shape": [1, 3, 64, 64], "dtype": "float32"}, {"name": "StatefulPartitionedCall/heavy_chain_align_airr_2/conv_residual_feature_extraction_block_11/conv1d_and__batch_norm_55/conv1d_177/BiasAdd/ReadVariableOp", "shape": [64], "dtype": "float32"}, {"name": "StatefulPartitionedCall/heavy_chain_align_airr_2/conv_residual_feature_extraction_block_11/conv1d_and__batch_norm_55/conv1d_178/Conv1D/ExpandDims/dim", "shape": [], "dtype": "int32"}, {"name": "StatefulPartitionedCall/heavy_chain_align_airr_2/conv_residual_feature_extraction_block_11/conv1d_and__batch_norm_55/conv1d_178/Conv1D/ExpandDims_1", "shape": [1, 3, 64, 64], "dtype": "float32"}, {"name": "StatefulPartitionedCall/heavy_chain_align_airr_2/conv_residual_feature_extraction_block_11/conv1d_and__batch_norm_55/conv1d_178/BiasAdd/ReadVariableOp", "shape": [64], "dtype": "float32"}, {"name": "StatefulPartitionedCall/heavy_chain_align_airr_2/conv_residual_feature_extraction_block_11/conv1d_and__batch_norm_55/batch_normalization_55/batchnorm/mul", "shape": [64], "dtype": "float32"}, {"name": "StatefulPartitionedCall/heavy_chain_align_airr_2/conv_residual_feature_extraction_block_11/conv1d_and__batch_norm_55/batch_normalization_55/batchnorm/sub", "shape": [64], "dtype": "float32"}, {"name": "StatefulPartitionedCall/heavy_chain_align_airr_2/conv_residual_feature_extraction_block_11/conv1d_and__batch_norm_55/max_pooling1d_108/ExpandDims/dim", "shape": [], "dtype": "int32"}, {"name": "StatefulPartitionedCall/heavy_chain_align_airr_2/conv_residual_feature_extraction_block_11/conv1d_and__batch_norm_54/conv1d_173/Conv1D/ExpandDims/dim", "shape": [], "dtype": "int32"}, {"name": "StatefulPartitionedCall/heavy_chain_align_airr_2/conv_residual_feature_extraction_block_11/conv1d_and__batch_norm_54/conv1d_173/Conv1D/ExpandDims_1", "shape": [1, 3, 64, 64], "dtype": "float32"}, {"name": "StatefulPartitionedCall/heavy_chain_align_airr_2/conv_residual_feature_extraction_block_11/conv1d_and__batch_norm_54/conv1d_173/BiasAdd/ReadVariableOp", "shape": [64], "dtype": "float32"}, {"name": "StatefulPartitionedCall/heavy_chain_align_airr_2/conv_residual_feature_extraction_block_11/conv1d_and__batch_norm_54/conv1d_174/Conv1D/ExpandDims/dim", "shape": [], "dtype": "int32"}, {"name": "StatefulPartitionedCall/heavy_chain_align_airr_2/conv_residual_feature_extraction_block_11/conv1d_and__batch_norm_54/conv1d_174/Conv1D/ExpandDims_1", "shape": [1, 3, 64, 64], "dtype": "float32"}, {"name": "StatefulPartitionedCall/heavy_chain_align_airr_2/conv_residual_feature_extraction_block_11/conv1d_and__batch_norm_54/conv1d_174/BiasAdd/ReadVariableOp", "shape": [64], "dtype": "float32"}, {"name": "StatefulPartitionedCall/heavy_chain_align_airr_2/conv_residual_feature_extraction_block_11/conv1d_and__batch_norm_54/conv1d_175/Conv1D/ExpandDims/dim", "shape": [], "dtype": "int32"}, {"name": "StatefulPartitionedCall/heavy_chain_align_airr_2/conv_residual_feature_extraction_block_11/conv1d_and__batch_norm_54/conv1d_175/Conv1D/ExpandDims_1", "shape": [1, 3, 64, 64], "dtype": "float32"}, {"name": "StatefulPartitionedCall/heavy_chain_align_airr_2/conv_residual_feature_extraction_block_11/conv1d_and__batch_norm_54/conv1d_175/BiasAdd/ReadVariableOp", "shape": [64], "dtype": "float32"}, {"name": "StatefulPartitionedCall/heavy_chain_align_airr_2/conv_residual_feature_extraction_block_11/conv1d_and__batch_norm_54/batch_normalization_54/batchnorm/mul", "shape": [64], "dtype": "float32"}, {"name": "StatefulPartitionedCall/heavy_chain_align_airr_2/conv_residual_feature_extraction_block_11/conv1d_and__batch_norm_54/batch_normalization_54/batchnorm/sub", "shape": [64], "dtype": "float32"}, {"name": "StatefulPartitionedCall/heavy_chain_align_airr_2/conv_residual_feature_extraction_block_11/conv1d_and__batch_norm_54/max_pooling1d_107/ExpandDims/dim", "shape": [], "dtype": "int32"}, {"name": "StatefulPartitionedCall/heavy_chain_align_airr_2/conv_residual_feature_extraction_block_11/conv1d_and__batch_norm_53/conv1d_170/Conv1D/ExpandDims/dim", "shape": [], "dtype": "int32"}, {"name": "StatefulPartitionedCall/heavy_chain_align_airr_2/conv_residual_feature_extraction_block_11/conv1d_and__batch_norm_53/conv1d_170/Conv1D/ExpandDims_1", "shape": [1, 3, 32, 64], "dtype": "float32"}, {"name": "StatefulPartitionedCall/heavy_chain_align_airr_2/conv_residual_feature_extraction_block_11/conv1d_and__batch_norm_53/conv1d_170/BiasAdd/ReadVariableOp", "shape": [64], "dtype": "float32"}, {"name": "StatefulPartitionedCall/heavy_chain_align_airr_2/conv_residual_feature_extraction_block_11/conv1d_and__batch_norm_53/conv1d_171/Conv1D/ExpandDims/dim", "shape": [], "dtype": "int32"}, {"name": "StatefulPartitionedCall/heavy_chain_align_airr_2/conv_residual_feature_extraction_block_11/conv1d_and__batch_norm_53/conv1d_171/Conv1D/ExpandDims_1", "shape": [1, 3, 64, 64], "dtype": "float32"}, {"name": "StatefulPartitionedCall/heavy_chain_align_airr_2/conv_residual_feature_extraction_block_11/conv1d_and__batch_norm_53/conv1d_171/BiasAdd/ReadVariableOp", "shape": [64], "dtype": "float32"}, {"name": "StatefulPartitionedCall/heavy_chain_align_airr_2/conv_residual_feature_extraction_block_11/conv1d_and__batch_norm_53/conv1d_172/Conv1D/ExpandDims/dim", "shape": [], "dtype": "int32"}, {"name": "StatefulPartitionedCall/heavy_chain_align_airr_2/conv_residual_feature_extraction_block_11/conv1d_and__batch_norm_53/conv1d_172/Conv1D/ExpandDims_1", "shape": [1, 3, 64, 64], "dtype": "float32"}, {"name": "StatefulPartitionedCall/heavy_chain_align_airr_2/conv_residual_feature_extraction_block_11/conv1d_and__batch_norm_53/conv1d_172/BiasAdd/ReadVariableOp", "shape": [64], "dtype": "float32"}, {"name": "StatefulPartitionedCall/heavy_chain_align_airr_2/conv_residual_feature_extraction_block_11/conv1d_and__batch_norm_53/batch_normalization_53/batchnorm/mul", "shape": [64], "dtype": "float32"}, {"name": "StatefulPartitionedCall/heavy_chain_align_airr_2/conv_residual_feature_extraction_block_11/conv1d_and__batch_norm_53/batch_normalization_53/batchnorm/sub", "shape": [64], "dtype": "float32"}, {"name": "StatefulPartitionedCall/heavy_chain_align_airr_2/conv_residual_feature_extraction_block_11/conv1d_and__batch_norm_53/max_pooling1d_106/ExpandDims/dim", "shape": [], "dtype": "int32"}, {"name": "StatefulPartitionedCall/heavy_chain_align_airr_2/reshape_8/strided_slice/stack", "shape": [1], "dtype": "int32"}, {"name": "StatefulPartitionedCall/heavy_chain_align_airr_2/reshape_8/strided_slice/stack_1", "shape": [1], "dtype": "int32"}, {"name": "StatefulPartitionedCall/heavy_chain_align_airr_2/reshape_8/strided_slice/stack_2", "shape": [1], "dtype": "int32"}, {"name": "StatefulPartitionedCall/heavy_chain_align_airr_2/reshape_8/Reshape/shape/1", "shape": [], "dtype": "int32"}, {"name": "StatefulPartitionedCall/heavy_chain_align_airr_2/reshape_8/Reshape/shape/2", "shape": [], "dtype": "int32"}, {"name": "StatefulPartitionedCall/heavy_chain_align_airr_2/conv_residual_feature_extraction_block_11/conv1d_182/Conv1D/ExpandDims/dim", "shape": [], "dtype": "int32"}, {"name": "StatefulPartitionedCall/heavy_chain_align_airr_2/conv_residual_feature_extraction_block_11/conv1d_182/Conv1D/ExpandDims_1", "shape": [1, 5, 32, 64], "dtype": "float32"}, {"name": "StatefulPartitionedCall/heavy_chain_align_airr_2/conv_residual_feature_extraction_block_11/conv1d_182/BiasAdd/ReadVariableOp", "shape": [64], "dtype": "float32"}, {"name": "StatefulPartitionedCall/heavy_chain_align_airr_2/conv_residual_feature_extraction_block_11/max_pooling1d_110/ExpandDims/dim", "shape": [], "dtype": "int32"}, {"name": "StatefulPartitionedCall/heavy_chain_align_airr_2/conv_residual_feature_extraction_block_11/max_pooling1d_110/ExpandDims_1/dim", "shape": [], "dtype": "int32"}, {"name": "StatefulPartitionedCall/heavy_chain_align_airr_2/conv_residual_feature_extraction_block_11/max_pooling1d_111/ExpandDims/dim", "shape": [], "dtype": "int32"}, {"name": "StatefulPartitionedCall/heavy_chain_align_airr_2/conv_residual_feature_extraction_block_11/max_pooling1d_112/ExpandDims/dim", "shape": [], "dtype": "int32"}, {"name": "StatefulPartitionedCall/heavy_chain_align_airr_2/conv_residual_feature_extraction_block_11/max_pooling1d_113/ExpandDims/dim", "shape": [], "dtype": "int32"}, {"name": "StatefulPartitionedCall/heavy_chain_align_airr_2/conv_residual_feature_extraction_block_11/flatten_11/Const", "shape": [2], "dtype": "int32"}, {"name": "StatefulPartitionedCall/heavy_chain_align_airr_2/j_allele_middle/MatMul/ReadVariableOp", "shape": [1152, 14], "dtype": "float32"}, {"name": "StatefulPartitionedCall/heavy_chain_align_airr_2/j_allele_middle/BiasAdd/ReadVariableOp", "shape": [14], "dtype": "float32"}, {"name": "StatefulPartitionedCall/heavy_chain_align_airr_2/j_allele/MatMul/ReadVariableOp", "shape": [14, 7], "dtype": "float32"}, {"name": "StatefulPartitionedCall/heavy_chain_align_airr_2/j_allele/BiasAdd/ReadVariableOp", "shape": [7], "dtype": "float32"}, {"name": "StatefulPartitionedCall/heavy_chain_align_airr_2/dense_8/MatMul/ReadVariableOp", "shape": [576, 32], "dtype": "float32"}, {"name": "StatefulPartitionedCall/heavy_chain_align_airr_2/dense_8/BiasAdd/ReadVariableOp", "shape": [32], "dtype": "float32"}, {"name": "StatefulPartitionedCall/heavy_chain_align_airr_2/j_segment/MatMul/ReadVariableOp", "shape": [32, 576], "dtype": "float32"}, {"name": "StatefulPartitionedCall/heavy_chain_align_airr_2/j_segment/BiasAdd/ReadVariableOp", "shape": [576], "dtype": "float32"}, {"name": "StatefulPartitionedCall/heavy_chain_align_airr_2/mutation_rate_mid/MatMul/ReadVariableOp", "shape": [576, 288], "dtype": "float32"}, {"name": "StatefulPartitionedCall/heavy_chain_align_airr_2/mutation_rate_mid/BiasAdd/ReadVariableOp", "shape": [288], "dtype": "float32"}, {"name": "StatefulPartitionedCall/heavy_chain_align_airr_2/mutation_rate/MatMul/ReadVariableOp", "shape": [288, 1], "dtype": "float32"}, {"name": "StatefulPartitionedCall/heavy_chain_align_airr_2/mutation_rate/BiasAdd/ReadVariableOp", "shape": [1], "dtype": "float32"}, {"name": "StatefulPartitionedCall/heavy_chain_align_airr_2/conv_residual_feature_extraction_block_9/conv1d_and__batch_norm_48/conv1d_153/Conv1D/ExpandDims/dim", "shape": [], "dtype": "int32"}, {"name": "StatefulPartitionedCall/heavy_chain_align_airr_2/conv_residual_feature_extraction_block_9/conv1d_and__batch_norm_48/conv1d_153/Conv1D/ExpandDims_1", "shape": [1, 2, 128, 128], "dtype": "float32"}, {"name": "StatefulPartitionedCall/heavy_chain_align_airr_2/conv_residual_feature_extraction_block_9/conv1d_and__batch_norm_48/conv1d_153/BiasAdd/ReadVariableOp", "shape": [128], "dtype": "float32"}, {"name": "StatefulPartitionedCall/heavy_chain_align_airr_2/conv_residual_feature_extraction_block_9/conv1d_and__batch_norm_48/conv1d_154/Conv1D/ExpandDims/dim", "shape": [], "dtype": "int32"}, {"name": "StatefulPartitionedCall/heavy_chain_align_airr_2/conv_residual_feature_extraction_block_9/conv1d_and__batch_norm_48/conv1d_154/Conv1D/ExpandDims_1", "shape": [1, 2, 128, 128], "dtype": "float32"}, {"name": "StatefulPartitionedCall/heavy_chain_align_airr_2/conv_residual_feature_extraction_block_9/conv1d_and__batch_norm_48/conv1d_154/BiasAdd/ReadVariableOp", "shape": [128], "dtype": "float32"}, {"name": "StatefulPartitionedCall/heavy_chain_align_airr_2/conv_residual_feature_extraction_block_9/conv1d_and__batch_norm_48/conv1d_155/Conv1D/ExpandDims/dim", "shape": [], "dtype": "int32"}, {"name": "StatefulPartitionedCall/heavy_chain_align_airr_2/conv_residual_feature_extraction_block_9/conv1d_and__batch_norm_48/conv1d_155/Conv1D/ExpandDims_1", "shape": [1, 2, 128, 128], "dtype": "float32"}, {"name": "StatefulPartitionedCall/heavy_chain_align_airr_2/conv_residual_feature_extraction_block_9/conv1d_and__batch_norm_48/conv1d_155/BiasAdd/ReadVariableOp", "shape": [128], "dtype": "float32"}, {"name": "StatefulPartitionedCall/heavy_chain_align_airr_2/conv_residual_feature_extraction_block_9/conv1d_and__batch_norm_48/batch_normalization_48/batchnorm/mul", "shape": [128], "dtype": "float32"}, {"name": "StatefulPartitionedCall/heavy_chain_align_airr_2/conv_residual_feature_extraction_block_9/conv1d_and__batch_norm_48/batch_normalization_48/batchnorm/sub", "shape": [128], "dtype": "float32"}, {"name": "StatefulPartitionedCall/heavy_chain_align_airr_2/conv_residual_feature_extraction_block_9/conv1d_and__batch_norm_48/max_pooling1d_91/ExpandDims/dim", "shape": [], "dtype": "int32"}, {"name": "StatefulPartitionedCall/heavy_chain_align_airr_2/conv_residual_feature_extraction_block_9/conv1d_and__batch_norm_47/conv1d_150/Conv1D/ExpandDims/dim", "shape": [], "dtype": "int32"}, {"name": "StatefulPartitionedCall/heavy_chain_align_airr_2/conv_residual_feature_extraction_block_9/conv1d_and__batch_norm_47/conv1d_150/Conv1D/ExpandDims_1", "shape": [1, 2, 128, 128], "dtype": "float32"}, {"name": "StatefulPartitionedCall/heavy_chain_align_airr_2/conv_residual_feature_extraction_block_9/conv1d_and__batch_norm_47/conv1d_150/BiasAdd/ReadVariableOp", "shape": [128], "dtype": "float32"}, {"name": "StatefulPartitionedCall/heavy_chain_align_airr_2/conv_residual_feature_extraction_block_9/conv1d_and__batch_norm_47/conv1d_151/Conv1D/ExpandDims/dim", "shape": [], "dtype": "int32"}, {"name": "StatefulPartitionedCall/heavy_chain_align_airr_2/conv_residual_feature_extraction_block_9/conv1d_and__batch_norm_47/conv1d_151/Conv1D/ExpandDims_1", "shape": [1, 2, 128, 128], "dtype": "float32"}, {"name": "StatefulPartitionedCall/heavy_chain_align_airr_2/conv_residual_feature_extraction_block_9/conv1d_and__batch_norm_47/conv1d_151/BiasAdd/ReadVariableOp", "shape": [128], "dtype": "float32"}, {"name": "StatefulPartitionedCall/heavy_chain_align_airr_2/conv_residual_feature_extraction_block_9/conv1d_and__batch_norm_47/conv1d_152/Conv1D/ExpandDims/dim", "shape": [], "dtype": "int32"}, {"name": "StatefulPartitionedCall/heavy_chain_align_airr_2/conv_residual_feature_extraction_block_9/conv1d_and__batch_norm_47/conv1d_152/Conv1D/ExpandDims_1", "shape": [1, 2, 128, 128], "dtype": "float32"}, {"name": "StatefulPartitionedCall/heavy_chain_align_airr_2/conv_residual_feature_extraction_block_9/conv1d_and__batch_norm_47/conv1d_152/BiasAdd/ReadVariableOp", "shape": [128], "dtype": "float32"}, {"name": "StatefulPartitionedCall/heavy_chain_align_airr_2/conv_residual_feature_extraction_block_9/conv1d_and__batch_norm_47/batch_normalization_47/batchnorm/mul", "shape": [128], "dtype": "float32"}, {"name": "StatefulPartitionedCall/heavy_chain_align_airr_2/conv_residual_feature_extraction_block_9/conv1d_and__batch_norm_47/batch_normalization_47/batchnorm/sub", "shape": [128], "dtype": "float32"}, {"name": "StatefulPartitionedCall/heavy_chain_align_airr_2/conv_residual_feature_extraction_block_9/conv1d_and__batch_norm_47/max_pooling1d_90/ExpandDims/dim", "shape": [], "dtype": "int32"}, {"name": "StatefulPartitionedCall/heavy_chain_align_airr_2/conv_residual_feature_extraction_block_9/conv1d_and__batch_norm_46/conv1d_147/Conv1D/ExpandDims/dim", "shape": [], "dtype": "int32"}, {"name": "StatefulPartitionedCall/heavy_chain_align_airr_2/conv_residual_feature_extraction_block_9/conv1d_and__batch_norm_46/conv1d_147/Conv1D/ExpandDims_1", "shape": [1, 2, 128, 128], "dtype": "float32"}, {"name": "StatefulPartitionedCall/heavy_chain_align_airr_2/conv_residual_feature_extraction_block_9/conv1d_and__batch_norm_46/conv1d_147/BiasAdd/ReadVariableOp", "shape": [128], "dtype": "float32"}, {"name": "StatefulPartitionedCall/heavy_chain_align_airr_2/conv_residual_feature_extraction_block_9/conv1d_and__batch_norm_46/conv1d_148/Conv1D/ExpandDims/dim", "shape": [], "dtype": "int32"}, {"name": "StatefulPartitionedCall/heavy_chain_align_airr_2/conv_residual_feature_extraction_block_9/conv1d_and__batch_norm_46/conv1d_148/Conv1D/ExpandDims_1", "shape": [1, 2, 128, 128], "dtype": "float32"}, {"name": "StatefulPartitionedCall/heavy_chain_align_airr_2/conv_residual_feature_extraction_block_9/conv1d_and__batch_norm_46/conv1d_148/BiasAdd/ReadVariableOp", "shape": [128], "dtype": "float32"}, {"name": "StatefulPartitionedCall/heavy_chain_align_airr_2/conv_residual_feature_extraction_block_9/conv1d_and__batch_norm_46/conv1d_149/Conv1D/ExpandDims/dim", "shape": [], "dtype": "int32"}, {"name": "StatefulPartitionedCall/heavy_chain_align_airr_2/conv_residual_feature_extraction_block_9/conv1d_and__batch_norm_46/conv1d_149/Conv1D/ExpandDims_1", "shape": [1, 2, 128, 128], "dtype": "float32"}, {"name": "StatefulPartitionedCall/heavy_chain_align_airr_2/conv_residual_feature_extraction_block_9/conv1d_and__batch_norm_46/conv1d_149/BiasAdd/ReadVariableOp", "shape": [128], "dtype": "float32"}, {"name": "StatefulPartitionedCall/heavy_chain_align_airr_2/conv_residual_feature_extraction_block_9/conv1d_and__batch_norm_46/batch_normalization_46/batchnorm/mul", "shape": [128], "dtype": "float32"}, {"name": "StatefulPartitionedCall/heavy_chain_align_airr_2/conv_residual_feature_extraction_block_9/conv1d_and__batch_norm_46/batch_normalization_46/batchnorm/sub", "shape": [128], "dtype": "float32"}, {"name": "StatefulPartitionedCall/heavy_chain_align_airr_2/conv_residual_feature_extraction_block_9/conv1d_and__batch_norm_46/max_pooling1d_89/ExpandDims/dim", "shape": [], "dtype": "int32"}, {"name": "StatefulPartitionedCall/heavy_chain_align_airr_2/conv_residual_feature_extraction_block_9/conv1d_and__batch_norm_45/conv1d_144/Conv1D/ExpandDims/dim", "shape": [], "dtype": "int32"}, {"name": "StatefulPartitionedCall/heavy_chain_align_airr_2/conv_residual_feature_extraction_block_9/conv1d_and__batch_norm_45/conv1d_144/Conv1D/ExpandDims_1", "shape": [1, 3, 128, 128], "dtype": "float32"}, {"name": "StatefulPartitionedCall/heavy_chain_align_airr_2/conv_residual_feature_extraction_block_9/conv1d_and__batch_norm_45/conv1d_144/BiasAdd/ReadVariableOp", "shape": [128], "dtype": "float32"}, {"name": "StatefulPartitionedCall/heavy_chain_align_airr_2/conv_residual_feature_extraction_block_9/conv1d_and__batch_norm_45/conv1d_145/Conv1D/ExpandDims/dim", "shape": [], "dtype": "int32"}, {"name": "StatefulPartitionedCall/heavy_chain_align_airr_2/conv_residual_feature_extraction_block_9/conv1d_and__batch_norm_45/conv1d_145/Conv1D/ExpandDims_1", "shape": [1, 3, 128, 128], "dtype": "float32"}, {"name": "StatefulPartitionedCall/heavy_chain_align_airr_2/conv_residual_feature_extraction_block_9/conv1d_and__batch_norm_45/conv1d_145/BiasAdd/ReadVariableOp", "shape": [128], "dtype": "float32"}, {"name": "StatefulPartitionedCall/heavy_chain_align_airr_2/conv_residual_feature_extraction_block_9/conv1d_and__batch_norm_45/conv1d_146/Conv1D/ExpandDims/dim", "shape": [], "dtype": "int32"}, {"name": "StatefulPartitionedCall/heavy_chain_align_airr_2/conv_residual_feature_extraction_block_9/conv1d_and__batch_norm_45/conv1d_146/Conv1D/ExpandDims_1", "shape": [1, 3, 128, 128], "dtype": "float32"}, {"name": "StatefulPartitionedCall/heavy_chain_align_airr_2/conv_residual_feature_extraction_block_9/conv1d_and__batch_norm_45/conv1d_146/BiasAdd/ReadVariableOp", "shape": [128], "dtype": "float32"}, {"name": "StatefulPartitionedCall/heavy_chain_align_airr_2/conv_residual_feature_extraction_block_9/conv1d_and__batch_norm_45/batch_normalization_45/batchnorm/mul", "shape": [128], "dtype": "float32"}, {"name": "StatefulPartitionedCall/heavy_chain_align_airr_2/conv_residual_feature_extraction_block_9/conv1d_and__batch_norm_45/batch_normalization_45/batchnorm/sub", "shape": [128], "dtype": "float32"}, {"name": "StatefulPartitionedCall/heavy_chain_align_airr_2/conv_residual_feature_extraction_block_9/conv1d_and__batch_norm_45/max_pooling1d_88/ExpandDims/dim", "shape": [], "dtype": "int32"}, {"name": "StatefulPartitionedCall/heavy_chain_align_airr_2/conv_residual_feature_extraction_block_9/conv1d_and__batch_norm_44/conv1d_141/Conv1D/ExpandDims/dim", "shape": [], "dtype": "int32"}, {"name": "StatefulPartitionedCall/heavy_chain_align_airr_2/conv_residual_feature_extraction_block_9/conv1d_and__batch_norm_44/conv1d_141/Conv1D/ExpandDims_1", "shape": [1, 3, 128, 128], "dtype": "float32"}, {"name": "StatefulPartitionedCall/heavy_chain_align_airr_2/conv_residual_feature_extraction_block_9/conv1d_and__batch_norm_44/conv1d_141/BiasAdd/ReadVariableOp", "shape": [128], "dtype": "float32"}, {"name": "StatefulPartitionedCall/heavy_chain_align_airr_2/conv_residual_feature_extraction_block_9/conv1d_and__batch_norm_44/conv1d_142/Conv1D/ExpandDims/dim", "shape": [], "dtype": "int32"}, {"name": "StatefulPartitionedCall/heavy_chain_align_airr_2/conv_residual_feature_extraction_block_9/conv1d_and__batch_norm_44/conv1d_142/Conv1D/ExpandDims_1", "shape": [1, 3, 128, 128], "dtype": "float32"}, {"name": "StatefulPartitionedCall/heavy_chain_align_airr_2/conv_residual_feature_extraction_block_9/conv1d_and__batch_norm_44/conv1d_142/BiasAdd/ReadVariableOp", "shape": [128], "dtype": "float32"}, {"name": "StatefulPartitionedCall/heavy_chain_align_airr_2/conv_residual_feature_extraction_block_9/conv1d_and__batch_norm_44/conv1d_143/Conv1D/ExpandDims/dim", "shape": [], "dtype": "int32"}, {"name": "StatefulPartitionedCall/heavy_chain_align_airr_2/conv_residual_feature_extraction_block_9/conv1d_and__batch_norm_44/conv1d_143/Conv1D/ExpandDims_1", "shape": [1, 3, 128, 128], "dtype": "float32"}, {"name": "StatefulPartitionedCall/heavy_chain_align_airr_2/conv_residual_feature_extraction_block_9/conv1d_and__batch_norm_44/conv1d_143/BiasAdd/ReadVariableOp", "shape": [128], "dtype": "float32"}, {"name": "StatefulPartitionedCall/heavy_chain_align_airr_2/conv_residual_feature_extraction_block_9/conv1d_and__batch_norm_44/batch_normalization_44/batchnorm/mul", "shape": [128], "dtype": "float32"}, {"name": "StatefulPartitionedCall/heavy_chain_align_airr_2/conv_residual_feature_extraction_block_9/conv1d_and__batch_norm_44/batch_normalization_44/batchnorm/sub", "shape": [128], "dtype": "float32"}, {"name": "StatefulPartitionedCall/heavy_chain_align_airr_2/conv_residual_feature_extraction_block_9/conv1d_and__batch_norm_44/max_pooling1d_87/ExpandDims/dim", "shape": [], "dtype": "int32"}, {"name": "StatefulPartitionedCall/heavy_chain_align_airr_2/conv_residual_feature_extraction_block_9/conv1d_and__batch_norm_43/conv1d_138/Conv1D/ExpandDims/dim", "shape": [], "dtype": "int32"}, {"name": "StatefulPartitionedCall/heavy_chain_align_airr_2/conv_residual_feature_extraction_block_9/conv1d_and__batch_norm_43/conv1d_138/Conv1D/ExpandDims_1", "shape": [1, 3, 32, 128], "dtype": "float32"}, {"name": "StatefulPartitionedCall/heavy_chain_align_airr_2/conv_residual_feature_extraction_block_9/conv1d_and__batch_norm_43/conv1d_138/BiasAdd/ReadVariableOp", "shape": [128], "dtype": "float32"}, {"name": "StatefulPartitionedCall/heavy_chain_align_airr_2/conv_residual_feature_extraction_block_9/conv1d_and__batch_norm_43/conv1d_139/Conv1D/ExpandDims/dim", "shape": [], "dtype": "int32"}, {"name": "StatefulPartitionedCall/heavy_chain_align_airr_2/conv_residual_feature_extraction_block_9/conv1d_and__batch_norm_43/conv1d_139/Conv1D/ExpandDims_1", "shape": [1, 3, 128, 128], "dtype": "float32"}, {"name": "StatefulPartitionedCall/heavy_chain_align_airr_2/conv_residual_feature_extraction_block_9/conv1d_and__batch_norm_43/conv1d_139/BiasAdd/ReadVariableOp", "shape": [128], "dtype": "float32"}, {"name": "StatefulPartitionedCall/heavy_chain_align_airr_2/conv_residual_feature_extraction_block_9/conv1d_and__batch_norm_43/conv1d_140/Conv1D/ExpandDims/dim", "shape": [], "dtype": "int32"}, {"name": "StatefulPartitionedCall/heavy_chain_align_airr_2/conv_residual_feature_extraction_block_9/conv1d_and__batch_norm_43/conv1d_140/Conv1D/ExpandDims_1", "shape": [1, 3, 128, 128], "dtype": "float32"}, {"name": "StatefulPartitionedCall/heavy_chain_align_airr_2/conv_residual_feature_extraction_block_9/conv1d_and__batch_norm_43/conv1d_140/BiasAdd/ReadVariableOp", "shape": [128], "dtype": "float32"}, {"name": "StatefulPartitionedCall/heavy_chain_align_airr_2/conv_residual_feature_extraction_block_9/conv1d_and__batch_norm_43/batch_normalization_43/batchnorm/mul", "shape": [128], "dtype": "float32"}, {"name": "StatefulPartitionedCall/heavy_chain_align_airr_2/conv_residual_feature_extraction_block_9/conv1d_and__batch_norm_43/batch_normalization_43/batchnorm/sub", "shape": [128], "dtype": "float32"}, {"name": "StatefulPartitionedCall/heavy_chain_align_airr_2/conv_residual_feature_extraction_block_9/conv1d_and__batch_norm_43/max_pooling1d_86/ExpandDims/dim", "shape": [], "dtype": "int32"}, {"name": "StatefulPartitionedCall/heavy_chain_align_airr_2/reshape_6/strided_slice/stack", "shape": [1], "dtype": "int32"}, {"name": "StatefulPartitionedCall/heavy_chain_align_airr_2/reshape_6/strided_slice/stack_1", "shape": [1], "dtype": "int32"}, {"name": "StatefulPartitionedCall/heavy_chain_align_airr_2/reshape_6/strided_slice/stack_2", "shape": [1], "dtype": "int32"}, {"name": "StatefulPartitionedCall/heavy_chain_align_airr_2/reshape_6/Reshape/shape/1", "shape": [], "dtype": "int32"}, {"name": "StatefulPartitionedCall/heavy_chain_align_airr_2/reshape_6/Reshape/shape/2", "shape": [], "dtype": "int32"}, {"name": "StatefulPartitionedCall/heavy_chain_align_airr_2/conv_residual_feature_extraction_block_9/conv1d_156/Conv1D/ExpandDims/dim", "shape": [], "dtype": "int32"}, {"name": "StatefulPartitionedCall/heavy_chain_align_airr_2/conv_residual_feature_extraction_block_9/conv1d_156/Conv1D/ExpandDims_1", "shape": [1, 5, 32, 128], "dtype": "float32"}, {"name": "StatefulPartitionedCall/heavy_chain_align_airr_2/conv_residual_feature_extraction_block_9/conv1d_156/BiasAdd/ReadVariableOp", "shape": [128], "dtype": "float32"}, {"name": "StatefulPartitionedCall/heavy_chain_align_airr_2/conv_residual_feature_extraction_block_9/max_pooling1d_92/ExpandDims/dim", "shape": [], "dtype": "int32"}, {"name": "StatefulPartitionedCall/heavy_chain_align_airr_2/conv_residual_feature_extraction_block_9/max_pooling1d_92/ExpandDims_1/dim", "shape": [], "dtype": "int32"}, {"name": "StatefulPartitionedCall/heavy_chain_align_airr_2/conv_residual_feature_extraction_block_9/max_pooling1d_93/ExpandDims/dim", "shape": [], "dtype": "int32"}, {"name": "StatefulPartitionedCall/heavy_chain_align_airr_2/conv_residual_feature_extraction_block_9/max_pooling1d_94/ExpandDims/dim", "shape": [], "dtype": "int32"}, {"name": "StatefulPartitionedCall/heavy_chain_align_airr_2/conv_residual_feature_extraction_block_9/max_pooling1d_95/ExpandDims/dim", "shape": [], "dtype": "int32"}, {"name": "StatefulPartitionedCall/heavy_chain_align_airr_2/conv_residual_feature_extraction_block_9/max_pooling1d_96/ExpandDims/dim", "shape": [], "dtype": "int32"}, {"name": "StatefulPartitionedCall/heavy_chain_align_airr_2/conv_residual_feature_extraction_block_9/max_pooling1d_97/ExpandDims/dim", "shape": [], "dtype": "int32"}, {"name": "StatefulPartitionedCall/heavy_chain_align_airr_2/conv_residual_feature_extraction_block_9/flatten_9/Const", "shape": [2], "dtype": "int32"}, {"name": "StatefulPartitionedCall/heavy_chain_align_airr_2/v_allele_middle/MatMul/ReadVariableOp", "shape": [512, 396], "dtype": "float32"}, {"name": "StatefulPartitionedCall/heavy_chain_align_airr_2/v_allele_middle/BiasAdd/ReadVariableOp", "shape": [396], "dtype": "float32"}, {"name": "StatefulPartitionedCall/heavy_chain_align_airr_2/v_allele/MatMul/ReadVariableOp", "shape": [396, 198], "dtype": "float32"}, {"name": "StatefulPartitionedCall/heavy_chain_align_airr_2/v_allele/BiasAdd/ReadVariableOp", "shape": [198], "dtype": "float32"}, {"name": "StatefulPartitionedCall/heavy_chain_align_airr_2/conv_residual_feature_extraction_block_8/conv1d_and__batch_norm_42/conv1d_134/Conv1D/ExpandDims/dim", "shape": [], "dtype": "int32"}, {"name": "StatefulPartitionedCall/heavy_chain_align_airr_2/conv_residual_feature_extraction_block_8/conv1d_and__batch_norm_42/conv1d_134/Conv1D/ExpandDims_1", "shape": [1, 5, 64, 64], "dtype": "float32"}, {"name": "StatefulPartitionedCall/heavy_chain_align_airr_2/conv_residual_feature_extraction_block_8/conv1d_and__batch_norm_42/conv1d_134/BiasAdd/ReadVariableOp", "shape": [64], "dtype": "float32"}, {"name": "StatefulPartitionedCall/heavy_chain_align_airr_2/conv_residual_feature_extraction_block_8/conv1d_and__batch_norm_42/conv1d_135/Conv1D/ExpandDims/dim", "shape": [], "dtype": "int32"}, {"name": "StatefulPartitionedCall/heavy_chain_align_airr_2/conv_residual_feature_extraction_block_8/conv1d_and__batch_norm_42/conv1d_135/Conv1D/ExpandDims_1", "shape": [1, 5, 64, 64], "dtype": "float32"}, {"name": "StatefulPartitionedCall/heavy_chain_align_airr_2/conv_residual_feature_extraction_block_8/conv1d_and__batch_norm_42/conv1d_135/BiasAdd/ReadVariableOp", "shape": [64], "dtype": "float32"}, {"name": "StatefulPartitionedCall/heavy_chain_align_airr_2/conv_residual_feature_extraction_block_8/conv1d_and__batch_norm_42/conv1d_136/Conv1D/ExpandDims/dim", "shape": [], "dtype": "int32"}, {"name": "StatefulPartitionedCall/heavy_chain_align_airr_2/conv_residual_feature_extraction_block_8/conv1d_and__batch_norm_42/conv1d_136/Conv1D/ExpandDims_1", "shape": [1, 5, 64, 64], "dtype": "float32"}, {"name": "StatefulPartitionedCall/heavy_chain_align_airr_2/conv_residual_feature_extraction_block_8/conv1d_and__batch_norm_42/conv1d_136/BiasAdd/ReadVariableOp", "shape": [64], "dtype": "float32"}, {"name": "StatefulPartitionedCall/heavy_chain_align_airr_2/conv_residual_feature_extraction_block_8/conv1d_and__batch_norm_42/batch_normalization_42/batchnorm/mul", "shape": [64], "dtype": "float32"}, {"name": "StatefulPartitionedCall/heavy_chain_align_airr_2/conv_residual_feature_extraction_block_8/conv1d_and__batch_norm_42/batch_normalization_42/batchnorm/sub", "shape": [64], "dtype": "float32"}, {"name": "StatefulPartitionedCall/heavy_chain_align_airr_2/conv_residual_feature_extraction_block_8/conv1d_and__batch_norm_42/max_pooling1d_80/ExpandDims/dim", "shape": [], "dtype": "int32"}, {"name": "StatefulPartitionedCall/heavy_chain_align_airr_2/conv_residual_feature_extraction_block_8/conv1d_and__batch_norm_41/conv1d_131/Conv1D/ExpandDims/dim", "shape": [], "dtype": "int32"}, {"name": "StatefulPartitionedCall/heavy_chain_align_airr_2/conv_residual_feature_extraction_block_8/conv1d_and__batch_norm_41/conv1d_131/Conv1D/ExpandDims_1", "shape": [1, 3, 64, 64], "dtype": "float32"}, {"name": "StatefulPartitionedCall/heavy_chain_align_airr_2/conv_residual_feature_extraction_block_8/conv1d_and__batch_norm_41/conv1d_131/BiasAdd/ReadVariableOp", "shape": [64], "dtype": "float32"}, {"name": "StatefulPartitionedCall/heavy_chain_align_airr_2/conv_residual_feature_extraction_block_8/conv1d_and__batch_norm_41/conv1d_132/Conv1D/ExpandDims/dim", "shape": [], "dtype": "int32"}, {"name": "StatefulPartitionedCall/heavy_chain_align_airr_2/conv_residual_feature_extraction_block_8/conv1d_and__batch_norm_41/conv1d_132/Conv1D/ExpandDims_1", "shape": [1, 3, 64, 64], "dtype": "float32"}, {"name": "StatefulPartitionedCall/heavy_chain_align_airr_2/conv_residual_feature_extraction_block_8/conv1d_and__batch_norm_41/conv1d_132/BiasAdd/ReadVariableOp", "shape": [64], "dtype": "float32"}, {"name": "StatefulPartitionedCall/heavy_chain_align_airr_2/conv_residual_feature_extraction_block_8/conv1d_and__batch_norm_41/conv1d_133/Conv1D/ExpandDims/dim", "shape": [], "dtype": "int32"}, {"name": "StatefulPartitionedCall/heavy_chain_align_airr_2/conv_residual_feature_extraction_block_8/conv1d_and__batch_norm_41/conv1d_133/Conv1D/ExpandDims_1", "shape": [1, 3, 64, 64], "dtype": "float32"}, {"name": "StatefulPartitionedCall/heavy_chain_align_airr_2/conv_residual_feature_extraction_block_8/conv1d_and__batch_norm_41/conv1d_133/BiasAdd/ReadVariableOp", "shape": [64], "dtype": "float32"}, {"name": "StatefulPartitionedCall/heavy_chain_align_airr_2/conv_residual_feature_extraction_block_8/conv1d_and__batch_norm_41/batch_normalization_41/batchnorm/mul", "shape": [64], "dtype": "float32"}, {"name": "StatefulPartitionedCall/heavy_chain_align_airr_2/conv_residual_feature_extraction_block_8/conv1d_and__batch_norm_41/batch_normalization_41/batchnorm/sub", "shape": [64], "dtype": "float32"}, {"name": "StatefulPartitionedCall/heavy_chain_align_airr_2/conv_residual_feature_extraction_block_8/conv1d_and__batch_norm_41/max_pooling1d_79/ExpandDims/dim", "shape": [], "dtype": "int32"}, {"name": "StatefulPartitionedCall/heavy_chain_align_airr_2/conv_residual_feature_extraction_block_8/conv1d_and__batch_norm_40/conv1d_128/Conv1D/ExpandDims/dim", "shape": [], "dtype": "int32"}, {"name": "StatefulPartitionedCall/heavy_chain_align_airr_2/conv_residual_feature_extraction_block_8/conv1d_and__batch_norm_40/conv1d_128/Conv1D/ExpandDims_1", "shape": [1, 5, 64, 64], "dtype": "float32"}, {"name": "StatefulPartitionedCall/heavy_chain_align_airr_2/conv_residual_feature_extraction_block_8/conv1d_and__batch_norm_40/conv1d_128/BiasAdd/ReadVariableOp", "shape": [64], "dtype": "float32"}, {"name": "StatefulPartitionedCall/heavy_chain_align_airr_2/conv_residual_feature_extraction_block_8/conv1d_and__batch_norm_40/conv1d_129/Conv1D/ExpandDims/dim", "shape": [], "dtype": "int32"}, {"name": "StatefulPartitionedCall/heavy_chain_align_airr_2/conv_residual_feature_extraction_block_8/conv1d_and__batch_norm_40/conv1d_129/Conv1D/ExpandDims_1", "shape": [1, 5, 64, 64], "dtype": "float32"}, {"name": "StatefulPartitionedCall/heavy_chain_align_airr_2/conv_residual_feature_extraction_block_8/conv1d_and__batch_norm_40/conv1d_129/BiasAdd/ReadVariableOp", "shape": [64], "dtype": "float32"}, {"name": "StatefulPartitionedCall/heavy_chain_align_airr_2/conv_residual_feature_extraction_block_8/conv1d_and__batch_norm_40/conv1d_130/Conv1D/ExpandDims/dim", "shape": [], "dtype": "int32"}, {"name": "StatefulPartitionedCall/heavy_chain_align_airr_2/conv_residual_feature_extraction_block_8/conv1d_and__batch_norm_40/conv1d_130/Conv1D/ExpandDims_1", "shape": [1, 5, 64, 64], "dtype": "float32"}, {"name": "StatefulPartitionedCall/heavy_chain_align_airr_2/conv_residual_feature_extraction_block_8/conv1d_and__batch_norm_40/conv1d_130/BiasAdd/ReadVariableOp", "shape": [64], "dtype": "float32"}, {"name": "StatefulPartitionedCall/heavy_chain_align_airr_2/conv_residual_feature_extraction_block_8/conv1d_and__batch_norm_40/batch_normalization_40/batchnorm/mul", "shape": [64], "dtype": "float32"}, {"name": "StatefulPartitionedCall/heavy_chain_align_airr_2/conv_residual_feature_extraction_block_8/conv1d_and__batch_norm_40/batch_normalization_40/batchnorm/sub", "shape": [64], "dtype": "float32"}, {"name": "StatefulPartitionedCall/heavy_chain_align_airr_2/conv_residual_feature_extraction_block_8/conv1d_and__batch_norm_40/max_pooling1d_78/ExpandDims/dim", "shape": [], "dtype": "int32"}, {"name": "StatefulPartitionedCall/heavy_chain_align_airr_2/conv_residual_feature_extraction_block_8/conv1d_and__batch_norm_39/conv1d_125/Conv1D/ExpandDims/dim", "shape": [], "dtype": "int32"}, {"name": "StatefulPartitionedCall/heavy_chain_align_airr_2/conv_residual_feature_extraction_block_8/conv1d_and__batch_norm_39/conv1d_125/Conv1D/ExpandDims_1", "shape": [1, 5, 64, 64], "dtype": "float32"}, {"name": "StatefulPartitionedCall/heavy_chain_align_airr_2/conv_residual_feature_extraction_block_8/conv1d_and__batch_norm_39/conv1d_125/BiasAdd/ReadVariableOp", "shape": [64], "dtype": "float32"}, {"name": "StatefulPartitionedCall/heavy_chain_align_airr_2/conv_residual_feature_extraction_block_8/conv1d_and__batch_norm_39/conv1d_126/Conv1D/ExpandDims/dim", "shape": [], "dtype": "int32"}, {"name": "StatefulPartitionedCall/heavy_chain_align_airr_2/conv_residual_feature_extraction_block_8/conv1d_and__batch_norm_39/conv1d_126/Conv1D/ExpandDims_1", "shape": [1, 5, 64, 64], "dtype": "float32"}, {"name": "StatefulPartitionedCall/heavy_chain_align_airr_2/conv_residual_feature_extraction_block_8/conv1d_and__batch_norm_39/conv1d_126/BiasAdd/ReadVariableOp", "shape": [64], "dtype": "float32"}, {"name": "StatefulPartitionedCall/heavy_chain_align_airr_2/conv_residual_feature_extraction_block_8/conv1d_and__batch_norm_39/conv1d_127/Conv1D/ExpandDims/dim", "shape": [], "dtype": "int32"}, {"name": "StatefulPartitionedCall/heavy_chain_align_airr_2/conv_residual_feature_extraction_block_8/conv1d_and__batch_norm_39/conv1d_127/Conv1D/ExpandDims_1", "shape": [1, 5, 64, 64], "dtype": "float32"}, {"name": "StatefulPartitionedCall/heavy_chain_align_airr_2/conv_residual_feature_extraction_block_8/conv1d_and__batch_norm_39/conv1d_127/BiasAdd/ReadVariableOp", "shape": [64], "dtype": "float32"}, {"name": "StatefulPartitionedCall/heavy_chain_align_airr_2/conv_residual_feature_extraction_block_8/conv1d_and__batch_norm_39/batch_normalization_39/batchnorm/mul", "shape": [64], "dtype": "float32"}, {"name": "StatefulPartitionedCall/heavy_chain_align_airr_2/conv_residual_feature_extraction_block_8/conv1d_and__batch_norm_39/batch_normalization_39/batchnorm/sub", "shape": [64], "dtype": "float32"}, {"name": "StatefulPartitionedCall/heavy_chain_align_airr_2/conv_residual_feature_extraction_block_8/conv1d_and__batch_norm_39/max_pooling1d_77/ExpandDims/dim", "shape": [], "dtype": "int32"}, {"name": "StatefulPartitionedCall/heavy_chain_align_airr_2/conv_residual_feature_extraction_block_8/conv1d_and__batch_norm_38/conv1d_122/Conv1D/ExpandDims/dim", "shape": [], "dtype": "int32"}, {"name": "StatefulPartitionedCall/heavy_chain_align_airr_2/conv_residual_feature_extraction_block_8/conv1d_and__batch_norm_38/conv1d_122/Conv1D/ExpandDims_1", "shape": [1, 2, 32, 64], "dtype": "float32"}, {"name": "StatefulPartitionedCall/heavy_chain_align_airr_2/conv_residual_feature_extraction_block_8/conv1d_and__batch_norm_38/conv1d_122/BiasAdd/ReadVariableOp", "shape": [64], "dtype": "float32"}, {"name": "StatefulPartitionedCall/heavy_chain_align_airr_2/conv_residual_feature_extraction_block_8/conv1d_and__batch_norm_38/conv1d_123/Conv1D/ExpandDims/dim", "shape": [], "dtype": "int32"}, {"name": "StatefulPartitionedCall/heavy_chain_align_airr_2/conv_residual_feature_extraction_block_8/conv1d_and__batch_norm_38/conv1d_123/Conv1D/ExpandDims_1", "shape": [1, 2, 64, 64], "dtype": "float32"}, {"name": "StatefulPartitionedCall/heavy_chain_align_airr_2/conv_residual_feature_extraction_block_8/conv1d_and__batch_norm_38/conv1d_123/BiasAdd/ReadVariableOp", "shape": [64], "dtype": "float32"}, {"name": "StatefulPartitionedCall/heavy_chain_align_airr_2/conv_residual_feature_extraction_block_8/conv1d_and__batch_norm_38/conv1d_124/Conv1D/ExpandDims/dim", "shape": [], "dtype": "int32"}, {"name": "StatefulPartitionedCall/heavy_chain_align_airr_2/conv_residual_feature_extraction_block_8/conv1d_and__batch_norm_38/conv1d_124/Conv1D/ExpandDims_1", "shape": [1, 2, 64, 64], "dtype": "float32"}, {"name": "StatefulPartitionedCall/heavy_chain_align_airr_2/conv_residual_feature_extraction_block_8/conv1d_and__batch_norm_38/conv1d_124/BiasAdd/ReadVariableOp", "shape": [64], "dtype": "float32"}, {"name": "StatefulPartitionedCall/heavy_chain_align_airr_2/conv_residual_feature_extraction_block_8/conv1d_and__batch_norm_38/batch_normalization_38/batchnorm/mul", "shape": [64], "dtype": "float32"}, {"name": "StatefulPartitionedCall/heavy_chain_align_airr_2/conv_residual_feature_extraction_block_8/conv1d_and__batch_norm_38/batch_normalization_38/batchnorm/sub", "shape": [64], "dtype": "float32"}, {"name": "StatefulPartitionedCall/heavy_chain_align_airr_2/conv_residual_feature_extraction_block_8/conv1d_and__batch_norm_38/max_pooling1d_76/ExpandDims/dim", "shape": [], "dtype": "int32"}, {"name": "unknown_0", "shape": [6, 32], "dtype": "float32"}, {"name": "StatefulPartitionedCall/heavy_chain_align_airr_2/Reshape/shape", "shape": [2], "dtype": "int32"}, {"name": "StatefulPartitionedCall/heavy_chain_align_airr_2/token_and_position_embedding_2/embedding_4/embedding_lookup/axis", "shape": [], "dtype": "int32"}, {"name": "StatefulPartitionedCall/heavy_chain_align_airr_2/token_and_position_embedding_2/embedding_5/embedding_lookup", "shape": [576, 32], "dtype": "float32"}, {"name": "StatefulPartitionedCall/heavy_chain_align_airr_2/conv_residual_feature_extraction_block_8/conv1d_137/Conv1D/ExpandDims/dim", "shape": [], "dtype": "int32"}, {"name": "StatefulPartitionedCall/heavy_chain_align_airr_2/conv_residual_feature_extraction_block_8/conv1d_137/Conv1D/ExpandDims_1", "shape": [1, 5, 32, 64], "dtype": "float32"}, {"name": "StatefulPartitionedCall/heavy_chain_align_airr_2/conv_residual_feature_extraction_block_8/conv1d_137/BiasAdd/ReadVariableOp", "shape": [64], "dtype": "float32"}, {"name": "StatefulPartitionedCall/heavy_chain_align_airr_2/conv_residual_feature_extraction_block_8/max_pooling1d_81/ExpandDims/dim", "shape": [], "dtype": "int32"}, {"name": "StatefulPartitionedCall/heavy_chain_align_airr_2/conv_residual_feature_extraction_block_8/max_pooling1d_81/ExpandDims_1/dim", "shape": [], "dtype": "int32"}, {"name": "StatefulPartitionedCall/heavy_chain_align_airr_2/conv_residual_feature_extraction_block_8/max_pooling1d_82/ExpandDims/dim", "shape": [], "dtype": "int32"}, {"name": "StatefulPartitionedCall/heavy_chain_align_airr_2/conv_residual_feature_extraction_block_8/max_pooling1d_83/ExpandDims/dim", "shape": [], "dtype": "int32"}, {"name": "StatefulPartitionedCall/heavy_chain_align_airr_2/conv_residual_feature_extraction_block_8/max_pooling1d_84/ExpandDims/dim", "shape": [], "dtype": "int32"}, {"name": "StatefulPartitionedCall/heavy_chain_align_airr_2/conv_residual_feature_extraction_block_8/max_pooling1d_85/ExpandDims/dim", "shape": [], "dtype": "int32"}, {"name": "StatefulPartitionedCall/heavy_chain_align_airr_2/conv_residual_feature_extraction_block_8/flatten_8/Const", "shape": [2], "dtype": "int32"}, {"name": "StatefulPartitionedCall/heavy_chain_align_airr_2/dense_6/MatMul/ReadVariableOp", "shape": [576, 128], "dtype": "float32"}, {"name": "StatefulPartitionedCall/heavy_chain_align_airr_2/dense_6/BiasAdd/ReadVariableOp", "shape": [128], "dtype": "float32"}, {"name": "StatefulPartitionedCall/heavy_chain_align_airr_2/v_segment/MatMul/ReadVariableOp", "shape": [128, 576], "dtype": "float32"}, {"name": "StatefulPartitionedCall/heavy_chain_align_airr_2/v_segment/BiasAdd/ReadVariableOp", "shape": [576], "dtype": "float32"}]}]}