{"format": "graph-model", "generatedBy": "2.9.1", "convertedBy": "TensorFlow.js Converter v4.22.0", "signature": {"inputs": {"tokenized_sequence": {"name": "tokenized_sequence:0", "dtype": "DT_INT32", "tensorShape": {"dim": [{"size": "-1"}, {"size": "576"}]}}}, "outputs": {"Identity_8:0": {"name": "Identity_8:0", "dtype": "DT_FLOAT", "tensorShape": {"dim": [{"size": "-1"}, {"size": "1"}]}}, "v_allele": {"name": "Identity_9:0", "dtype": "DT_FLOAT", "tensorShape": {"dim": [{"size": "-1"}, {"size": "198"}]}}, "Identity_3:0": {"name": "Identity_3:0", "dtype": "DT_FLOAT", "tensorShape": {"dim": [{"size": "-1"}, {"size": "1"}]}}, "Identity_2:0": {"name": "Identity_2:0", "dtype": "DT_FLOAT", "tensorShape": {"dim": [{"size": "-1"}, {"size": "1"}]}}, "Identity_6:0": {"name": "Identity_6:0", "dtype": "DT_FLOAT", "tensorShape": {"dim": [{"size": "-1"}, {"size": "1"}]}}, "Identity_1:0": {"name": "Identity_1:0", "dtype": "DT_FLOAT", "tensorShape": {"dim": [{"size": "-1"}, {"size": "1"}]}}, "d_allele": {"name": "Identity:0", "dtype": "DT_FLOAT", "tensorShape": {"dim": [{"size": "-1"}, {"size": "34"}]}}, "Identity_11:0": {"name": "Identity_11:0", "dtype": "DT_FLOAT", "tensorShape": {"dim": [{"size": "-1"}, {"size": "1"}]}}, "Identity_10:0": {"name": "Identity_10:0", "dtype": "DT_FLOAT", "tensorShape": {"dim": [{"size": "-1"}, {"size": "1"}]}}, "j_allele": {"name": "Identity_4:0", "dtype": "DT_FLOAT", "tensorShape": {"dim": [{"size": "-1"}, {"size": "7"}]}}, "Identity_7:0": {"name": "Identity_7:0", "dtype": "DT_FLOAT", "tensorShape": {"dim": [{"size": "-1"}, {"size": "1"}]}}, "Identity_5:0": {"name": "Identity_5:0", "dtype": "DT_FLOAT", "tensorShape": {"dim": [{"size": "-1"}, {"size": "1"}]}}}}, "modelTopology": {"node": [{"name": "StatefulPartitionedCall/heavy_chain_align_airr/conv_residual_feature_extraction_block_5/conv1d_and__batch_norm_25/conv1d_81/Conv1D/ExpandDims/dim", "op": "Const", "attr": {"value": {"tensor": {"dtype": "DT_INT32", "tensorShape": {}}}, "dtype": {"type": "DT_INT32"}}}, {"name": "StatefulPartitionedCall/heavy_chain_align_airr/conv_residual_feature_extraction_block_5/conv1d_and__batch_norm_25/conv1d_81/Conv1D/ExpandDims_1", "op": "Const", "attr": {"dtype": {"type": "DT_FLOAT"}, "value": {"tensor": {"dtype": "DT_FLOAT", "tensorShape": {"dim": [{"size": "1"}, {"size": "2"}, {"size": "128"}, {"size": "128"}]}}}}}, {"name": "StatefulPartitionedCall/heavy_chain_align_airr/conv_residual_feature_extraction_block_5/conv1d_and__batch_norm_25/conv1d_81/BiasAdd/ReadVariableOp", "op": "Const", "attr": {"value": {"tensor": {"dtype": "DT_FLOAT", "tensorShape": {"dim": [{"size": "128"}]}}}, "dtype": {"type": "DT_FLOAT"}}}, {"name": "StatefulPartitionedCall/heavy_chain_align_airr/conv_residual_feature_extraction_block_5/conv1d_and__batch_norm_25/conv1d_82/Conv1D/ExpandDims/dim", "op": "Const", "attr": {"value": {"tensor": {"dtype": "DT_INT32", "tensorShape": {}}}, "dtype": {"type": "DT_INT32"}}}, {"name": "StatefulPartitionedCall/heavy_chain_align_airr/conv_residual_feature_extraction_block_5/conv1d_and__batch_norm_25/conv1d_82/Conv1D/ExpandDims_1", "op": "Const", "attr": {"dtype": {"type": "DT_FLOAT"}, "value": {"tensor": {"dtype": "DT_FLOAT", "tensorShape": {"dim": [{"size": "1"}, {"size": "2"}, {"size": "128"}, {"size": "128"}]}}}}}, {"name": "StatefulPartitionedCall/heavy_chain_align_airr/conv_residual_feature_extraction_block_5/conv1d_and__batch_norm_25/conv1d_82/BiasAdd/ReadVariableOp", "op": "Const", "attr": {"value": {"tensor": {"dtype": "DT_FLOAT", "tensorShape": {"dim": [{"size": "128"}]}}}, "dtype": {"type": "DT_FLOAT"}}}, {"name": "StatefulPartitionedCall/heavy_chain_align_airr/conv_residual_feature_extraction_block_5/conv1d_and__batch_norm_25/conv1d_83/Conv1D/ExpandDims/dim", "op": "Const", "attr": {"value": {"tensor": {"dtype": "DT_INT32", "tensorShape": {}}}, "dtype": {"type": "DT_INT32"}}}, {"name": "StatefulPartitionedCall/heavy_chain_align_airr/conv_residual_feature_extraction_block_5/conv1d_and__batch_norm_25/conv1d_83/Conv1D/ExpandDims_1", "op": "Const", "attr": {"value": {"tensor": {"dtype": "DT_FLOAT", "tensorShape": {"dim": [{"size": "1"}, {"size": "2"}, {"size": "128"}, {"size": "128"}]}}}, "dtype": {"type": "DT_FLOAT"}}}, {"name": "StatefulPartitionedCall/heavy_chain_align_airr/conv_residual_feature_extraction_block_5/conv1d_and__batch_norm_25/conv1d_83/BiasAdd/ReadVariableOp", "op": "Const", "attr": {"dtype": {"type": "DT_FLOAT"}, "value": {"tensor": {"dtype": "DT_FLOAT", "tensorShape": {"dim": [{"size": "128"}]}}}}}, {"name": "StatefulPartitionedCall/heavy_chain_align_airr/conv_residual_feature_extraction_block_5/conv1d_and__batch_norm_25/batch_normalization_25/batchnorm/mul", "op": "Const", "attr": {"dtype": {"type": "DT_FLOAT"}, "value": {"tensor": {"dtype": "DT_FLOAT", "tensorShape": {"dim": [{"size": "128"}]}}}}}, {"name": "StatefulPartitionedCall/heavy_chain_align_airr/conv_residual_feature_extraction_block_5/conv1d_and__batch_norm_25/batch_normalization_25/batchnorm/sub", "op": "Const", "attr": {"value": {"tensor": {"dtype": "DT_FLOAT", "tensorShape": {"dim": [{"size": "128"}]}}}, "dtype": {"type": "DT_FLOAT"}}}, {"name": "StatefulPartitionedCall/heavy_chain_align_airr/conv_residual_feature_extraction_block_5/conv1d_and__batch_norm_25/max_pooling1d_51/ExpandDims/dim", "op": "Const", "attr": {"value": {"tensor": {"dtype": "DT_INT32", "tensorShape": {}}}, "dtype": {"type": "DT_INT32"}}}, {"name": "StatefulPartitionedCall/heavy_chain_align_airr/conv_residual_feature_extraction_block_5/conv1d_and__batch_norm_24/conv1d_78/Conv1D/ExpandDims/dim", "op": "Const", "attr": {"dtype": {"type": "DT_INT32"}, "value": {"tensor": {"dtype": "DT_INT32", "tensorShape": {}}}}}, {"name": "StatefulPartitionedCall/heavy_chain_align_airr/conv_residual_feature_extraction_block_5/conv1d_and__batch_norm_24/conv1d_78/Conv1D/ExpandDims_1", "op": "Const", "attr": {"value": {"tensor": {"dtype": "DT_FLOAT", "tensorShape": {"dim": [{"size": "1"}, {"size": "2"}, {"size": "128"}, {"size": "128"}]}}}, "dtype": {"type": "DT_FLOAT"}}}, {"name": "StatefulPartitionedCall/heavy_chain_align_airr/conv_residual_feature_extraction_block_5/conv1d_and__batch_norm_24/conv1d_78/BiasAdd/ReadVariableOp", "op": "Const", "attr": {"dtype": {"type": "DT_FLOAT"}, "value": {"tensor": {"dtype": "DT_FLOAT", "tensorShape": {"dim": [{"size": "128"}]}}}}}, {"name": "StatefulPartitionedCall/heavy_chain_align_airr/conv_residual_feature_extraction_block_5/conv1d_and__batch_norm_24/conv1d_79/Conv1D/ExpandDims/dim", "op": "Const", "attr": {"dtype": {"type": "DT_INT32"}, "value": {"tensor": {"dtype": "DT_INT32", "tensorShape": {}}}}}, {"name": "StatefulPartitionedCall/heavy_chain_align_airr/conv_residual_feature_extraction_block_5/conv1d_and__batch_norm_24/conv1d_79/Conv1D/ExpandDims_1", "op": "Const", "attr": {"dtype": {"type": "DT_FLOAT"}, "value": {"tensor": {"dtype": "DT_FLOAT", "tensorShape": {"dim": [{"size": "1"}, {"size": "2"}, {"size": "128"}, {"size": "128"}]}}}}}, {"name": "StatefulPartitionedCall/heavy_chain_align_airr/conv_residual_feature_extraction_block_5/conv1d_and__batch_norm_24/conv1d_79/BiasAdd/ReadVariableOp", "op": "Const", "attr": {"value": {"tensor": {"dtype": "DT_FLOAT", "tensorShape": {"dim": [{"size": "128"}]}}}, "dtype": {"type": "DT_FLOAT"}}}, {"name": "StatefulPartitionedCall/heavy_chain_align_airr/conv_residual_feature_extraction_block_5/conv1d_and__batch_norm_24/conv1d_80/Conv1D/ExpandDims/dim", "op": "Const", "attr": {"value": {"tensor": {"dtype": "DT_INT32", "tensorShape": {}}}, "dtype": {"type": "DT_INT32"}}}, {"name": "StatefulPartitionedCall/heavy_chain_align_airr/conv_residual_feature_extraction_block_5/conv1d_and__batch_norm_24/conv1d_80/Conv1D/ExpandDims_1", "op": "Const", "attr": {"value": {"tensor": {"dtype": "DT_FLOAT", "tensorShape": {"dim": [{"size": "1"}, {"size": "2"}, {"size": "128"}, {"size": "128"}]}}}, "dtype": {"type": "DT_FLOAT"}}}, {"name": "StatefulPartitionedCall/heavy_chain_align_airr/conv_residual_feature_extraction_block_5/conv1d_and__batch_norm_24/conv1d_80/BiasAdd/ReadVariableOp", "op": "Const", "attr": {"dtype": {"type": "DT_FLOAT"}, "value": {"tensor": {"dtype": "DT_FLOAT", "tensorShape": {"dim": [{"size": "128"}]}}}}}, {"name": "StatefulPartitionedCall/heavy_chain_align_airr/conv_residual_feature_extraction_block_5/conv1d_and__batch_norm_24/batch_normalization_24/batchnorm/mul", "op": "Const", "attr": {"value": {"tensor": {"dtype": "DT_FLOAT", "tensorShape": {"dim": [{"size": "128"}]}}}, "dtype": {"type": "DT_FLOAT"}}}, {"name": "StatefulPartitionedCall/heavy_chain_align_airr/conv_residual_feature_extraction_block_5/conv1d_and__batch_norm_24/batch_normalization_24/batchnorm/sub", "op": "Const", "attr": {"dtype": {"type": "DT_FLOAT"}, "value": {"tensor": {"dtype": "DT_FLOAT", "tensorShape": {"dim": [{"size": "128"}]}}}}}, {"name": "StatefulPartitionedCall/heavy_chain_align_airr/conv_residual_feature_extraction_block_5/conv1d_and__batch_norm_24/max_pooling1d_50/ExpandDims/dim", "op": "Const", "attr": {"dtype": {"type": "DT_INT32"}, "value": {"tensor": {"dtype": "DT_INT32", "tensorShape": {}}}}}, {"name": "StatefulPartitionedCall/heavy_chain_align_airr/conv_residual_feature_extraction_block_5/conv1d_and__batch_norm_23/conv1d_75/Conv1D/ExpandDims/dim", "op": "Const", "attr": {"dtype": {"type": "DT_INT32"}, "value": {"tensor": {"dtype": "DT_INT32", "tensorShape": {}}}}}, {"name": "StatefulPartitionedCall/heavy_chain_align_airr/conv_residual_feature_extraction_block_5/conv1d_and__batch_norm_23/conv1d_75/Conv1D/ExpandDims_1", "op": "Const", "attr": {"dtype": {"type": "DT_FLOAT"}, "value": {"tensor": {"dtype": "DT_FLOAT", "tensorShape": {"dim": [{"size": "1"}, {"size": "3"}, {"size": "128"}, {"size": "128"}]}}}}}, {"name": "StatefulPartitionedCall/heavy_chain_align_airr/conv_residual_feature_extraction_block_5/conv1d_and__batch_norm_23/conv1d_75/BiasAdd/ReadVariableOp", "op": "Const", "attr": {"value": {"tensor": {"dtype": "DT_FLOAT", "tensorShape": {"dim": [{"size": "128"}]}}}, "dtype": {"type": "DT_FLOAT"}}}, {"name": "StatefulPartitionedCall/heavy_chain_align_airr/conv_residual_feature_extraction_block_5/conv1d_and__batch_norm_23/conv1d_76/Conv1D/ExpandDims/dim", "op": "Const", "attr": {"dtype": {"type": "DT_INT32"}, "value": {"tensor": {"dtype": "DT_INT32", "tensorShape": {}}}}}, {"name": "StatefulPartitionedCall/heavy_chain_align_airr/conv_residual_feature_extraction_block_5/conv1d_and__batch_norm_23/conv1d_76/Conv1D/ExpandDims_1", "op": "Const", "attr": {"value": {"tensor": {"dtype": "DT_FLOAT", "tensorShape": {"dim": [{"size": "1"}, {"size": "3"}, {"size": "128"}, {"size": "128"}]}}}, "dtype": {"type": "DT_FLOAT"}}}, {"name": "StatefulPartitionedCall/heavy_chain_align_airr/conv_residual_feature_extraction_block_5/conv1d_and__batch_norm_23/conv1d_76/BiasAdd/ReadVariableOp", "op": "Const", "attr": {"value": {"tensor": {"dtype": "DT_FLOAT", "tensorShape": {"dim": [{"size": "128"}]}}}, "dtype": {"type": "DT_FLOAT"}}}, {"name": "StatefulPartitionedCall/heavy_chain_align_airr/conv_residual_feature_extraction_block_5/conv1d_and__batch_norm_23/conv1d_77/Conv1D/ExpandDims/dim", "op": "Const", "attr": {"dtype": {"type": "DT_INT32"}, "value": {"tensor": {"dtype": "DT_INT32", "tensorShape": {}}}}}, {"name": "StatefulPartitionedCall/heavy_chain_align_airr/conv_residual_feature_extraction_block_5/conv1d_and__batch_norm_23/conv1d_77/Conv1D/ExpandDims_1", "op": "Const", "attr": {"value": {"tensor": {"dtype": "DT_FLOAT", "tensorShape": {"dim": [{"size": "1"}, {"size": "3"}, {"size": "128"}, {"size": "128"}]}}}, "dtype": {"type": "DT_FLOAT"}}}, {"name": "StatefulPartitionedCall/heavy_chain_align_airr/conv_residual_feature_extraction_block_5/conv1d_and__batch_norm_23/conv1d_77/BiasAdd/ReadVariableOp", "op": "Const", "attr": {"dtype": {"type": "DT_FLOAT"}, "value": {"tensor": {"dtype": "DT_FLOAT", "tensorShape": {"dim": [{"size": "128"}]}}}}}, {"name": "StatefulPartitionedCall/heavy_chain_align_airr/conv_residual_feature_extraction_block_5/conv1d_and__batch_norm_23/batch_normalization_23/batchnorm/mul", "op": "Const", "attr": {"value": {"tensor": {"dtype": "DT_FLOAT", "tensorShape": {"dim": [{"size": "128"}]}}}, "dtype": {"type": "DT_FLOAT"}}}, {"name": "StatefulPartitionedCall/heavy_chain_align_airr/conv_residual_feature_extraction_block_5/conv1d_and__batch_norm_23/batch_normalization_23/batchnorm/sub", "op": "Const", "attr": {"value": {"tensor": {"dtype": "DT_FLOAT", "tensorShape": {"dim": [{"size": "128"}]}}}, "dtype": {"type": "DT_FLOAT"}}}, {"name": "StatefulPartitionedCall/heavy_chain_align_airr/conv_residual_feature_extraction_block_5/conv1d_and__batch_norm_23/max_pooling1d_49/ExpandDims/dim", "op": "Const", "attr": {"dtype": {"type": "DT_INT32"}, "value": {"tensor": {"dtype": "DT_INT32", "tensorShape": {}}}}}, {"name": "StatefulPartitionedCall/heavy_chain_align_airr/conv_residual_feature_extraction_block_5/conv1d_and__batch_norm_22/conv1d_72/Conv1D/ExpandDims/dim", "op": "Const", "attr": {"value": {"tensor": {"dtype": "DT_INT32", "tensorShape": {}}}, "dtype": {"type": "DT_INT32"}}}, {"name": "StatefulPartitionedCall/heavy_chain_align_airr/conv_residual_feature_extraction_block_5/conv1d_and__batch_norm_22/conv1d_72/Conv1D/ExpandDims_1", "op": "Const", "attr": {"value": {"tensor": {"dtype": "DT_FLOAT", "tensorShape": {"dim": [{"size": "1"}, {"size": "3"}, {"size": "32"}, {"size": "128"}]}}}, "dtype": {"type": "DT_FLOAT"}}}, {"name": "StatefulPartitionedCall/heavy_chain_align_airr/conv_residual_feature_extraction_block_5/conv1d_and__batch_norm_22/conv1d_72/BiasAdd/ReadVariableOp", "op": "Const", "attr": {"value": {"tensor": {"dtype": "DT_FLOAT", "tensorShape": {"dim": [{"size": "128"}]}}}, "dtype": {"type": "DT_FLOAT"}}}, {"name": "StatefulPartitionedCall/heavy_chain_align_airr/conv_residual_feature_extraction_block_5/conv1d_and__batch_norm_22/conv1d_73/Conv1D/ExpandDims/dim", "op": "Const", "attr": {"value": {"tensor": {"dtype": "DT_INT32", "tensorShape": {}}}, "dtype": {"type": "DT_INT32"}}}, {"name": "StatefulPartitionedCall/heavy_chain_align_airr/conv_residual_feature_extraction_block_5/conv1d_and__batch_norm_22/conv1d_73/Conv1D/ExpandDims_1", "op": "Const", "attr": {"dtype": {"type": "DT_FLOAT"}, "value": {"tensor": {"dtype": "DT_FLOAT", "tensorShape": {"dim": [{"size": "1"}, {"size": "3"}, {"size": "128"}, {"size": "128"}]}}}}}, {"name": "StatefulPartitionedCall/heavy_chain_align_airr/conv_residual_feature_extraction_block_5/conv1d_and__batch_norm_22/conv1d_73/BiasAdd/ReadVariableOp", "op": "Const", "attr": {"dtype": {"type": "DT_FLOAT"}, "value": {"tensor": {"dtype": "DT_FLOAT", "tensorShape": {"dim": [{"size": "128"}]}}}}}, {"name": "StatefulPartitionedCall/heavy_chain_align_airr/conv_residual_feature_extraction_block_5/conv1d_and__batch_norm_22/conv1d_74/Conv1D/ExpandDims/dim", "op": "Const", "attr": {"dtype": {"type": "DT_INT32"}, "value": {"tensor": {"dtype": "DT_INT32", "tensorShape": {}}}}}, {"name": "StatefulPartitionedCall/heavy_chain_align_airr/conv_residual_feature_extraction_block_5/conv1d_and__batch_norm_22/conv1d_74/Conv1D/ExpandDims_1", "op": "Const", "attr": {"dtype": {"type": "DT_FLOAT"}, "value": {"tensor": {"dtype": "DT_FLOAT", "tensorShape": {"dim": [{"size": "1"}, {"size": "3"}, {"size": "128"}, {"size": "128"}]}}}}}, {"name": "StatefulPartitionedCall/heavy_chain_align_airr/conv_residual_feature_extraction_block_5/conv1d_and__batch_norm_22/conv1d_74/BiasAdd/ReadVariableOp", "op": "Const", "attr": {"dtype": {"type": "DT_FLOAT"}, "value": {"tensor": {"dtype": "DT_FLOAT", "tensorShape": {"dim": [{"size": "128"}]}}}}}, {"name": "StatefulPartitionedCall/heavy_chain_align_airr/conv_residual_feature_extraction_block_5/conv1d_and__batch_norm_22/batch_normalization_22/batchnorm/mul", "op": "Const", "attr": {"value": {"tensor": {"dtype": "DT_FLOAT", "tensorShape": {"dim": [{"size": "128"}]}}}, "dtype": {"type": "DT_FLOAT"}}}, {"name": "StatefulPartitionedCall/heavy_chain_align_airr/conv_residual_feature_extraction_block_5/conv1d_and__batch_norm_22/batch_normalization_22/batchnorm/sub", "op": "Const", "attr": {"value": {"tensor": {"dtype": "DT_FLOAT", "tensorShape": {"dim": [{"size": "128"}]}}}, "dtype": {"type": "DT_FLOAT"}}}, {"name": "StatefulPartitionedCall/heavy_chain_align_airr/conv_residual_feature_extraction_block_5/conv1d_and__batch_norm_22/max_pooling1d_48/ExpandDims/dim", "op": "Const", "attr": {"value": {"tensor": {"dtype": "DT_INT32", "tensorShape": {}}}, "dtype": {"type": "DT_INT32"}}}, {"name": "StatefulPartitionedCall/heavy_chain_align_airr/cutout_layer_1/Max/reduction_indices", "op": "Const", "attr": {"dtype": {"type": "DT_INT32"}, "value": {"tensor": {"dtype": "DT_INT32", "tensorShape": {}}}}}, {"name": "StatefulPartitionedCall/heavy_chain_align_airr/cutout_layer_1/clip_by_value/Minimum/y", "op": "Const", "attr": {"value": {"tensor": {"dtype": "DT_FLOAT", "tensorShape": {}}}, "dtype": {"type": "DT_FLOAT"}}}, {"name": "StatefulPartitionedCall/heavy_chain_align_airr/cutout_layer_1/clip_by_value/y", "op": "Const", "attr": {"dtype": {"type": "DT_FLOAT"}, "value": {"tensor": {"dtype": "DT_FLOAT", "tensorShape": {}}}}}, {"name": "unknown_200", "op": "Const", "attr": {"dtype": {"type": "DT_FLOAT"}, "value": {"tensor": {"dtype": "DT_FLOAT", "tensorShape": {"dim": [{"size": "576"}]}}}}}, {"name": "StatefulPartitionedCall/heavy_chain_align_airr/cutout_layer_1/Max_1/reduction_indices", "op": "Const", "attr": {"dtype": {"type": "DT_INT32"}, "value": {"tensor": {"dtype": "DT_INT32", "tensorShape": {}}}}}, {"name": "StatefulPartitionedCall/heavy_chain_align_airr/cutout_layer_1/clip_by_value_1/Minimum/y", "op": "Const", "attr": {"dtype": {"type": "DT_FLOAT"}, "value": {"tensor": {"dtype": "DT_FLOAT", "tensorShape": {}}}}}, {"name": "StatefulPartitionedCall/heavy_chain_align_airr/cutout_layer_1/clip_by_value_1/y", "op": "Const", "attr": {"dtype": {"type": "DT_FLOAT"}, "value": {"tensor": {"dtype": "DT_FLOAT", "tensorShape": {}}}}}, {"name": "StatefulPartitionedCall/heavy_chain_align_airr/reshape_1/strided_slice/stack", "op": "Const", "attr": {"dtype": {"type": "DT_INT32"}, "value": {"tensor": {"dtype": "DT_INT32", "tensorShape": {"dim": [{"size": "1"}]}}}}}, {"name": "StatefulPartitionedCall/heavy_chain_align_airr/reshape_1/strided_slice/stack_1", "op": "Const", "attr": {"dtype": {"type": "DT_INT32"}, "value": {"tensor": {"dtype": "DT_INT32", "tensorShape": {"dim": [{"size": "1"}]}}}}}, {"name": "StatefulPartitionedCall/heavy_chain_align_airr/reshape_1/strided_slice/stack_2", "op": "Const", "attr": {"dtype": {"type": "DT_INT32"}, "value": {"tensor": {"dtype": "DT_INT32", "tensorShape": {"dim": [{"size": "1"}]}}}}}, {"name": "StatefulPartitionedCall/heavy_chain_align_airr/reshape_1/Reshape/shape/1", "op": "Const", "attr": {"dtype": {"type": "DT_INT32"}, "value": {"tensor": {"dtype": "DT_INT32", "tensorShape": {}}}}}, {"name": "StatefulPartitionedCall/heavy_chain_align_airr/reshape_1/Reshape/shape/2", "op": "Const", "attr": {"value": {"tensor": {"dtype": "DT_INT32", "tensorShape": {}}}, "dtype": {"type": "DT_INT32"}}}, {"name": "StatefulPartitionedCall/heavy_chain_align_airr/conv_residual_feature_extraction_block_5/conv1d_71/Conv1D/ExpandDims/dim", "op": "Const", "attr": {"dtype": {"type": "DT_INT32"}, "value": {"tensor": {"dtype": "DT_INT32", "tensorShape": {}}}}}, {"name": "StatefulPartitionedCall/heavy_chain_align_airr/conv_residual_feature_extraction_block_5/conv1d_71/Conv1D/ExpandDims_1", "op": "Const", "attr": {"dtype": {"type": "DT_FLOAT"}, "value": {"tensor": {"dtype": "DT_FLOAT", "tensorShape": {"dim": [{"size": "1"}, {"size": "5"}, {"size": "32"}, {"size": "128"}]}}}}}, {"name": "StatefulPartitionedCall/heavy_chain_align_airr/conv_residual_feature_extraction_block_5/conv1d_71/BiasAdd/ReadVariableOp", "op": "Const", "attr": {"dtype": {"type": "DT_FLOAT"}, "value": {"tensor": {"dtype": "DT_FLOAT", "tensorShape": {"dim": [{"size": "128"}]}}}}}, {"name": "StatefulPartitionedCall/heavy_chain_align_airr/conv_residual_feature_extraction_block_5/max_pooling1d_44/ExpandDims/dim", "op": "Const", "attr": {"dtype": {"type": "DT_INT32"}, "value": {"tensor": {"dtype": "DT_INT32", "tensorShape": {}}}}}, {"name": "StatefulPartitionedCall/heavy_chain_align_airr/conv_residual_feature_extraction_block_5/max_pooling1d_44/ExpandDims_1/dim", "op": "Const", "attr": {"dtype": {"type": "DT_INT32"}, "value": {"tensor": {"dtype": "DT_INT32", "tensorShape": {}}}}}, {"name": "StatefulPartitionedCall/heavy_chain_align_airr/conv_residual_feature_extraction_block_5/max_pooling1d_45/ExpandDims/dim", "op": "Const", "attr": {"dtype": {"type": "DT_INT32"}, "value": {"tensor": {"dtype": "DT_INT32", "tensorShape": {}}}}}, {"name": "StatefulPartitionedCall/heavy_chain_align_airr/conv_residual_feature_extraction_block_5/max_pooling1d_46/ExpandDims/dim", "op": "Const", "attr": {"value": {"tensor": {"dtype": "DT_INT32", "tensorShape": {}}}, "dtype": {"type": "DT_INT32"}}}, {"name": "StatefulPartitionedCall/heavy_chain_align_airr/conv_residual_feature_extraction_block_5/max_pooling1d_47/ExpandDims/dim", "op": "Const", "attr": {"dtype": {"type": "DT_INT32"}, "value": {"tensor": {"dtype": "DT_INT32", "tensorShape": {}}}}}, {"name": "StatefulPartitionedCall/heavy_chain_align_airr/conv_residual_feature_extraction_block_5/flatten_5/Const", "op": "Const", "attr": {"value": {"tensor": {"dtype": "DT_INT32", "tensorShape": {"dim": [{"size": "2"}]}}}, "dtype": {"type": "DT_INT32"}}}, {"name": "StatefulPartitionedCall/heavy_chain_align_airr/conv_residual_feature_extraction_block_5/dense_5/MatMul/ReadVariableOp", "op": "Const", "attr": {"dtype": {"type": "DT_FLOAT"}, "value": {"tensor": {"dtype": "DT_FLOAT", "tensorShape": {"dim": [{"size": "2304"}, {"size": "576"}]}}}}}, {"name": "StatefulPartitionedCall/heavy_chain_align_airr/conv_residual_feature_extraction_block_5/dense_5/BiasAdd/ReadVariableOp", "op": "Const", "attr": {"dtype": {"type": "DT_FLOAT"}, "value": {"tensor": {"dtype": "DT_FLOAT", "tensorShape": {"dim": [{"size": "576"}]}}}}}, {"name": "StatefulPartitionedCall/heavy_chain_align_airr/d_allele_middle/MatMul/ReadVariableOp", "op": "Const", "attr": {"dtype": {"type": "DT_FLOAT"}, "value": {"tensor": {"dtype": "DT_FLOAT", "tensorShape": {"dim": [{"size": "576"}, {"size": "68"}]}}}}}, {"name": "StatefulPartitionedCall/heavy_chain_align_airr/d_allele_middle/BiasAdd/ReadVariableOp", "op": "Const", "attr": {"dtype": {"type": "DT_FLOAT"}, "value": {"tensor": {"dtype": "DT_FLOAT", "tensorShape": {"dim": [{"size": "68"}]}}}}}, {"name": "StatefulPartitionedCall/heavy_chain_align_airr/d_allele/MatMul/ReadVariableOp", "op": "Const", "attr": {"dtype": {"type": "DT_FLOAT"}, "value": {"tensor": {"dtype": "DT_FLOAT", "tensorShape": {"dim": [{"size": "68"}, {"size": "34"}]}}}}}, {"name": "StatefulPartitionedCall/heavy_chain_align_airr/d_allele/BiasAdd/ReadVariableOp", "op": "Const", "attr": {"value": {"tensor": {"dtype": "DT_FLOAT", "tensorShape": {"dim": [{"size": "34"}]}}}, "dtype": {"type": "DT_FLOAT"}}}, {"name": "StatefulPartitionedCall/heavy_chain_align_airr/d_end/mul_2/x", "op": "Const", "attr": {"dtype": {"type": "DT_FLOAT"}, "value": {"tensor": {"dtype": "DT_FLOAT", "tensorShape": {}}}}}, {"name": "StatefulPartitionedCall/heavy_chain_align_airr/d_end/add_1/x", "op": "Const", "attr": {"dtype": {"type": "DT_FLOAT"}, "value": {"tensor": {"dtype": "DT_FLOAT", "tensorShape": {}}}}}, {"name": "StatefulPartitionedCall/heavy_chain_align_airr/d_end/Sqrt", "op": "Const", "attr": {"dtype": {"type": "DT_FLOAT"}, "value": {"tensor": {"dtype": "DT_FLOAT", "tensorShape": {}}}}}, {"name": "StatefulPartitionedCall/heavy_chain_align_airr/d_end/mul/x", "op": "Const", "attr": {"value": {"tensor": {"dtype": "DT_FLOAT", "tensorShape": {}}}, "dtype": {"type": "DT_FLOAT"}}}, {"name": "StatefulPartitionedCall/heavy_chain_align_airr/d_end/MatMul/ReadVariableOp", "op": "Const", "attr": {"value": {"tensor": {"dtype": "DT_FLOAT", "tensorShape": {"dim": [{"size": "576"}, {"size": "1"}]}}}, "dtype": {"type": "DT_FLOAT"}}}, {"name": "StatefulPartitionedCall/heavy_chain_align_airr/d_end/BiasAdd/ReadVariableOp", "op": "Const", "attr": {"dtype": {"type": "DT_FLOAT"}, "value": {"tensor": {"dtype": "DT_FLOAT", "tensorShape": {"dim": [{"size": "1"}]}}}}}, {"name": "StatefulPartitionedCall/heavy_chain_align_airr/d_end/Pow/y", "op": "Const", "attr": {"dtype": {"type": "DT_FLOAT"}, "value": {"tensor": {"dtype": "DT_FLOAT", "tensorShape": {}}}}}, {"name": "StatefulPartitionedCall/heavy_chain_align_airr/d_start/mul_2/x", "op": "Const", "attr": {"dtype": {"type": "DT_FLOAT"}, "value": {"tensor": {"dtype": "DT_FLOAT", "tensorShape": {}}}}}, {"name": "StatefulPartitionedCall/heavy_chain_align_airr/d_start/add_1/x", "op": "Const", "attr": {"value": {"tensor": {"dtype": "DT_FLOAT", "tensorShape": {}}}, "dtype": {"type": "DT_FLOAT"}}}, {"name": "StatefulPartitionedCall/heavy_chain_align_airr/d_start/Sqrt", "op": "Const", "attr": {"dtype": {"type": "DT_FLOAT"}, "value": {"tensor": {"dtype": "DT_FLOAT", "tensorShape": {}}}}}, {"name": "StatefulPartitionedCall/heavy_chain_align_airr/d_start/mul/x", "op": "Const", "attr": {"value": {"tensor": {"dtype": "DT_FLOAT", "tensorShape": {}}}, "dtype": {"type": "DT_FLOAT"}}}, {"name": "StatefulPartitionedCall/heavy_chain_align_airr/conv_residual_feature_extraction_block_2/conv1d_and__batch_norm_15/conv1d_49/Conv1D/ExpandDims/dim", "op": "Const", "attr": {"dtype": {"type": "DT_INT32"}, "value": {"tensor": {"dtype": "DT_INT32", "tensorShape": {}}}}}, {"name": "StatefulPartitionedCall/heavy_chain_align_airr/conv_residual_feature_extraction_block_2/conv1d_and__batch_norm_15/conv1d_49/Conv1D/ExpandDims_1", "op": "Const", "attr": {"dtype": {"type": "DT_FLOAT"}, "value": {"tensor": {"dtype": "DT_FLOAT", "tensorShape": {"dim": [{"size": "1"}, {"size": "2"}, {"size": "128"}, {"size": "128"}]}}}}}, {"name": "StatefulPartitionedCall/heavy_chain_align_airr/conv_residual_feature_extraction_block_2/conv1d_and__batch_norm_15/conv1d_49/BiasAdd/ReadVariableOp", "op": "Const", "attr": {"dtype": {"type": "DT_FLOAT"}, "value": {"tensor": {"dtype": "DT_FLOAT", "tensorShape": {"dim": [{"size": "128"}]}}}}}, {"name": "StatefulPartitionedCall/heavy_chain_align_airr/conv_residual_feature_extraction_block_2/conv1d_and__batch_norm_15/conv1d_50/Conv1D/ExpandDims/dim", "op": "Const", "attr": {"dtype": {"type": "DT_INT32"}, "value": {"tensor": {"dtype": "DT_INT32", "tensorShape": {}}}}}, {"name": "StatefulPartitionedCall/heavy_chain_align_airr/conv_residual_feature_extraction_block_2/conv1d_and__batch_norm_15/conv1d_50/Conv1D/ExpandDims_1", "op": "Const", "attr": {"dtype": {"type": "DT_FLOAT"}, "value": {"tensor": {"dtype": "DT_FLOAT", "tensorShape": {"dim": [{"size": "1"}, {"size": "2"}, {"size": "128"}, {"size": "128"}]}}}}}, {"name": "StatefulPartitionedCall/heavy_chain_align_airr/conv_residual_feature_extraction_block_2/conv1d_and__batch_norm_15/conv1d_50/BiasAdd/ReadVariableOp", "op": "Const", "attr": {"dtype": {"type": "DT_FLOAT"}, "value": {"tensor": {"dtype": "DT_FLOAT", "tensorShape": {"dim": [{"size": "128"}]}}}}}, {"name": "StatefulPartitionedCall/heavy_chain_align_airr/conv_residual_feature_extraction_block_2/conv1d_and__batch_norm_15/conv1d_51/Conv1D/ExpandDims/dim", "op": "Const", "attr": {"dtype": {"type": "DT_INT32"}, "value": {"tensor": {"dtype": "DT_INT32", "tensorShape": {}}}}}, {"name": "StatefulPartitionedCall/heavy_chain_align_airr/conv_residual_feature_extraction_block_2/conv1d_and__batch_norm_15/conv1d_51/Conv1D/ExpandDims_1", "op": "Const", "attr": {"dtype": {"type": "DT_FLOAT"}, "value": {"tensor": {"dtype": "DT_FLOAT", "tensorShape": {"dim": [{"size": "1"}, {"size": "2"}, {"size": "128"}, {"size": "128"}]}}}}}, {"name": "StatefulPartitionedCall/heavy_chain_align_airr/conv_residual_feature_extraction_block_2/conv1d_and__batch_norm_15/conv1d_51/BiasAdd/ReadVariableOp", "op": "Const", "attr": {"value": {"tensor": {"dtype": "DT_FLOAT", "tensorShape": {"dim": [{"size": "128"}]}}}, "dtype": {"type": "DT_FLOAT"}}}, {"name": "StatefulPartitionedCall/heavy_chain_align_airr/conv_residual_feature_extraction_block_2/conv1d_and__batch_norm_15/batch_normalization_15/batchnorm/mul", "op": "Const", "attr": {"value": {"tensor": {"dtype": "DT_FLOAT", "tensorShape": {"dim": [{"size": "128"}]}}}, "dtype": {"type": "DT_FLOAT"}}}, {"name": "StatefulPartitionedCall/heavy_chain_align_airr/conv_residual_feature_extraction_block_2/conv1d_and__batch_norm_15/batch_normalization_15/batchnorm/sub", "op": "Const", "attr": {"value": {"tensor": {"dtype": "DT_FLOAT", "tensorShape": {"dim": [{"size": "128"}]}}}, "dtype": {"type": "DT_FLOAT"}}}, {"name": "StatefulPartitionedCall/heavy_chain_align_airr/conv_residual_feature_extraction_block_2/conv1d_and__batch_norm_15/max_pooling1d_31/ExpandDims/dim", "op": "Const", "attr": {"dtype": {"type": "DT_INT32"}, "value": {"tensor": {"dtype": "DT_INT32", "tensorShape": {}}}}}, {"name": "StatefulPartitionedCall/heavy_chain_align_airr/conv_residual_feature_extraction_block_2/conv1d_and__batch_norm_14/conv1d_46/Conv1D/ExpandDims/dim", "op": "Const", "attr": {"dtype": {"type": "DT_INT32"}, "value": {"tensor": {"dtype": "DT_INT32", "tensorShape": {}}}}}, {"name": "StatefulPartitionedCall/heavy_chain_align_airr/conv_residual_feature_extraction_block_2/conv1d_and__batch_norm_14/conv1d_46/Conv1D/ExpandDims_1", "op": "Const", "attr": {"dtype": {"type": "DT_FLOAT"}, "value": {"tensor": {"dtype": "DT_FLOAT", "tensorShape": {"dim": [{"size": "1"}, {"size": "3"}, {"size": "128"}, {"size": "128"}]}}}}}, {"name": "StatefulPartitionedCall/heavy_chain_align_airr/conv_residual_feature_extraction_block_2/conv1d_and__batch_norm_14/conv1d_46/BiasAdd/ReadVariableOp", "op": "Const", "attr": {"value": {"tensor": {"dtype": "DT_FLOAT", "tensorShape": {"dim": [{"size": "128"}]}}}, "dtype": {"type": "DT_FLOAT"}}}, {"name": "StatefulPartitionedCall/heavy_chain_align_airr/conv_residual_feature_extraction_block_2/conv1d_and__batch_norm_14/conv1d_47/Conv1D/ExpandDims/dim", "op": "Const", "attr": {"value": {"tensor": {"dtype": "DT_INT32", "tensorShape": {}}}, "dtype": {"type": "DT_INT32"}}}, {"name": "StatefulPartitionedCall/heavy_chain_align_airr/conv_residual_feature_extraction_block_2/conv1d_and__batch_norm_14/conv1d_47/Conv1D/ExpandDims_1", "op": "Const", "attr": {"dtype": {"type": "DT_FLOAT"}, "value": {"tensor": {"dtype": "DT_FLOAT", "tensorShape": {"dim": [{"size": "1"}, {"size": "3"}, {"size": "128"}, {"size": "128"}]}}}}}, {"name": "StatefulPartitionedCall/heavy_chain_align_airr/conv_residual_feature_extraction_block_2/conv1d_and__batch_norm_14/conv1d_47/BiasAdd/ReadVariableOp", "op": "Const", "attr": {"value": {"tensor": {"dtype": "DT_FLOAT", "tensorShape": {"dim": [{"size": "128"}]}}}, "dtype": {"type": "DT_FLOAT"}}}, {"name": "StatefulPartitionedCall/heavy_chain_align_airr/conv_residual_feature_extraction_block_2/conv1d_and__batch_norm_14/conv1d_48/Conv1D/ExpandDims/dim", "op": "Const", "attr": {"dtype": {"type": "DT_INT32"}, "value": {"tensor": {"dtype": "DT_INT32", "tensorShape": {}}}}}, {"name": "StatefulPartitionedCall/heavy_chain_align_airr/conv_residual_feature_extraction_block_2/conv1d_and__batch_norm_14/conv1d_48/Conv1D/ExpandDims_1", "op": "Const", "attr": {"value": {"tensor": {"dtype": "DT_FLOAT", "tensorShape": {"dim": [{"size": "1"}, {"size": "3"}, {"size": "128"}, {"size": "128"}]}}}, "dtype": {"type": "DT_FLOAT"}}}, {"name": "StatefulPartitionedCall/heavy_chain_align_airr/conv_residual_feature_extraction_block_2/conv1d_and__batch_norm_14/conv1d_48/BiasAdd/ReadVariableOp", "op": "Const", "attr": {"dtype": {"type": "DT_FLOAT"}, "value": {"tensor": {"dtype": "DT_FLOAT", "tensorShape": {"dim": [{"size": "128"}]}}}}}, {"name": "StatefulPartitionedCall/heavy_chain_align_airr/conv_residual_feature_extraction_block_2/conv1d_and__batch_norm_14/batch_normalization_14/batchnorm/mul", "op": "Const", "attr": {"dtype": {"type": "DT_FLOAT"}, "value": {"tensor": {"dtype": "DT_FLOAT", "tensorShape": {"dim": [{"size": "128"}]}}}}}, {"name": "StatefulPartitionedCall/heavy_chain_align_airr/conv_residual_feature_extraction_block_2/conv1d_and__batch_norm_14/batch_normalization_14/batchnorm/sub", "op": "Const", "attr": {"value": {"tensor": {"dtype": "DT_FLOAT", "tensorShape": {"dim": [{"size": "128"}]}}}, "dtype": {"type": "DT_FLOAT"}}}, {"name": "StatefulPartitionedCall/heavy_chain_align_airr/conv_residual_feature_extraction_block_2/conv1d_and__batch_norm_14/max_pooling1d_30/ExpandDims/dim", "op": "Const", "attr": {"value": {"tensor": {"dtype": "DT_INT32", "tensorShape": {}}}, "dtype": {"type": "DT_INT32"}}}, {"name": "StatefulPartitionedCall/heavy_chain_align_airr/conv_residual_feature_extraction_block_2/conv1d_and__batch_norm_13/conv1d_43/Conv1D/ExpandDims/dim", "op": "Const", "attr": {"dtype": {"type": "DT_INT32"}, "value": {"tensor": {"dtype": "DT_INT32", "tensorShape": {}}}}}, {"name": "StatefulPartitionedCall/heavy_chain_align_airr/conv_residual_feature_extraction_block_2/conv1d_and__batch_norm_13/conv1d_43/Conv1D/ExpandDims_1", "op": "Const", "attr": {"dtype": {"type": "DT_FLOAT"}, "value": {"tensor": {"dtype": "DT_FLOAT", "tensorShape": {"dim": [{"size": "1"}, {"size": "3"}, {"size": "128"}, {"size": "128"}]}}}}}, {"name": "StatefulPartitionedCall/heavy_chain_align_airr/conv_residual_feature_extraction_block_2/conv1d_and__batch_norm_13/conv1d_43/BiasAdd/ReadVariableOp", "op": "Const", "attr": {"value": {"tensor": {"dtype": "DT_FLOAT", "tensorShape": {"dim": [{"size": "128"}]}}}, "dtype": {"type": "DT_FLOAT"}}}, {"name": "StatefulPartitionedCall/heavy_chain_align_airr/conv_residual_feature_extraction_block_2/conv1d_and__batch_norm_13/conv1d_44/Conv1D/ExpandDims/dim", "op": "Const", "attr": {"dtype": {"type": "DT_INT32"}, "value": {"tensor": {"dtype": "DT_INT32", "tensorShape": {}}}}}, {"name": "StatefulPartitionedCall/heavy_chain_align_airr/conv_residual_feature_extraction_block_2/conv1d_and__batch_norm_13/conv1d_44/Conv1D/ExpandDims_1", "op": "Const", "attr": {"dtype": {"type": "DT_FLOAT"}, "value": {"tensor": {"dtype": "DT_FLOAT", "tensorShape": {"dim": [{"size": "1"}, {"size": "3"}, {"size": "128"}, {"size": "128"}]}}}}}, {"name": "StatefulPartitionedCall/heavy_chain_align_airr/conv_residual_feature_extraction_block_2/conv1d_and__batch_norm_13/conv1d_44/BiasAdd/ReadVariableOp", "op": "Const", "attr": {"dtype": {"type": "DT_FLOAT"}, "value": {"tensor": {"dtype": "DT_FLOAT", "tensorShape": {"dim": [{"size": "128"}]}}}}}, {"name": "StatefulPartitionedCall/heavy_chain_align_airr/conv_residual_feature_extraction_block_2/conv1d_and__batch_norm_13/conv1d_45/Conv1D/ExpandDims/dim", "op": "Const", "attr": {"dtype": {"type": "DT_INT32"}, "value": {"tensor": {"dtype": "DT_INT32", "tensorShape": {}}}}}, {"name": "StatefulPartitionedCall/heavy_chain_align_airr/conv_residual_feature_extraction_block_2/conv1d_and__batch_norm_13/conv1d_45/Conv1D/ExpandDims_1", "op": "Const", "attr": {"dtype": {"type": "DT_FLOAT"}, "value": {"tensor": {"dtype": "DT_FLOAT", "tensorShape": {"dim": [{"size": "1"}, {"size": "3"}, {"size": "128"}, {"size": "128"}]}}}}}, {"name": "StatefulPartitionedCall/heavy_chain_align_airr/conv_residual_feature_extraction_block_2/conv1d_and__batch_norm_13/conv1d_45/BiasAdd/ReadVariableOp", "op": "Const", "attr": {"dtype": {"type": "DT_FLOAT"}, "value": {"tensor": {"dtype": "DT_FLOAT", "tensorShape": {"dim": [{"size": "128"}]}}}}}, {"name": "StatefulPartitionedCall/heavy_chain_align_airr/conv_residual_feature_extraction_block_2/conv1d_and__batch_norm_13/batch_normalization_13/batchnorm/mul", "op": "Const", "attr": {"dtype": {"type": "DT_FLOAT"}, "value": {"tensor": {"dtype": "DT_FLOAT", "tensorShape": {"dim": [{"size": "128"}]}}}}}, {"name": "StatefulPartitionedCall/heavy_chain_align_airr/conv_residual_feature_extraction_block_2/conv1d_and__batch_norm_13/batch_normalization_13/batchnorm/sub", "op": "Const", "attr": {"value": {"tensor": {"dtype": "DT_FLOAT", "tensorShape": {"dim": [{"size": "128"}]}}}, "dtype": {"type": "DT_FLOAT"}}}, {"name": "StatefulPartitionedCall/heavy_chain_align_airr/conv_residual_feature_extraction_block_2/conv1d_and__batch_norm_13/max_pooling1d_29/ExpandDims/dim", "op": "Const", "attr": {"dtype": {"type": "DT_INT32"}, "value": {"tensor": {"dtype": "DT_INT32", "tensorShape": {}}}}}, {"name": "StatefulPartitionedCall/heavy_chain_align_airr/conv_residual_feature_extraction_block_2/conv1d_and__batch_norm_12/conv1d_40/Conv1D/ExpandDims/dim", "op": "Const", "attr": {"dtype": {"type": "DT_INT32"}, "value": {"tensor": {"dtype": "DT_INT32", "tensorShape": {}}}}}, {"name": "StatefulPartitionedCall/heavy_chain_align_airr/conv_residual_feature_extraction_block_2/conv1d_and__batch_norm_12/conv1d_40/Conv1D/ExpandDims_1", "op": "Const", "attr": {"dtype": {"type": "DT_FLOAT"}, "value": {"tensor": {"dtype": "DT_FLOAT", "tensorShape": {"dim": [{"size": "1"}, {"size": "3"}, {"size": "32"}, {"size": "128"}]}}}}}, {"name": "StatefulPartitionedCall/heavy_chain_align_airr/conv_residual_feature_extraction_block_2/conv1d_and__batch_norm_12/conv1d_40/BiasAdd/ReadVariableOp", "op": "Const", "attr": {"value": {"tensor": {"dtype": "DT_FLOAT", "tensorShape": {"dim": [{"size": "128"}]}}}, "dtype": {"type": "DT_FLOAT"}}}, {"name": "StatefulPartitionedCall/heavy_chain_align_airr/conv_residual_feature_extraction_block_2/conv1d_and__batch_norm_12/conv1d_41/Conv1D/ExpandDims/dim", "op": "Const", "attr": {"value": {"tensor": {"dtype": "DT_INT32", "tensorShape": {}}}, "dtype": {"type": "DT_INT32"}}}, {"name": "StatefulPartitionedCall/heavy_chain_align_airr/conv_residual_feature_extraction_block_2/conv1d_and__batch_norm_12/conv1d_41/Conv1D/ExpandDims_1", "op": "Const", "attr": {"dtype": {"type": "DT_FLOAT"}, "value": {"tensor": {"dtype": "DT_FLOAT", "tensorShape": {"dim": [{"size": "1"}, {"size": "3"}, {"size": "128"}, {"size": "128"}]}}}}}, {"name": "StatefulPartitionedCall/heavy_chain_align_airr/conv_residual_feature_extraction_block_2/conv1d_and__batch_norm_12/conv1d_41/BiasAdd/ReadVariableOp", "op": "Const", "attr": {"value": {"tensor": {"dtype": "DT_FLOAT", "tensorShape": {"dim": [{"size": "128"}]}}}, "dtype": {"type": "DT_FLOAT"}}}, {"name": "StatefulPartitionedCall/heavy_chain_align_airr/conv_residual_feature_extraction_block_2/conv1d_and__batch_norm_12/conv1d_42/Conv1D/ExpandDims/dim", "op": "Const", "attr": {"value": {"tensor": {"dtype": "DT_INT32", "tensorShape": {}}}, "dtype": {"type": "DT_INT32"}}}, {"name": "StatefulPartitionedCall/heavy_chain_align_airr/conv_residual_feature_extraction_block_2/conv1d_and__batch_norm_12/conv1d_42/Conv1D/ExpandDims_1", "op": "Const", "attr": {"dtype": {"type": "DT_FLOAT"}, "value": {"tensor": {"dtype": "DT_FLOAT", "tensorShape": {"dim": [{"size": "1"}, {"size": "3"}, {"size": "128"}, {"size": "128"}]}}}}}, {"name": "StatefulPartitionedCall/heavy_chain_align_airr/conv_residual_feature_extraction_block_2/conv1d_and__batch_norm_12/conv1d_42/BiasAdd/ReadVariableOp", "op": "Const", "attr": {"dtype": {"type": "DT_FLOAT"}, "value": {"tensor": {"dtype": "DT_FLOAT", "tensorShape": {"dim": [{"size": "128"}]}}}}}, {"name": "StatefulPartitionedCall/heavy_chain_align_airr/conv_residual_feature_extraction_block_2/conv1d_and__batch_norm_12/batch_normalization_12/batchnorm/mul", "op": "Const", "attr": {"value": {"tensor": {"dtype": "DT_FLOAT", "tensorShape": {"dim": [{"size": "128"}]}}}, "dtype": {"type": "DT_FLOAT"}}}, {"name": "StatefulPartitionedCall/heavy_chain_align_airr/conv_residual_feature_extraction_block_2/conv1d_and__batch_norm_12/batch_normalization_12/batchnorm/sub", "op": "Const", "attr": {"value": {"tensor": {"dtype": "DT_FLOAT", "tensorShape": {"dim": [{"size": "128"}]}}}, "dtype": {"type": "DT_FLOAT"}}}, {"name": "StatefulPartitionedCall/heavy_chain_align_airr/conv_residual_feature_extraction_block_2/conv1d_and__batch_norm_12/max_pooling1d_28/ExpandDims/dim", "op": "Const", "attr": {"dtype": {"type": "DT_INT32"}, "value": {"tensor": {"dtype": "DT_INT32", "tensorShape": {}}}}}, {"name": "StatefulPartitionedCall/heavy_chain_align_airr/conv_residual_feature_extraction_block_2/conv1d_39/Conv1D/ExpandDims/dim", "op": "Const", "attr": {"value": {"tensor": {"dtype": "DT_INT32", "tensorShape": {}}}, "dtype": {"type": "DT_INT32"}}}, {"name": "StatefulPartitionedCall/heavy_chain_align_airr/conv_residual_feature_extraction_block_2/conv1d_39/Conv1D/ExpandDims_1", "op": "Const", "attr": {"dtype": {"type": "DT_FLOAT"}, "value": {"tensor": {"dtype": "DT_FLOAT", "tensorShape": {"dim": [{"size": "1"}, {"size": "5"}, {"size": "32"}, {"size": "128"}]}}}}}, {"name": "StatefulPartitionedCall/heavy_chain_align_airr/conv_residual_feature_extraction_block_2/conv1d_39/BiasAdd/ReadVariableOp", "op": "Const", "attr": {"dtype": {"type": "DT_FLOAT"}, "value": {"tensor": {"dtype": "DT_FLOAT", "tensorShape": {"dim": [{"size": "128"}]}}}}}, {"name": "StatefulPartitionedCall/heavy_chain_align_airr/conv_residual_feature_extraction_block_2/max_pooling1d_24/ExpandDims/dim", "op": "Const", "attr": {"value": {"tensor": {"dtype": "DT_INT32", "tensorShape": {}}}, "dtype": {"type": "DT_INT32"}}}, {"name": "StatefulPartitionedCall/heavy_chain_align_airr/conv_residual_feature_extraction_block_2/max_pooling1d_24/ExpandDims_1/dim", "op": "Const", "attr": {"value": {"tensor": {"dtype": "DT_INT32", "tensorShape": {}}}, "dtype": {"type": "DT_INT32"}}}, {"name": "StatefulPartitionedCall/heavy_chain_align_airr/conv_residual_feature_extraction_block_2/max_pooling1d_25/ExpandDims/dim", "op": "Const", "attr": {"value": {"tensor": {"dtype": "DT_INT32", "tensorShape": {}}}, "dtype": {"type": "DT_INT32"}}}, {"name": "StatefulPartitionedCall/heavy_chain_align_airr/conv_residual_feature_extraction_block_2/max_pooling1d_26/ExpandDims/dim", "op": "Const", "attr": {"dtype": {"type": "DT_INT32"}, "value": {"tensor": {"dtype": "DT_INT32", "tensorShape": {}}}}}, {"name": "StatefulPartitionedCall/heavy_chain_align_airr/conv_residual_feature_extraction_block_2/max_pooling1d_27/ExpandDims/dim", "op": "Const", "attr": {"dtype": {"type": "DT_INT32"}, "value": {"tensor": {"dtype": "DT_INT32", "tensorShape": {}}}}}, {"name": "StatefulPartitionedCall/heavy_chain_align_airr/conv_residual_feature_extraction_block_2/flatten_3/Const", "op": "Const", "attr": {"dtype": {"type": "DT_INT32"}, "value": {"tensor": {"dtype": "DT_INT32", "tensorShape": {"dim": [{"size": "2"}]}}}}}, {"name": "StatefulPartitionedCall/heavy_chain_align_airr/conv_residual_feature_extraction_block_2/dense_3/MatMul/ReadVariableOp", "op": "Const", "attr": {"value": {"tensor": {"dtype": "DT_FLOAT", "tensorShape": {"dim": [{"size": "2304"}, {"size": "576"}]}}}, "dtype": {"type": "DT_FLOAT"}}}, {"name": "StatefulPartitionedCall/heavy_chain_align_airr/conv_residual_feature_extraction_block_2/dense_3/BiasAdd/ReadVariableOp", "op": "Const", "attr": {"dtype": {"type": "DT_FLOAT"}, "value": {"tensor": {"dtype": "DT_FLOAT", "tensorShape": {"dim": [{"size": "576"}]}}}}}, {"name": "StatefulPartitionedCall/heavy_chain_align_airr/d_start/MatMul/ReadVariableOp", "op": "Const", "attr": {"value": {"tensor": {"dtype": "DT_FLOAT", "tensorShape": {"dim": [{"size": "576"}, {"size": "1"}]}}}, "dtype": {"type": "DT_FLOAT"}}}, {"name": "StatefulPartitionedCall/heavy_chain_align_airr/d_start/BiasAdd/ReadVariableOp", "op": "Const", "attr": {"value": {"tensor": {"dtype": "DT_FLOAT", "tensorShape": {"dim": [{"size": "1"}]}}}, "dtype": {"type": "DT_FLOAT"}}}, {"name": "StatefulPartitionedCall/heavy_chain_align_airr/d_start/Pow/y", "op": "Const", "attr": {"dtype": {"type": "DT_FLOAT"}, "value": {"tensor": {"dtype": "DT_FLOAT", "tensorShape": {}}}}}, {"name": "StatefulPartitionedCall/heavy_chain_align_airr/indel_count_mid/mul_2/x", "op": "Const", "attr": {"dtype": {"type": "DT_FLOAT"}, "value": {"tensor": {"dtype": "DT_FLOAT", "tensorShape": {}}}}}, {"name": "StatefulPartitionedCall/heavy_chain_align_airr/indel_count_mid/add_1/x", "op": "Const", "attr": {"value": {"tensor": {"dtype": "DT_FLOAT", "tensorShape": {}}}, "dtype": {"type": "DT_FLOAT"}}}, {"name": "StatefulPartitionedCall/heavy_chain_align_airr/indel_count_mid/Sqrt", "op": "Const", "attr": {"dtype": {"type": "DT_FLOAT"}, "value": {"tensor": {"dtype": "DT_FLOAT", "tensorShape": {}}}}}, {"name": "StatefulPartitionedCall/heavy_chain_align_airr/indel_count_mid/mul/x", "op": "Const", "attr": {"value": {"tensor": {"dtype": "DT_FLOAT", "tensorShape": {}}}, "dtype": {"type": "DT_FLOAT"}}}, {"name": "StatefulPartitionedCall/heavy_chain_align_airr/indel_count_mid/MatMul/ReadVariableOp", "op": "Const", "attr": {"dtype": {"type": "DT_FLOAT"}, "value": {"tensor": {"dtype": "DT_FLOAT", "tensorShape": {"dim": [{"size": "576"}, {"size": "576"}]}}}}}, {"name": "StatefulPartitionedCall/heavy_chain_align_airr/indel_count_mid/BiasAdd/ReadVariableOp", "op": "Const", "attr": {"value": {"tensor": {"dtype": "DT_FLOAT", "tensorShape": {"dim": [{"size": "576"}]}}}, "dtype": {"type": "DT_FLOAT"}}}, {"name": "StatefulPartitionedCall/heavy_chain_align_airr/indel_count_mid/Pow/y", "op": "Const", "attr": {"value": {"tensor": {"dtype": "DT_FLOAT", "tensorShape": {}}}, "dtype": {"type": "DT_FLOAT"}}}, {"name": "StatefulPartitionedCall/heavy_chain_align_airr/indel_count/MatMul/ReadVariableOp", "op": "Const", "attr": {"dtype": {"type": "DT_FLOAT"}, "value": {"tensor": {"dtype": "DT_FLOAT", "tensorShape": {"dim": [{"size": "576"}, {"size": "1"}]}}}}}, {"name": "StatefulPartitionedCall/heavy_chain_align_airr/indel_count/BiasAdd/ReadVariableOp", "op": "Const", "attr": {"value": {"tensor": {"dtype": "DT_FLOAT", "tensorShape": {"dim": [{"size": "1"}]}}}, "dtype": {"type": "DT_FLOAT"}}}, {"name": "StatefulPartitionedCall/heavy_chain_align_airr/conv_residual_feature_extraction_block_6/conv1d_and__batch_norm_31/conv1d_100/Conv1D/ExpandDims/dim", "op": "Const", "attr": {"dtype": {"type": "DT_INT32"}, "value": {"tensor": {"dtype": "DT_INT32", "tensorShape": {}}}}}, {"name": "StatefulPartitionedCall/heavy_chain_align_airr/conv_residual_feature_extraction_block_6/conv1d_and__batch_norm_31/conv1d_100/Conv1D/ExpandDims_1", "op": "Const", "attr": {"dtype": {"type": "DT_FLOAT"}, "value": {"tensor": {"dtype": "DT_FLOAT", "tensorShape": {"dim": [{"size": "1"}, {"size": "2"}, {"size": "128"}, {"size": "128"}]}}}}}, {"name": "StatefulPartitionedCall/heavy_chain_align_airr/conv_residual_feature_extraction_block_6/conv1d_and__batch_norm_31/conv1d_100/BiasAdd/ReadVariableOp", "op": "Const", "attr": {"dtype": {"type": "DT_FLOAT"}, "value": {"tensor": {"dtype": "DT_FLOAT", "tensorShape": {"dim": [{"size": "128"}]}}}}}, {"name": "StatefulPartitionedCall/heavy_chain_align_airr/conv_residual_feature_extraction_block_6/conv1d_and__batch_norm_31/conv1d_101/Conv1D/ExpandDims/dim", "op": "Const", "attr": {"value": {"tensor": {"dtype": "DT_INT32", "tensorShape": {}}}, "dtype": {"type": "DT_INT32"}}}, {"name": "StatefulPartitionedCall/heavy_chain_align_airr/conv_residual_feature_extraction_block_6/conv1d_and__batch_norm_31/conv1d_101/Conv1D/ExpandDims_1", "op": "Const", "attr": {"value": {"tensor": {"dtype": "DT_FLOAT", "tensorShape": {"dim": [{"size": "1"}, {"size": "2"}, {"size": "128"}, {"size": "128"}]}}}, "dtype": {"type": "DT_FLOAT"}}}, {"name": "StatefulPartitionedCall/heavy_chain_align_airr/conv_residual_feature_extraction_block_6/conv1d_and__batch_norm_31/conv1d_101/BiasAdd/ReadVariableOp", "op": "Const", "attr": {"dtype": {"type": "DT_FLOAT"}, "value": {"tensor": {"dtype": "DT_FLOAT", "tensorShape": {"dim": [{"size": "128"}]}}}}}, {"name": "StatefulPartitionedCall/heavy_chain_align_airr/conv_residual_feature_extraction_block_6/conv1d_and__batch_norm_31/conv1d_102/Conv1D/ExpandDims/dim", "op": "Const", "attr": {"dtype": {"type": "DT_INT32"}, "value": {"tensor": {"dtype": "DT_INT32", "tensorShape": {}}}}}, {"name": "StatefulPartitionedCall/heavy_chain_align_airr/conv_residual_feature_extraction_block_6/conv1d_and__batch_norm_31/conv1d_102/Conv1D/ExpandDims_1", "op": "Const", "attr": {"dtype": {"type": "DT_FLOAT"}, "value": {"tensor": {"dtype": "DT_FLOAT", "tensorShape": {"dim": [{"size": "1"}, {"size": "2"}, {"size": "128"}, {"size": "128"}]}}}}}, {"name": "StatefulPartitionedCall/heavy_chain_align_airr/conv_residual_feature_extraction_block_6/conv1d_and__batch_norm_31/conv1d_102/BiasAdd/ReadVariableOp", "op": "Const", "attr": {"value": {"tensor": {"dtype": "DT_FLOAT", "tensorShape": {"dim": [{"size": "128"}]}}}, "dtype": {"type": "DT_FLOAT"}}}, {"name": "StatefulPartitionedCall/heavy_chain_align_airr/conv_residual_feature_extraction_block_6/conv1d_and__batch_norm_31/batch_normalization_31/batchnorm/mul", "op": "Const", "attr": {"dtype": {"type": "DT_FLOAT"}, "value": {"tensor": {"dtype": "DT_FLOAT", "tensorShape": {"dim": [{"size": "128"}]}}}}}, {"name": "StatefulPartitionedCall/heavy_chain_align_airr/conv_residual_feature_extraction_block_6/conv1d_and__batch_norm_31/batch_normalization_31/batchnorm/sub", "op": "Const", "attr": {"dtype": {"type": "DT_FLOAT"}, "value": {"tensor": {"dtype": "DT_FLOAT", "tensorShape": {"dim": [{"size": "128"}]}}}}}, {"name": "StatefulPartitionedCall/heavy_chain_align_airr/conv_residual_feature_extraction_block_6/conv1d_and__batch_norm_31/max_pooling1d_63/ExpandDims/dim", "op": "Const", "attr": {"dtype": {"type": "DT_INT32"}, "value": {"tensor": {"dtype": "DT_INT32", "tensorShape": {}}}}}, {"name": "StatefulPartitionedCall/heavy_chain_align_airr/conv_residual_feature_extraction_block_6/conv1d_and__batch_norm_30/conv1d_97/Conv1D/ExpandDims/dim", "op": "Const", "attr": {"dtype": {"type": "DT_INT32"}, "value": {"tensor": {"dtype": "DT_INT32", "tensorShape": {}}}}}, {"name": "StatefulPartitionedCall/heavy_chain_align_airr/conv_residual_feature_extraction_block_6/conv1d_and__batch_norm_30/conv1d_97/Conv1D/ExpandDims_1", "op": "Const", "attr": {"value": {"tensor": {"dtype": "DT_FLOAT", "tensorShape": {"dim": [{"size": "1"}, {"size": "2"}, {"size": "128"}, {"size": "128"}]}}}, "dtype": {"type": "DT_FLOAT"}}}, {"name": "StatefulPartitionedCall/heavy_chain_align_airr/conv_residual_feature_extraction_block_6/conv1d_and__batch_norm_30/conv1d_97/BiasAdd/ReadVariableOp", "op": "Const", "attr": {"value": {"tensor": {"dtype": "DT_FLOAT", "tensorShape": {"dim": [{"size": "128"}]}}}, "dtype": {"type": "DT_FLOAT"}}}, {"name": "StatefulPartitionedCall/heavy_chain_align_airr/conv_residual_feature_extraction_block_6/conv1d_and__batch_norm_30/conv1d_98/Conv1D/ExpandDims/dim", "op": "Const", "attr": {"value": {"tensor": {"dtype": "DT_INT32", "tensorShape": {}}}, "dtype": {"type": "DT_INT32"}}}, {"name": "StatefulPartitionedCall/heavy_chain_align_airr/conv_residual_feature_extraction_block_6/conv1d_and__batch_norm_30/conv1d_98/Conv1D/ExpandDims_1", "op": "Const", "attr": {"value": {"tensor": {"dtype": "DT_FLOAT", "tensorShape": {"dim": [{"size": "1"}, {"size": "2"}, {"size": "128"}, {"size": "128"}]}}}, "dtype": {"type": "DT_FLOAT"}}}, {"name": "StatefulPartitionedCall/heavy_chain_align_airr/conv_residual_feature_extraction_block_6/conv1d_and__batch_norm_30/conv1d_98/BiasAdd/ReadVariableOp", "op": "Const", "attr": {"value": {"tensor": {"dtype": "DT_FLOAT", "tensorShape": {"dim": [{"size": "128"}]}}}, "dtype": {"type": "DT_FLOAT"}}}, {"name": "StatefulPartitionedCall/heavy_chain_align_airr/conv_residual_feature_extraction_block_6/conv1d_and__batch_norm_30/conv1d_99/Conv1D/ExpandDims/dim", "op": "Const", "attr": {"value": {"tensor": {"dtype": "DT_INT32", "tensorShape": {}}}, "dtype": {"type": "DT_INT32"}}}, {"name": "StatefulPartitionedCall/heavy_chain_align_airr/conv_residual_feature_extraction_block_6/conv1d_and__batch_norm_30/conv1d_99/Conv1D/ExpandDims_1", "op": "Const", "attr": {"dtype": {"type": "DT_FLOAT"}, "value": {"tensor": {"dtype": "DT_FLOAT", "tensorShape": {"dim": [{"size": "1"}, {"size": "2"}, {"size": "128"}, {"size": "128"}]}}}}}, {"name": "StatefulPartitionedCall/heavy_chain_align_airr/conv_residual_feature_extraction_block_6/conv1d_and__batch_norm_30/conv1d_99/BiasAdd/ReadVariableOp", "op": "Const", "attr": {"dtype": {"type": "DT_FLOAT"}, "value": {"tensor": {"dtype": "DT_FLOAT", "tensorShape": {"dim": [{"size": "128"}]}}}}}, {"name": "StatefulPartitionedCall/heavy_chain_align_airr/conv_residual_feature_extraction_block_6/conv1d_and__batch_norm_30/batch_normalization_30/batchnorm/mul", "op": "Const", "attr": {"dtype": {"type": "DT_FLOAT"}, "value": {"tensor": {"dtype": "DT_FLOAT", "tensorShape": {"dim": [{"size": "128"}]}}}}}, {"name": "StatefulPartitionedCall/heavy_chain_align_airr/conv_residual_feature_extraction_block_6/conv1d_and__batch_norm_30/batch_normalization_30/batchnorm/sub", "op": "Const", "attr": {"dtype": {"type": "DT_FLOAT"}, "value": {"tensor": {"dtype": "DT_FLOAT", "tensorShape": {"dim": [{"size": "128"}]}}}}}, {"name": "StatefulPartitionedCall/heavy_chain_align_airr/conv_residual_feature_extraction_block_6/conv1d_and__batch_norm_30/max_pooling1d_62/ExpandDims/dim", "op": "Const", "attr": {"value": {"tensor": {"dtype": "DT_INT32", "tensorShape": {}}}, "dtype": {"type": "DT_INT32"}}}, {"name": "StatefulPartitionedCall/heavy_chain_align_airr/conv_residual_feature_extraction_block_6/conv1d_and__batch_norm_29/conv1d_94/Conv1D/ExpandDims/dim", "op": "Const", "attr": {"value": {"tensor": {"dtype": "DT_INT32", "tensorShape": {}}}, "dtype": {"type": "DT_INT32"}}}, {"name": "StatefulPartitionedCall/heavy_chain_align_airr/conv_residual_feature_extraction_block_6/conv1d_and__batch_norm_29/conv1d_94/Conv1D/ExpandDims_1", "op": "Const", "attr": {"dtype": {"type": "DT_FLOAT"}, "value": {"tensor": {"dtype": "DT_FLOAT", "tensorShape": {"dim": [{"size": "1"}, {"size": "2"}, {"size": "128"}, {"size": "128"}]}}}}}, {"name": "StatefulPartitionedCall/heavy_chain_align_airr/conv_residual_feature_extraction_block_6/conv1d_and__batch_norm_29/conv1d_94/BiasAdd/ReadVariableOp", "op": "Const", "attr": {"value": {"tensor": {"dtype": "DT_FLOAT", "tensorShape": {"dim": [{"size": "128"}]}}}, "dtype": {"type": "DT_FLOAT"}}}, {"name": "StatefulPartitionedCall/heavy_chain_align_airr/conv_residual_feature_extraction_block_6/conv1d_and__batch_norm_29/conv1d_95/Conv1D/ExpandDims/dim", "op": "Const", "attr": {"value": {"tensor": {"dtype": "DT_INT32", "tensorShape": {}}}, "dtype": {"type": "DT_INT32"}}}, {"name": "StatefulPartitionedCall/heavy_chain_align_airr/conv_residual_feature_extraction_block_6/conv1d_and__batch_norm_29/conv1d_95/Conv1D/ExpandDims_1", "op": "Const", "attr": {"dtype": {"type": "DT_FLOAT"}, "value": {"tensor": {"dtype": "DT_FLOAT", "tensorShape": {"dim": [{"size": "1"}, {"size": "2"}, {"size": "128"}, {"size": "128"}]}}}}}, {"name": "StatefulPartitionedCall/heavy_chain_align_airr/conv_residual_feature_extraction_block_6/conv1d_and__batch_norm_29/conv1d_95/BiasAdd/ReadVariableOp", "op": "Const", "attr": {"dtype": {"type": "DT_FLOAT"}, "value": {"tensor": {"dtype": "DT_FLOAT", "tensorShape": {"dim": [{"size": "128"}]}}}}}, {"name": "StatefulPartitionedCall/heavy_chain_align_airr/conv_residual_feature_extraction_block_6/conv1d_and__batch_norm_29/conv1d_96/Conv1D/ExpandDims/dim", "op": "Const", "attr": {"value": {"tensor": {"dtype": "DT_INT32", "tensorShape": {}}}, "dtype": {"type": "DT_INT32"}}}, {"name": "StatefulPartitionedCall/heavy_chain_align_airr/conv_residual_feature_extraction_block_6/conv1d_and__batch_norm_29/conv1d_96/Conv1D/ExpandDims_1", "op": "Const", "attr": {"value": {"tensor": {"dtype": "DT_FLOAT", "tensorShape": {"dim": [{"size": "1"}, {"size": "2"}, {"size": "128"}, {"size": "128"}]}}}, "dtype": {"type": "DT_FLOAT"}}}, {"name": "StatefulPartitionedCall/heavy_chain_align_airr/conv_residual_feature_extraction_block_6/conv1d_and__batch_norm_29/conv1d_96/BiasAdd/ReadVariableOp", "op": "Const", "attr": {"value": {"tensor": {"dtype": "DT_FLOAT", "tensorShape": {"dim": [{"size": "128"}]}}}, "dtype": {"type": "DT_FLOAT"}}}, {"name": "StatefulPartitionedCall/heavy_chain_align_airr/conv_residual_feature_extraction_block_6/conv1d_and__batch_norm_29/batch_normalization_29/batchnorm/mul", "op": "Const", "attr": {"dtype": {"type": "DT_FLOAT"}, "value": {"tensor": {"dtype": "DT_FLOAT", "tensorShape": {"dim": [{"size": "128"}]}}}}}, {"name": "StatefulPartitionedCall/heavy_chain_align_airr/conv_residual_feature_extraction_block_6/conv1d_and__batch_norm_29/batch_normalization_29/batchnorm/sub", "op": "Const", "attr": {"dtype": {"type": "DT_FLOAT"}, "value": {"tensor": {"dtype": "DT_FLOAT", "tensorShape": {"dim": [{"size": "128"}]}}}}}, {"name": "StatefulPartitionedCall/heavy_chain_align_airr/conv_residual_feature_extraction_block_6/conv1d_and__batch_norm_29/max_pooling1d_61/ExpandDims/dim", "op": "Const", "attr": {"dtype": {"type": "DT_INT32"}, "value": {"tensor": {"dtype": "DT_INT32", "tensorShape": {}}}}}, {"name": "StatefulPartitionedCall/heavy_chain_align_airr/conv_residual_feature_extraction_block_6/conv1d_and__batch_norm_28/conv1d_91/Conv1D/ExpandDims/dim", "op": "Const", "attr": {"value": {"tensor": {"dtype": "DT_INT32", "tensorShape": {}}}, "dtype": {"type": "DT_INT32"}}}, {"name": "StatefulPartitionedCall/heavy_chain_align_airr/conv_residual_feature_extraction_block_6/conv1d_and__batch_norm_28/conv1d_91/Conv1D/ExpandDims_1", "op": "Const", "attr": {"dtype": {"type": "DT_FLOAT"}, "value": {"tensor": {"dtype": "DT_FLOAT", "tensorShape": {"dim": [{"size": "1"}, {"size": "3"}, {"size": "128"}, {"size": "128"}]}}}}}, {"name": "StatefulPartitionedCall/heavy_chain_align_airr/conv_residual_feature_extraction_block_6/conv1d_and__batch_norm_28/conv1d_91/BiasAdd/ReadVariableOp", "op": "Const", "attr": {"dtype": {"type": "DT_FLOAT"}, "value": {"tensor": {"dtype": "DT_FLOAT", "tensorShape": {"dim": [{"size": "128"}]}}}}}, {"name": "StatefulPartitionedCall/heavy_chain_align_airr/conv_residual_feature_extraction_block_6/conv1d_and__batch_norm_28/conv1d_92/Conv1D/ExpandDims/dim", "op": "Const", "attr": {"value": {"tensor": {"dtype": "DT_INT32", "tensorShape": {}}}, "dtype": {"type": "DT_INT32"}}}, {"name": "StatefulPartitionedCall/heavy_chain_align_airr/conv_residual_feature_extraction_block_6/conv1d_and__batch_norm_28/conv1d_92/Conv1D/ExpandDims_1", "op": "Const", "attr": {"value": {"tensor": {"dtype": "DT_FLOAT", "tensorShape": {"dim": [{"size": "1"}, {"size": "3"}, {"size": "128"}, {"size": "128"}]}}}, "dtype": {"type": "DT_FLOAT"}}}, {"name": "StatefulPartitionedCall/heavy_chain_align_airr/conv_residual_feature_extraction_block_6/conv1d_and__batch_norm_28/conv1d_92/BiasAdd/ReadVariableOp", "op": "Const", "attr": {"dtype": {"type": "DT_FLOAT"}, "value": {"tensor": {"dtype": "DT_FLOAT", "tensorShape": {"dim": [{"size": "128"}]}}}}}, {"name": "StatefulPartitionedCall/heavy_chain_align_airr/conv_residual_feature_extraction_block_6/conv1d_and__batch_norm_28/conv1d_93/Conv1D/ExpandDims/dim", "op": "Const", "attr": {"value": {"tensor": {"dtype": "DT_INT32", "tensorShape": {}}}, "dtype": {"type": "DT_INT32"}}}, {"name": "StatefulPartitionedCall/heavy_chain_align_airr/conv_residual_feature_extraction_block_6/conv1d_and__batch_norm_28/conv1d_93/Conv1D/ExpandDims_1", "op": "Const", "attr": {"dtype": {"type": "DT_FLOAT"}, "value": {"tensor": {"dtype": "DT_FLOAT", "tensorShape": {"dim": [{"size": "1"}, {"size": "3"}, {"size": "128"}, {"size": "128"}]}}}}}, {"name": "StatefulPartitionedCall/heavy_chain_align_airr/conv_residual_feature_extraction_block_6/conv1d_and__batch_norm_28/conv1d_93/BiasAdd/ReadVariableOp", "op": "Const", "attr": {"dtype": {"type": "DT_FLOAT"}, "value": {"tensor": {"dtype": "DT_FLOAT", "tensorShape": {"dim": [{"size": "128"}]}}}}}, {"name": "StatefulPartitionedCall/heavy_chain_align_airr/conv_residual_feature_extraction_block_6/conv1d_and__batch_norm_28/batch_normalization_28/batchnorm/mul", "op": "Const", "attr": {"value": {"tensor": {"dtype": "DT_FLOAT", "tensorShape": {"dim": [{"size": "128"}]}}}, "dtype": {"type": "DT_FLOAT"}}}, {"name": "StatefulPartitionedCall/heavy_chain_align_airr/conv_residual_feature_extraction_block_6/conv1d_and__batch_norm_28/batch_normalization_28/batchnorm/sub", "op": "Const", "attr": {"value": {"tensor": {"dtype": "DT_FLOAT", "tensorShape": {"dim": [{"size": "128"}]}}}, "dtype": {"type": "DT_FLOAT"}}}, {"name": "StatefulPartitionedCall/heavy_chain_align_airr/conv_residual_feature_extraction_block_6/conv1d_and__batch_norm_28/max_pooling1d_60/ExpandDims/dim", "op": "Const", "attr": {"value": {"tensor": {"dtype": "DT_INT32", "tensorShape": {}}}, "dtype": {"type": "DT_INT32"}}}, {"name": "StatefulPartitionedCall/heavy_chain_align_airr/conv_residual_feature_extraction_block_6/conv1d_and__batch_norm_27/conv1d_88/Conv1D/ExpandDims/dim", "op": "Const", "attr": {"value": {"tensor": {"dtype": "DT_INT32", "tensorShape": {}}}, "dtype": {"type": "DT_INT32"}}}, {"name": "StatefulPartitionedCall/heavy_chain_align_airr/conv_residual_feature_extraction_block_6/conv1d_and__batch_norm_27/conv1d_88/Conv1D/ExpandDims_1", "op": "Const", "attr": {"dtype": {"type": "DT_FLOAT"}, "value": {"tensor": {"dtype": "DT_FLOAT", "tensorShape": {"dim": [{"size": "1"}, {"size": "3"}, {"size": "128"}, {"size": "128"}]}}}}}, {"name": "StatefulPartitionedCall/heavy_chain_align_airr/conv_residual_feature_extraction_block_6/conv1d_and__batch_norm_27/conv1d_88/BiasAdd/ReadVariableOp", "op": "Const", "attr": {"dtype": {"type": "DT_FLOAT"}, "value": {"tensor": {"dtype": "DT_FLOAT", "tensorShape": {"dim": [{"size": "128"}]}}}}}, {"name": "StatefulPartitionedCall/heavy_chain_align_airr/conv_residual_feature_extraction_block_6/conv1d_and__batch_norm_27/conv1d_89/Conv1D/ExpandDims/dim", "op": "Const", "attr": {"dtype": {"type": "DT_INT32"}, "value": {"tensor": {"dtype": "DT_INT32", "tensorShape": {}}}}}, {"name": "StatefulPartitionedCall/heavy_chain_align_airr/conv_residual_feature_extraction_block_6/conv1d_and__batch_norm_27/conv1d_89/Conv1D/ExpandDims_1", "op": "Const", "attr": {"value": {"tensor": {"dtype": "DT_FLOAT", "tensorShape": {"dim": [{"size": "1"}, {"size": "3"}, {"size": "128"}, {"size": "128"}]}}}, "dtype": {"type": "DT_FLOAT"}}}, {"name": "StatefulPartitionedCall/heavy_chain_align_airr/conv_residual_feature_extraction_block_6/conv1d_and__batch_norm_27/conv1d_89/BiasAdd/ReadVariableOp", "op": "Const", "attr": {"value": {"tensor": {"dtype": "DT_FLOAT", "tensorShape": {"dim": [{"size": "128"}]}}}, "dtype": {"type": "DT_FLOAT"}}}, {"name": "StatefulPartitionedCall/heavy_chain_align_airr/conv_residual_feature_extraction_block_6/conv1d_and__batch_norm_27/conv1d_90/Conv1D/ExpandDims/dim", "op": "Const", "attr": {"value": {"tensor": {"dtype": "DT_INT32", "tensorShape": {}}}, "dtype": {"type": "DT_INT32"}}}, {"name": "StatefulPartitionedCall/heavy_chain_align_airr/conv_residual_feature_extraction_block_6/conv1d_and__batch_norm_27/conv1d_90/Conv1D/ExpandDims_1", "op": "Const", "attr": {"dtype": {"type": "DT_FLOAT"}, "value": {"tensor": {"dtype": "DT_FLOAT", "tensorShape": {"dim": [{"size": "1"}, {"size": "3"}, {"size": "128"}, {"size": "128"}]}}}}}, {"name": "StatefulPartitionedCall/heavy_chain_align_airr/conv_residual_feature_extraction_block_6/conv1d_and__batch_norm_27/conv1d_90/BiasAdd/ReadVariableOp", "op": "Const", "attr": {"dtype": {"type": "DT_FLOAT"}, "value": {"tensor": {"dtype": "DT_FLOAT", "tensorShape": {"dim": [{"size": "128"}]}}}}}, {"name": "StatefulPartitionedCall/heavy_chain_align_airr/conv_residual_feature_extraction_block_6/conv1d_and__batch_norm_27/batch_normalization_27/batchnorm/mul", "op": "Const", "attr": {"value": {"tensor": {"dtype": "DT_FLOAT", "tensorShape": {"dim": [{"size": "128"}]}}}, "dtype": {"type": "DT_FLOAT"}}}, {"name": "StatefulPartitionedCall/heavy_chain_align_airr/conv_residual_feature_extraction_block_6/conv1d_and__batch_norm_27/batch_normalization_27/batchnorm/sub", "op": "Const", "attr": {"dtype": {"type": "DT_FLOAT"}, "value": {"tensor": {"dtype": "DT_FLOAT", "tensorShape": {"dim": [{"size": "128"}]}}}}}, {"name": "StatefulPartitionedCall/heavy_chain_align_airr/conv_residual_feature_extraction_block_6/conv1d_and__batch_norm_27/max_pooling1d_59/ExpandDims/dim", "op": "Const", "attr": {"value": {"tensor": {"dtype": "DT_INT32", "tensorShape": {}}}, "dtype": {"type": "DT_INT32"}}}, {"name": "StatefulPartitionedCall/heavy_chain_align_airr/conv_residual_feature_extraction_block_6/conv1d_and__batch_norm_26/conv1d_85/Conv1D/ExpandDims/dim", "op": "Const", "attr": {"dtype": {"type": "DT_INT32"}, "value": {"tensor": {"dtype": "DT_INT32", "tensorShape": {}}}}}, {"name": "StatefulPartitionedCall/heavy_chain_align_airr/conv_residual_feature_extraction_block_6/conv1d_and__batch_norm_26/conv1d_85/Conv1D/ExpandDims_1", "op": "Const", "attr": {"dtype": {"type": "DT_FLOAT"}, "value": {"tensor": {"dtype": "DT_FLOAT", "tensorShape": {"dim": [{"size": "1"}, {"size": "3"}, {"size": "32"}, {"size": "128"}]}}}}}, {"name": "StatefulPartitionedCall/heavy_chain_align_airr/conv_residual_feature_extraction_block_6/conv1d_and__batch_norm_26/conv1d_85/BiasAdd/ReadVariableOp", "op": "Const", "attr": {"value": {"tensor": {"dtype": "DT_FLOAT", "tensorShape": {"dim": [{"size": "128"}]}}}, "dtype": {"type": "DT_FLOAT"}}}, {"name": "StatefulPartitionedCall/heavy_chain_align_airr/conv_residual_feature_extraction_block_6/conv1d_and__batch_norm_26/conv1d_86/Conv1D/ExpandDims/dim", "op": "Const", "attr": {"value": {"tensor": {"dtype": "DT_INT32", "tensorShape": {}}}, "dtype": {"type": "DT_INT32"}}}, {"name": "StatefulPartitionedCall/heavy_chain_align_airr/conv_residual_feature_extraction_block_6/conv1d_and__batch_norm_26/conv1d_86/Conv1D/ExpandDims_1", "op": "Const", "attr": {"dtype": {"type": "DT_FLOAT"}, "value": {"tensor": {"dtype": "DT_FLOAT", "tensorShape": {"dim": [{"size": "1"}, {"size": "3"}, {"size": "128"}, {"size": "128"}]}}}}}, {"name": "StatefulPartitionedCall/heavy_chain_align_airr/conv_residual_feature_extraction_block_6/conv1d_and__batch_norm_26/conv1d_86/BiasAdd/ReadVariableOp", "op": "Const", "attr": {"dtype": {"type": "DT_FLOAT"}, "value": {"tensor": {"dtype": "DT_FLOAT", "tensorShape": {"dim": [{"size": "128"}]}}}}}, {"name": "StatefulPartitionedCall/heavy_chain_align_airr/conv_residual_feature_extraction_block_6/conv1d_and__batch_norm_26/conv1d_87/Conv1D/ExpandDims/dim", "op": "Const", "attr": {"dtype": {"type": "DT_INT32"}, "value": {"tensor": {"dtype": "DT_INT32", "tensorShape": {}}}}}, {"name": "StatefulPartitionedCall/heavy_chain_align_airr/conv_residual_feature_extraction_block_6/conv1d_and__batch_norm_26/conv1d_87/Conv1D/ExpandDims_1", "op": "Const", "attr": {"dtype": {"type": "DT_FLOAT"}, "value": {"tensor": {"dtype": "DT_FLOAT", "tensorShape": {"dim": [{"size": "1"}, {"size": "3"}, {"size": "128"}, {"size": "128"}]}}}}}, {"name": "StatefulPartitionedCall/heavy_chain_align_airr/conv_residual_feature_extraction_block_6/conv1d_and__batch_norm_26/conv1d_87/BiasAdd/ReadVariableOp", "op": "Const", "attr": {"dtype": {"type": "DT_FLOAT"}, "value": {"tensor": {"dtype": "DT_FLOAT", "tensorShape": {"dim": [{"size": "128"}]}}}}}, {"name": "StatefulPartitionedCall/heavy_chain_align_airr/conv_residual_feature_extraction_block_6/conv1d_and__batch_norm_26/batch_normalization_26/batchnorm/mul", "op": "Const", "attr": {"value": {"tensor": {"dtype": "DT_FLOAT", "tensorShape": {"dim": [{"size": "128"}]}}}, "dtype": {"type": "DT_FLOAT"}}}, {"name": "StatefulPartitionedCall/heavy_chain_align_airr/conv_residual_feature_extraction_block_6/conv1d_and__batch_norm_26/batch_normalization_26/batchnorm/sub", "op": "Const", "attr": {"dtype": {"type": "DT_FLOAT"}, "value": {"tensor": {"dtype": "DT_FLOAT", "tensorShape": {"dim": [{"size": "128"}]}}}}}, {"name": "StatefulPartitionedCall/heavy_chain_align_airr/conv_residual_feature_extraction_block_6/conv1d_and__batch_norm_26/max_pooling1d_58/ExpandDims/dim", "op": "Const", "attr": {"value": {"tensor": {"dtype": "DT_INT32", "tensorShape": {}}}, "dtype": {"type": "DT_INT32"}}}, {"name": "StatefulPartitionedCall/heavy_chain_align_airr/cutout_layer_2/Max/reduction_indices", "op": "Const", "attr": {"dtype": {"type": "DT_INT32"}, "value": {"tensor": {"dtype": "DT_INT32", "tensorShape": {}}}}}, {"name": "StatefulPartitionedCall/heavy_chain_align_airr/cutout_layer_2/clip_by_value/Minimum/y", "op": "Const", "attr": {"dtype": {"type": "DT_FLOAT"}, "value": {"tensor": {"dtype": "DT_FLOAT", "tensorShape": {}}}}}, {"name": "StatefulPartitionedCall/heavy_chain_align_airr/cutout_layer_2/clip_by_value/y", "op": "Const", "attr": {"value": {"tensor": {"dtype": "DT_FLOAT", "tensorShape": {}}}, "dtype": {"type": "DT_FLOAT"}}}, {"name": "unknown_201", "op": "Const", "attr": {"dtype": {"type": "DT_FLOAT"}, "value": {"tensor": {"dtype": "DT_FLOAT", "tensorShape": {"dim": [{"size": "576"}]}}}}}, {"name": "StatefulPartitionedCall/heavy_chain_align_airr/cutout_layer_2/Max_1/reduction_indices", "op": "Const", "attr": {"dtype": {"type": "DT_INT32"}, "value": {"tensor": {"dtype": "DT_INT32", "tensorShape": {}}}}}, {"name": "StatefulPartitionedCall/heavy_chain_align_airr/cutout_layer_2/clip_by_value_1/Minimum/y", "op": "Const", "attr": {"dtype": {"type": "DT_FLOAT"}, "value": {"tensor": {"dtype": "DT_FLOAT", "tensorShape": {}}}}}, {"name": "StatefulPartitionedCall/heavy_chain_align_airr/cutout_layer_2/clip_by_value_1/y", "op": "Const", "attr": {"value": {"tensor": {"dtype": "DT_FLOAT", "tensorShape": {}}}, "dtype": {"type": "DT_FLOAT"}}}, {"name": "StatefulPartitionedCall/heavy_chain_align_airr/reshape_2/strided_slice/stack", "op": "Const", "attr": {"value": {"tensor": {"dtype": "DT_INT32", "tensorShape": {"dim": [{"size": "1"}]}}}, "dtype": {"type": "DT_INT32"}}}, {"name": "StatefulPartitionedCall/heavy_chain_align_airr/reshape_2/strided_slice/stack_1", "op": "Const", "attr": {"value": {"tensor": {"dtype": "DT_INT32", "tensorShape": {"dim": [{"size": "1"}]}}}, "dtype": {"type": "DT_INT32"}}}, {"name": "StatefulPartitionedCall/heavy_chain_align_airr/reshape_2/strided_slice/stack_2", "op": "Const", "attr": {"value": {"tensor": {"dtype": "DT_INT32", "tensorShape": {"dim": [{"size": "1"}]}}}, "dtype": {"type": "DT_INT32"}}}, {"name": "StatefulPartitionedCall/heavy_chain_align_airr/reshape_2/Reshape/shape/1", "op": "Const", "attr": {"dtype": {"type": "DT_INT32"}, "value": {"tensor": {"dtype": "DT_INT32", "tensorShape": {}}}}}, {"name": "StatefulPartitionedCall/heavy_chain_align_airr/reshape_2/Reshape/shape/2", "op": "Const", "attr": {"dtype": {"type": "DT_INT32"}, "value": {"tensor": {"dtype": "DT_INT32", "tensorShape": {}}}}}, {"name": "StatefulPartitionedCall/heavy_chain_align_airr/conv_residual_feature_extraction_block_6/conv1d_84/Conv1D/ExpandDims/dim", "op": "Const", "attr": {"dtype": {"type": "DT_INT32"}, "value": {"tensor": {"dtype": "DT_INT32", "tensorShape": {}}}}}, {"name": "StatefulPartitionedCall/heavy_chain_align_airr/conv_residual_feature_extraction_block_6/conv1d_84/Conv1D/ExpandDims_1", "op": "Const", "attr": {"dtype": {"type": "DT_FLOAT"}, "value": {"tensor": {"dtype": "DT_FLOAT", "tensorShape": {"dim": [{"size": "1"}, {"size": "5"}, {"size": "32"}, {"size": "128"}]}}}}}, {"name": "StatefulPartitionedCall/heavy_chain_align_airr/conv_residual_feature_extraction_block_6/conv1d_84/BiasAdd/ReadVariableOp", "op": "Const", "attr": {"value": {"tensor": {"dtype": "DT_FLOAT", "tensorShape": {"dim": [{"size": "128"}]}}}, "dtype": {"type": "DT_FLOAT"}}}, {"name": "StatefulPartitionedCall/heavy_chain_align_airr/conv_residual_feature_extraction_block_6/max_pooling1d_52/ExpandDims/dim", "op": "Const", "attr": {"dtype": {"type": "DT_INT32"}, "value": {"tensor": {"dtype": "DT_INT32", "tensorShape": {}}}}}, {"name": "StatefulPartitionedCall/heavy_chain_align_airr/conv_residual_feature_extraction_block_6/max_pooling1d_52/ExpandDims_1/dim", "op": "Const", "attr": {"value": {"tensor": {"dtype": "DT_INT32", "tensorShape": {}}}, "dtype": {"type": "DT_INT32"}}}, {"name": "StatefulPartitionedCall/heavy_chain_align_airr/conv_residual_feature_extraction_block_6/max_pooling1d_53/ExpandDims/dim", "op": "Const", "attr": {"dtype": {"type": "DT_INT32"}, "value": {"tensor": {"dtype": "DT_INT32", "tensorShape": {}}}}}, {"name": "StatefulPartitionedCall/heavy_chain_align_airr/conv_residual_feature_extraction_block_6/max_pooling1d_54/ExpandDims/dim", "op": "Const", "attr": {"dtype": {"type": "DT_INT32"}, "value": {"tensor": {"dtype": "DT_INT32", "tensorShape": {}}}}}, {"name": "StatefulPartitionedCall/heavy_chain_align_airr/conv_residual_feature_extraction_block_6/max_pooling1d_55/ExpandDims/dim", "op": "Const", "attr": {"value": {"tensor": {"dtype": "DT_INT32", "tensorShape": {}}}, "dtype": {"type": "DT_INT32"}}}, {"name": "StatefulPartitionedCall/heavy_chain_align_airr/conv_residual_feature_extraction_block_6/max_pooling1d_56/ExpandDims/dim", "op": "Const", "attr": {"dtype": {"type": "DT_INT32"}, "value": {"tensor": {"dtype": "DT_INT32", "tensorShape": {}}}}}, {"name": "StatefulPartitionedCall/heavy_chain_align_airr/conv_residual_feature_extraction_block_6/max_pooling1d_57/ExpandDims/dim", "op": "Const", "attr": {"dtype": {"type": "DT_INT32"}, "value": {"tensor": {"dtype": "DT_INT32", "tensorShape": {}}}}}, {"name": "StatefulPartitionedCall/heavy_chain_align_airr/conv_residual_feature_extraction_block_6/flatten_6/Const", "op": "Const", "attr": {"value": {"tensor": {"dtype": "DT_INT32", "tensorShape": {"dim": [{"size": "2"}]}}}, "dtype": {"type": "DT_INT32"}}}, {"name": "StatefulPartitionedCall/heavy_chain_align_airr/conv_residual_feature_extraction_block_6/dense_6/MatMul/ReadVariableOp", "op": "Const", "attr": {"value": {"tensor": {"dtype": "DT_FLOAT", "tensorShape": {"dim": [{"size": "512"}, {"size": "576"}]}}}, "dtype": {"type": "DT_FLOAT"}}}, {"name": "StatefulPartitionedCall/heavy_chain_align_airr/conv_residual_feature_extraction_block_6/dense_6/BiasAdd/ReadVariableOp", "op": "Const", "attr": {"dtype": {"type": "DT_FLOAT"}, "value": {"tensor": {"dtype": "DT_FLOAT", "tensorShape": {"dim": [{"size": "576"}]}}}}}, {"name": "StatefulPartitionedCall/heavy_chain_align_airr/j_allele_middle/MatMul/ReadVariableOp", "op": "Const", "attr": {"dtype": {"type": "DT_FLOAT"}, "value": {"tensor": {"dtype": "DT_FLOAT", "tensorShape": {"dim": [{"size": "576"}, {"size": "14"}]}}}}}, {"name": "StatefulPartitionedCall/heavy_chain_align_airr/j_allele_middle/BiasAdd/ReadVariableOp", "op": "Const", "attr": {"dtype": {"type": "DT_FLOAT"}, "value": {"tensor": {"dtype": "DT_FLOAT", "tensorShape": {"dim": [{"size": "14"}]}}}}}, {"name": "StatefulPartitionedCall/heavy_chain_align_airr/j_allele/MatMul/ReadVariableOp", "op": "Const", "attr": {"value": {"tensor": {"dtype": "DT_FLOAT", "tensorShape": {"dim": [{"size": "14"}, {"size": "7"}]}}}, "dtype": {"type": "DT_FLOAT"}}}, {"name": "StatefulPartitionedCall/heavy_chain_align_airr/j_allele/BiasAdd/ReadVariableOp", "op": "Const", "attr": {"value": {"tensor": {"dtype": "DT_FLOAT", "tensorShape": {"dim": [{"size": "7"}]}}}, "dtype": {"type": "DT_FLOAT"}}}, {"name": "StatefulPartitionedCall/heavy_chain_align_airr/j_end/mul_2/x", "op": "Const", "attr": {"dtype": {"type": "DT_FLOAT"}, "value": {"tensor": {"dtype": "DT_FLOAT", "tensorShape": {}}}}}, {"name": "StatefulPartitionedCall/heavy_chain_align_airr/j_end/add_1/x", "op": "Const", "attr": {"dtype": {"type": "DT_FLOAT"}, "value": {"tensor": {"dtype": "DT_FLOAT", "tensorShape": {}}}}}, {"name": "StatefulPartitionedCall/heavy_chain_align_airr/j_end/Sqrt", "op": "Const", "attr": {"value": {"tensor": {"dtype": "DT_FLOAT", "tensorShape": {}}}, "dtype": {"type": "DT_FLOAT"}}}, {"name": "StatefulPartitionedCall/heavy_chain_align_airr/j_end/mul/x", "op": "Const", "attr": {"dtype": {"type": "DT_FLOAT"}, "value": {"tensor": {"dtype": "DT_FLOAT", "tensorShape": {}}}}}, {"name": "StatefulPartitionedCall/heavy_chain_align_airr/j_end/MatMul/ReadVariableOp", "op": "Const", "attr": {"value": {"tensor": {"dtype": "DT_FLOAT", "tensorShape": {"dim": [{"size": "576"}, {"size": "1"}]}}}, "dtype": {"type": "DT_FLOAT"}}}, {"name": "StatefulPartitionedCall/heavy_chain_align_airr/j_end/BiasAdd/ReadVariableOp", "op": "Const", "attr": {"dtype": {"type": "DT_FLOAT"}, "value": {"tensor": {"dtype": "DT_FLOAT", "tensorShape": {"dim": [{"size": "1"}]}}}}}, {"name": "StatefulPartitionedCall/heavy_chain_align_airr/j_end/Pow/y", "op": "Const", "attr": {"dtype": {"type": "DT_FLOAT"}, "value": {"tensor": {"dtype": "DT_FLOAT", "tensorShape": {}}}}}, {"name": "StatefulPartitionedCall/heavy_chain_align_airr/j_start/mul_2/x", "op": "Const", "attr": {"dtype": {"type": "DT_FLOAT"}, "value": {"tensor": {"dtype": "DT_FLOAT", "tensorShape": {}}}}}, {"name": "StatefulPartitionedCall/heavy_chain_align_airr/j_start/add_1/x", "op": "Const", "attr": {"dtype": {"type": "DT_FLOAT"}, "value": {"tensor": {"dtype": "DT_FLOAT", "tensorShape": {}}}}}, {"name": "StatefulPartitionedCall/heavy_chain_align_airr/j_start/Sqrt", "op": "Const", "attr": {"dtype": {"type": "DT_FLOAT"}, "value": {"tensor": {"dtype": "DT_FLOAT", "tensorShape": {}}}}}, {"name": "StatefulPartitionedCall/heavy_chain_align_airr/j_start/mul/x", "op": "Const", "attr": {"value": {"tensor": {"dtype": "DT_FLOAT", "tensorShape": {}}}, "dtype": {"type": "DT_FLOAT"}}}, {"name": "StatefulPartitionedCall/heavy_chain_align_airr/conv_residual_feature_extraction_block_3/conv1d_and__batch_norm_11/conv1d_36/Conv1D/ExpandDims/dim", "op": "Const", "attr": {"value": {"tensor": {"dtype": "DT_INT32", "tensorShape": {}}}, "dtype": {"type": "DT_INT32"}}}, {"name": "StatefulPartitionedCall/heavy_chain_align_airr/conv_residual_feature_extraction_block_3/conv1d_and__batch_norm_11/conv1d_36/Conv1D/ExpandDims_1", "op": "Const", "attr": {"dtype": {"type": "DT_FLOAT"}, "value": {"tensor": {"dtype": "DT_FLOAT", "tensorShape": {"dim": [{"size": "1"}, {"size": "2"}, {"size": "128"}, {"size": "128"}]}}}}}, {"name": "StatefulPartitionedCall/heavy_chain_align_airr/conv_residual_feature_extraction_block_3/conv1d_and__batch_norm_11/conv1d_36/BiasAdd/ReadVariableOp", "op": "Const", "attr": {"value": {"tensor": {"dtype": "DT_FLOAT", "tensorShape": {"dim": [{"size": "128"}]}}}, "dtype": {"type": "DT_FLOAT"}}}, {"name": "StatefulPartitionedCall/heavy_chain_align_airr/conv_residual_feature_extraction_block_3/conv1d_and__batch_norm_11/conv1d_37/Conv1D/ExpandDims/dim", "op": "Const", "attr": {"value": {"tensor": {"dtype": "DT_INT32", "tensorShape": {}}}, "dtype": {"type": "DT_INT32"}}}, {"name": "StatefulPartitionedCall/heavy_chain_align_airr/conv_residual_feature_extraction_block_3/conv1d_and__batch_norm_11/conv1d_37/Conv1D/ExpandDims_1", "op": "Const", "attr": {"value": {"tensor": {"dtype": "DT_FLOAT", "tensorShape": {"dim": [{"size": "1"}, {"size": "2"}, {"size": "128"}, {"size": "128"}]}}}, "dtype": {"type": "DT_FLOAT"}}}, {"name": "StatefulPartitionedCall/heavy_chain_align_airr/conv_residual_feature_extraction_block_3/conv1d_and__batch_norm_11/conv1d_37/BiasAdd/ReadVariableOp", "op": "Const", "attr": {"dtype": {"type": "DT_FLOAT"}, "value": {"tensor": {"dtype": "DT_FLOAT", "tensorShape": {"dim": [{"size": "128"}]}}}}}, {"name": "StatefulPartitionedCall/heavy_chain_align_airr/conv_residual_feature_extraction_block_3/conv1d_and__batch_norm_11/conv1d_38/Conv1D/ExpandDims/dim", "op": "Const", "attr": {"dtype": {"type": "DT_INT32"}, "value": {"tensor": {"dtype": "DT_INT32", "tensorShape": {}}}}}, {"name": "StatefulPartitionedCall/heavy_chain_align_airr/conv_residual_feature_extraction_block_3/conv1d_and__batch_norm_11/conv1d_38/Conv1D/ExpandDims_1", "op": "Const", "attr": {"dtype": {"type": "DT_FLOAT"}, "value": {"tensor": {"dtype": "DT_FLOAT", "tensorShape": {"dim": [{"size": "1"}, {"size": "2"}, {"size": "128"}, {"size": "128"}]}}}}}, {"name": "StatefulPartitionedCall/heavy_chain_align_airr/conv_residual_feature_extraction_block_3/conv1d_and__batch_norm_11/conv1d_38/BiasAdd/ReadVariableOp", "op": "Const", "attr": {"dtype": {"type": "DT_FLOAT"}, "value": {"tensor": {"dtype": "DT_FLOAT", "tensorShape": {"dim": [{"size": "128"}]}}}}}, {"name": "StatefulPartitionedCall/heavy_chain_align_airr/conv_residual_feature_extraction_block_3/conv1d_and__batch_norm_11/batch_normalization_11/batchnorm/mul", "op": "Const", "attr": {"dtype": {"type": "DT_FLOAT"}, "value": {"tensor": {"dtype": "DT_FLOAT", "tensorShape": {"dim": [{"size": "128"}]}}}}}, {"name": "StatefulPartitionedCall/heavy_chain_align_airr/conv_residual_feature_extraction_block_3/conv1d_and__batch_norm_11/batch_normalization_11/batchnorm/sub", "op": "Const", "attr": {"dtype": {"type": "DT_FLOAT"}, "value": {"tensor": {"dtype": "DT_FLOAT", "tensorShape": {"dim": [{"size": "128"}]}}}}}, {"name": "StatefulPartitionedCall/heavy_chain_align_airr/conv_residual_feature_extraction_block_3/conv1d_and__batch_norm_11/max_pooling1d_23/ExpandDims/dim", "op": "Const", "attr": {"value": {"tensor": {"dtype": "DT_INT32", "tensorShape": {}}}, "dtype": {"type": "DT_INT32"}}}, {"name": "StatefulPartitionedCall/heavy_chain_align_airr/conv_residual_feature_extraction_block_3/conv1d_and__batch_norm_10/conv1d_33/Conv1D/ExpandDims/dim", "op": "Const", "attr": {"dtype": {"type": "DT_INT32"}, "value": {"tensor": {"dtype": "DT_INT32", "tensorShape": {}}}}}, {"name": "StatefulPartitionedCall/heavy_chain_align_airr/conv_residual_feature_extraction_block_3/conv1d_and__batch_norm_10/conv1d_33/Conv1D/ExpandDims_1", "op": "Const", "attr": {"value": {"tensor": {"dtype": "DT_FLOAT", "tensorShape": {"dim": [{"size": "1"}, {"size": "3"}, {"size": "128"}, {"size": "128"}]}}}, "dtype": {"type": "DT_FLOAT"}}}, {"name": "StatefulPartitionedCall/heavy_chain_align_airr/conv_residual_feature_extraction_block_3/conv1d_and__batch_norm_10/conv1d_33/BiasAdd/ReadVariableOp", "op": "Const", "attr": {"dtype": {"type": "DT_FLOAT"}, "value": {"tensor": {"dtype": "DT_FLOAT", "tensorShape": {"dim": [{"size": "128"}]}}}}}, {"name": "StatefulPartitionedCall/heavy_chain_align_airr/conv_residual_feature_extraction_block_3/conv1d_and__batch_norm_10/conv1d_34/Conv1D/ExpandDims/dim", "op": "Const", "attr": {"dtype": {"type": "DT_INT32"}, "value": {"tensor": {"dtype": "DT_INT32", "tensorShape": {}}}}}, {"name": "StatefulPartitionedCall/heavy_chain_align_airr/conv_residual_feature_extraction_block_3/conv1d_and__batch_norm_10/conv1d_34/Conv1D/ExpandDims_1", "op": "Const", "attr": {"value": {"tensor": {"dtype": "DT_FLOAT", "tensorShape": {"dim": [{"size": "1"}, {"size": "3"}, {"size": "128"}, {"size": "128"}]}}}, "dtype": {"type": "DT_FLOAT"}}}, {"name": "StatefulPartitionedCall/heavy_chain_align_airr/conv_residual_feature_extraction_block_3/conv1d_and__batch_norm_10/conv1d_34/BiasAdd/ReadVariableOp", "op": "Const", "attr": {"value": {"tensor": {"dtype": "DT_FLOAT", "tensorShape": {"dim": [{"size": "128"}]}}}, "dtype": {"type": "DT_FLOAT"}}}, {"name": "StatefulPartitionedCall/heavy_chain_align_airr/conv_residual_feature_extraction_block_3/conv1d_and__batch_norm_10/conv1d_35/Conv1D/ExpandDims/dim", "op": "Const", "attr": {"value": {"tensor": {"dtype": "DT_INT32", "tensorShape": {}}}, "dtype": {"type": "DT_INT32"}}}, {"name": "StatefulPartitionedCall/heavy_chain_align_airr/conv_residual_feature_extraction_block_3/conv1d_and__batch_norm_10/conv1d_35/Conv1D/ExpandDims_1", "op": "Const", "attr": {"value": {"tensor": {"dtype": "DT_FLOAT", "tensorShape": {"dim": [{"size": "1"}, {"size": "3"}, {"size": "128"}, {"size": "128"}]}}}, "dtype": {"type": "DT_FLOAT"}}}, {"name": "StatefulPartitionedCall/heavy_chain_align_airr/conv_residual_feature_extraction_block_3/conv1d_and__batch_norm_10/conv1d_35/BiasAdd/ReadVariableOp", "op": "Const", "attr": {"value": {"tensor": {"dtype": "DT_FLOAT", "tensorShape": {"dim": [{"size": "128"}]}}}, "dtype": {"type": "DT_FLOAT"}}}, {"name": "StatefulPartitionedCall/heavy_chain_align_airr/conv_residual_feature_extraction_block_3/conv1d_and__batch_norm_10/batch_normalization_10/batchnorm/mul", "op": "Const", "attr": {"value": {"tensor": {"dtype": "DT_FLOAT", "tensorShape": {"dim": [{"size": "128"}]}}}, "dtype": {"type": "DT_FLOAT"}}}, {"name": "StatefulPartitionedCall/heavy_chain_align_airr/conv_residual_feature_extraction_block_3/conv1d_and__batch_norm_10/batch_normalization_10/batchnorm/sub", "op": "Const", "attr": {"dtype": {"type": "DT_FLOAT"}, "value": {"tensor": {"dtype": "DT_FLOAT", "tensorShape": {"dim": [{"size": "128"}]}}}}}, {"name": "StatefulPartitionedCall/heavy_chain_align_airr/conv_residual_feature_extraction_block_3/conv1d_and__batch_norm_10/max_pooling1d_22/ExpandDims/dim", "op": "Const", "attr": {"dtype": {"type": "DT_INT32"}, "value": {"tensor": {"dtype": "DT_INT32", "tensorShape": {}}}}}, {"name": "StatefulPartitionedCall/heavy_chain_align_airr/conv_residual_feature_extraction_block_3/conv1d_and__batch_norm_9/conv1d_30/Conv1D/ExpandDims/dim", "op": "Const", "attr": {"value": {"tensor": {"dtype": "DT_INT32", "tensorShape": {}}}, "dtype": {"type": "DT_INT32"}}}, {"name": "StatefulPartitionedCall/heavy_chain_align_airr/conv_residual_feature_extraction_block_3/conv1d_and__batch_norm_9/conv1d_30/Conv1D/ExpandDims_1", "op": "Const", "attr": {"value": {"tensor": {"dtype": "DT_FLOAT", "tensorShape": {"dim": [{"size": "1"}, {"size": "3"}, {"size": "128"}, {"size": "128"}]}}}, "dtype": {"type": "DT_FLOAT"}}}, {"name": "StatefulPartitionedCall/heavy_chain_align_airr/conv_residual_feature_extraction_block_3/conv1d_and__batch_norm_9/conv1d_30/BiasAdd/ReadVariableOp", "op": "Const", "attr": {"dtype": {"type": "DT_FLOAT"}, "value": {"tensor": {"dtype": "DT_FLOAT", "tensorShape": {"dim": [{"size": "128"}]}}}}}, {"name": "StatefulPartitionedCall/heavy_chain_align_airr/conv_residual_feature_extraction_block_3/conv1d_and__batch_norm_9/conv1d_31/Conv1D/ExpandDims/dim", "op": "Const", "attr": {"value": {"tensor": {"dtype": "DT_INT32", "tensorShape": {}}}, "dtype": {"type": "DT_INT32"}}}, {"name": "StatefulPartitionedCall/heavy_chain_align_airr/conv_residual_feature_extraction_block_3/conv1d_and__batch_norm_9/conv1d_31/Conv1D/ExpandDims_1", "op": "Const", "attr": {"dtype": {"type": "DT_FLOAT"}, "value": {"tensor": {"dtype": "DT_FLOAT", "tensorShape": {"dim": [{"size": "1"}, {"size": "3"}, {"size": "128"}, {"size": "128"}]}}}}}, {"name": "StatefulPartitionedCall/heavy_chain_align_airr/conv_residual_feature_extraction_block_3/conv1d_and__batch_norm_9/conv1d_31/BiasAdd/ReadVariableOp", "op": "Const", "attr": {"dtype": {"type": "DT_FLOAT"}, "value": {"tensor": {"dtype": "DT_FLOAT", "tensorShape": {"dim": [{"size": "128"}]}}}}}, {"name": "StatefulPartitionedCall/heavy_chain_align_airr/conv_residual_feature_extraction_block_3/conv1d_and__batch_norm_9/conv1d_32/Conv1D/ExpandDims/dim", "op": "Const", "attr": {"dtype": {"type": "DT_INT32"}, "value": {"tensor": {"dtype": "DT_INT32", "tensorShape": {}}}}}, {"name": "StatefulPartitionedCall/heavy_chain_align_airr/conv_residual_feature_extraction_block_3/conv1d_and__batch_norm_9/conv1d_32/Conv1D/ExpandDims_1", "op": "Const", "attr": {"dtype": {"type": "DT_FLOAT"}, "value": {"tensor": {"dtype": "DT_FLOAT", "tensorShape": {"dim": [{"size": "1"}, {"size": "3"}, {"size": "128"}, {"size": "128"}]}}}}}, {"name": "StatefulPartitionedCall/heavy_chain_align_airr/conv_residual_feature_extraction_block_3/conv1d_and__batch_norm_9/conv1d_32/BiasAdd/ReadVariableOp", "op": "Const", "attr": {"value": {"tensor": {"dtype": "DT_FLOAT", "tensorShape": {"dim": [{"size": "128"}]}}}, "dtype": {"type": "DT_FLOAT"}}}, {"name": "StatefulPartitionedCall/heavy_chain_align_airr/conv_residual_feature_extraction_block_3/conv1d_and__batch_norm_9/batch_normalization_9/batchnorm/mul", "op": "Const", "attr": {"dtype": {"type": "DT_FLOAT"}, "value": {"tensor": {"dtype": "DT_FLOAT", "tensorShape": {"dim": [{"size": "128"}]}}}}}, {"name": "StatefulPartitionedCall/heavy_chain_align_airr/conv_residual_feature_extraction_block_3/conv1d_and__batch_norm_9/batch_normalization_9/batchnorm/sub", "op": "Const", "attr": {"dtype": {"type": "DT_FLOAT"}, "value": {"tensor": {"dtype": "DT_FLOAT", "tensorShape": {"dim": [{"size": "128"}]}}}}}, {"name": "StatefulPartitionedCall/heavy_chain_align_airr/conv_residual_feature_extraction_block_3/conv1d_and__batch_norm_9/max_pooling1d_21/ExpandDims/dim", "op": "Const", "attr": {"value": {"tensor": {"dtype": "DT_INT32", "tensorShape": {}}}, "dtype": {"type": "DT_INT32"}}}, {"name": "StatefulPartitionedCall/heavy_chain_align_airr/conv_residual_feature_extraction_block_3/conv1d_and__batch_norm_8/conv1d_27/Conv1D/ExpandDims/dim", "op": "Const", "attr": {"dtype": {"type": "DT_INT32"}, "value": {"tensor": {"dtype": "DT_INT32", "tensorShape": {}}}}}, {"name": "StatefulPartitionedCall/heavy_chain_align_airr/conv_residual_feature_extraction_block_3/conv1d_and__batch_norm_8/conv1d_27/Conv1D/ExpandDims_1", "op": "Const", "attr": {"value": {"tensor": {"dtype": "DT_FLOAT", "tensorShape": {"dim": [{"size": "1"}, {"size": "3"}, {"size": "32"}, {"size": "128"}]}}}, "dtype": {"type": "DT_FLOAT"}}}, {"name": "StatefulPartitionedCall/heavy_chain_align_airr/conv_residual_feature_extraction_block_3/conv1d_and__batch_norm_8/conv1d_27/BiasAdd/ReadVariableOp", "op": "Const", "attr": {"dtype": {"type": "DT_FLOAT"}, "value": {"tensor": {"dtype": "DT_FLOAT", "tensorShape": {"dim": [{"size": "128"}]}}}}}, {"name": "StatefulPartitionedCall/heavy_chain_align_airr/conv_residual_feature_extraction_block_3/conv1d_and__batch_norm_8/conv1d_28/Conv1D/ExpandDims/dim", "op": "Const", "attr": {"value": {"tensor": {"dtype": "DT_INT32", "tensorShape": {}}}, "dtype": {"type": "DT_INT32"}}}, {"name": "StatefulPartitionedCall/heavy_chain_align_airr/conv_residual_feature_extraction_block_3/conv1d_and__batch_norm_8/conv1d_28/Conv1D/ExpandDims_1", "op": "Const", "attr": {"value": {"tensor": {"dtype": "DT_FLOAT", "tensorShape": {"dim": [{"size": "1"}, {"size": "3"}, {"size": "128"}, {"size": "128"}]}}}, "dtype": {"type": "DT_FLOAT"}}}, {"name": "StatefulPartitionedCall/heavy_chain_align_airr/conv_residual_feature_extraction_block_3/conv1d_and__batch_norm_8/conv1d_28/BiasAdd/ReadVariableOp", "op": "Const", "attr": {"value": {"tensor": {"dtype": "DT_FLOAT", "tensorShape": {"dim": [{"size": "128"}]}}}, "dtype": {"type": "DT_FLOAT"}}}, {"name": "StatefulPartitionedCall/heavy_chain_align_airr/conv_residual_feature_extraction_block_3/conv1d_and__batch_norm_8/conv1d_29/Conv1D/ExpandDims/dim", "op": "Const", "attr": {"dtype": {"type": "DT_INT32"}, "value": {"tensor": {"dtype": "DT_INT32", "tensorShape": {}}}}}, {"name": "StatefulPartitionedCall/heavy_chain_align_airr/conv_residual_feature_extraction_block_3/conv1d_and__batch_norm_8/conv1d_29/Conv1D/ExpandDims_1", "op": "Const", "attr": {"dtype": {"type": "DT_FLOAT"}, "value": {"tensor": {"dtype": "DT_FLOAT", "tensorShape": {"dim": [{"size": "1"}, {"size": "3"}, {"size": "128"}, {"size": "128"}]}}}}}, {"name": "StatefulPartitionedCall/heavy_chain_align_airr/conv_residual_feature_extraction_block_3/conv1d_and__batch_norm_8/conv1d_29/BiasAdd/ReadVariableOp", "op": "Const", "attr": {"value": {"tensor": {"dtype": "DT_FLOAT", "tensorShape": {"dim": [{"size": "128"}]}}}, "dtype": {"type": "DT_FLOAT"}}}, {"name": "StatefulPartitionedCall/heavy_chain_align_airr/conv_residual_feature_extraction_block_3/conv1d_and__batch_norm_8/batch_normalization_8/batchnorm/mul", "op": "Const", "attr": {"value": {"tensor": {"dtype": "DT_FLOAT", "tensorShape": {"dim": [{"size": "128"}]}}}, "dtype": {"type": "DT_FLOAT"}}}, {"name": "StatefulPartitionedCall/heavy_chain_align_airr/conv_residual_feature_extraction_block_3/conv1d_and__batch_norm_8/batch_normalization_8/batchnorm/sub", "op": "Const", "attr": {"dtype": {"type": "DT_FLOAT"}, "value": {"tensor": {"dtype": "DT_FLOAT", "tensorShape": {"dim": [{"size": "128"}]}}}}}, {"name": "StatefulPartitionedCall/heavy_chain_align_airr/conv_residual_feature_extraction_block_3/conv1d_and__batch_norm_8/max_pooling1d_20/ExpandDims/dim", "op": "Const", "attr": {"value": {"tensor": {"dtype": "DT_INT32", "tensorShape": {}}}, "dtype": {"type": "DT_INT32"}}}, {"name": "StatefulPartitionedCall/heavy_chain_align_airr/conv_residual_feature_extraction_block_3/conv1d_26/Conv1D/ExpandDims/dim", "op": "Const", "attr": {"dtype": {"type": "DT_INT32"}, "value": {"tensor": {"dtype": "DT_INT32", "tensorShape": {}}}}}, {"name": "StatefulPartitionedCall/heavy_chain_align_airr/conv_residual_feature_extraction_block_3/conv1d_26/Conv1D/ExpandDims_1", "op": "Const", "attr": {"dtype": {"type": "DT_FLOAT"}, "value": {"tensor": {"dtype": "DT_FLOAT", "tensorShape": {"dim": [{"size": "1"}, {"size": "5"}, {"size": "32"}, {"size": "128"}]}}}}}, {"name": "StatefulPartitionedCall/heavy_chain_align_airr/conv_residual_feature_extraction_block_3/conv1d_26/BiasAdd/ReadVariableOp", "op": "Const", "attr": {"value": {"tensor": {"dtype": "DT_FLOAT", "tensorShape": {"dim": [{"size": "128"}]}}}, "dtype": {"type": "DT_FLOAT"}}}, {"name": "StatefulPartitionedCall/heavy_chain_align_airr/conv_residual_feature_extraction_block_3/max_pooling1d_16/ExpandDims/dim", "op": "Const", "attr": {"value": {"tensor": {"dtype": "DT_INT32", "tensorShape": {}}}, "dtype": {"type": "DT_INT32"}}}, {"name": "StatefulPartitionedCall/heavy_chain_align_airr/conv_residual_feature_extraction_block_3/max_pooling1d_16/ExpandDims_1/dim", "op": "Const", "attr": {"value": {"tensor": {"dtype": "DT_INT32", "tensorShape": {}}}, "dtype": {"type": "DT_INT32"}}}, {"name": "StatefulPartitionedCall/heavy_chain_align_airr/conv_residual_feature_extraction_block_3/max_pooling1d_17/ExpandDims/dim", "op": "Const", "attr": {"value": {"tensor": {"dtype": "DT_INT32", "tensorShape": {}}}, "dtype": {"type": "DT_INT32"}}}, {"name": "StatefulPartitionedCall/heavy_chain_align_airr/conv_residual_feature_extraction_block_3/max_pooling1d_18/ExpandDims/dim", "op": "Const", "attr": {"dtype": {"type": "DT_INT32"}, "value": {"tensor": {"dtype": "DT_INT32", "tensorShape": {}}}}}, {"name": "StatefulPartitionedCall/heavy_chain_align_airr/conv_residual_feature_extraction_block_3/max_pooling1d_19/ExpandDims/dim", "op": "Const", "attr": {"dtype": {"type": "DT_INT32"}, "value": {"tensor": {"dtype": "DT_INT32", "tensorShape": {}}}}}, {"name": "StatefulPartitionedCall/heavy_chain_align_airr/conv_residual_feature_extraction_block_3/flatten_2/Const", "op": "Const", "attr": {"dtype": {"type": "DT_INT32"}, "value": {"tensor": {"dtype": "DT_INT32", "tensorShape": {"dim": [{"size": "2"}]}}}}}, {"name": "StatefulPartitionedCall/heavy_chain_align_airr/conv_residual_feature_extraction_block_3/dense_2/MatMul/ReadVariableOp", "op": "Const", "attr": {"dtype": {"type": "DT_FLOAT"}, "value": {"tensor": {"dtype": "DT_FLOAT", "tensorShape": {"dim": [{"size": "2304"}, {"size": "576"}]}}}}}, {"name": "StatefulPartitionedCall/heavy_chain_align_airr/conv_residual_feature_extraction_block_3/dense_2/BiasAdd/ReadVariableOp", "op": "Const", "attr": {"value": {"tensor": {"dtype": "DT_FLOAT", "tensorShape": {"dim": [{"size": "576"}]}}}, "dtype": {"type": "DT_FLOAT"}}}, {"name": "StatefulPartitionedCall/heavy_chain_align_airr/j_start/MatMul/ReadVariableOp", "op": "Const", "attr": {"dtype": {"type": "DT_FLOAT"}, "value": {"tensor": {"dtype": "DT_FLOAT", "tensorShape": {"dim": [{"size": "576"}, {"size": "1"}]}}}}}, {"name": "StatefulPartitionedCall/heavy_chain_align_airr/j_start/BiasAdd/ReadVariableOp", "op": "Const", "attr": {"value": {"tensor": {"dtype": "DT_FLOAT", "tensorShape": {"dim": [{"size": "1"}]}}}, "dtype": {"type": "DT_FLOAT"}}}, {"name": "StatefulPartitionedCall/heavy_chain_align_airr/j_start/Pow/y", "op": "Const", "attr": {"dtype": {"type": "DT_FLOAT"}, "value": {"tensor": {"dtype": "DT_FLOAT", "tensorShape": {}}}}}, {"name": "StatefulPartitionedCall/heavy_chain_align_airr/mutation_rate_mid/mul_2/x", "op": "Const", "attr": {"value": {"tensor": {"dtype": "DT_FLOAT", "tensorShape": {}}}, "dtype": {"type": "DT_FLOAT"}}}, {"name": "StatefulPartitionedCall/heavy_chain_align_airr/mutation_rate_mid/add_1/x", "op": "Const", "attr": {"value": {"tensor": {"dtype": "DT_FLOAT", "tensorShape": {}}}, "dtype": {"type": "DT_FLOAT"}}}, {"name": "StatefulPartitionedCall/heavy_chain_align_airr/mutation_rate_mid/Sqrt", "op": "Const", "attr": {"value": {"tensor": {"dtype": "DT_FLOAT", "tensorShape": {}}}, "dtype": {"type": "DT_FLOAT"}}}, {"name": "StatefulPartitionedCall/heavy_chain_align_airr/mutation_rate_mid/mul/x", "op": "Const", "attr": {"dtype": {"type": "DT_FLOAT"}, "value": {"tensor": {"dtype": "DT_FLOAT", "tensorShape": {}}}}}, {"name": "StatefulPartitionedCall/heavy_chain_align_airr/mutation_rate_mid/MatMul/ReadVariableOp", "op": "Const", "attr": {"dtype": {"type": "DT_FLOAT"}, "value": {"tensor": {"dtype": "DT_FLOAT", "tensorShape": {"dim": [{"size": "576"}, {"size": "576"}]}}}}}, {"name": "StatefulPartitionedCall/heavy_chain_align_airr/mutation_rate_mid/BiasAdd/ReadVariableOp", "op": "Const", "attr": {"dtype": {"type": "DT_FLOAT"}, "value": {"tensor": {"dtype": "DT_FLOAT", "tensorShape": {"dim": [{"size": "576"}]}}}}}, {"name": "StatefulPartitionedCall/heavy_chain_align_airr/mutation_rate_mid/Pow/y", "op": "Const", "attr": {"dtype": {"type": "DT_FLOAT"}, "value": {"tensor": {"dtype": "DT_FLOAT", "tensorShape": {}}}}}, {"name": "StatefulPartitionedCall/heavy_chain_align_airr/mutation_rate/MatMul/ReadVariableOp", "op": "Const", "attr": {"value": {"tensor": {"dtype": "DT_FLOAT", "tensorShape": {"dim": [{"size": "576"}, {"size": "1"}]}}}, "dtype": {"type": "DT_FLOAT"}}}, {"name": "StatefulPartitionedCall/heavy_chain_align_airr/mutation_rate/BiasAdd/ReadVariableOp", "op": "Const", "attr": {"value": {"tensor": {"dtype": "DT_FLOAT", "tensorShape": {"dim": [{"size": "1"}]}}}, "dtype": {"type": "DT_FLOAT"}}}, {"name": "StatefulPartitionedCall/heavy_chain_align_airr/conv_residual_feature_extraction_block/conv1d_and__batch_norm_3/conv1d_10/Conv1D/ExpandDims/dim", "op": "Const", "attr": {"value": {"tensor": {"dtype": "DT_INT32", "tensorShape": {}}}, "dtype": {"type": "DT_INT32"}}}, {"name": "StatefulPartitionedCall/heavy_chain_align_airr/conv_residual_feature_extraction_block/conv1d_and__batch_norm_3/conv1d_10/Conv1D/ExpandDims_1", "op": "Const", "attr": {"dtype": {"type": "DT_FLOAT"}, "value": {"tensor": {"dtype": "DT_FLOAT", "tensorShape": {"dim": [{"size": "1"}, {"size": "2"}, {"size": "128"}, {"size": "128"}]}}}}}, {"name": "StatefulPartitionedCall/heavy_chain_align_airr/conv_residual_feature_extraction_block/conv1d_and__batch_norm_3/conv1d_10/BiasAdd/ReadVariableOp", "op": "Const", "attr": {"dtype": {"type": "DT_FLOAT"}, "value": {"tensor": {"dtype": "DT_FLOAT", "tensorShape": {"dim": [{"size": "128"}]}}}}}, {"name": "StatefulPartitionedCall/heavy_chain_align_airr/conv_residual_feature_extraction_block/conv1d_and__batch_norm_3/conv1d_11/Conv1D/ExpandDims/dim", "op": "Const", "attr": {"value": {"tensor": {"dtype": "DT_INT32", "tensorShape": {}}}, "dtype": {"type": "DT_INT32"}}}, {"name": "StatefulPartitionedCall/heavy_chain_align_airr/conv_residual_feature_extraction_block/conv1d_and__batch_norm_3/conv1d_11/Conv1D/ExpandDims_1", "op": "Const", "attr": {"value": {"tensor": {"dtype": "DT_FLOAT", "tensorShape": {"dim": [{"size": "1"}, {"size": "2"}, {"size": "128"}, {"size": "128"}]}}}, "dtype": {"type": "DT_FLOAT"}}}, {"name": "StatefulPartitionedCall/heavy_chain_align_airr/conv_residual_feature_extraction_block/conv1d_and__batch_norm_3/conv1d_11/BiasAdd/ReadVariableOp", "op": "Const", "attr": {"value": {"tensor": {"dtype": "DT_FLOAT", "tensorShape": {"dim": [{"size": "128"}]}}}, "dtype": {"type": "DT_FLOAT"}}}, {"name": "StatefulPartitionedCall/heavy_chain_align_airr/conv_residual_feature_extraction_block/conv1d_and__batch_norm_3/conv1d_12/Conv1D/ExpandDims/dim", "op": "Const", "attr": {"dtype": {"type": "DT_INT32"}, "value": {"tensor": {"dtype": "DT_INT32", "tensorShape": {}}}}}, {"name": "StatefulPartitionedCall/heavy_chain_align_airr/conv_residual_feature_extraction_block/conv1d_and__batch_norm_3/conv1d_12/Conv1D/ExpandDims_1", "op": "Const", "attr": {"dtype": {"type": "DT_FLOAT"}, "value": {"tensor": {"dtype": "DT_FLOAT", "tensorShape": {"dim": [{"size": "1"}, {"size": "2"}, {"size": "128"}, {"size": "128"}]}}}}}, {"name": "StatefulPartitionedCall/heavy_chain_align_airr/conv_residual_feature_extraction_block/conv1d_and__batch_norm_3/conv1d_12/BiasAdd/ReadVariableOp", "op": "Const", "attr": {"dtype": {"type": "DT_FLOAT"}, "value": {"tensor": {"dtype": "DT_FLOAT", "tensorShape": {"dim": [{"size": "128"}]}}}}}, {"name": "StatefulPartitionedCall/heavy_chain_align_airr/conv_residual_feature_extraction_block/conv1d_and__batch_norm_3/batch_normalization_3/batchnorm/mul", "op": "Const", "attr": {"dtype": {"type": "DT_FLOAT"}, "value": {"tensor": {"dtype": "DT_FLOAT", "tensorShape": {"dim": [{"size": "128"}]}}}}}, {"name": "StatefulPartitionedCall/heavy_chain_align_airr/conv_residual_feature_extraction_block/conv1d_and__batch_norm_3/batch_normalization_3/batchnorm/sub", "op": "Const", "attr": {"value": {"tensor": {"dtype": "DT_FLOAT", "tensorShape": {"dim": [{"size": "128"}]}}}, "dtype": {"type": "DT_FLOAT"}}}, {"name": "StatefulPartitionedCall/heavy_chain_align_airr/conv_residual_feature_extraction_block/conv1d_and__batch_norm_3/max_pooling1d_7/ExpandDims/dim", "op": "Const", "attr": {"dtype": {"type": "DT_INT32"}, "value": {"tensor": {"dtype": "DT_INT32", "tensorShape": {}}}}}, {"name": "StatefulPartitionedCall/heavy_chain_align_airr/conv_residual_feature_extraction_block/conv1d_and__batch_norm_2/conv1d_7/Conv1D/ExpandDims/dim", "op": "Const", "attr": {"dtype": {"type": "DT_INT32"}, "value": {"tensor": {"dtype": "DT_INT32", "tensorShape": {}}}}}, {"name": "StatefulPartitionedCall/heavy_chain_align_airr/conv_residual_feature_extraction_block/conv1d_and__batch_norm_2/conv1d_7/Conv1D/ExpandDims_1", "op": "Const", "attr": {"dtype": {"type": "DT_FLOAT"}, "value": {"tensor": {"dtype": "DT_FLOAT", "tensorShape": {"dim": [{"size": "1"}, {"size": "3"}, {"size": "128"}, {"size": "128"}]}}}}}, {"name": "StatefulPartitionedCall/heavy_chain_align_airr/conv_residual_feature_extraction_block/conv1d_and__batch_norm_2/conv1d_7/BiasAdd/ReadVariableOp", "op": "Const", "attr": {"value": {"tensor": {"dtype": "DT_FLOAT", "tensorShape": {"dim": [{"size": "128"}]}}}, "dtype": {"type": "DT_FLOAT"}}}, {"name": "StatefulPartitionedCall/heavy_chain_align_airr/conv_residual_feature_extraction_block/conv1d_and__batch_norm_2/conv1d_8/Conv1D/ExpandDims/dim", "op": "Const", "attr": {"value": {"tensor": {"dtype": "DT_INT32", "tensorShape": {}}}, "dtype": {"type": "DT_INT32"}}}, {"name": "StatefulPartitionedCall/heavy_chain_align_airr/conv_residual_feature_extraction_block/conv1d_and__batch_norm_2/conv1d_8/Conv1D/ExpandDims_1", "op": "Const", "attr": {"value": {"tensor": {"dtype": "DT_FLOAT", "tensorShape": {"dim": [{"size": "1"}, {"size": "3"}, {"size": "128"}, {"size": "128"}]}}}, "dtype": {"type": "DT_FLOAT"}}}, {"name": "StatefulPartitionedCall/heavy_chain_align_airr/conv_residual_feature_extraction_block/conv1d_and__batch_norm_2/conv1d_8/BiasAdd/ReadVariableOp", "op": "Const", "attr": {"value": {"tensor": {"dtype": "DT_FLOAT", "tensorShape": {"dim": [{"size": "128"}]}}}, "dtype": {"type": "DT_FLOAT"}}}, {"name": "StatefulPartitionedCall/heavy_chain_align_airr/conv_residual_feature_extraction_block/conv1d_and__batch_norm_2/conv1d_9/Conv1D/ExpandDims/dim", "op": "Const", "attr": {"value": {"tensor": {"dtype": "DT_INT32", "tensorShape": {}}}, "dtype": {"type": "DT_INT32"}}}, {"name": "StatefulPartitionedCall/heavy_chain_align_airr/conv_residual_feature_extraction_block/conv1d_and__batch_norm_2/conv1d_9/Conv1D/ExpandDims_1", "op": "Const", "attr": {"dtype": {"type": "DT_FLOAT"}, "value": {"tensor": {"dtype": "DT_FLOAT", "tensorShape": {"dim": [{"size": "1"}, {"size": "3"}, {"size": "128"}, {"size": "128"}]}}}}}, {"name": "StatefulPartitionedCall/heavy_chain_align_airr/conv_residual_feature_extraction_block/conv1d_and__batch_norm_2/conv1d_9/BiasAdd/ReadVariableOp", "op": "Const", "attr": {"value": {"tensor": {"dtype": "DT_FLOAT", "tensorShape": {"dim": [{"size": "128"}]}}}, "dtype": {"type": "DT_FLOAT"}}}, {"name": "StatefulPartitionedCall/heavy_chain_align_airr/conv_residual_feature_extraction_block/conv1d_and__batch_norm_2/batch_normalization_2/batchnorm/mul", "op": "Const", "attr": {"value": {"tensor": {"dtype": "DT_FLOAT", "tensorShape": {"dim": [{"size": "128"}]}}}, "dtype": {"type": "DT_FLOAT"}}}, {"name": "StatefulPartitionedCall/heavy_chain_align_airr/conv_residual_feature_extraction_block/conv1d_and__batch_norm_2/batch_normalization_2/batchnorm/sub", "op": "Const", "attr": {"dtype": {"type": "DT_FLOAT"}, "value": {"tensor": {"dtype": "DT_FLOAT", "tensorShape": {"dim": [{"size": "128"}]}}}}}, {"name": "StatefulPartitionedCall/heavy_chain_align_airr/conv_residual_feature_extraction_block/conv1d_and__batch_norm_2/max_pooling1d_6/ExpandDims/dim", "op": "Const", "attr": {"dtype": {"type": "DT_INT32"}, "value": {"tensor": {"dtype": "DT_INT32", "tensorShape": {}}}}}, {"name": "StatefulPartitionedCall/heavy_chain_align_airr/conv_residual_feature_extraction_block/conv1d_and__batch_norm_1/conv1d_4/Conv1D/ExpandDims/dim", "op": "Const", "attr": {"dtype": {"type": "DT_INT32"}, "value": {"tensor": {"dtype": "DT_INT32", "tensorShape": {}}}}}, {"name": "StatefulPartitionedCall/heavy_chain_align_airr/conv_residual_feature_extraction_block/conv1d_and__batch_norm_1/conv1d_4/Conv1D/ExpandDims_1", "op": "Const", "attr": {"dtype": {"type": "DT_FLOAT"}, "value": {"tensor": {"dtype": "DT_FLOAT", "tensorShape": {"dim": [{"size": "1"}, {"size": "3"}, {"size": "128"}, {"size": "128"}]}}}}}, {"name": "StatefulPartitionedCall/heavy_chain_align_airr/conv_residual_feature_extraction_block/conv1d_and__batch_norm_1/conv1d_4/BiasAdd/ReadVariableOp", "op": "Const", "attr": {"dtype": {"type": "DT_FLOAT"}, "value": {"tensor": {"dtype": "DT_FLOAT", "tensorShape": {"dim": [{"size": "128"}]}}}}}, {"name": "StatefulPartitionedCall/heavy_chain_align_airr/conv_residual_feature_extraction_block/conv1d_and__batch_norm_1/conv1d_5/Conv1D/ExpandDims/dim", "op": "Const", "attr": {"dtype": {"type": "DT_INT32"}, "value": {"tensor": {"dtype": "DT_INT32", "tensorShape": {}}}}}, {"name": "StatefulPartitionedCall/heavy_chain_align_airr/conv_residual_feature_extraction_block/conv1d_and__batch_norm_1/conv1d_5/Conv1D/ExpandDims_1", "op": "Const", "attr": {"dtype": {"type": "DT_FLOAT"}, "value": {"tensor": {"dtype": "DT_FLOAT", "tensorShape": {"dim": [{"size": "1"}, {"size": "3"}, {"size": "128"}, {"size": "128"}]}}}}}, {"name": "StatefulPartitionedCall/heavy_chain_align_airr/conv_residual_feature_extraction_block/conv1d_and__batch_norm_1/conv1d_5/BiasAdd/ReadVariableOp", "op": "Const", "attr": {"dtype": {"type": "DT_FLOAT"}, "value": {"tensor": {"dtype": "DT_FLOAT", "tensorShape": {"dim": [{"size": "128"}]}}}}}, {"name": "StatefulPartitionedCall/heavy_chain_align_airr/conv_residual_feature_extraction_block/conv1d_and__batch_norm_1/conv1d_6/Conv1D/ExpandDims/dim", "op": "Const", "attr": {"value": {"tensor": {"dtype": "DT_INT32", "tensorShape": {}}}, "dtype": {"type": "DT_INT32"}}}, {"name": "StatefulPartitionedCall/heavy_chain_align_airr/conv_residual_feature_extraction_block/conv1d_and__batch_norm_1/conv1d_6/Conv1D/ExpandDims_1", "op": "Const", "attr": {"value": {"tensor": {"dtype": "DT_FLOAT", "tensorShape": {"dim": [{"size": "1"}, {"size": "3"}, {"size": "128"}, {"size": "128"}]}}}, "dtype": {"type": "DT_FLOAT"}}}, {"name": "StatefulPartitionedCall/heavy_chain_align_airr/conv_residual_feature_extraction_block/conv1d_and__batch_norm_1/conv1d_6/BiasAdd/ReadVariableOp", "op": "Const", "attr": {"dtype": {"type": "DT_FLOAT"}, "value": {"tensor": {"dtype": "DT_FLOAT", "tensorShape": {"dim": [{"size": "128"}]}}}}}, {"name": "StatefulPartitionedCall/heavy_chain_align_airr/conv_residual_feature_extraction_block/conv1d_and__batch_norm_1/batch_normalization_1/batchnorm/mul", "op": "Const", "attr": {"value": {"tensor": {"dtype": "DT_FLOAT", "tensorShape": {"dim": [{"size": "128"}]}}}, "dtype": {"type": "DT_FLOAT"}}}, {"name": "StatefulPartitionedCall/heavy_chain_align_airr/conv_residual_feature_extraction_block/conv1d_and__batch_norm_1/batch_normalization_1/batchnorm/sub", "op": "Const", "attr": {"dtype": {"type": "DT_FLOAT"}, "value": {"tensor": {"dtype": "DT_FLOAT", "tensorShape": {"dim": [{"size": "128"}]}}}}}, {"name": "StatefulPartitionedCall/heavy_chain_align_airr/conv_residual_feature_extraction_block/conv1d_and__batch_norm_1/max_pooling1d_5/ExpandDims/dim", "op": "Const", "attr": {"value": {"tensor": {"dtype": "DT_INT32", "tensorShape": {}}}, "dtype": {"type": "DT_INT32"}}}, {"name": "StatefulPartitionedCall/heavy_chain_align_airr/conv_residual_feature_extraction_block/conv1d_and__batch_norm/conv1d_1/Conv1D/ExpandDims/dim", "op": "Const", "attr": {"value": {"tensor": {"dtype": "DT_INT32", "tensorShape": {}}}, "dtype": {"type": "DT_INT32"}}}, {"name": "StatefulPartitionedCall/heavy_chain_align_airr/conv_residual_feature_extraction_block/conv1d_and__batch_norm/conv1d_1/Conv1D/ExpandDims_1", "op": "Const", "attr": {"dtype": {"type": "DT_FLOAT"}, "value": {"tensor": {"dtype": "DT_FLOAT", "tensorShape": {"dim": [{"size": "1"}, {"size": "3"}, {"size": "32"}, {"size": "128"}]}}}}}, {"name": "StatefulPartitionedCall/heavy_chain_align_airr/conv_residual_feature_extraction_block/conv1d_and__batch_norm/conv1d_1/BiasAdd/ReadVariableOp", "op": "Const", "attr": {"dtype": {"type": "DT_FLOAT"}, "value": {"tensor": {"dtype": "DT_FLOAT", "tensorShape": {"dim": [{"size": "128"}]}}}}}, {"name": "StatefulPartitionedCall/heavy_chain_align_airr/conv_residual_feature_extraction_block/conv1d_and__batch_norm/conv1d_2/Conv1D/ExpandDims/dim", "op": "Const", "attr": {"value": {"tensor": {"dtype": "DT_INT32", "tensorShape": {}}}, "dtype": {"type": "DT_INT32"}}}, {"name": "StatefulPartitionedCall/heavy_chain_align_airr/conv_residual_feature_extraction_block/conv1d_and__batch_norm/conv1d_2/Conv1D/ExpandDims_1", "op": "Const", "attr": {"value": {"tensor": {"dtype": "DT_FLOAT", "tensorShape": {"dim": [{"size": "1"}, {"size": "3"}, {"size": "128"}, {"size": "128"}]}}}, "dtype": {"type": "DT_FLOAT"}}}, {"name": "StatefulPartitionedCall/heavy_chain_align_airr/conv_residual_feature_extraction_block/conv1d_and__batch_norm/conv1d_2/BiasAdd/ReadVariableOp", "op": "Const", "attr": {"value": {"tensor": {"dtype": "DT_FLOAT", "tensorShape": {"dim": [{"size": "128"}]}}}, "dtype": {"type": "DT_FLOAT"}}}, {"name": "StatefulPartitionedCall/heavy_chain_align_airr/conv_residual_feature_extraction_block/conv1d_and__batch_norm/conv1d_3/Conv1D/ExpandDims/dim", "op": "Const", "attr": {"dtype": {"type": "DT_INT32"}, "value": {"tensor": {"dtype": "DT_INT32", "tensorShape": {}}}}}, {"name": "StatefulPartitionedCall/heavy_chain_align_airr/conv_residual_feature_extraction_block/conv1d_and__batch_norm/conv1d_3/Conv1D/ExpandDims_1", "op": "Const", "attr": {"dtype": {"type": "DT_FLOAT"}, "value": {"tensor": {"dtype": "DT_FLOAT", "tensorShape": {"dim": [{"size": "1"}, {"size": "3"}, {"size": "128"}, {"size": "128"}]}}}}}, {"name": "StatefulPartitionedCall/heavy_chain_align_airr/conv_residual_feature_extraction_block/conv1d_and__batch_norm/conv1d_3/BiasAdd/ReadVariableOp", "op": "Const", "attr": {"value": {"tensor": {"dtype": "DT_FLOAT", "tensorShape": {"dim": [{"size": "128"}]}}}, "dtype": {"type": "DT_FLOAT"}}}, {"name": "StatefulPartitionedCall/heavy_chain_align_airr/conv_residual_feature_extraction_block/conv1d_and__batch_norm/batch_normalization/batchnorm/mul", "op": "Const", "attr": {"dtype": {"type": "DT_FLOAT"}, "value": {"tensor": {"dtype": "DT_FLOAT", "tensorShape": {"dim": [{"size": "128"}]}}}}}, {"name": "StatefulPartitionedCall/heavy_chain_align_airr/conv_residual_feature_extraction_block/conv1d_and__batch_norm/batch_normalization/batchnorm/sub", "op": "Const", "attr": {"dtype": {"type": "DT_FLOAT"}, "value": {"tensor": {"dtype": "DT_FLOAT", "tensorShape": {"dim": [{"size": "128"}]}}}}}, {"name": "StatefulPartitionedCall/heavy_chain_align_airr/conv_residual_feature_extraction_block/conv1d_and__batch_norm/max_pooling1d_4/ExpandDims/dim", "op": "Const", "attr": {"dtype": {"type": "DT_INT32"}, "value": {"tensor": {"dtype": "DT_INT32", "tensorShape": {}}}}}, {"name": "StatefulPartitionedCall/heavy_chain_align_airr/conv_residual_feature_extraction_block/conv1d/Conv1D/ExpandDims/dim", "op": "Const", "attr": {"dtype": {"type": "DT_INT32"}, "value": {"tensor": {"dtype": "DT_INT32", "tensorShape": {}}}}}, {"name": "StatefulPartitionedCall/heavy_chain_align_airr/conv_residual_feature_extraction_block/conv1d/Conv1D/ExpandDims_1", "op": "Const", "attr": {"dtype": {"type": "DT_FLOAT"}, "value": {"tensor": {"dtype": "DT_FLOAT", "tensorShape": {"dim": [{"size": "1"}, {"size": "5"}, {"size": "32"}, {"size": "128"}]}}}}}, {"name": "StatefulPartitionedCall/heavy_chain_align_airr/conv_residual_feature_extraction_block/conv1d/BiasAdd/ReadVariableOp", "op": "Const", "attr": {"value": {"tensor": {"dtype": "DT_FLOAT", "tensorShape": {"dim": [{"size": "128"}]}}}, "dtype": {"type": "DT_FLOAT"}}}, {"name": "StatefulPartitionedCall/heavy_chain_align_airr/conv_residual_feature_extraction_block/max_pooling1d/ExpandDims/dim", "op": "Const", "attr": {"dtype": {"type": "DT_INT32"}, "value": {"tensor": {"dtype": "DT_INT32", "tensorShape": {}}}}}, {"name": "StatefulPartitionedCall/heavy_chain_align_airr/conv_residual_feature_extraction_block/max_pooling1d/ExpandDims_1/dim", "op": "Const", "attr": {"dtype": {"type": "DT_INT32"}, "value": {"tensor": {"dtype": "DT_INT32", "tensorShape": {}}}}}, {"name": "StatefulPartitionedCall/heavy_chain_align_airr/conv_residual_feature_extraction_block/max_pooling1d_1/ExpandDims/dim", "op": "Const", "attr": {"dtype": {"type": "DT_INT32"}, "value": {"tensor": {"dtype": "DT_INT32", "tensorShape": {}}}}}, {"name": "StatefulPartitionedCall/heavy_chain_align_airr/conv_residual_feature_extraction_block/max_pooling1d_2/ExpandDims/dim", "op": "Const", "attr": {"value": {"tensor": {"dtype": "DT_INT32", "tensorShape": {}}}, "dtype": {"type": "DT_INT32"}}}, {"name": "StatefulPartitionedCall/heavy_chain_align_airr/conv_residual_feature_extraction_block/max_pooling1d_3/ExpandDims/dim", "op": "Const", "attr": {"dtype": {"type": "DT_INT32"}, "value": {"tensor": {"dtype": "DT_INT32", "tensorShape": {}}}}}, {"name": "StatefulPartitionedCall/heavy_chain_align_airr/conv_residual_feature_extraction_block/flatten/Const", "op": "Const", "attr": {"value": {"tensor": {"dtype": "DT_INT32", "tensorShape": {"dim": [{"size": "2"}]}}}, "dtype": {"type": "DT_INT32"}}}, {"name": "StatefulPartitionedCall/heavy_chain_align_airr/conv_residual_feature_extraction_block/dense/MatMul/ReadVariableOp", "op": "Const", "attr": {"dtype": {"type": "DT_FLOAT"}, "value": {"tensor": {"dtype": "DT_FLOAT", "tensorShape": {"dim": [{"size": "2304"}, {"size": "576"}]}}}}}, {"name": "StatefulPartitionedCall/heavy_chain_align_airr/conv_residual_feature_extraction_block/dense/BiasAdd/ReadVariableOp", "op": "Const", "attr": {"dtype": {"type": "DT_FLOAT"}, "value": {"tensor": {"dtype": "DT_FLOAT", "tensorShape": {"dim": [{"size": "576"}]}}}}}, {"name": "StatefulPartitionedCall/heavy_chain_align_airr/productive/MatMul/ReadVariableOp", "op": "Const", "attr": {"dtype": {"type": "DT_FLOAT"}, "value": {"tensor": {"dtype": "DT_FLOAT", "tensorShape": {"dim": [{"size": "576"}, {"size": "1"}]}}}}}, {"name": "StatefulPartitionedCall/heavy_chain_align_airr/productive/BiasAdd/ReadVariableOp", "op": "Const", "attr": {"dtype": {"type": "DT_FLOAT"}, "value": {"tensor": {"dtype": "DT_FLOAT", "tensorShape": {"dim": [{"size": "1"}]}}}}}, {"name": "StatefulPartitionedCall/heavy_chain_align_airr/conv_residual_feature_extraction_block_4/conv1d_and__batch_norm_21/conv1d_68/Conv1D/ExpandDims/dim", "op": "Const", "attr": {"value": {"tensor": {"dtype": "DT_INT32", "tensorShape": {}}}, "dtype": {"type": "DT_INT32"}}}, {"name": "StatefulPartitionedCall/heavy_chain_align_airr/conv_residual_feature_extraction_block_4/conv1d_and__batch_norm_21/conv1d_68/Conv1D/ExpandDims_1", "op": "Const", "attr": {"dtype": {"type": "DT_FLOAT"}, "value": {"tensor": {"dtype": "DT_FLOAT", "tensorShape": {"dim": [{"size": "1"}, {"size": "2"}, {"size": "128"}, {"size": "128"}]}}}}}, {"name": "StatefulPartitionedCall/heavy_chain_align_airr/conv_residual_feature_extraction_block_4/conv1d_and__batch_norm_21/conv1d_68/BiasAdd/ReadVariableOp", "op": "Const", "attr": {"value": {"tensor": {"dtype": "DT_FLOAT", "tensorShape": {"dim": [{"size": "128"}]}}}, "dtype": {"type": "DT_FLOAT"}}}, {"name": "StatefulPartitionedCall/heavy_chain_align_airr/conv_residual_feature_extraction_block_4/conv1d_and__batch_norm_21/conv1d_69/Conv1D/ExpandDims/dim", "op": "Const", "attr": {"value": {"tensor": {"dtype": "DT_INT32", "tensorShape": {}}}, "dtype": {"type": "DT_INT32"}}}, {"name": "StatefulPartitionedCall/heavy_chain_align_airr/conv_residual_feature_extraction_block_4/conv1d_and__batch_norm_21/conv1d_69/Conv1D/ExpandDims_1", "op": "Const", "attr": {"value": {"tensor": {"dtype": "DT_FLOAT", "tensorShape": {"dim": [{"size": "1"}, {"size": "2"}, {"size": "128"}, {"size": "128"}]}}}, "dtype": {"type": "DT_FLOAT"}}}, {"name": "StatefulPartitionedCall/heavy_chain_align_airr/conv_residual_feature_extraction_block_4/conv1d_and__batch_norm_21/conv1d_69/BiasAdd/ReadVariableOp", "op": "Const", "attr": {"value": {"tensor": {"dtype": "DT_FLOAT", "tensorShape": {"dim": [{"size": "128"}]}}}, "dtype": {"type": "DT_FLOAT"}}}, {"name": "StatefulPartitionedCall/heavy_chain_align_airr/conv_residual_feature_extraction_block_4/conv1d_and__batch_norm_21/conv1d_70/Conv1D/ExpandDims/dim", "op": "Const", "attr": {"value": {"tensor": {"dtype": "DT_INT32", "tensorShape": {}}}, "dtype": {"type": "DT_INT32"}}}, {"name": "StatefulPartitionedCall/heavy_chain_align_airr/conv_residual_feature_extraction_block_4/conv1d_and__batch_norm_21/conv1d_70/Conv1D/ExpandDims_1", "op": "Const", "attr": {"dtype": {"type": "DT_FLOAT"}, "value": {"tensor": {"dtype": "DT_FLOAT", "tensorShape": {"dim": [{"size": "1"}, {"size": "2"}, {"size": "128"}, {"size": "128"}]}}}}}, {"name": "StatefulPartitionedCall/heavy_chain_align_airr/conv_residual_feature_extraction_block_4/conv1d_and__batch_norm_21/conv1d_70/BiasAdd/ReadVariableOp", "op": "Const", "attr": {"dtype": {"type": "DT_FLOAT"}, "value": {"tensor": {"dtype": "DT_FLOAT", "tensorShape": {"dim": [{"size": "128"}]}}}}}, {"name": "StatefulPartitionedCall/heavy_chain_align_airr/conv_residual_feature_extraction_block_4/conv1d_and__batch_norm_21/batch_normalization_21/batchnorm/mul", "op": "Const", "attr": {"value": {"tensor": {"dtype": "DT_FLOAT", "tensorShape": {"dim": [{"size": "128"}]}}}, "dtype": {"type": "DT_FLOAT"}}}, {"name": "StatefulPartitionedCall/heavy_chain_align_airr/conv_residual_feature_extraction_block_4/conv1d_and__batch_norm_21/batch_normalization_21/batchnorm/sub", "op": "Const", "attr": {"dtype": {"type": "DT_FLOAT"}, "value": {"tensor": {"dtype": "DT_FLOAT", "tensorShape": {"dim": [{"size": "128"}]}}}}}, {"name": "StatefulPartitionedCall/heavy_chain_align_airr/conv_residual_feature_extraction_block_4/conv1d_and__batch_norm_21/max_pooling1d_43/ExpandDims/dim", "op": "Const", "attr": {"dtype": {"type": "DT_INT32"}, "value": {"tensor": {"dtype": "DT_INT32", "tensorShape": {}}}}}, {"name": "StatefulPartitionedCall/heavy_chain_align_airr/conv_residual_feature_extraction_block_4/conv1d_and__batch_norm_20/conv1d_65/Conv1D/ExpandDims/dim", "op": "Const", "attr": {"dtype": {"type": "DT_INT32"}, "value": {"tensor": {"dtype": "DT_INT32", "tensorShape": {}}}}}, {"name": "StatefulPartitionedCall/heavy_chain_align_airr/conv_residual_feature_extraction_block_4/conv1d_and__batch_norm_20/conv1d_65/Conv1D/ExpandDims_1", "op": "Const", "attr": {"value": {"tensor": {"dtype": "DT_FLOAT", "tensorShape": {"dim": [{"size": "1"}, {"size": "2"}, {"size": "128"}, {"size": "128"}]}}}, "dtype": {"type": "DT_FLOAT"}}}, {"name": "StatefulPartitionedCall/heavy_chain_align_airr/conv_residual_feature_extraction_block_4/conv1d_and__batch_norm_20/conv1d_65/BiasAdd/ReadVariableOp", "op": "Const", "attr": {"value": {"tensor": {"dtype": "DT_FLOAT", "tensorShape": {"dim": [{"size": "128"}]}}}, "dtype": {"type": "DT_FLOAT"}}}, {"name": "StatefulPartitionedCall/heavy_chain_align_airr/conv_residual_feature_extraction_block_4/conv1d_and__batch_norm_20/conv1d_66/Conv1D/ExpandDims/dim", "op": "Const", "attr": {"dtype": {"type": "DT_INT32"}, "value": {"tensor": {"dtype": "DT_INT32", "tensorShape": {}}}}}, {"name": "StatefulPartitionedCall/heavy_chain_align_airr/conv_residual_feature_extraction_block_4/conv1d_and__batch_norm_20/conv1d_66/Conv1D/ExpandDims_1", "op": "Const", "attr": {"dtype": {"type": "DT_FLOAT"}, "value": {"tensor": {"dtype": "DT_FLOAT", "tensorShape": {"dim": [{"size": "1"}, {"size": "2"}, {"size": "128"}, {"size": "128"}]}}}}}, {"name": "StatefulPartitionedCall/heavy_chain_align_airr/conv_residual_feature_extraction_block_4/conv1d_and__batch_norm_20/conv1d_66/BiasAdd/ReadVariableOp", "op": "Const", "attr": {"dtype": {"type": "DT_FLOAT"}, "value": {"tensor": {"dtype": "DT_FLOAT", "tensorShape": {"dim": [{"size": "128"}]}}}}}, {"name": "StatefulPartitionedCall/heavy_chain_align_airr/conv_residual_feature_extraction_block_4/conv1d_and__batch_norm_20/conv1d_67/Conv1D/ExpandDims/dim", "op": "Const", "attr": {"value": {"tensor": {"dtype": "DT_INT32", "tensorShape": {}}}, "dtype": {"type": "DT_INT32"}}}, {"name": "StatefulPartitionedCall/heavy_chain_align_airr/conv_residual_feature_extraction_block_4/conv1d_and__batch_norm_20/conv1d_67/Conv1D/ExpandDims_1", "op": "Const", "attr": {"value": {"tensor": {"dtype": "DT_FLOAT", "tensorShape": {"dim": [{"size": "1"}, {"size": "2"}, {"size": "128"}, {"size": "128"}]}}}, "dtype": {"type": "DT_FLOAT"}}}, {"name": "StatefulPartitionedCall/heavy_chain_align_airr/conv_residual_feature_extraction_block_4/conv1d_and__batch_norm_20/conv1d_67/BiasAdd/ReadVariableOp", "op": "Const", "attr": {"dtype": {"type": "DT_FLOAT"}, "value": {"tensor": {"dtype": "DT_FLOAT", "tensorShape": {"dim": [{"size": "128"}]}}}}}, {"name": "StatefulPartitionedCall/heavy_chain_align_airr/conv_residual_feature_extraction_block_4/conv1d_and__batch_norm_20/batch_normalization_20/batchnorm/mul", "op": "Const", "attr": {"value": {"tensor": {"dtype": "DT_FLOAT", "tensorShape": {"dim": [{"size": "128"}]}}}, "dtype": {"type": "DT_FLOAT"}}}, {"name": "StatefulPartitionedCall/heavy_chain_align_airr/conv_residual_feature_extraction_block_4/conv1d_and__batch_norm_20/batch_normalization_20/batchnorm/sub", "op": "Const", "attr": {"value": {"tensor": {"dtype": "DT_FLOAT", "tensorShape": {"dim": [{"size": "128"}]}}}, "dtype": {"type": "DT_FLOAT"}}}, {"name": "StatefulPartitionedCall/heavy_chain_align_airr/conv_residual_feature_extraction_block_4/conv1d_and__batch_norm_20/max_pooling1d_42/ExpandDims/dim", "op": "Const", "attr": {"dtype": {"type": "DT_INT32"}, "value": {"tensor": {"dtype": "DT_INT32", "tensorShape": {}}}}}, {"name": "StatefulPartitionedCall/heavy_chain_align_airr/conv_residual_feature_extraction_block_4/conv1d_and__batch_norm_19/conv1d_62/Conv1D/ExpandDims/dim", "op": "Const", "attr": {"value": {"tensor": {"dtype": "DT_INT32", "tensorShape": {}}}, "dtype": {"type": "DT_INT32"}}}, {"name": "StatefulPartitionedCall/heavy_chain_align_airr/conv_residual_feature_extraction_block_4/conv1d_and__batch_norm_19/conv1d_62/Conv1D/ExpandDims_1", "op": "Const", "attr": {"dtype": {"type": "DT_FLOAT"}, "value": {"tensor": {"dtype": "DT_FLOAT", "tensorShape": {"dim": [{"size": "1"}, {"size": "2"}, {"size": "128"}, {"size": "128"}]}}}}}, {"name": "StatefulPartitionedCall/heavy_chain_align_airr/conv_residual_feature_extraction_block_4/conv1d_and__batch_norm_19/conv1d_62/BiasAdd/ReadVariableOp", "op": "Const", "attr": {"dtype": {"type": "DT_FLOAT"}, "value": {"tensor": {"dtype": "DT_FLOAT", "tensorShape": {"dim": [{"size": "128"}]}}}}}, {"name": "StatefulPartitionedCall/heavy_chain_align_airr/conv_residual_feature_extraction_block_4/conv1d_and__batch_norm_19/conv1d_63/Conv1D/ExpandDims/dim", "op": "Const", "attr": {"dtype": {"type": "DT_INT32"}, "value": {"tensor": {"dtype": "DT_INT32", "tensorShape": {}}}}}, {"name": "StatefulPartitionedCall/heavy_chain_align_airr/conv_residual_feature_extraction_block_4/conv1d_and__batch_norm_19/conv1d_63/Conv1D/ExpandDims_1", "op": "Const", "attr": {"value": {"tensor": {"dtype": "DT_FLOAT", "tensorShape": {"dim": [{"size": "1"}, {"size": "2"}, {"size": "128"}, {"size": "128"}]}}}, "dtype": {"type": "DT_FLOAT"}}}, {"name": "StatefulPartitionedCall/heavy_chain_align_airr/conv_residual_feature_extraction_block_4/conv1d_and__batch_norm_19/conv1d_63/BiasAdd/ReadVariableOp", "op": "Const", "attr": {"value": {"tensor": {"dtype": "DT_FLOAT", "tensorShape": {"dim": [{"size": "128"}]}}}, "dtype": {"type": "DT_FLOAT"}}}, {"name": "StatefulPartitionedCall/heavy_chain_align_airr/conv_residual_feature_extraction_block_4/conv1d_and__batch_norm_19/conv1d_64/Conv1D/ExpandDims/dim", "op": "Const", "attr": {"value": {"tensor": {"dtype": "DT_INT32", "tensorShape": {}}}, "dtype": {"type": "DT_INT32"}}}, {"name": "StatefulPartitionedCall/heavy_chain_align_airr/conv_residual_feature_extraction_block_4/conv1d_and__batch_norm_19/conv1d_64/Conv1D/ExpandDims_1", "op": "Const", "attr": {"dtype": {"type": "DT_FLOAT"}, "value": {"tensor": {"dtype": "DT_FLOAT", "tensorShape": {"dim": [{"size": "1"}, {"size": "2"}, {"size": "128"}, {"size": "128"}]}}}}}, {"name": "StatefulPartitionedCall/heavy_chain_align_airr/conv_residual_feature_extraction_block_4/conv1d_and__batch_norm_19/conv1d_64/BiasAdd/ReadVariableOp", "op": "Const", "attr": {"dtype": {"type": "DT_FLOAT"}, "value": {"tensor": {"dtype": "DT_FLOAT", "tensorShape": {"dim": [{"size": "128"}]}}}}}, {"name": "StatefulPartitionedCall/heavy_chain_align_airr/conv_residual_feature_extraction_block_4/conv1d_and__batch_norm_19/batch_normalization_19/batchnorm/mul", "op": "Const", "attr": {"value": {"tensor": {"dtype": "DT_FLOAT", "tensorShape": {"dim": [{"size": "128"}]}}}, "dtype": {"type": "DT_FLOAT"}}}, {"name": "StatefulPartitionedCall/heavy_chain_align_airr/conv_residual_feature_extraction_block_4/conv1d_and__batch_norm_19/batch_normalization_19/batchnorm/sub", "op": "Const", "attr": {"dtype": {"type": "DT_FLOAT"}, "value": {"tensor": {"dtype": "DT_FLOAT", "tensorShape": {"dim": [{"size": "128"}]}}}}}, {"name": "StatefulPartitionedCall/heavy_chain_align_airr/conv_residual_feature_extraction_block_4/conv1d_and__batch_norm_19/max_pooling1d_41/ExpandDims/dim", "op": "Const", "attr": {"value": {"tensor": {"dtype": "DT_INT32", "tensorShape": {}}}, "dtype": {"type": "DT_INT32"}}}, {"name": "StatefulPartitionedCall/heavy_chain_align_airr/conv_residual_feature_extraction_block_4/conv1d_and__batch_norm_18/conv1d_59/Conv1D/ExpandDims/dim", "op": "Const", "attr": {"dtype": {"type": "DT_INT32"}, "value": {"tensor": {"dtype": "DT_INT32", "tensorShape": {}}}}}, {"name": "StatefulPartitionedCall/heavy_chain_align_airr/conv_residual_feature_extraction_block_4/conv1d_and__batch_norm_18/conv1d_59/Conv1D/ExpandDims_1", "op": "Const", "attr": {"dtype": {"type": "DT_FLOAT"}, "value": {"tensor": {"dtype": "DT_FLOAT", "tensorShape": {"dim": [{"size": "1"}, {"size": "3"}, {"size": "128"}, {"size": "128"}]}}}}}, {"name": "StatefulPartitionedCall/heavy_chain_align_airr/conv_residual_feature_extraction_block_4/conv1d_and__batch_norm_18/conv1d_59/BiasAdd/ReadVariableOp", "op": "Const", "attr": {"value": {"tensor": {"dtype": "DT_FLOAT", "tensorShape": {"dim": [{"size": "128"}]}}}, "dtype": {"type": "DT_FLOAT"}}}, {"name": "StatefulPartitionedCall/heavy_chain_align_airr/conv_residual_feature_extraction_block_4/conv1d_and__batch_norm_18/conv1d_60/Conv1D/ExpandDims/dim", "op": "Const", "attr": {"dtype": {"type": "DT_INT32"}, "value": {"tensor": {"dtype": "DT_INT32", "tensorShape": {}}}}}, {"name": "StatefulPartitionedCall/heavy_chain_align_airr/conv_residual_feature_extraction_block_4/conv1d_and__batch_norm_18/conv1d_60/Conv1D/ExpandDims_1", "op": "Const", "attr": {"dtype": {"type": "DT_FLOAT"}, "value": {"tensor": {"dtype": "DT_FLOAT", "tensorShape": {"dim": [{"size": "1"}, {"size": "3"}, {"size": "128"}, {"size": "128"}]}}}}}, {"name": "StatefulPartitionedCall/heavy_chain_align_airr/conv_residual_feature_extraction_block_4/conv1d_and__batch_norm_18/conv1d_60/BiasAdd/ReadVariableOp", "op": "Const", "attr": {"value": {"tensor": {"dtype": "DT_FLOAT", "tensorShape": {"dim": [{"size": "128"}]}}}, "dtype": {"type": "DT_FLOAT"}}}, {"name": "StatefulPartitionedCall/heavy_chain_align_airr/conv_residual_feature_extraction_block_4/conv1d_and__batch_norm_18/conv1d_61/Conv1D/ExpandDims/dim", "op": "Const", "attr": {"dtype": {"type": "DT_INT32"}, "value": {"tensor": {"dtype": "DT_INT32", "tensorShape": {}}}}}, {"name": "StatefulPartitionedCall/heavy_chain_align_airr/conv_residual_feature_extraction_block_4/conv1d_and__batch_norm_18/conv1d_61/Conv1D/ExpandDims_1", "op": "Const", "attr": {"dtype": {"type": "DT_FLOAT"}, "value": {"tensor": {"dtype": "DT_FLOAT", "tensorShape": {"dim": [{"size": "1"}, {"size": "3"}, {"size": "128"}, {"size": "128"}]}}}}}, {"name": "StatefulPartitionedCall/heavy_chain_align_airr/conv_residual_feature_extraction_block_4/conv1d_and__batch_norm_18/conv1d_61/BiasAdd/ReadVariableOp", "op": "Const", "attr": {"dtype": {"type": "DT_FLOAT"}, "value": {"tensor": {"dtype": "DT_FLOAT", "tensorShape": {"dim": [{"size": "128"}]}}}}}, {"name": "StatefulPartitionedCall/heavy_chain_align_airr/conv_residual_feature_extraction_block_4/conv1d_and__batch_norm_18/batch_normalization_18/batchnorm/mul", "op": "Const", "attr": {"value": {"tensor": {"dtype": "DT_FLOAT", "tensorShape": {"dim": [{"size": "128"}]}}}, "dtype": {"type": "DT_FLOAT"}}}, {"name": "StatefulPartitionedCall/heavy_chain_align_airr/conv_residual_feature_extraction_block_4/conv1d_and__batch_norm_18/batch_normalization_18/batchnorm/sub", "op": "Const", "attr": {"value": {"tensor": {"dtype": "DT_FLOAT", "tensorShape": {"dim": [{"size": "128"}]}}}, "dtype": {"type": "DT_FLOAT"}}}, {"name": "StatefulPartitionedCall/heavy_chain_align_airr/conv_residual_feature_extraction_block_4/conv1d_and__batch_norm_18/max_pooling1d_40/ExpandDims/dim", "op": "Const", "attr": {"dtype": {"type": "DT_INT32"}, "value": {"tensor": {"dtype": "DT_INT32", "tensorShape": {}}}}}, {"name": "StatefulPartitionedCall/heavy_chain_align_airr/conv_residual_feature_extraction_block_4/conv1d_and__batch_norm_17/conv1d_56/Conv1D/ExpandDims/dim", "op": "Const", "attr": {"dtype": {"type": "DT_INT32"}, "value": {"tensor": {"dtype": "DT_INT32", "tensorShape": {}}}}}, {"name": "StatefulPartitionedCall/heavy_chain_align_airr/conv_residual_feature_extraction_block_4/conv1d_and__batch_norm_17/conv1d_56/Conv1D/ExpandDims_1", "op": "Const", "attr": {"value": {"tensor": {"dtype": "DT_FLOAT", "tensorShape": {"dim": [{"size": "1"}, {"size": "3"}, {"size": "128"}, {"size": "128"}]}}}, "dtype": {"type": "DT_FLOAT"}}}, {"name": "StatefulPartitionedCall/heavy_chain_align_airr/conv_residual_feature_extraction_block_4/conv1d_and__batch_norm_17/conv1d_56/BiasAdd/ReadVariableOp", "op": "Const", "attr": {"dtype": {"type": "DT_FLOAT"}, "value": {"tensor": {"dtype": "DT_FLOAT", "tensorShape": {"dim": [{"size": "128"}]}}}}}, {"name": "StatefulPartitionedCall/heavy_chain_align_airr/conv_residual_feature_extraction_block_4/conv1d_and__batch_norm_17/conv1d_57/Conv1D/ExpandDims/dim", "op": "Const", "attr": {"dtype": {"type": "DT_INT32"}, "value": {"tensor": {"dtype": "DT_INT32", "tensorShape": {}}}}}, {"name": "StatefulPartitionedCall/heavy_chain_align_airr/conv_residual_feature_extraction_block_4/conv1d_and__batch_norm_17/conv1d_57/Conv1D/ExpandDims_1", "op": "Const", "attr": {"value": {"tensor": {"dtype": "DT_FLOAT", "tensorShape": {"dim": [{"size": "1"}, {"size": "3"}, {"size": "128"}, {"size": "128"}]}}}, "dtype": {"type": "DT_FLOAT"}}}, {"name": "StatefulPartitionedCall/heavy_chain_align_airr/conv_residual_feature_extraction_block_4/conv1d_and__batch_norm_17/conv1d_57/BiasAdd/ReadVariableOp", "op": "Const", "attr": {"value": {"tensor": {"dtype": "DT_FLOAT", "tensorShape": {"dim": [{"size": "128"}]}}}, "dtype": {"type": "DT_FLOAT"}}}, {"name": "StatefulPartitionedCall/heavy_chain_align_airr/conv_residual_feature_extraction_block_4/conv1d_and__batch_norm_17/conv1d_58/Conv1D/ExpandDims/dim", "op": "Const", "attr": {"dtype": {"type": "DT_INT32"}, "value": {"tensor": {"dtype": "DT_INT32", "tensorShape": {}}}}}, {"name": "StatefulPartitionedCall/heavy_chain_align_airr/conv_residual_feature_extraction_block_4/conv1d_and__batch_norm_17/conv1d_58/Conv1D/ExpandDims_1", "op": "Const", "attr": {"dtype": {"type": "DT_FLOAT"}, "value": {"tensor": {"dtype": "DT_FLOAT", "tensorShape": {"dim": [{"size": "1"}, {"size": "3"}, {"size": "128"}, {"size": "128"}]}}}}}, {"name": "StatefulPartitionedCall/heavy_chain_align_airr/conv_residual_feature_extraction_block_4/conv1d_and__batch_norm_17/conv1d_58/BiasAdd/ReadVariableOp", "op": "Const", "attr": {"value": {"tensor": {"dtype": "DT_FLOAT", "tensorShape": {"dim": [{"size": "128"}]}}}, "dtype": {"type": "DT_FLOAT"}}}, {"name": "StatefulPartitionedCall/heavy_chain_align_airr/conv_residual_feature_extraction_block_4/conv1d_and__batch_norm_17/batch_normalization_17/batchnorm/mul", "op": "Const", "attr": {"value": {"tensor": {"dtype": "DT_FLOAT", "tensorShape": {"dim": [{"size": "128"}]}}}, "dtype": {"type": "DT_FLOAT"}}}, {"name": "StatefulPartitionedCall/heavy_chain_align_airr/conv_residual_feature_extraction_block_4/conv1d_and__batch_norm_17/batch_normalization_17/batchnorm/sub", "op": "Const", "attr": {"dtype": {"type": "DT_FLOAT"}, "value": {"tensor": {"dtype": "DT_FLOAT", "tensorShape": {"dim": [{"size": "128"}]}}}}}, {"name": "StatefulPartitionedCall/heavy_chain_align_airr/conv_residual_feature_extraction_block_4/conv1d_and__batch_norm_17/max_pooling1d_39/ExpandDims/dim", "op": "Const", "attr": {"value": {"tensor": {"dtype": "DT_INT32", "tensorShape": {}}}, "dtype": {"type": "DT_INT32"}}}, {"name": "StatefulPartitionedCall/heavy_chain_align_airr/conv_residual_feature_extraction_block_4/conv1d_and__batch_norm_16/conv1d_53/Conv1D/ExpandDims/dim", "op": "Const", "attr": {"value": {"tensor": {"dtype": "DT_INT32", "tensorShape": {}}}, "dtype": {"type": "DT_INT32"}}}, {"name": "StatefulPartitionedCall/heavy_chain_align_airr/conv_residual_feature_extraction_block_4/conv1d_and__batch_norm_16/conv1d_53/Conv1D/ExpandDims_1", "op": "Const", "attr": {"dtype": {"type": "DT_FLOAT"}, "value": {"tensor": {"dtype": "DT_FLOAT", "tensorShape": {"dim": [{"size": "1"}, {"size": "3"}, {"size": "32"}, {"size": "128"}]}}}}}, {"name": "StatefulPartitionedCall/heavy_chain_align_airr/conv_residual_feature_extraction_block_4/conv1d_and__batch_norm_16/conv1d_53/BiasAdd/ReadVariableOp", "op": "Const", "attr": {"dtype": {"type": "DT_FLOAT"}, "value": {"tensor": {"dtype": "DT_FLOAT", "tensorShape": {"dim": [{"size": "128"}]}}}}}, {"name": "StatefulPartitionedCall/heavy_chain_align_airr/conv_residual_feature_extraction_block_4/conv1d_and__batch_norm_16/conv1d_54/Conv1D/ExpandDims/dim", "op": "Const", "attr": {"dtype": {"type": "DT_INT32"}, "value": {"tensor": {"dtype": "DT_INT32", "tensorShape": {}}}}}, {"name": "StatefulPartitionedCall/heavy_chain_align_airr/conv_residual_feature_extraction_block_4/conv1d_and__batch_norm_16/conv1d_54/Conv1D/ExpandDims_1", "op": "Const", "attr": {"dtype": {"type": "DT_FLOAT"}, "value": {"tensor": {"dtype": "DT_FLOAT", "tensorShape": {"dim": [{"size": "1"}, {"size": "3"}, {"size": "128"}, {"size": "128"}]}}}}}, {"name": "StatefulPartitionedCall/heavy_chain_align_airr/conv_residual_feature_extraction_block_4/conv1d_and__batch_norm_16/conv1d_54/BiasAdd/ReadVariableOp", "op": "Const", "attr": {"value": {"tensor": {"dtype": "DT_FLOAT", "tensorShape": {"dim": [{"size": "128"}]}}}, "dtype": {"type": "DT_FLOAT"}}}, {"name": "StatefulPartitionedCall/heavy_chain_align_airr/conv_residual_feature_extraction_block_4/conv1d_and__batch_norm_16/conv1d_55/Conv1D/ExpandDims/dim", "op": "Const", "attr": {"dtype": {"type": "DT_INT32"}, "value": {"tensor": {"dtype": "DT_INT32", "tensorShape": {}}}}}, {"name": "StatefulPartitionedCall/heavy_chain_align_airr/conv_residual_feature_extraction_block_4/conv1d_and__batch_norm_16/conv1d_55/Conv1D/ExpandDims_1", "op": "Const", "attr": {"dtype": {"type": "DT_FLOAT"}, "value": {"tensor": {"dtype": "DT_FLOAT", "tensorShape": {"dim": [{"size": "1"}, {"size": "3"}, {"size": "128"}, {"size": "128"}]}}}}}, {"name": "StatefulPartitionedCall/heavy_chain_align_airr/conv_residual_feature_extraction_block_4/conv1d_and__batch_norm_16/conv1d_55/BiasAdd/ReadVariableOp", "op": "Const", "attr": {"value": {"tensor": {"dtype": "DT_FLOAT", "tensorShape": {"dim": [{"size": "128"}]}}}, "dtype": {"type": "DT_FLOAT"}}}, {"name": "StatefulPartitionedCall/heavy_chain_align_airr/conv_residual_feature_extraction_block_4/conv1d_and__batch_norm_16/batch_normalization_16/batchnorm/mul", "op": "Const", "attr": {"value": {"tensor": {"dtype": "DT_FLOAT", "tensorShape": {"dim": [{"size": "128"}]}}}, "dtype": {"type": "DT_FLOAT"}}}, {"name": "StatefulPartitionedCall/heavy_chain_align_airr/conv_residual_feature_extraction_block_4/conv1d_and__batch_norm_16/batch_normalization_16/batchnorm/sub", "op": "Const", "attr": {"value": {"tensor": {"dtype": "DT_FLOAT", "tensorShape": {"dim": [{"size": "128"}]}}}, "dtype": {"type": "DT_FLOAT"}}}, {"name": "StatefulPartitionedCall/heavy_chain_align_airr/conv_residual_feature_extraction_block_4/conv1d_and__batch_norm_16/max_pooling1d_38/ExpandDims/dim", "op": "Const", "attr": {"dtype": {"type": "DT_INT32"}, "value": {"tensor": {"dtype": "DT_INT32", "tensorShape": {}}}}}, {"name": "StatefulPartitionedCall/heavy_chain_align_airr/v_start/mul_2/x", "op": "Const", "attr": {"dtype": {"type": "DT_FLOAT"}, "value": {"tensor": {"dtype": "DT_FLOAT", "tensorShape": {}}}}}, {"name": "StatefulPartitionedCall/heavy_chain_align_airr/v_start/add_1/x", "op": "Const", "attr": {"value": {"tensor": {"dtype": "DT_FLOAT", "tensorShape": {}}}, "dtype": {"type": "DT_FLOAT"}}}, {"name": "StatefulPartitionedCall/heavy_chain_align_airr/v_start/Sqrt", "op": "Const", "attr": {"value": {"tensor": {"dtype": "DT_FLOAT", "tensorShape": {}}}, "dtype": {"type": "DT_FLOAT"}}}, {"name": "StatefulPartitionedCall/heavy_chain_align_airr/v_start/mul/x", "op": "Const", "attr": {"dtype": {"type": "DT_FLOAT"}, "value": {"tensor": {"dtype": "DT_FLOAT", "tensorShape": {}}}}}, {"name": "StatefulPartitionedCall/heavy_chain_align_airr/v_start/MatMul/ReadVariableOp", "op": "Const", "attr": {"dtype": {"type": "DT_FLOAT"}, "value": {"tensor": {"dtype": "DT_FLOAT", "tensorShape": {"dim": [{"size": "576"}, {"size": "1"}]}}}}}, {"name": "StatefulPartitionedCall/heavy_chain_align_airr/v_start/BiasAdd/ReadVariableOp", "op": "Const", "attr": {"dtype": {"type": "DT_FLOAT"}, "value": {"tensor": {"dtype": "DT_FLOAT", "tensorShape": {"dim": [{"size": "1"}]}}}}}, {"name": "StatefulPartitionedCall/heavy_chain_align_airr/v_start/Pow/y", "op": "Const", "attr": {"dtype": {"type": "DT_FLOAT"}, "value": {"tensor": {"dtype": "DT_FLOAT", "tensorShape": {}}}}}, {"name": "StatefulPartitionedCall/heavy_chain_align_airr/cutout_layer/Max/reduction_indices", "op": "Const", "attr": {"value": {"tensor": {"dtype": "DT_INT32", "tensorShape": {}}}, "dtype": {"type": "DT_INT32"}}}, {"name": "StatefulPartitionedCall/heavy_chain_align_airr/cutout_layer/clip_by_value/Minimum/y", "op": "Const", "attr": {"dtype": {"type": "DT_FLOAT"}, "value": {"tensor": {"dtype": "DT_FLOAT", "tensorShape": {}}}}}, {"name": "StatefulPartitionedCall/heavy_chain_align_airr/cutout_layer/clip_by_value/y", "op": "Const", "attr": {"value": {"tensor": {"dtype": "DT_FLOAT", "tensorShape": {}}}, "dtype": {"type": "DT_FLOAT"}}}, {"name": "unknown_199", "op": "Const", "attr": {"value": {"tensor": {"dtype": "DT_FLOAT", "tensorShape": {"dim": [{"size": "576"}]}}}, "dtype": {"type": "DT_FLOAT"}}}, {"name": "StatefulPartitionedCall/heavy_chain_align_airr/v_end/mul_2/x", "op": "Const", "attr": {"value": {"tensor": {"dtype": "DT_FLOAT", "tensorShape": {}}}, "dtype": {"type": "DT_FLOAT"}}}, {"name": "StatefulPartitionedCall/heavy_chain_align_airr/v_end/add_1/x", "op": "Const", "attr": {"dtype": {"type": "DT_FLOAT"}, "value": {"tensor": {"dtype": "DT_FLOAT", "tensorShape": {}}}}}, {"name": "StatefulPartitionedCall/heavy_chain_align_airr/v_end/Sqrt", "op": "Const", "attr": {"value": {"tensor": {"dtype": "DT_FLOAT", "tensorShape": {}}}, "dtype": {"type": "DT_FLOAT"}}}, {"name": "StatefulPartitionedCall/heavy_chain_align_airr/v_end/mul/x", "op": "Const", "attr": {"value": {"tensor": {"dtype": "DT_FLOAT", "tensorShape": {}}}, "dtype": {"type": "DT_FLOAT"}}}, {"name": "StatefulPartitionedCall/heavy_chain_align_airr/conv_residual_feature_extraction_block_1/conv1d_and__batch_norm_7/conv1d_23/Conv1D/ExpandDims/dim", "op": "Const", "attr": {"dtype": {"type": "DT_INT32"}, "value": {"tensor": {"dtype": "DT_INT32", "tensorShape": {}}}}}, {"name": "StatefulPartitionedCall/heavy_chain_align_airr/conv_residual_feature_extraction_block_1/conv1d_and__batch_norm_7/conv1d_23/Conv1D/ExpandDims_1", "op": "Const", "attr": {"dtype": {"type": "DT_FLOAT"}, "value": {"tensor": {"dtype": "DT_FLOAT", "tensorShape": {"dim": [{"size": "1"}, {"size": "2"}, {"size": "128"}, {"size": "128"}]}}}}}, {"name": "StatefulPartitionedCall/heavy_chain_align_airr/conv_residual_feature_extraction_block_1/conv1d_and__batch_norm_7/conv1d_23/BiasAdd/ReadVariableOp", "op": "Const", "attr": {"value": {"tensor": {"dtype": "DT_FLOAT", "tensorShape": {"dim": [{"size": "128"}]}}}, "dtype": {"type": "DT_FLOAT"}}}, {"name": "StatefulPartitionedCall/heavy_chain_align_airr/conv_residual_feature_extraction_block_1/conv1d_and__batch_norm_7/conv1d_24/Conv1D/ExpandDims/dim", "op": "Const", "attr": {"dtype": {"type": "DT_INT32"}, "value": {"tensor": {"dtype": "DT_INT32", "tensorShape": {}}}}}, {"name": "StatefulPartitionedCall/heavy_chain_align_airr/conv_residual_feature_extraction_block_1/conv1d_and__batch_norm_7/conv1d_24/Conv1D/ExpandDims_1", "op": "Const", "attr": {"dtype": {"type": "DT_FLOAT"}, "value": {"tensor": {"dtype": "DT_FLOAT", "tensorShape": {"dim": [{"size": "1"}, {"size": "2"}, {"size": "128"}, {"size": "128"}]}}}}}, {"name": "StatefulPartitionedCall/heavy_chain_align_airr/conv_residual_feature_extraction_block_1/conv1d_and__batch_norm_7/conv1d_24/BiasAdd/ReadVariableOp", "op": "Const", "attr": {"value": {"tensor": {"dtype": "DT_FLOAT", "tensorShape": {"dim": [{"size": "128"}]}}}, "dtype": {"type": "DT_FLOAT"}}}, {"name": "StatefulPartitionedCall/heavy_chain_align_airr/conv_residual_feature_extraction_block_1/conv1d_and__batch_norm_7/conv1d_25/Conv1D/ExpandDims/dim", "op": "Const", "attr": {"dtype": {"type": "DT_INT32"}, "value": {"tensor": {"dtype": "DT_INT32", "tensorShape": {}}}}}, {"name": "StatefulPartitionedCall/heavy_chain_align_airr/conv_residual_feature_extraction_block_1/conv1d_and__batch_norm_7/conv1d_25/Conv1D/ExpandDims_1", "op": "Const", "attr": {"value": {"tensor": {"dtype": "DT_FLOAT", "tensorShape": {"dim": [{"size": "1"}, {"size": "2"}, {"size": "128"}, {"size": "128"}]}}}, "dtype": {"type": "DT_FLOAT"}}}, {"name": "StatefulPartitionedCall/heavy_chain_align_airr/conv_residual_feature_extraction_block_1/conv1d_and__batch_norm_7/conv1d_25/BiasAdd/ReadVariableOp", "op": "Const", "attr": {"dtype": {"type": "DT_FLOAT"}, "value": {"tensor": {"dtype": "DT_FLOAT", "tensorShape": {"dim": [{"size": "128"}]}}}}}, {"name": "StatefulPartitionedCall/heavy_chain_align_airr/conv_residual_feature_extraction_block_1/conv1d_and__batch_norm_7/batch_normalization_7/batchnorm/mul", "op": "Const", "attr": {"dtype": {"type": "DT_FLOAT"}, "value": {"tensor": {"dtype": "DT_FLOAT", "tensorShape": {"dim": [{"size": "128"}]}}}}}, {"name": "StatefulPartitionedCall/heavy_chain_align_airr/conv_residual_feature_extraction_block_1/conv1d_and__batch_norm_7/batch_normalization_7/batchnorm/sub", "op": "Const", "attr": {"dtype": {"type": "DT_FLOAT"}, "value": {"tensor": {"dtype": "DT_FLOAT", "tensorShape": {"dim": [{"size": "128"}]}}}}}, {"name": "StatefulPartitionedCall/heavy_chain_align_airr/conv_residual_feature_extraction_block_1/conv1d_and__batch_norm_7/max_pooling1d_15/ExpandDims/dim", "op": "Const", "attr": {"dtype": {"type": "DT_INT32"}, "value": {"tensor": {"dtype": "DT_INT32", "tensorShape": {}}}}}, {"name": "StatefulPartitionedCall/heavy_chain_align_airr/conv_residual_feature_extraction_block_1/conv1d_and__batch_norm_6/conv1d_20/Conv1D/ExpandDims/dim", "op": "Const", "attr": {"dtype": {"type": "DT_INT32"}, "value": {"tensor": {"dtype": "DT_INT32", "tensorShape": {}}}}}, {"name": "StatefulPartitionedCall/heavy_chain_align_airr/conv_residual_feature_extraction_block_1/conv1d_and__batch_norm_6/conv1d_20/Conv1D/ExpandDims_1", "op": "Const", "attr": {"value": {"tensor": {"dtype": "DT_FLOAT", "tensorShape": {"dim": [{"size": "1"}, {"size": "3"}, {"size": "128"}, {"size": "128"}]}}}, "dtype": {"type": "DT_FLOAT"}}}, {"name": "StatefulPartitionedCall/heavy_chain_align_airr/conv_residual_feature_extraction_block_1/conv1d_and__batch_norm_6/conv1d_20/BiasAdd/ReadVariableOp", "op": "Const", "attr": {"dtype": {"type": "DT_FLOAT"}, "value": {"tensor": {"dtype": "DT_FLOAT", "tensorShape": {"dim": [{"size": "128"}]}}}}}, {"name": "StatefulPartitionedCall/heavy_chain_align_airr/conv_residual_feature_extraction_block_1/conv1d_and__batch_norm_6/conv1d_21/Conv1D/ExpandDims/dim", "op": "Const", "attr": {"value": {"tensor": {"dtype": "DT_INT32", "tensorShape": {}}}, "dtype": {"type": "DT_INT32"}}}, {"name": "StatefulPartitionedCall/heavy_chain_align_airr/conv_residual_feature_extraction_block_1/conv1d_and__batch_norm_6/conv1d_21/Conv1D/ExpandDims_1", "op": "Const", "attr": {"value": {"tensor": {"dtype": "DT_FLOAT", "tensorShape": {"dim": [{"size": "1"}, {"size": "3"}, {"size": "128"}, {"size": "128"}]}}}, "dtype": {"type": "DT_FLOAT"}}}, {"name": "StatefulPartitionedCall/heavy_chain_align_airr/conv_residual_feature_extraction_block_1/conv1d_and__batch_norm_6/conv1d_21/BiasAdd/ReadVariableOp", "op": "Const", "attr": {"value": {"tensor": {"dtype": "DT_FLOAT", "tensorShape": {"dim": [{"size": "128"}]}}}, "dtype": {"type": "DT_FLOAT"}}}, {"name": "StatefulPartitionedCall/heavy_chain_align_airr/conv_residual_feature_extraction_block_1/conv1d_and__batch_norm_6/conv1d_22/Conv1D/ExpandDims/dim", "op": "Const", "attr": {"value": {"tensor": {"dtype": "DT_INT32", "tensorShape": {}}}, "dtype": {"type": "DT_INT32"}}}, {"name": "StatefulPartitionedCall/heavy_chain_align_airr/conv_residual_feature_extraction_block_1/conv1d_and__batch_norm_6/conv1d_22/Conv1D/ExpandDims_1", "op": "Const", "attr": {"dtype": {"type": "DT_FLOAT"}, "value": {"tensor": {"dtype": "DT_FLOAT", "tensorShape": {"dim": [{"size": "1"}, {"size": "3"}, {"size": "128"}, {"size": "128"}]}}}}}, {"name": "StatefulPartitionedCall/heavy_chain_align_airr/conv_residual_feature_extraction_block_1/conv1d_and__batch_norm_6/conv1d_22/BiasAdd/ReadVariableOp", "op": "Const", "attr": {"dtype": {"type": "DT_FLOAT"}, "value": {"tensor": {"dtype": "DT_FLOAT", "tensorShape": {"dim": [{"size": "128"}]}}}}}, {"name": "StatefulPartitionedCall/heavy_chain_align_airr/conv_residual_feature_extraction_block_1/conv1d_and__batch_norm_6/batch_normalization_6/batchnorm/mul", "op": "Const", "attr": {"value": {"tensor": {"dtype": "DT_FLOAT", "tensorShape": {"dim": [{"size": "128"}]}}}, "dtype": {"type": "DT_FLOAT"}}}, {"name": "StatefulPartitionedCall/heavy_chain_align_airr/conv_residual_feature_extraction_block_1/conv1d_and__batch_norm_6/batch_normalization_6/batchnorm/sub", "op": "Const", "attr": {"dtype": {"type": "DT_FLOAT"}, "value": {"tensor": {"dtype": "DT_FLOAT", "tensorShape": {"dim": [{"size": "128"}]}}}}}, {"name": "StatefulPartitionedCall/heavy_chain_align_airr/conv_residual_feature_extraction_block_1/conv1d_and__batch_norm_6/max_pooling1d_14/ExpandDims/dim", "op": "Const", "attr": {"value": {"tensor": {"dtype": "DT_INT32", "tensorShape": {}}}, "dtype": {"type": "DT_INT32"}}}, {"name": "StatefulPartitionedCall/heavy_chain_align_airr/conv_residual_feature_extraction_block_1/conv1d_and__batch_norm_5/conv1d_17/Conv1D/ExpandDims/dim", "op": "Const", "attr": {"value": {"tensor": {"dtype": "DT_INT32", "tensorShape": {}}}, "dtype": {"type": "DT_INT32"}}}, {"name": "StatefulPartitionedCall/heavy_chain_align_airr/conv_residual_feature_extraction_block_1/conv1d_and__batch_norm_5/conv1d_17/Conv1D/ExpandDims_1", "op": "Const", "attr": {"dtype": {"type": "DT_FLOAT"}, "value": {"tensor": {"dtype": "DT_FLOAT", "tensorShape": {"dim": [{"size": "1"}, {"size": "3"}, {"size": "128"}, {"size": "128"}]}}}}}, {"name": "StatefulPartitionedCall/heavy_chain_align_airr/conv_residual_feature_extraction_block_1/conv1d_and__batch_norm_5/conv1d_17/BiasAdd/ReadVariableOp", "op": "Const", "attr": {"dtype": {"type": "DT_FLOAT"}, "value": {"tensor": {"dtype": "DT_FLOAT", "tensorShape": {"dim": [{"size": "128"}]}}}}}, {"name": "StatefulPartitionedCall/heavy_chain_align_airr/conv_residual_feature_extraction_block_1/conv1d_and__batch_norm_5/conv1d_18/Conv1D/ExpandDims/dim", "op": "Const", "attr": {"dtype": {"type": "DT_INT32"}, "value": {"tensor": {"dtype": "DT_INT32", "tensorShape": {}}}}}, {"name": "StatefulPartitionedCall/heavy_chain_align_airr/conv_residual_feature_extraction_block_1/conv1d_and__batch_norm_5/conv1d_18/Conv1D/ExpandDims_1", "op": "Const", "attr": {"value": {"tensor": {"dtype": "DT_FLOAT", "tensorShape": {"dim": [{"size": "1"}, {"size": "3"}, {"size": "128"}, {"size": "128"}]}}}, "dtype": {"type": "DT_FLOAT"}}}, {"name": "StatefulPartitionedCall/heavy_chain_align_airr/conv_residual_feature_extraction_block_1/conv1d_and__batch_norm_5/conv1d_18/BiasAdd/ReadVariableOp", "op": "Const", "attr": {"value": {"tensor": {"dtype": "DT_FLOAT", "tensorShape": {"dim": [{"size": "128"}]}}}, "dtype": {"type": "DT_FLOAT"}}}, {"name": "StatefulPartitionedCall/heavy_chain_align_airr/conv_residual_feature_extraction_block_1/conv1d_and__batch_norm_5/conv1d_19/Conv1D/ExpandDims/dim", "op": "Const", "attr": {"value": {"tensor": {"dtype": "DT_INT32", "tensorShape": {}}}, "dtype": {"type": "DT_INT32"}}}, {"name": "StatefulPartitionedCall/heavy_chain_align_airr/conv_residual_feature_extraction_block_1/conv1d_and__batch_norm_5/conv1d_19/Conv1D/ExpandDims_1", "op": "Const", "attr": {"value": {"tensor": {"dtype": "DT_FLOAT", "tensorShape": {"dim": [{"size": "1"}, {"size": "3"}, {"size": "128"}, {"size": "128"}]}}}, "dtype": {"type": "DT_FLOAT"}}}, {"name": "StatefulPartitionedCall/heavy_chain_align_airr/conv_residual_feature_extraction_block_1/conv1d_and__batch_norm_5/conv1d_19/BiasAdd/ReadVariableOp", "op": "Const", "attr": {"dtype": {"type": "DT_FLOAT"}, "value": {"tensor": {"dtype": "DT_FLOAT", "ten…
 "StatefulPartitionedCall/heavy_chain_align_airr/conv_residual_feature_extraction_block_3/conv1d_and__batch_norm_9/conv1d_31/Conv1D/ExpandDims_1", "shape": [1, 3, 128, 128], "dtype": "float32"}, {"name": "StatefulPartitionedCall/heavy_chain_align_airr/conv_residual_feature_extraction_block_3/conv1d_and__batch_norm_9/conv1d_31/BiasAdd/ReadVariableOp", "shape": [128], "dtype": "float32"}, {"name": "StatefulPartitionedCall/heavy_chain_align_airr/conv_residual_feature_extraction_block_3/conv1d_and__batch_norm_9/conv1d_32/Conv1D/ExpandDims/dim", "shape": [], "dtype": "int32"}, {"name": "StatefulPartitionedCall/heavy_chain_align_airr/conv_residual_feature_extraction_block_3/conv1d_and__batch_norm_9/conv1d_32/Conv1D/ExpandDims_1", "shape": [1, 3, 128, 128], "dtype": "float32"}, {"name": "StatefulPartitionedCall/heavy_chain_align_airr/conv_residual_feature_extraction_block_3/conv1d_and__batch_norm_9/conv1d_32/BiasAdd/ReadVariableOp", "shape": [128], "dtype": "float32"}, {"name": "StatefulPartitionedCall/heavy_chain_align_airr/conv_residual_feature_extraction_block_3/conv1d_and__batch_norm_9/batch_normalization_9/batchnorm/mul", "shape": [128], "dtype": "float32"}, {"name": "StatefulPartitionedCall/heavy_chain_align_airr/conv_residual_feature_extraction_block_3/conv1d_and__batch_norm_9/batch_normalization_9/batchnorm/sub", "shape": [128], "dtype": "float32"}, {"name": "StatefulPartitionedCall/heavy_chain_align_airr/conv_residual_feature_extraction_block_3/conv1d_and__batch_norm_9/max_pooling1d_21/ExpandDims/dim", "shape": [], "dtype": "int32"}, {"name": "StatefulPartitionedCall/heavy_chain_align_airr/conv_residual_feature_extraction_block_3/conv1d_and__batch_norm_8/conv1d_27/Conv1D/ExpandDims/dim", "shape": [], "dtype": "int32"}, {"name": "StatefulPartitionedCall/heavy_chain_align_airr/conv_residual_feature_extraction_block_3/conv1d_and__batch_norm_8/conv1d_27/Conv1D/ExpandDims_1", "shape": [1, 3, 32, 128], "dtype": "float32"}, {"name": "StatefulPartitionedCall/heavy_chain_align_airr/conv_residual_feature_extraction_block_3/conv1d_and__batch_norm_8/conv1d_27/BiasAdd/ReadVariableOp", "shape": [128], "dtype": "float32"}, {"name": "StatefulPartitionedCall/heavy_chain_align_airr/conv_residual_feature_extraction_block_3/conv1d_and__batch_norm_8/conv1d_28/Conv1D/ExpandDims/dim", "shape": [], "dtype": "int32"}, {"name": "StatefulPartitionedCall/heavy_chain_align_airr/conv_residual_feature_extraction_block_3/conv1d_and__batch_norm_8/conv1d_28/Conv1D/ExpandDims_1", "shape": [1, 3, 128, 128], "dtype": "float32"}, {"name": "StatefulPartitionedCall/heavy_chain_align_airr/conv_residual_feature_extraction_block_3/conv1d_and__batch_norm_8/conv1d_28/BiasAdd/ReadVariableOp", "shape": [128], "dtype": "float32"}, {"name": "StatefulPartitionedCall/heavy_chain_align_airr/conv_residual_feature_extraction_block_3/conv1d_and__batch_norm_8/conv1d_29/Conv1D/ExpandDims/dim", "shape": [], "dtype": "int32"}, {"name": "StatefulPartitionedCall/heavy_chain_align_airr/conv_residual_feature_extraction_block_3/conv1d_and__batch_norm_8/conv1d_29/Conv1D/ExpandDims_1", "shape": [1, 3, 128, 128], "dtype": "float32"}, {"name": "StatefulPartitionedCall/heavy_chain_align_airr/conv_residual_feature_extraction_block_3/conv1d_and__batch_norm_8/conv1d_29/BiasAdd/ReadVariableOp", "shape": [128], "dtype": "float32"}, {"name": "StatefulPartitionedCall/heavy_chain_align_airr/conv_residual_feature_extraction_block_3/conv1d_and__batch_norm_8/batch_normalization_8/batchnorm/mul", "shape": [128], "dtype": "float32"}, {"name": "StatefulPartitionedCall/heavy_chain_align_airr/conv_residual_feature_extraction_block_3/conv1d_and__batch_norm_8/batch_normalization_8/batchnorm/sub", "shape": [128], "dtype": "float32"}, {"name": "StatefulPartitionedCall/heavy_chain_align_airr/conv_residual_feature_extraction_block_3/conv1d_and__batch_norm_8/max_pooling1d_20/ExpandDims/dim", "shape": [], "dtype": "int32"}, {"name": "StatefulPartitionedCall/heavy_chain_align_airr/conv_residual_feature_extraction_block_3/conv1d_26/Conv1D/ExpandDims/dim", "shape": [], "dtype": "int32"}, {"name": "StatefulPartitionedCall/heavy_chain_align_airr/conv_residual_feature_extraction_block_3/conv1d_26/Conv1D/ExpandDims_1", "shape": [1, 5, 32, 128], "dtype": "float32"}, {"name": "StatefulPartitionedCall/heavy_chain_align_airr/conv_residual_feature_extraction_block_3/conv1d_26/BiasAdd/ReadVariableOp", "shape": [128], "dtype": "float32"}, {"name": "StatefulPartitionedCall/heavy_chain_align_airr/conv_residual_feature_extraction_block_3/max_pooling1d_16/ExpandDims/dim", "shape": [], "dtype": "int32"}, {"name": "StatefulPartitionedCall/heavy_chain_align_airr/conv_residual_feature_extraction_block_3/max_pooling1d_16/ExpandDims_1/dim", "shape": [], "dtype": "int32"}, {"name": "StatefulPartitionedCall/heavy_chain_align_airr/conv_residual_feature_extraction_block_3/max_pooling1d_17/ExpandDims/dim", "shape": [], "dtype": "int32"}, {"name": "StatefulPartitionedCall/heavy_chain_align_airr/conv_residual_feature_extraction_block_3/max_pooling1d_18/ExpandDims/dim", "shape": [], "dtype": "int32"}, {"name": "StatefulPartitionedCall/heavy_chain_align_airr/conv_residual_feature_extraction_block_3/max_pooling1d_19/ExpandDims/dim", "shape": [], "dtype": "int32"}, {"name": "StatefulPartitionedCall/heavy_chain_align_airr/conv_residual_feature_extraction_block_3/flatten_2/Const", "shape": [2], "dtype": "int32"}, {"name": "StatefulPartitionedCall/heavy_chain_align_airr/conv_residual_feature_extraction_block_3/dense_2/MatMul/ReadVariableOp", "shape": [2304, 576], "dtype": "float32"}, {"name": "StatefulPartitionedCall/heavy_chain_align_airr/conv_residual_feature_extraction_block_3/dense_2/BiasAdd/ReadVariableOp", "shape": [576], "dtype": "float32"}, {"name": "StatefulPartitionedCall/heavy_chain_align_airr/j_start/MatMul/ReadVariableOp", "shape": [576, 1], "dtype": "float32"}, {"name": "StatefulPartitionedCall/heavy_chain_align_airr/j_start/BiasAdd/ReadVariableOp", "shape": [1], "dtype": "float32"}, {"name": "StatefulPartitionedCall/heavy_chain_align_airr/j_start/Pow/y", "shape": [], "dtype": "float32"}, {"name": "StatefulPartitionedCall/heavy_chain_align_airr/mutation_rate_mid/mul_2/x", "shape": [], "dtype": "float32"}, {"name": "StatefulPartitionedCall/heavy_chain_align_airr/mutation_rate_mid/add_1/x", "shape": [], "dtype": "float32"}, {"name": "StatefulPartitionedCall/heavy_chain_align_airr/mutation_rate_mid/Sqrt", "shape": [], "dtype": "float32"}, {"name": "StatefulPartitionedCall/heavy_chain_align_airr/mutation_rate_mid/mul/x", "shape": [], "dtype": "float32"}, {"name": "StatefulPartitionedCall/heavy_chain_align_airr/mutation_rate_mid/MatMul/ReadVariableOp", "shape": [576, 576], "dtype": "float32"}, {"name": "StatefulPartitionedCall/heavy_chain_align_airr/mutation_rate_mid/BiasAdd/ReadVariableOp", "shape": [576], "dtype": "float32"}, {"name": "StatefulPartitionedCall/heavy_chain_align_airr/mutation_rate_mid/Pow/y", "shape": [], "dtype": "float32"}, {"name": "StatefulPartitionedCall/heavy_chain_align_airr/mutation_rate/MatMul/ReadVariableOp", "shape": [576, 1], "dtype": "float32"}, {"name": "StatefulPartitionedCall/heavy_chain_align_airr/mutation_rate/BiasAdd/ReadVariableOp", "shape": [1], "dtype": "float32"}, {"name": "StatefulPartitionedCall/heavy_chain_align_airr/conv_residual_feature_extraction_block/conv1d_and__batch_norm_3/conv1d_10/Conv1D/ExpandDims/dim", "shape": [], "dtype": "int32"}, {"name": "StatefulPartitionedCall/heavy_chain_align_airr/conv_residual_feature_extraction_block/conv1d_and__batch_norm_3/conv1d_10/Conv1D/ExpandDims_1", "shape": [1, 2, 128, 128], "dtype": "float32"}, {"name": "StatefulPartitionedCall/heavy_chain_align_airr/conv_residual_feature_extraction_block/conv1d_and__batch_norm_3/conv1d_10/BiasAdd/ReadVariableOp", "shape": [128], "dtype": "float32"}, {"name": "StatefulPartitionedCall/heavy_chain_align_airr/conv_residual_feature_extraction_block/conv1d_and__batch_norm_3/conv1d_11/Conv1D/ExpandDims/dim", "shape": [], "dtype": "int32"}, {"name": "StatefulPartitionedCall/heavy_chain_align_airr/conv_residual_feature_extraction_block/conv1d_and__batch_norm_3/conv1d_11/Conv1D/ExpandDims_1", "shape": [1, 2, 128, 128], "dtype": "float32"}, {"name": "StatefulPartitionedCall/heavy_chain_align_airr/conv_residual_feature_extraction_block/conv1d_and__batch_norm_3/conv1d_11/BiasAdd/ReadVariableOp", "shape": [128], "dtype": "float32"}, {"name": "StatefulPartitionedCall/heavy_chain_align_airr/conv_residual_feature_extraction_block/conv1d_and__batch_norm_3/conv1d_12/Conv1D/ExpandDims/dim", "shape": [], "dtype": "int32"}, {"name": "StatefulPartitionedCall/heavy_chain_align_airr/conv_residual_feature_extraction_block/conv1d_and__batch_norm_3/conv1d_12/Conv1D/ExpandDims_1", "shape": [1, 2, 128, 128], "dtype": "float32"}, {"name": "StatefulPartitionedCall/heavy_chain_align_airr/conv_residual_feature_extraction_block/conv1d_and__batch_norm_3/conv1d_12/BiasAdd/ReadVariableOp", "shape": [128], "dtype": "float32"}, {"name": "StatefulPartitionedCall/heavy_chain_align_airr/conv_residual_feature_extraction_block/conv1d_and__batch_norm_3/batch_normalization_3/batchnorm/mul", "shape": [128], "dtype": "float32"}, {"name": "StatefulPartitionedCall/heavy_chain_align_airr/conv_residual_feature_extraction_block/conv1d_and__batch_norm_3/batch_normalization_3/batchnorm/sub", "shape": [128], "dtype": "float32"}, {"name": "StatefulPartitionedCall/heavy_chain_align_airr/conv_residual_feature_extraction_block/conv1d_and__batch_norm_3/max_pooling1d_7/ExpandDims/dim", "shape": [], "dtype": "int32"}, {"name": "StatefulPartitionedCall/heavy_chain_align_airr/conv_residual_feature_extraction_block/conv1d_and__batch_norm_2/conv1d_7/Conv1D/ExpandDims/dim", "shape": [], "dtype": "int32"}, {"name": "StatefulPartitionedCall/heavy_chain_align_airr/conv_residual_feature_extraction_block/conv1d_and__batch_norm_2/conv1d_7/Conv1D/ExpandDims_1", "shape": [1, 3, 128, 128], "dtype": "float32"}, {"name": "StatefulPartitionedCall/heavy_chain_align_airr/conv_residual_feature_extraction_block/conv1d_and__batch_norm_2/conv1d_7/BiasAdd/ReadVariableOp", "shape": [128], "dtype": "float32"}, {"name": "StatefulPartitionedCall/heavy_chain_align_airr/conv_residual_feature_extraction_block/conv1d_and__batch_norm_2/conv1d_8/Conv1D/ExpandDims/dim", "shape": [], "dtype": "int32"}, {"name": "StatefulPartitionedCall/heavy_chain_align_airr/conv_residual_feature_extraction_block/conv1d_and__batch_norm_2/conv1d_8/Conv1D/ExpandDims_1", "shape": [1, 3, 128, 128], "dtype": "float32"}, {"name": "StatefulPartitionedCall/heavy_chain_align_airr/conv_residual_feature_extraction_block/conv1d_and__batch_norm_2/conv1d_8/BiasAdd/ReadVariableOp", "shape": [128], "dtype": "float32"}, {"name": "StatefulPartitionedCall/heavy_chain_align_airr/conv_residual_feature_extraction_block/conv1d_and__batch_norm_2/conv1d_9/Conv1D/ExpandDims/dim", "shape": [], "dtype": "int32"}, {"name": "StatefulPartitionedCall/heavy_chain_align_airr/conv_residual_feature_extraction_block/conv1d_and__batch_norm_2/conv1d_9/Conv1D/ExpandDims_1", "shape": [1, 3, 128, 128], "dtype": "float32"}, {"name": "StatefulPartitionedCall/heavy_chain_align_airr/conv_residual_feature_extraction_block/conv1d_and__batch_norm_2/conv1d_9/BiasAdd/ReadVariableOp", "shape": [128], "dtype": "float32"}, {"name": "StatefulPartitionedCall/heavy_chain_align_airr/conv_residual_feature_extraction_block/conv1d_and__batch_norm_2/batch_normalization_2/batchnorm/mul", "shape": [128], "dtype": "float32"}, {"name": "StatefulPartitionedCall/heavy_chain_align_airr/conv_residual_feature_extraction_block/conv1d_and__batch_norm_2/batch_normalization_2/batchnorm/sub", "shape": [128], "dtype": "float32"}, {"name": "StatefulPartitionedCall/heavy_chain_align_airr/conv_residual_feature_extraction_block/conv1d_and__batch_norm_2/max_pooling1d_6/ExpandDims/dim", "shape": [], "dtype": "int32"}, {"name": "StatefulPartitionedCall/heavy_chain_align_airr/conv_residual_feature_extraction_block/conv1d_and__batch_norm_1/conv1d_4/Conv1D/ExpandDims/dim", "shape": [], "dtype": "int32"}, {"name": "StatefulPartitionedCall/heavy_chain_align_airr/conv_residual_feature_extraction_block/conv1d_and__batch_norm_1/conv1d_4/Conv1D/ExpandDims_1", "shape": [1, 3, 128, 128], "dtype": "float32"}, {"name": "StatefulPartitionedCall/heavy_chain_align_airr/conv_residual_feature_extraction_block/conv1d_and__batch_norm_1/conv1d_4/BiasAdd/ReadVariableOp", "shape": [128], "dtype": "float32"}, {"name": "StatefulPartitionedCall/heavy_chain_align_airr/conv_residual_feature_extraction_block/conv1d_and__batch_norm_1/conv1d_5/Conv1D/ExpandDims/dim", "shape": [], "dtype": "int32"}, {"name": "StatefulPartitionedCall/heavy_chain_align_airr/conv_residual_feature_extraction_block/conv1d_and__batch_norm_1/conv1d_5/Conv1D/ExpandDims_1", "shape": [1, 3, 128, 128], "dtype": "float32"}, {"name": "StatefulPartitionedCall/heavy_chain_align_airr/conv_residual_feature_extraction_block/conv1d_and__batch_norm_1/conv1d_5/BiasAdd/ReadVariableOp", "shape": [128], "dtype": "float32"}, {"name": "StatefulPartitionedCall/heavy_chain_align_airr/conv_residual_feature_extraction_block/conv1d_and__batch_norm_1/conv1d_6/Conv1D/ExpandDims/dim", "shape": [], "dtype": "int32"}, {"name": "StatefulPartitionedCall/heavy_chain_align_airr/conv_residual_feature_extraction_block/conv1d_and__batch_norm_1/conv1d_6/Conv1D/ExpandDims_1", "shape": [1, 3, 128, 128], "dtype": "float32"}, {"name": "StatefulPartitionedCall/heavy_chain_align_airr/conv_residual_feature_extraction_block/conv1d_and__batch_norm_1/conv1d_6/BiasAdd/ReadVariableOp", "shape": [128], "dtype": "float32"}, {"name": "StatefulPartitionedCall/heavy_chain_align_airr/conv_residual_feature_extraction_block/conv1d_and__batch_norm_1/batch_normalization_1/batchnorm/mul", "shape": [128], "dtype": "float32"}, {"name": "StatefulPartitionedCall/heavy_chain_align_airr/conv_residual_feature_extraction_block/conv1d_and__batch_norm_1/batch_normalization_1/batchnorm/sub", "shape": [128], "dtype": "float32"}, {"name": "StatefulPartitionedCall/heavy_chain_align_airr/conv_residual_feature_extraction_block/conv1d_and__batch_norm_1/max_pooling1d_5/ExpandDims/dim", "shape": [], "dtype": "int32"}, {"name": "StatefulPartitionedCall/heavy_chain_align_airr/conv_residual_feature_extraction_block/conv1d_and__batch_norm/conv1d_1/Conv1D/ExpandDims/dim", "shape": [], "dtype": "int32"}, {"name": "StatefulPartitionedCall/heavy_chain_align_airr/conv_residual_feature_extraction_block/conv1d_and__batch_norm/conv1d_1/Conv1D/ExpandDims_1", "shape": [1, 3, 32, 128], "dtype": "float32"}, {"name": "StatefulPartitionedCall/heavy_chain_align_airr/conv_residual_feature_extraction_block/conv1d_and__batch_norm/conv1d_1/BiasAdd/ReadVariableOp", "shape": [128], "dtype": "float32"}, {"name": "StatefulPartitionedCall/heavy_chain_align_airr/conv_residual_feature_extraction_block/conv1d_and__batch_norm/conv1d_2/Conv1D/ExpandDims/dim", "shape": [], "dtype": "int32"}, {"name": "StatefulPartitionedCall/heavy_chain_align_airr/conv_residual_feature_extraction_block/conv1d_and__batch_norm/conv1d_2/Conv1D/ExpandDims_1", "shape": [1, 3, 128, 128], "dtype": "float32"}, {"name": "StatefulPartitionedCall/heavy_chain_align_airr/conv_residual_feature_extraction_block/conv1d_and__batch_norm/conv1d_2/BiasAdd/ReadVariableOp", "shape": [128], "dtype": "float32"}, {"name": "StatefulPartitionedCall/heavy_chain_align_airr/conv_residual_feature_extraction_block/conv1d_and__batch_norm/conv1d_3/Conv1D/ExpandDims/dim", "shape": [], "dtype": "int32"}, {"name": "StatefulPartitionedCall/heavy_chain_align_airr/conv_residual_feature_extraction_block/conv1d_and__batch_norm/conv1d_3/Conv1D/ExpandDims_1", "shape": [1, 3, 128, 128], "dtype": "float32"}, {"name": "StatefulPartitionedCall/heavy_chain_align_airr/conv_residual_feature_extraction_block/conv1d_and__batch_norm/conv1d_3/BiasAdd/ReadVariableOp", "shape": [128], "dtype": "float32"}, {"name": "StatefulPartitionedCall/heavy_chain_align_airr/conv_residual_feature_extraction_block/conv1d_and__batch_norm/batch_normalization/batchnorm/mul", "shape": [128], "dtype": "float32"}, {"name": "StatefulPartitionedCall/heavy_chain_align_airr/conv_residual_feature_extraction_block/conv1d_and__batch_norm/batch_normalization/batchnorm/sub", "shape": [128], "dtype": "float32"}, {"name": "StatefulPartitionedCall/heavy_chain_align_airr/conv_residual_feature_extraction_block/conv1d_and__batch_norm/max_pooling1d_4/ExpandDims/dim", "shape": [], "dtype": "int32"}, {"name": "StatefulPartitionedCall/heavy_chain_align_airr/conv_residual_feature_extraction_block/conv1d/Conv1D/ExpandDims/dim", "shape": [], "dtype": "int32"}, {"name": "StatefulPartitionedCall/heavy_chain_align_airr/conv_residual_feature_extraction_block/conv1d/Conv1D/ExpandDims_1", "shape": [1, 5, 32, 128], "dtype": "float32"}, {"name": "StatefulPartitionedCall/heavy_chain_align_airr/conv_residual_feature_extraction_block/conv1d/BiasAdd/ReadVariableOp", "shape": [128], "dtype": "float32"}, {"name": "StatefulPartitionedCall/heavy_chain_align_airr/conv_residual_feature_extraction_block/max_pooling1d/ExpandDims/dim", "shape": [], "dtype": "int32"}, {"name": "StatefulPartitionedCall/heavy_chain_align_airr/conv_residual_feature_extraction_block/max_pooling1d/ExpandDims_1/dim", "shape": [], "dtype": "int32"}, {"name": "StatefulPartitionedCall/heavy_chain_align_airr/conv_residual_feature_extraction_block/max_pooling1d_1/ExpandDims/dim", "shape": [], "dtype": "int32"}, {"name": "StatefulPartitionedCall/heavy_chain_align_airr/conv_residual_feature_extraction_block/max_pooling1d_2/ExpandDims/dim", "shape": [], "dtype": "int32"}, {"name": "StatefulPartitionedCall/heavy_chain_align_airr/conv_residual_feature_extraction_block/max_pooling1d_3/ExpandDims/dim", "shape": [], "dtype": "int32"}, {"name": "StatefulPartitionedCall/heavy_chain_align_airr/conv_residual_feature_extraction_block/flatten/Const", "shape": [2], "dtype": "int32"}, {"name": "StatefulPartitionedCall/heavy_chain_align_airr/conv_residual_feature_extraction_block/dense/MatMul/ReadVariableOp", "shape": [2304, 576], "dtype": "float32"}, {"name": "StatefulPartitionedCall/heavy_chain_align_airr/conv_residual_feature_extraction_block/dense/BiasAdd/ReadVariableOp", "shape": [576], "dtype": "float32"}, {"name": "StatefulPartitionedCall/heavy_chain_align_airr/productive/MatMul/ReadVariableOp", "shape": [576, 1], "dtype": "float32"}, {"name": "StatefulPartitionedCall/heavy_chain_align_airr/productive/BiasAdd/ReadVariableOp", "shape": [1], "dtype": "float32"}, {"name": "StatefulPartitionedCall/heavy_chain_align_airr/conv_residual_feature_extraction_block_4/conv1d_and__batch_norm_21/conv1d_68/Conv1D/ExpandDims/dim", "shape": [], "dtype": "int32"}, {"name": "StatefulPartitionedCall/heavy_chain_align_airr/conv_residual_feature_extraction_block_4/conv1d_and__batch_norm_21/conv1d_68/Conv1D/ExpandDims_1", "shape": [1, 2, 128, 128], "dtype": "float32"}, {"name": "StatefulPartitionedCall/heavy_chain_align_airr/conv_residual_feature_extraction_block_4/conv1d_and__batch_norm_21/conv1d_68/BiasAdd/ReadVariableOp", "shape": [128], "dtype": "float32"}, {"name": "StatefulPartitionedCall/heavy_chain_align_airr/conv_residual_feature_extraction_block_4/conv1d_and__batch_norm_21/conv1d_69/Conv1D/ExpandDims/dim", "shape": [], "dtype": "int32"}, {"name": "StatefulPartitionedCall/heavy_chain_align_airr/conv_residual_feature_extraction_block_4/conv1d_and__batch_norm_21/conv1d_69/Conv1D/ExpandDims_1", "shape": [1, 2, 128, 128], "dtype": "float32"}, {"name": "StatefulPartitionedCall/heavy_chain_align_airr/conv_residual_feature_extraction_block_4/conv1d_and__batch_norm_21/conv1d_69/BiasAdd/ReadVariableOp", "shape": [128], "dtype": "float32"}, {"name": "StatefulPartitionedCall/heavy_chain_align_airr/conv_residual_feature_extraction_block_4/conv1d_and__batch_norm_21/conv1d_70/Conv1D/ExpandDims/dim", "shape": [], "dtype": "int32"}, {"name": "StatefulPartitionedCall/heavy_chain_align_airr/conv_residual_feature_extraction_block_4/conv1d_and__batch_norm_21/conv1d_70/Conv1D/ExpandDims_1", "shape": [1, 2, 128, 128], "dtype": "float32"}, {"name": "StatefulPartitionedCall/heavy_chain_align_airr/conv_residual_feature_extraction_block_4/conv1d_and__batch_norm_21/conv1d_70/BiasAdd/ReadVariableOp", "shape": [128], "dtype": "float32"}, {"name": "StatefulPartitionedCall/heavy_chain_align_airr/conv_residual_feature_extraction_block_4/conv1d_and__batch_norm_21/batch_normalization_21/batchnorm/mul", "shape": [128], "dtype": "float32"}, {"name": "StatefulPartitionedCall/heavy_chain_align_airr/conv_residual_feature_extraction_block_4/conv1d_and__batch_norm_21/batch_normalization_21/batchnorm/sub", "shape": [128], "dtype": "float32"}, {"name": "StatefulPartitionedCall/heavy_chain_align_airr/conv_residual_feature_extraction_block_4/conv1d_and__batch_norm_21/max_pooling1d_43/ExpandDims/dim", "shape": [], "dtype": "int32"}, {"name": "StatefulPartitionedCall/heavy_chain_align_airr/conv_residual_feature_extraction_block_4/conv1d_and__batch_norm_20/conv1d_65/Conv1D/ExpandDims/dim", "shape": [], "dtype": "int32"}, {"name": "StatefulPartitionedCall/heavy_chain_align_airr/conv_residual_feature_extraction_block_4/conv1d_and__batch_norm_20/conv1d_65/Conv1D/ExpandDims_1", "shape": [1, 2, 128, 128], "dtype": "float32"}, {"name": "StatefulPartitionedCall/heavy_chain_align_airr/conv_residual_feature_extraction_block_4/conv1d_and__batch_norm_20/conv1d_65/BiasAdd/ReadVariableOp", "shape": [128], "dtype": "float32"}, {"name": "StatefulPartitionedCall/heavy_chain_align_airr/conv_residual_feature_extraction_block_4/conv1d_and__batch_norm_20/conv1d_66/Conv1D/ExpandDims/dim", "shape": [], "dtype": "int32"}, {"name": "StatefulPartitionedCall/heavy_chain_align_airr/conv_residual_feature_extraction_block_4/conv1d_and__batch_norm_20/conv1d_66/Conv1D/ExpandDims_1", "shape": [1, 2, 128, 128], "dtype": "float32"}, {"name": "StatefulPartitionedCall/heavy_chain_align_airr/conv_residual_feature_extraction_block_4/conv1d_and__batch_norm_20/conv1d_66/BiasAdd/ReadVariableOp", "shape": [128], "dtype": "float32"}, {"name": "StatefulPartitionedCall/heavy_chain_align_airr/conv_residual_feature_extraction_block_4/conv1d_and__batch_norm_20/conv1d_67/Conv1D/ExpandDims/dim", "shape": [], "dtype": "int32"}, {"name": "StatefulPartitionedCall/heavy_chain_align_airr/conv_residual_feature_extraction_block_4/conv1d_and__batch_norm_20/conv1d_67/Conv1D/ExpandDims_1", "shape": [1, 2, 128, 128], "dtype": "float32"}, {"name": "StatefulPartitionedCall/heavy_chain_align_airr/conv_residual_feature_extraction_block_4/conv1d_and__batch_norm_20/conv1d_67/BiasAdd/ReadVariableOp", "shape": [128], "dtype": "float32"}, {"name": "StatefulPartitionedCall/heavy_chain_align_airr/conv_residual_feature_extraction_block_4/conv1d_and__batch_norm_20/batch_normalization_20/batchnorm/mul", "shape": [128], "dtype": "float32"}, {"name": "StatefulPartitionedCall/heavy_chain_align_airr/conv_residual_feature_extraction_block_4/conv1d_and__batch_norm_20/batch_normalization_20/batchnorm/sub", "shape": [128], "dtype": "float32"}, {"name": "StatefulPartitionedCall/heavy_chain_align_airr/conv_residual_feature_extraction_block_4/conv1d_and__batch_norm_20/max_pooling1d_42/ExpandDims/dim", "shape": [], "dtype": "int32"}, {"name": "StatefulPartitionedCall/heavy_chain_align_airr/conv_residual_feature_extraction_block_4/conv1d_and__batch_norm_19/conv1d_62/Conv1D/ExpandDims/dim", "shape": [], "dtype": "int32"}, {"name": "StatefulPartitionedCall/heavy_chain_align_airr/conv_residual_feature_extraction_block_4/conv1d_and__batch_norm_19/conv1d_62/Conv1D/ExpandDims_1", "shape": [1, 2, 128, 128], "dtype": "float32"}, {"name": "StatefulPartitionedCall/heavy_chain_align_airr/conv_residual_feature_extraction_block_4/conv1d_and__batch_norm_19/conv1d_62/BiasAdd/ReadVariableOp", "shape": [128], "dtype": "float32"}, {"name": "StatefulPartitionedCall/heavy_chain_align_airr/conv_residual_feature_extraction_block_4/conv1d_and__batch_norm_19/conv1d_63/Conv1D/ExpandDims/dim", "shape": [], "dtype": "int32"}, {"name": "StatefulPartitionedCall/heavy_chain_align_airr/conv_residual_feature_extraction_block_4/conv1d_and__batch_norm_19/conv1d_63/Conv1D/ExpandDims_1", "shape": [1, 2, 128, 128], "dtype": "float32"}, {"name": "StatefulPartitionedCall/heavy_chain_align_airr/conv_residual_feature_extraction_block_4/conv1d_and__batch_norm_19/conv1d_63/BiasAdd/ReadVariableOp", "shape": [128], "dtype": "float32"}, {"name": "StatefulPartitionedCall/heavy_chain_align_airr/conv_residual_feature_extraction_block_4/conv1d_and__batch_norm_19/conv1d_64/Conv1D/ExpandDims/dim", "shape": [], "dtype": "int32"}, {"name": "StatefulPartitionedCall/heavy_chain_align_airr/conv_residual_feature_extraction_block_4/conv1d_and__batch_norm_19/conv1d_64/Conv1D/ExpandDims_1", "shape": [1, 2, 128, 128], "dtype": "float32"}, {"name": "StatefulPartitionedCall/heavy_chain_align_airr/conv_residual_feature_extraction_block_4/conv1d_and__batch_norm_19/conv1d_64/BiasAdd/ReadVariableOp", "shape": [128], "dtype": "float32"}, {"name": "StatefulPartitionedCall/heavy_chain_align_airr/conv_residual_feature_extraction_block_4/conv1d_and__batch_norm_19/batch_normalization_19/batchnorm/mul", "shape": [128], "dtype": "float32"}, {"name": "StatefulPartitionedCall/heavy_chain_align_airr/conv_residual_feature_extraction_block_4/conv1d_and__batch_norm_19/batch_normalization_19/batchnorm/sub", "shape": [128], "dtype": "float32"}, {"name": "StatefulPartitionedCall/heavy_chain_align_airr/conv_residual_feature_extraction_block_4/conv1d_and__batch_norm_19/max_pooling1d_41/ExpandDims/dim", "shape": [], "dtype": "int32"}, {"name": "StatefulPartitionedCall/heavy_chain_align_airr/conv_residual_feature_extraction_block_4/conv1d_and__batch_norm_18/conv1d_59/Conv1D/ExpandDims/dim", "shape": [], "dtype": "int32"}, {"name": "StatefulPartitionedCall/heavy_chain_align_airr/conv_residual_feature_extraction_block_4/conv1d_and__batch_norm_18/conv1d_59/Conv1D/ExpandDims_1", "shape": [1, 3, 128, 128], "dtype": "float32"}, {"name": "StatefulPartitionedCall/heavy_chain_align_airr/conv_residual_feature_extraction_block_4/conv1d_and__batch_norm_18/conv1d_59/BiasAdd/ReadVariableOp", "shape": [128], "dtype": "float32"}, {"name": "StatefulPartitionedCall/heavy_chain_align_airr/conv_residual_feature_extraction_block_4/conv1d_and__batch_norm_18/conv1d_60/Conv1D/ExpandDims/dim", "shape": [], "dtype": "int32"}, {"name": "StatefulPartitionedCall/heavy_chain_align_airr/conv_residual_feature_extraction_block_4/conv1d_and__batch_norm_18/conv1d_60/Conv1D/ExpandDims_1", "shape": [1, 3, 128, 128], "dtype": "float32"}, {"name": "StatefulPartitionedCall/heavy_chain_align_airr/conv_residual_feature_extraction_block_4/conv1d_and__batch_norm_18/conv1d_60/BiasAdd/ReadVariableOp", "shape": [128], "dtype": "float32"}, {"name": "StatefulPartitionedCall/heavy_chain_align_airr/conv_residual_feature_extraction_block_4/conv1d_and__batch_norm_18/conv1d_61/Conv1D/ExpandDims/dim", "shape": [], "dtype": "int32"}, {"name": "StatefulPartitionedCall/heavy_chain_align_airr/conv_residual_feature_extraction_block_4/conv1d_and__batch_norm_18/conv1d_61/Conv1D/ExpandDims_1", "shape": [1, 3, 128, 128], "dtype": "float32"}, {"name": "StatefulPartitionedCall/heavy_chain_align_airr/conv_residual_feature_extraction_block_4/conv1d_and__batch_norm_18/conv1d_61/BiasAdd/ReadVariableOp", "shape": [128], "dtype": "float32"}, {"name": "StatefulPartitionedCall/heavy_chain_align_airr/conv_residual_feature_extraction_block_4/conv1d_and__batch_norm_18/batch_normalization_18/batchnorm/mul", "shape": [128], "dtype": "float32"}, {"name": "StatefulPartitionedCall/heavy_chain_align_airr/conv_residual_feature_extraction_block_4/conv1d_and__batch_norm_18/batch_normalization_18/batchnorm/sub", "shape": [128], "dtype": "float32"}, {"name": "StatefulPartitionedCall/heavy_chain_align_airr/conv_residual_feature_extraction_block_4/conv1d_and__batch_norm_18/max_pooling1d_40/ExpandDims/dim", "shape": [], "dtype": "int32"}, {"name": "StatefulPartitionedCall/heavy_chain_align_airr/conv_residual_feature_extraction_block_4/conv1d_and__batch_norm_17/conv1d_56/Conv1D/ExpandDims/dim", "shape": [], "dtype": "int32"}, {"name": "StatefulPartitionedCall/heavy_chain_align_airr/conv_residual_feature_extraction_block_4/conv1d_and__batch_norm_17/conv1d_56/Conv1D/ExpandDims_1", "shape": [1, 3, 128, 128], "dtype": "float32"}, {"name": "StatefulPartitionedCall/heavy_chain_align_airr/conv_residual_feature_extraction_block_4/conv1d_and__batch_norm_17/conv1d_56/BiasAdd/ReadVariableOp", "shape": [128], "dtype": "float32"}, {"name": "StatefulPartitionedCall/heavy_chain_align_airr/conv_residual_feature_extraction_block_4/conv1d_and__batch_norm_17/conv1d_57/Conv1D/ExpandDims/dim", "shape": [], "dtype": "int32"}, {"name": "StatefulPartitionedCall/heavy_chain_align_airr/conv_residual_feature_extraction_block_4/conv1d_and__batch_norm_17/conv1d_57/Conv1D/ExpandDims_1", "shape": [1, 3, 128, 128], "dtype": "float32"}, {"name": "StatefulPartitionedCall/heavy_chain_align_airr/conv_residual_feature_extraction_block_4/conv1d_and__batch_norm_17/conv1d_57/BiasAdd/ReadVariableOp", "shape": [128], "dtype": "float32"}, {"name": "StatefulPartitionedCall/heavy_chain_align_airr/conv_residual_feature_extraction_block_4/conv1d_and__batch_norm_17/conv1d_58/Conv1D/ExpandDims/dim", "shape": [], "dtype": "int32"}, {"name": "StatefulPartitionedCall/heavy_chain_align_airr/conv_residual_feature_extraction_block_4/conv1d_and__batch_norm_17/conv1d_58/Conv1D/ExpandDims_1", "shape": [1, 3, 128, 128], "dtype": "float32"}, {"name": "StatefulPartitionedCall/heavy_chain_align_airr/conv_residual_feature_extraction_block_4/conv1d_and__batch_norm_17/conv1d_58/BiasAdd/ReadVariableOp", "shape": [128], "dtype": "float32"}, {"name": "StatefulPartitionedCall/heavy_chain_align_airr/conv_residual_feature_extraction_block_4/conv1d_and__batch_norm_17/batch_normalization_17/batchnorm/mul", "shape": [128], "dtype": "float32"}, {"name": "StatefulPartitionedCall/heavy_chain_align_airr/conv_residual_feature_extraction_block_4/conv1d_and__batch_norm_17/batch_normalization_17/batchnorm/sub", "shape": [128], "dtype": "float32"}, {"name": "StatefulPartitionedCall/heavy_chain_align_airr/conv_residual_feature_extraction_block_4/conv1d_and__batch_norm_17/max_pooling1d_39/ExpandDims/dim", "shape": [], "dtype": "int32"}, {"name": "StatefulPartitionedCall/heavy_chain_align_airr/conv_residual_feature_extraction_block_4/conv1d_and__batch_norm_16/conv1d_53/Conv1D/ExpandDims/dim", "shape": [], "dtype": "int32"}, {"name": "StatefulPartitionedCall/heavy_chain_align_airr/conv_residual_feature_extraction_block_4/conv1d_and__batch_norm_16/conv1d_53/Conv1D/ExpandDims_1", "shape": [1, 3, 32, 128], "dtype": "float32"}, {"name": "StatefulPartitionedCall/heavy_chain_align_airr/conv_residual_feature_extraction_block_4/conv1d_and__batch_norm_16/conv1d_53/BiasAdd/ReadVariableOp", "shape": [128], "dtype": "float32"}, {"name": "StatefulPartitionedCall/heavy_chain_align_airr/conv_residual_feature_extraction_block_4/conv1d_and__batch_norm_16/conv1d_54/Conv1D/ExpandDims/dim", "shape": [], "dtype": "int32"}, {"name": "StatefulPartitionedCall/heavy_chain_align_airr/conv_residual_feature_extraction_block_4/conv1d_and__batch_norm_16/conv1d_54/Conv1D/ExpandDims_1", "shape": [1, 3, 128, 128], "dtype": "float32"}, {"name": "StatefulPartitionedCall/heavy_chain_align_airr/conv_residual_feature_extraction_block_4/conv1d_and__batch_norm_16/conv1d_54/BiasAdd/ReadVariableOp", "shape": [128], "dtype": "float32"}, {"name": "StatefulPartitionedCall/heavy_chain_align_airr/conv_residual_feature_extraction_block_4/conv1d_and__batch_norm_16/conv1d_55/Conv1D/ExpandDims/dim", "shape": [], "dtype": "int32"}, {"name": "StatefulPartitionedCall/heavy_chain_align_airr/conv_residual_feature_extraction_block_4/conv1d_and__batch_norm_16/conv1d_55/Conv1D/ExpandDims_1", "shape": [1, 3, 128, 128], "dtype": "float32"}, {"name": "StatefulPartitionedCall/heavy_chain_align_airr/conv_residual_feature_extraction_block_4/conv1d_and__batch_norm_16/conv1d_55/BiasAdd/ReadVariableOp", "shape": [128], "dtype": "float32"}, {"name": "StatefulPartitionedCall/heavy_chain_align_airr/conv_residual_feature_extraction_block_4/conv1d_and__batch_norm_16/batch_normalization_16/batchnorm/mul", "shape": [128], "dtype": "float32"}, {"name": "StatefulPartitionedCall/heavy_chain_align_airr/conv_residual_feature_extraction_block_4/conv1d_and__batch_norm_16/batch_normalization_16/batchnorm/sub", "shape": [128], "dtype": "float32"}, {"name": "StatefulPartitionedCall/heavy_chain_align_airr/conv_residual_feature_extraction_block_4/conv1d_and__batch_norm_16/max_pooling1d_38/ExpandDims/dim", "shape": [], "dtype": "int32"}, {"name": "StatefulPartitionedCall/heavy_chain_align_airr/v_start/mul_2/x", "shape": [], "dtype": "float32"}, {"name": "StatefulPartitionedCall/heavy_chain_align_airr/v_start/add_1/x", "shape": [], "dtype": "float32"}, {"name": "StatefulPartitionedCall/heavy_chain_align_airr/v_start/Sqrt", "shape": [], "dtype": "float32"}, {"name": "StatefulPartitionedCall/heavy_chain_align_airr/v_start/mul/x", "shape": [], "dtype": "float32"}, {"name": "StatefulPartitionedCall/heavy_chain_align_airr/v_start/MatMul/ReadVariableOp", "shape": [576, 1], "dtype": "float32"}, {"name": "StatefulPartitionedCall/heavy_chain_align_airr/v_start/BiasAdd/ReadVariableOp", "shape": [1], "dtype": "float32"}, {"name": "StatefulPartitionedCall/heavy_chain_align_airr/v_start/Pow/y", "shape": [], "dtype": "float32"}, {"name": "StatefulPartitionedCall/heavy_chain_align_airr/cutout_layer/Max/reduction_indices", "shape": [], "dtype": "int32"}, {"name": "StatefulPartitionedCall/heavy_chain_align_airr/cutout_layer/clip_by_value/Minimum/y", "shape": [], "dtype": "float32"}, {"name": "StatefulPartitionedCall/heavy_chain_align_airr/cutout_layer/clip_by_value/y", "shape": [], "dtype": "float32"}, {"name": "unknown_199", "shape": [576], "dtype": "float32"}, {"name": "StatefulPartitionedCall/heavy_chain_align_airr/v_end/mul_2/x", "shape": [], "dtype": "float32"}, {"name": "StatefulPartitionedCall/heavy_chain_align_airr/v_end/add_1/x", "shape": [], "dtype": "float32"}, {"name": "StatefulPartitionedCall/heavy_chain_align_airr/v_end/Sqrt", "shape": [], "dtype": "float32"}, {"name": "StatefulPartitionedCall/heavy_chain_align_airr/v_end/mul/x", "shape": [], "dtype": "float32"}, {"name": "StatefulPartitionedCall/heavy_chain_align_airr/conv_residual_feature_extraction_block_1/conv1d_and__batch_norm_7/conv1d_23/Conv1D/ExpandDims/dim", "shape": [], "dtype": "int32"}, {"name": "StatefulPartitionedCall/heavy_chain_align_airr/conv_residual_feature_extraction_block_1/conv1d_and__batch_norm_7/conv1d_23/Conv1D/ExpandDims_1", "shape": [1, 2, 128, 128], "dtype": "float32"}, {"name": "StatefulPartitionedCall/heavy_chain_align_airr/conv_residual_feature_extraction_block_1/conv1d_and__batch_norm_7/conv1d_23/BiasAdd/ReadVariableOp", "shape": [128], "dtype": "float32"}, {"name": "StatefulPartitionedCall/heavy_chain_align_airr/conv_residual_feature_extraction_block_1/conv1d_and__batch_norm_7/conv1d_24/Conv1D/ExpandDims/dim", "shape": [], "dtype": "int32"}, {"name": "StatefulPartitionedCall/heavy_chain_align_airr/conv_residual_feature_extraction_block_1/conv1d_and__batch_norm_7/conv1d_24/Conv1D/ExpandDims_1", "shape": [1, 2, 128, 128], "dtype": "float32"}, {"name": "StatefulPartitionedCall/heavy_chain_align_airr/conv_residual_feature_extraction_block_1/conv1d_and__batch_norm_7/conv1d_24/BiasAdd/ReadVariableOp", "shape": [128], "dtype": "float32"}, {"name": "StatefulPartitionedCall/heavy_chain_align_airr/conv_residual_feature_extraction_block_1/conv1d_and__batch_norm_7/conv1d_25/Conv1D/ExpandDims/dim", "shape": [], "dtype": "int32"}, {"name": "StatefulPartitionedCall/heavy_chain_align_airr/conv_residual_feature_extraction_block_1/conv1d_and__batch_norm_7/conv1d_25/Conv1D/ExpandDims_1", "shape": [1, 2, 128, 128], "dtype": "float32"}, {"name": "StatefulPartitionedCall/heavy_chain_align_airr/conv_residual_feature_extraction_block_1/conv1d_and__batch_norm_7/conv1d_25/BiasAdd/ReadVariableOp", "shape": [128], "dtype": "float32"}, {"name": "StatefulPartitionedCall/heavy_chain_align_airr/conv_residual_feature_extraction_block_1/conv1d_and__batch_norm_7/batch_normalization_7/batchnorm/mul", "shape": [128], "dtype": "float32"}, {"name": "StatefulPartitionedCall/heavy_chain_align_airr/conv_residual_feature_extraction_block_1/conv1d_and__batch_norm_7/batch_normalization_7/batchnorm/sub", "shape": [128], "dtype": "float32"}, {"name": "StatefulPartitionedCall/heavy_chain_align_airr/conv_residual_feature_extraction_block_1/conv1d_and__batch_norm_7/max_pooling1d_15/ExpandDims/dim", "shape": [], "dtype": "int32"}, {"name": "StatefulPartitionedCall/heavy_chain_align_airr/conv_residual_feature_extraction_block_1/conv1d_and__batch_norm_6/conv1d_20/Conv1D/ExpandDims/dim", "shape": [], "dtype": "int32"}, {"name": "StatefulPartitionedCall/heavy_chain_align_airr/conv_residual_feature_extraction_block_1/conv1d_and__batch_norm_6/conv1d_20/Conv1D/ExpandDims_1", "shape": [1, 3, 128, 128], "dtype": "float32"}, {"name": "StatefulPartitionedCall/heavy_chain_align_airr/conv_residual_feature_extraction_block_1/conv1d_and__batch_norm_6/conv1d_20/BiasAdd/ReadVariableOp", "shape": [128], "dtype": "float32"}, {"name": "StatefulPartitionedCall/heavy_chain_align_airr/conv_residual_feature_extraction_block_1/conv1d_and__batch_norm_6/conv1d_21/Conv1D/ExpandDims/dim", "shape": [], "dtype": "int32"}, {"name": "StatefulPartitionedCall/heavy_chain_align_airr/conv_residual_feature_extraction_block_1/conv1d_and__batch_norm_6/conv1d_21/Conv1D/ExpandDims_1", "shape": [1, 3, 128, 128], "dtype": "float32"}, {"name": "StatefulPartitionedCall/heavy_chain_align_airr/conv_residual_feature_extraction_block_1/conv1d_and__batch_norm_6/conv1d_21/BiasAdd/ReadVariableOp", "shape": [128], "dtype": "float32"}, {"name": "StatefulPartitionedCall/heavy_chain_align_airr/conv_residual_feature_extraction_block_1/conv1d_and__batch_norm_6/conv1d_22/Conv1D/ExpandDims/dim", "shape": [], "dtype": "int32"}, {"name": "StatefulPartitionedCall/heavy_chain_align_airr/conv_residual_feature_extraction_block_1/conv1d_and__batch_norm_6/conv1d_22/Conv1D/ExpandDims_1", "shape": [1, 3, 128, 128], "dtype": "float32"}, {"name": "StatefulPartitionedCall/heavy_chain_align_airr/conv_residual_feature_extraction_block_1/conv1d_and__batch_norm_6/conv1d_22/BiasAdd/ReadVariableOp", "shape": [128], "dtype": "float32"}, {"name": "StatefulPartitionedCall/heavy_chain_align_airr/conv_residual_feature_extraction_block_1/conv1d_and__batch_norm_6/batch_normalization_6/batchnorm/mul", "shape": [128], "dtype": "float32"}, {"name": "StatefulPartitionedCall/heavy_chain_align_airr/conv_residual_feature_extraction_block_1/conv1d_and__batch_norm_6/batch_normalization_6/batchnorm/sub", "shape": [128], "dtype": "float32"}, {"name": "StatefulPartitionedCall/heavy_chain_align_airr/conv_residual_feature_extraction_block_1/conv1d_and__batch_norm_6/max_pooling1d_14/ExpandDims/dim", "shape": [], "dtype": "int32"}, {"name": "StatefulPartitionedCall/heavy_chain_align_airr/conv_residual_feature_extraction_block_1/conv1d_and__batch_norm_5/conv1d_17/Conv1D/ExpandDims/dim", "shape": [], "dtype": "int32"}, {"name": "StatefulPartitionedCall/heavy_chain_align_airr/conv_residual_feature_extraction_block_1/conv1d_and__batch_norm_5/conv1d_17/Conv1D/ExpandDims_1", "shape": [1, 3, 128, 128], "dtype": "float32"}, {"name": "StatefulPartitionedCall/heavy_chain_align_airr/conv_residual_feature_extraction_block_1/conv1d_and__batch_norm_5/conv1d_17/BiasAdd/ReadVariableOp", "shape": [128], "dtype": "float32"}, {"name": "StatefulPartitionedCall/heavy_chain_align_airr/conv_residual_feature_extraction_block_1/conv1d_and__batch_norm_5/conv1d_18/Conv1D/ExpandDims/dim", "shape": [], "dtype": "int32"}, {"name": "StatefulPartitionedCall/heavy_chain_align_airr/conv_residual_feature_extraction_block_1/conv1d_and__batch_norm_5/conv1d_18/Conv1D/ExpandDims_1", "shape": [1, 3, 128, 128], "dtype": "float32"}, {"name": "StatefulPartitionedCall/heavy_chain_align_airr/conv_residual_feature_extraction_block_1/conv1d_and__batch_norm_5/conv1d_18/BiasAdd/ReadVariableOp", "shape": [128], "dtype": "float32"}, {"name": "StatefulPartitionedCall/heavy_chain_align_airr/conv_residual_feature_extraction_block_1/conv1d_and__batch_norm_5/conv1d_19/Conv1D/ExpandDims/dim", "shape": [], "dtype": "int32"}, {"name": "StatefulPartitionedCall/heavy_chain_align_airr/conv_residual_feature_extraction_block_1/conv1d_and__batch_norm_5/conv1d_19/Conv1D/ExpandDims_1", "shape": [1, 3, 128, 128], "dtype": "float32"}, {"name": "StatefulPartitionedCall/heavy_chain_align_airr/conv_residual_feature_extraction_block_1/conv1d_and__batch_norm_5/conv1d_19/BiasAdd/ReadVariableOp", "shape": [128], "dtype": "float32"}, {"name": "StatefulPartitionedCall/heavy_chain_align_airr/conv_residual_feature_extraction_block_1/conv1d_and__batch_norm_5/batch_normalization_5/batchnorm/mul", "shape": [128], "dtype": "float32"}, {"name": "StatefulPartitionedCall/heavy_chain_align_airr/conv_residual_feature_extraction_block_1/conv1d_and__batch_norm_5/batch_normalization_5/batchnorm/sub", "shape": [128], "dtype": "float32"}, {"name": "StatefulPartitionedCall/heavy_chain_align_airr/conv_residual_feature_extraction_block_1/conv1d_and__batch_norm_5/max_pooling1d_13/ExpandDims/dim", "shape": [], "dtype": "int32"}, {"name": "StatefulPartitionedCall/heavy_chain_align_airr/conv_residual_feature_extraction_block_1/conv1d_and__batch_norm_4/conv1d_14/Conv1D/ExpandDims/dim", "shape": [], "dtype": "int32"}, {"name": "StatefulPartitionedCall/heavy_chain_align_airr/conv_residual_feature_extraction_block_1/conv1d_and__batch_norm_4/conv1d_14/Conv1D/ExpandDims_1", "shape": [1, 3, 32, 128], "dtype": "float32"}, {"name": "StatefulPartitionedCall/heavy_chain_align_airr/conv_residual_feature_extraction_block_1/conv1d_and__batch_norm_4/conv1d_14/BiasAdd/ReadVariableOp", "shape": [128], "dtype": "float32"}, {"name": "StatefulPartitionedCall/heavy_chain_align_airr/conv_residual_feature_extraction_block_1/conv1d_and__batch_norm_4/conv1d_15/Conv1D/ExpandDims/dim", "shape": [], "dtype": "int32"}, {"name": "StatefulPartitionedCall/heavy_chain_align_airr/conv_residual_feature_extraction_block_1/conv1d_and__batch_norm_4/conv1d_15/Conv1D/ExpandDims_1", "shape": [1, 3, 128, 128], "dtype": "float32"}, {"name": "StatefulPartitionedCall/heavy_chain_align_airr/conv_residual_feature_extraction_block_1/conv1d_and__batch_norm_4/conv1d_15/BiasAdd/ReadVariableOp", "shape": [128], "dtype": "float32"}, {"name": "StatefulPartitionedCall/heavy_chain_align_airr/conv_residual_feature_extraction_block_1/conv1d_and__batch_norm_4/conv1d_16/Conv1D/ExpandDims/dim", "shape": [], "dtype": "int32"}, {"name": "StatefulPartitionedCall/heavy_chain_align_airr/conv_residual_feature_extraction_block_1/conv1d_and__batch_norm_4/conv1d_16/Conv1D/ExpandDims_1", "shape": [1, 3, 128, 128], "dtype": "float32"}, {"name": "StatefulPartitionedCall/heavy_chain_align_airr/conv_residual_feature_extraction_block_1/conv1d_and__batch_norm_4/conv1d_16/BiasAdd/ReadVariableOp", "shape": [128], "dtype": "float32"}, {"name": "StatefulPartitionedCall/heavy_chain_align_airr/conv_residual_feature_extraction_block_1/conv1d_and__batch_norm_4/batch_normalization_4/batchnorm/mul", "shape": [128], "dtype": "float32"}, {"name": "StatefulPartitionedCall/heavy_chain_align_airr/conv_residual_feature_extraction_block_1/conv1d_and__batch_norm_4/batch_normalization_4/batchnorm/sub", "shape": [128], "dtype": "float32"}, {"name": "StatefulPartitionedCall/heavy_chain_align_airr/conv_residual_feature_extraction_block_1/conv1d_and__batch_norm_4/max_pooling1d_12/ExpandDims/dim", "shape": [], "dtype": "int32"}, {"name": "unknown_0", "shape": [6, 32], "dtype": "float32"}, {"name": "StatefulPartitionedCall/heavy_chain_align_airr/Reshape/shape", "shape": [2], "dtype": "int32"}, {"name": "StatefulPartitionedCall/heavy_chain_align_airr/token_and_position_embedding/embedding/embedding_lookup/axis", "shape": [], "dtype": "int32"}, {"name": "StatefulPartitionedCall/heavy_chain_align_airr/token_and_position_embedding/embedding_1/embedding_lookup", "shape": [576, 32], "dtype": "float32"}, {"name": "StatefulPartitionedCall/heavy_chain_align_airr/conv_residual_feature_extraction_block_1/conv1d_13/Conv1D/ExpandDims/dim", "shape": [], "dtype": "int32"}, {"name": "StatefulPartitionedCall/heavy_chain_align_airr/conv_residual_feature_extraction_block_1/conv1d_13/Conv1D/ExpandDims_1", "shape": [1, 5, 32, 128], "dtype": "float32"}, {"name": "StatefulPartitionedCall/heavy_chain_align_airr/conv_residual_feature_extraction_block_1/conv1d_13/BiasAdd/ReadVariableOp", "shape": [128], "dtype": "float32"}, {"name": "StatefulPartitionedCall/heavy_chain_align_airr/conv_residual_feature_extraction_block_1/max_pooling1d_8/ExpandDims/dim", "shape": [], "dtype": "int32"}, {"name": "StatefulPartitionedCall/heavy_chain_align_airr/conv_residual_feature_extraction_block_1/max_pooling1d_8/ExpandDims_1/dim", "shape": [], "dtype": "int32"}, {"name": "StatefulPartitionedCall/heavy_chain_align_airr/conv_residual_feature_extraction_block_1/max_pooling1d_9/ExpandDims/dim", "shape": [], "dtype": "int32"}, {"name": "StatefulPartitionedCall/heavy_chain_align_airr/conv_residual_feature_extraction_block_1/max_pooling1d_10/ExpandDims/dim", "shape": [], "dtype": "int32"}, {"name": "StatefulPartitionedCall/heavy_chain_align_airr/conv_residual_feature_extraction_block_1/max_pooling1d_11/ExpandDims/dim", "shape": [], "dtype": "int32"}, {"name": "StatefulPartitionedCall/heavy_chain_align_airr/conv_residual_feature_extraction_block_1/flatten_1/Const", "shape": [2], "dtype": "int32"}, {"name": "StatefulPartitionedCall/heavy_chain_align_airr/conv_residual_feature_extraction_block_1/dense_1/MatMul/ReadVariableOp", "shape": [2304, 576], "dtype": "float32"}, {"name": "StatefulPartitionedCall/heavy_chain_align_airr/conv_residual_feature_extraction_block_1/dense_1/BiasAdd/ReadVariableOp", "shape": [576], "dtype": "float32"}, {"name": "StatefulPartitionedCall/heavy_chain_align_airr/v_end/MatMul/ReadVariableOp", "shape": [576, 1], "dtype": "float32"}, {"name": "StatefulPartitionedCall/heavy_chain_align_airr/v_end/BiasAdd/ReadVariableOp", "shape": [1], "dtype": "float32"}, {"name": "StatefulPartitionedCall/heavy_chain_align_airr/v_end/Pow/y", "shape": [], "dtype": "float32"}, {"name": "StatefulPartitionedCall/heavy_chain_align_airr/cutout_layer/Max_1/reduction_indices", "shape": [], "dtype": "int32"}, {"name": "StatefulPartitionedCall/heavy_chain_align_airr/cutout_layer/clip_by_value_1/Minimum/y", "shape": [], "dtype": "float32"}, {"name": "StatefulPartitionedCall/heavy_chain_align_airr/cutout_layer/clip_by_value_1/y", "shape": [], "dtype": "float32"}, {"name": "StatefulPartitionedCall/heavy_chain_align_airr/reshape/strided_slice/stack", "shape": [1], "dtype": "int32"}, {"name": "StatefulPartitionedCall/heavy_chain_align_airr/reshape/strided_slice/stack_1", "shape": [1], "dtype": "int32"}, {"name": "StatefulPartitionedCall/heavy_chain_align_airr/reshape/strided_slice/stack_2", "shape": [1], "dtype": "int32"}, {"name": "StatefulPartitionedCall/heavy_chain_align_airr/reshape/Reshape/shape/1", "shape": [], "dtype": "int32"}, {"name": "StatefulPartitionedCall/heavy_chain_align_airr/reshape/Reshape/shape/2", "shape": [], "dtype": "int32"}, {"name": "StatefulPartitionedCall/heavy_chain_align_airr/conv_residual_feature_extraction_block_4/conv1d_52/Conv1D/ExpandDims/dim", "shape": [], "dtype": "int32"}, {"name": "StatefulPartitionedCall/heavy_chain_align_airr/conv_residual_feature_extraction_block_4/conv1d_52/Conv1D/ExpandDims_1", "shape": [1, 5, 32, 128], "dtype": "float32"}, {"name": "StatefulPartitionedCall/heavy_chain_align_airr/conv_residual_feature_extraction_block_4/conv1d_52/BiasAdd/ReadVariableOp", "shape": [128], "dtype": "float32"}, {"name": "StatefulPartitionedCall/heavy_chain_align_airr/conv_residual_feature_extraction_block_4/max_pooling1d_32/ExpandDims/dim", "shape": [], "dtype": "int32"}, {"name": "StatefulPartitionedCall/heavy_chain_align_airr/conv_residual_feature_extraction_block_4/max_pooling1d_32/ExpandDims_1/dim", "shape": [], "dtype": "int32"}, {"name": "StatefulPartitionedCall/heavy_chain_align_airr/conv_residual_feature_extraction_block_4/max_pooling1d_33/ExpandDims/dim", "shape": [], "dtype": "int32"}, {"name": "StatefulPartitionedCall/heavy_chain_align_airr/conv_residual_feature_extraction_block_4/max_pooling1d_34/ExpandDims/dim", "shape": [], "dtype": "int32"}, {"name": "StatefulPartitionedCall/heavy_chain_align_airr/conv_residual_feature_extraction_block_4/max_pooling1d_35/ExpandDims/dim", "shape": [], "dtype": "int32"}, {"name": "StatefulPartitionedCall/heavy_chain_align_airr/conv_residual_feature_extraction_block_4/max_pooling1d_36/ExpandDims/dim", "shape": [], "dtype": "int32"}, {"name": "StatefulPartitionedCall/heavy_chain_align_airr/conv_residual_feature_extraction_block_4/max_pooling1d_37/ExpandDims/dim", "shape": [], "dtype": "int32"}, {"name": "StatefulPartitionedCall/heavy_chain_align_airr/conv_residual_feature_extraction_block_4/flatten_4/Const", "shape": [2], "dtype": "int32"}, {"name": "StatefulPartitionedCall/heavy_chain_align_airr/conv_residual_feature_extraction_block_4/dense_4/MatMul/ReadVariableOp", "shape": [512, 576], "dtype": "float32"}, {"name": "StatefulPartitionedCall/heavy_chain_align_airr/conv_residual_feature_extraction_block_4/dense_4/BiasAdd/ReadVariableOp", "shape": [576], "dtype": "float32"}, {"name": "StatefulPartitionedCall/heavy_chain_align_airr/v_allele_middle/MatMul/ReadVariableOp", "shape": [576, 396], "dtype": "float32"}, {"name": "StatefulPartitionedCall/heavy_chain_align_airr/v_allele_middle/BiasAdd/ReadVariableOp", "shape": [396], "dtype": "float32"}, {"name": "StatefulPartitionedCall/heavy_chain_align_airr/v_allele/MatMul/ReadVariableOp", "shape": [396, 198], "dtype": "float32"}, {"name": "StatefulPartitionedCall/heavy_chain_align_airr/v_allele/BiasAdd/ReadVariableOp", "shape": [198], "dtype": "float32"}]}]}