{"format": "graph-model", "generatedBy": "2.9.1", "convertedBy": "TensorFlow.js Converter v4.16.0", "signature": {"inputs": {"tokenized_sequence": {"name": "tokenized_sequence:0", "dtype": "DT_FLOAT", "tensorShape": {"dim": [{"size": "-1"}, {"size": "576"}]}}}, "outputs": {"Identity_7:0": {"name": "Identity_7:0", "dtype": "DT_FLOAT", "tensorShape": {"dim": [{"size": "-1"}, {"size": "1"}]}}, "v_allele": {"name": "Identity_9:0", "dtype": "DT_FLOAT", "tensorShape": {"dim": [{"size": "-1"}, {"size": "198"}]}}, "Identity_2:0": {"name": "Identity_2:0", "dtype": "DT_FLOAT", "tensorShape": {"dim": [{"size": "-1"}, {"size": "1"}]}}, "Identity_11:0": {"name": "Identity_11:0", "dtype": "DT_FLOAT", "tensorShape": {"dim": [{"size": "-1"}, {"size": "1"}]}}, "Identity_1:0": {"name": "Identity_1:0", "dtype": "DT_FLOAT", "tensorShape": {"dim": [{"size": "-1"}, {"size": "1"}]}}, "Identity_5:0": {"name": "Identity_5:0", "dtype": "DT_FLOAT", "tensorShape": {"dim": [{"size": "-1"}, {"size": "1"}]}}, "Identity_10:0": {"name": "Identity_10:0", "dtype": "DT_FLOAT", "tensorShape": {"dim": [{"size": "-1"}, {"size": "1"}]}}, "j_allele": {"name": "Identity_4:0", "dtype": "DT_FLOAT", "tensorShape": {"dim": [{"size": "-1"}, {"size": "7"}]}}, "Identity_3:0": {"name": "Identity_3:0", "dtype": "DT_FLOAT", "tensorShape": {"dim": [{"size": "-1"}, {"size": "1"}]}}, "Identity_6:0": {"name": "Identity_6:0", "dtype": "DT_FLOAT", "tensorShape": {"dim": [{"size": "-1"}, {"size": "1"}]}}, "d_allele": {"name": "Identity:0", "dtype": "DT_FLOAT", "tensorShape": {"dim": [{"size": "-1"}, {"size": "34"}]}}, "Identity_8:0": {"name": "Identity_8:0", "dtype": "DT_FLOAT", "tensorShape": {"dim": [{"size": "-1"}, {"size": "1"}]}}}}, "modelTopology": {"node": [{"name": "StatefulPartitionedCall/hc_experimental_v7_2/conv_residual_feature_extraction_block_19/conv1d_and__batch_norm_97/conv1d_310/Conv1D/ExpandDims/dim", "op": "Const", "attr": {"value": {"tensor": {"dtype": "DT_INT32", "tensorShape": {}}}, "dtype": {"type": "DT_INT32"}}}, {"name": "StatefulPartitionedCall/hc_experimental_v7_2/conv_residual_feature_extraction_block_19/conv1d_and__batch_norm_97/conv1d_310/Conv1D/ExpandDims_1", "op": "Const", "attr": {"value": {"tensor": {"dtype": "DT_FLOAT", "tensorShape": {"dim": [{"size": "1"}, {"size": "3"}, {"size": "64"}, {"size": "64"}]}}}, "dtype": {"type": "DT_FLOAT"}}}, {"name": "StatefulPartitionedCall/hc_experimental_v7_2/conv_residual_feature_extraction_block_19/conv1d_and__batch_norm_97/conv1d_310/BiasAdd/ReadVariableOp", "op": "Const", "attr": {"value": {"tensor": {"dtype": "DT_FLOAT", "tensorShape": {"dim": [{"size": "64"}]}}}, "dtype": {"type": "DT_FLOAT"}}}, {"name": "StatefulPartitionedCall/hc_experimental_v7_2/conv_residual_feature_extraction_block_19/conv1d_and__batch_norm_97/conv1d_311/Conv1D/ExpandDims/dim", "op": "Const", "attr": {"value": {"tensor": {"dtype": "DT_INT32", "tensorShape": {}}}, "dtype": {"type": "DT_INT32"}}}, {"name": "StatefulPartitionedCall/hc_experimental_v7_2/conv_residual_feature_extraction_block_19/conv1d_and__batch_norm_97/conv1d_311/Conv1D/ExpandDims_1", "op": "Const", "attr": {"value": {"tensor": {"dtype": "DT_FLOAT", "tensorShape": {"dim": [{"size": "1"}, {"size": "3"}, {"size": "64"}, {"size": "64"}]}}}, "dtype": {"type": "DT_FLOAT"}}}, {"name": "StatefulPartitionedCall/hc_experimental_v7_2/conv_residual_feature_extraction_block_19/conv1d_and__batch_norm_97/conv1d_311/BiasAdd/ReadVariableOp", "op": "Const", "attr": {"value": {"tensor": {"dtype": "DT_FLOAT", "tensorShape": {"dim": [{"size": "64"}]}}}, "dtype": {"type": "DT_FLOAT"}}}, {"name": "StatefulPartitionedCall/hc_experimental_v7_2/conv_residual_feature_extraction_block_19/conv1d_and__batch_norm_97/conv1d_312/Conv1D/ExpandDims/dim", "op": "Const", "attr": {"value": {"tensor": {"dtype": "DT_INT32", "tensorShape": {}}}, "dtype": {"type": "DT_INT32"}}}, {"name": "StatefulPartitionedCall/hc_experimental_v7_2/conv_residual_feature_extraction_block_19/conv1d_and__batch_norm_97/conv1d_312/Conv1D/ExpandDims_1", "op": "Const", "attr": {"value": {"tensor": {"dtype": "DT_FLOAT", "tensorShape": {"dim": [{"size": "1"}, {"size": "3"}, {"size": "64"}, {"size": "64"}]}}}, "dtype": {"type": "DT_FLOAT"}}}, {"name": "StatefulPartitionedCall/hc_experimental_v7_2/conv_residual_feature_extraction_block_19/conv1d_and__batch_norm_97/conv1d_312/BiasAdd/ReadVariableOp", "op": "Const", "attr": {"value": {"tensor": {"dtype": "DT_FLOAT", "tensorShape": {"dim": [{"size": "64"}]}}}, "dtype": {"type": "DT_FLOAT"}}}, {"name": "StatefulPartitionedCall/hc_experimental_v7_2/conv_residual_feature_extraction_block_19/conv1d_and__batch_norm_97/batch_normalization_97/batchnorm/mul", "op": "Const", "attr": {"value": {"tensor": {"dtype": "DT_FLOAT", "tensorShape": {"dim": [{"size": "64"}]}}}, "dtype": {"type": "DT_FLOAT"}}}, {"name": "StatefulPartitionedCall/hc_experimental_v7_2/conv_residual_feature_extraction_block_19/conv1d_and__batch_norm_97/batch_normalization_97/batchnorm/sub", "op": "Const", "attr": {"value": {"tensor": {"dtype": "DT_FLOAT", "tensorShape": {"dim": [{"size": "64"}]}}}, "dtype": {"type": "DT_FLOAT"}}}, {"name": "StatefulPartitionedCall/hc_experimental_v7_2/conv_residual_feature_extraction_block_19/conv1d_and__batch_norm_97/max_pooling1d_189/ExpandDims/dim", "op": "Const", "attr": {"value": {"tensor": {"dtype": "DT_INT32", "tensorShape": {}}}, "dtype": {"type": "DT_INT32"}}}, {"name": "StatefulPartitionedCall/hc_experimental_v7_2/conv_residual_feature_extraction_block_19/conv1d_and__batch_norm_96/conv1d_307/Conv1D/ExpandDims/dim", "op": "Const", "attr": {"value": {"tensor": {"dtype": "DT_INT32", "tensorShape": {}}}, "dtype": {"type": "DT_INT32"}}}, {"name": "StatefulPartitionedCall/hc_experimental_v7_2/conv_residual_feature_extraction_block_19/conv1d_and__batch_norm_96/conv1d_307/Conv1D/ExpandDims_1", "op": "Const", "attr": {"value": {"tensor": {"dtype": "DT_FLOAT", "tensorShape": {"dim": [{"size": "1"}, {"size": "3"}, {"size": "64"}, {"size": "64"}]}}}, "dtype": {"type": "DT_FLOAT"}}}, {"name": "StatefulPartitionedCall/hc_experimental_v7_2/conv_residual_feature_extraction_block_19/conv1d_and__batch_norm_96/conv1d_307/BiasAdd/ReadVariableOp", "op": "Const", "attr": {"value": {"tensor": {"dtype": "DT_FLOAT", "tensorShape": {"dim": [{"size": "64"}]}}}, "dtype": {"type": "DT_FLOAT"}}}, {"name": "StatefulPartitionedCall/hc_experimental_v7_2/conv_residual_feature_extraction_block_19/conv1d_and__batch_norm_96/conv1d_308/Conv1D/ExpandDims/dim", "op": "Const", "attr": {"value": {"tensor": {"dtype": "DT_INT32", "tensorShape": {}}}, "dtype": {"type": "DT_INT32"}}}, {"name": "StatefulPartitionedCall/hc_experimental_v7_2/conv_residual_feature_extraction_block_19/conv1d_and__batch_norm_96/conv1d_308/Conv1D/ExpandDims_1", "op": "Const", "attr": {"value": {"tensor": {"dtype": "DT_FLOAT", "tensorShape": {"dim": [{"size": "1"}, {"size": "3"}, {"size": "64"}, {"size": "64"}]}}}, "dtype": {"type": "DT_FLOAT"}}}, {"name": "StatefulPartitionedCall/hc_experimental_v7_2/conv_residual_feature_extraction_block_19/conv1d_and__batch_norm_96/conv1d_308/BiasAdd/ReadVariableOp", "op": "Const", "attr": {"value": {"tensor": {"dtype": "DT_FLOAT", "tensorShape": {"dim": [{"size": "64"}]}}}, "dtype": {"type": "DT_FLOAT"}}}, {"name": "StatefulPartitionedCall/hc_experimental_v7_2/conv_residual_feature_extraction_block_19/conv1d_and__batch_norm_96/conv1d_309/Conv1D/ExpandDims/dim", "op": "Const", "attr": {"value": {"tensor": {"dtype": "DT_INT32", "tensorShape": {}}}, "dtype": {"type": "DT_INT32"}}}, {"name": "StatefulPartitionedCall/hc_experimental_v7_2/conv_residual_feature_extraction_block_19/conv1d_and__batch_norm_96/conv1d_309/Conv1D/ExpandDims_1", "op": "Const", "attr": {"value": {"tensor": {"dtype": "DT_FLOAT", "tensorShape": {"dim": [{"size": "1"}, {"size": "3"}, {"size": "64"}, {"size": "64"}]}}}, "dtype": {"type": "DT_FLOAT"}}}, {"name": "StatefulPartitionedCall/hc_experimental_v7_2/conv_residual_feature_extraction_block_19/conv1d_and__batch_norm_96/conv1d_309/BiasAdd/ReadVariableOp", "op": "Const", "attr": {"value": {"tensor": {"dtype": "DT_FLOAT", "tensorShape": {"dim": [{"size": "64"}]}}}, "dtype": {"type": "DT_FLOAT"}}}, {"name": "StatefulPartitionedCall/hc_experimental_v7_2/conv_residual_feature_extraction_block_19/conv1d_and__batch_norm_96/batch_normalization_96/batchnorm/mul", "op": "Const", "attr": {"value": {"tensor": {"dtype": "DT_FLOAT", "tensorShape": {"dim": [{"size": "64"}]}}}, "dtype": {"type": "DT_FLOAT"}}}, {"name": "StatefulPartitionedCall/hc_experimental_v7_2/conv_residual_feature_extraction_block_19/conv1d_and__batch_norm_96/batch_normalization_96/batchnorm/sub", "op": "Const", "attr": {"value": {"tensor": {"dtype": "DT_FLOAT", "tensorShape": {"dim": [{"size": "64"}]}}}, "dtype": {"type": "DT_FLOAT"}}}, {"name": "StatefulPartitionedCall/hc_experimental_v7_2/conv_residual_feature_extraction_block_19/conv1d_and__batch_norm_96/max_pooling1d_188/ExpandDims/dim", "op": "Const", "attr": {"value": {"tensor": {"dtype": "DT_INT32", "tensorShape": {}}}, "dtype": {"type": "DT_INT32"}}}, {"name": "StatefulPartitionedCall/hc_experimental_v7_2/conv_residual_feature_extraction_block_19/conv1d_and__batch_norm_95/conv1d_304/Conv1D/ExpandDims/dim", "op": "Const", "attr": {"value": {"tensor": {"dtype": "DT_INT32", "tensorShape": {}}}, "dtype": {"type": "DT_INT32"}}}, {"name": "StatefulPartitionedCall/hc_experimental_v7_2/conv_residual_feature_extraction_block_19/conv1d_and__batch_norm_95/conv1d_304/Conv1D/ExpandDims_1", "op": "Const", "attr": {"value": {"tensor": {"dtype": "DT_FLOAT", "tensorShape": {"dim": [{"size": "1"}, {"size": "3"}, {"size": "64"}, {"size": "64"}]}}}, "dtype": {"type": "DT_FLOAT"}}}, {"name": "StatefulPartitionedCall/hc_experimental_v7_2/conv_residual_feature_extraction_block_19/conv1d_and__batch_norm_95/conv1d_304/BiasAdd/ReadVariableOp", "op": "Const", "attr": {"value": {"tensor": {"dtype": "DT_FLOAT", "tensorShape": {"dim": [{"size": "64"}]}}}, "dtype": {"type": "DT_FLOAT"}}}, {"name": "StatefulPartitionedCall/hc_experimental_v7_2/conv_residual_feature_extraction_block_19/conv1d_and__batch_norm_95/conv1d_305/Conv1D/ExpandDims/dim", "op": "Const", "attr": {"value": {"tensor": {"dtype": "DT_INT32", "tensorShape": {}}}, "dtype": {"type": "DT_INT32"}}}, {"name": "StatefulPartitionedCall/hc_experimental_v7_2/conv_residual_feature_extraction_block_19/conv1d_and__batch_norm_95/conv1d_305/Conv1D/ExpandDims_1", "op": "Const", "attr": {"value": {"tensor": {"dtype": "DT_FLOAT", "tensorShape": {"dim": [{"size": "1"}, {"size": "3"}, {"size": "64"}, {"size": "64"}]}}}, "dtype": {"type": "DT_FLOAT"}}}, {"name": "StatefulPartitionedCall/hc_experimental_v7_2/conv_residual_feature_extraction_block_19/conv1d_and__batch_norm_95/conv1d_305/BiasAdd/ReadVariableOp", "op": "Const", "attr": {"value": {"tensor": {"dtype": "DT_FLOAT", "tensorShape": {"dim": [{"size": "64"}]}}}, "dtype": {"type": "DT_FLOAT"}}}, {"name": "StatefulPartitionedCall/hc_experimental_v7_2/conv_residual_feature_extraction_block_19/conv1d_and__batch_norm_95/conv1d_306/Conv1D/ExpandDims/dim", "op": "Const", "attr": {"value": {"tensor": {"dtype": "DT_INT32", "tensorShape": {}}}, "dtype": {"type": "DT_INT32"}}}, {"name": "StatefulPartitionedCall/hc_experimental_v7_2/conv_residual_feature_extraction_block_19/conv1d_and__batch_norm_95/conv1d_306/Conv1D/ExpandDims_1", "op": "Const", "attr": {"value": {"tensor": {"dtype": "DT_FLOAT", "tensorShape": {"dim": [{"size": "1"}, {"size": "3"}, {"size": "64"}, {"size": "64"}]}}}, "dtype": {"type": "DT_FLOAT"}}}, {"name": "StatefulPartitionedCall/hc_experimental_v7_2/conv_residual_feature_extraction_block_19/conv1d_and__batch_norm_95/conv1d_306/BiasAdd/ReadVariableOp", "op": "Const", "attr": {"value": {"tensor": {"dtype": "DT_FLOAT", "tensorShape": {"dim": [{"size": "64"}]}}}, "dtype": {"type": "DT_FLOAT"}}}, {"name": "StatefulPartitionedCall/hc_experimental_v7_2/conv_residual_feature_extraction_block_19/conv1d_and__batch_norm_95/batch_normalization_95/batchnorm/mul", "op": "Const", "attr": {"value": {"tensor": {"dtype": "DT_FLOAT", "tensorShape": {"dim": [{"size": "64"}]}}}, "dtype": {"type": "DT_FLOAT"}}}, {"name": "StatefulPartitionedCall/hc_experimental_v7_2/conv_residual_feature_extraction_block_19/conv1d_and__batch_norm_95/batch_normalization_95/batchnorm/sub", "op": "Const", "attr": {"value": {"tensor": {"dtype": "DT_FLOAT", "tensorShape": {"dim": [{"size": "64"}]}}}, "dtype": {"type": "DT_FLOAT"}}}, {"name": "StatefulPartitionedCall/hc_experimental_v7_2/conv_residual_feature_extraction_block_19/conv1d_and__batch_norm_95/max_pooling1d_187/ExpandDims/dim", "op": "Const", "attr": {"value": {"tensor": {"dtype": "DT_INT32", "tensorShape": {}}}, "dtype": {"type": "DT_INT32"}}}, {"name": "StatefulPartitionedCall/hc_experimental_v7_2/conv_residual_feature_extraction_block_19/conv1d_and__batch_norm_94/conv1d_301/Conv1D/ExpandDims/dim", "op": "Const", "attr": {"value": {"tensor": {"dtype": "DT_INT32", "tensorShape": {}}}, "dtype": {"type": "DT_INT32"}}}, {"name": "StatefulPartitionedCall/hc_experimental_v7_2/conv_residual_feature_extraction_block_19/conv1d_and__batch_norm_94/conv1d_301/Conv1D/ExpandDims_1", "op": "Const", "attr": {"value": {"tensor": {"dtype": "DT_FLOAT", "tensorShape": {"dim": [{"size": "1"}, {"size": "3"}, {"size": "32"}, {"size": "64"}]}}}, "dtype": {"type": "DT_FLOAT"}}}, {"name": "StatefulPartitionedCall/hc_experimental_v7_2/conv_residual_feature_extraction_block_19/conv1d_and__batch_norm_94/conv1d_301/BiasAdd/ReadVariableOp", "op": "Const", "attr": {"value": {"tensor": {"dtype": "DT_FLOAT", "tensorShape": {"dim": [{"size": "64"}]}}}, "dtype": {"type": "DT_FLOAT"}}}, {"name": "StatefulPartitionedCall/hc_experimental_v7_2/conv_residual_feature_extraction_block_19/conv1d_and__batch_norm_94/conv1d_302/Conv1D/ExpandDims/dim", "op": "Const", "attr": {"value": {"tensor": {"dtype": "DT_INT32", "tensorShape": {}}}, "dtype": {"type": "DT_INT32"}}}, {"name": "StatefulPartitionedCall/hc_experimental_v7_2/conv_residual_feature_extraction_block_19/conv1d_and__batch_norm_94/conv1d_302/Conv1D/ExpandDims_1", "op": "Const", "attr": {"value": {"tensor": {"dtype": "DT_FLOAT", "tensorShape": {"dim": [{"size": "1"}, {"size": "3"}, {"size": "64"}, {"size": "64"}]}}}, "dtype": {"type": "DT_FLOAT"}}}, {"name": "StatefulPartitionedCall/hc_experimental_v7_2/conv_residual_feature_extraction_block_19/conv1d_and__batch_norm_94/conv1d_302/BiasAdd/ReadVariableOp", "op": "Const", "attr": {"value": {"tensor": {"dtype": "DT_FLOAT", "tensorShape": {"dim": [{"size": "64"}]}}}, "dtype": {"type": "DT_FLOAT"}}}, {"name": "StatefulPartitionedCall/hc_experimental_v7_2/conv_residual_feature_extraction_block_19/conv1d_and__batch_norm_94/conv1d_303/Conv1D/ExpandDims/dim", "op": "Const", "attr": {"value": {"tensor": {"dtype": "DT_INT32", "tensorShape": {}}}, "dtype": {"type": "DT_INT32"}}}, {"name": "StatefulPartitionedCall/hc_experimental_v7_2/conv_residual_feature_extraction_block_19/conv1d_and__batch_norm_94/conv1d_303/Conv1D/ExpandDims_1", "op": "Const", "attr": {"value": {"tensor": {"dtype": "DT_FLOAT", "tensorShape": {"dim": [{"size": "1"}, {"size": "3"}, {"size": "64"}, {"size": "64"}]}}}, "dtype": {"type": "DT_FLOAT"}}}, {"name": "StatefulPartitionedCall/hc_experimental_v7_2/conv_residual_feature_extraction_block_19/conv1d_and__batch_norm_94/conv1d_303/BiasAdd/ReadVariableOp", "op": "Const", "attr": {"value": {"tensor": {"dtype": "DT_FLOAT", "tensorShape": {"dim": [{"size": "64"}]}}}, "dtype": {"type": "DT_FLOAT"}}}, {"name": "StatefulPartitionedCall/hc_experimental_v7_2/conv_residual_feature_extraction_block_19/conv1d_and__batch_norm_94/batch_normalization_94/batchnorm/mul", "op": "Const", "attr": {"value": {"tensor": {"dtype": "DT_FLOAT", "tensorShape": {"dim": [{"size": "64"}]}}}, "dtype": {"type": "DT_FLOAT"}}}, {"name": "StatefulPartitionedCall/hc_experimental_v7_2/conv_residual_feature_extraction_block_19/conv1d_and__batch_norm_94/batch_normalization_94/batchnorm/sub", "op": "Const", "attr": {"value": {"tensor": {"dtype": "DT_FLOAT", "tensorShape": {"dim": [{"size": "64"}]}}}, "dtype": {"type": "DT_FLOAT"}}}, {"name": "StatefulPartitionedCall/hc_experimental_v7_2/conv_residual_feature_extraction_block_19/conv1d_and__batch_norm_94/max_pooling1d_186/ExpandDims/dim", "op": "Const", "attr": {"value": {"tensor": {"dtype": "DT_INT32", "tensorShape": {}}}, "dtype": {"type": "DT_INT32"}}}, {"name": "StatefulPartitionedCall/hc_experimental_v7_2/cutout_layer_7/Max/reduction_indices", "op": "Const", "attr": {"value": {"tensor": {"dtype": "DT_INT32", "tensorShape": {}}}, "dtype": {"type": "DT_INT32"}}}, {"name": "StatefulPartitionedCall/hc_experimental_v7_2/cutout_layer_7/clip_by_value/Minimum/y", "op": "Const", "attr": {"value": {"tensor": {"dtype": "DT_FLOAT", "tensorShape": {}}}, "dtype": {"type": "DT_FLOAT"}}}, {"name": "StatefulPartitionedCall/hc_experimental_v7_2/cutout_layer_7/clip_by_value/y", "op": "Const", "attr": {"value": {"tensor": {"dtype": "DT_FLOAT", "tensorShape": {}}}, "dtype": {"type": "DT_FLOAT"}}}, {"name": "StatefulPartitionedCall/hc_experimental_v7_2/cutout_layer_7/Cast", "op": "Const", "attr": {"value": {"tensor": {"dtype": "DT_FLOAT", "tensorShape": {"dim": [{"size": "576"}]}}}, "dtype": {"type": "DT_FLOAT"}}}, {"name": "StatefulPartitionedCall/hc_experimental_v7_2/cutout_layer_7/Max_1/reduction_indices", "op": "Const", "attr": {"value": {"tensor": {"dtype": "DT_INT32", "tensorShape": {}}}, "dtype": {"type": "DT_INT32"}}}, {"name": "StatefulPartitionedCall/hc_experimental_v7_2/cutout_layer_7/clip_by_value_1/Minimum/y", "op": "Const", "attr": {"value": {"tensor": {"dtype": "DT_FLOAT", "tensorShape": {}}}, "dtype": {"type": "DT_FLOAT"}}}, {"name": "StatefulPartitionedCall/hc_experimental_v7_2/cutout_layer_7/clip_by_value_1/y", "op": "Const", "attr": {"value": {"tensor": {"dtype": "DT_FLOAT", "tensorShape": {}}}, "dtype": {"type": "DT_FLOAT"}}}, {"name": "StatefulPartitionedCall/hc_experimental_v7_2/ExpandDims_1/dim", "op": "Const", "attr": {"value": {"tensor": {"dtype": "DT_INT32", "tensorShape": {}}}, "dtype": {"type": "DT_INT32"}}}, {"name": "StatefulPartitionedCall/hc_experimental_v7_2/conv_residual_feature_extraction_block_19/conv1d_313/Conv1D/ExpandDims/dim", "op": "Const", "attr": {"value": {"tensor": {"dtype": "DT_INT32", "tensorShape": {}}}, "dtype": {"type": "DT_INT32"}}}, {"name": "StatefulPartitionedCall/hc_experimental_v7_2/conv_residual_feature_extraction_block_19/conv1d_313/Conv1D/ExpandDims_1", "op": "Const", "attr": {"value": {"tensor": {"dtype": "DT_FLOAT", "tensorShape": {"dim": [{"size": "1"}, {"size": "5"}, {"size": "32"}, {"size": "64"}]}}}, "dtype": {"type": "DT_FLOAT"}}}, {"name": "StatefulPartitionedCall/hc_experimental_v7_2/conv_residual_feature_extraction_block_19/conv1d_313/BiasAdd/ReadVariableOp", "op": "Const", "attr": {"value": {"tensor": {"dtype": "DT_FLOAT", "tensorShape": {"dim": [{"size": "64"}]}}}, "dtype": {"type": "DT_FLOAT"}}}, {"name": "StatefulPartitionedCall/hc_experimental_v7_2/conv_residual_feature_extraction_block_19/max_pooling1d_190/ExpandDims/dim", "op": "Const", "attr": {"value": {"tensor": {"dtype": "DT_INT32", "tensorShape": {}}}, "dtype": {"type": "DT_INT32"}}}, {"name": "StatefulPartitionedCall/hc_experimental_v7_2/conv_residual_feature_extraction_block_19/max_pooling1d_190/ExpandDims_1/dim", "op": "Const", "attr": {"value": {"tensor": {"dtype": "DT_INT32", "tensorShape": {}}}, "dtype": {"type": "DT_INT32"}}}, {"name": "StatefulPartitionedCall/hc_experimental_v7_2/conv_residual_feature_extraction_block_19/max_pooling1d_191/ExpandDims/dim", "op": "Const", "attr": {"value": {"tensor": {"dtype": "DT_INT32", "tensorShape": {}}}, "dtype": {"type": "DT_INT32"}}}, {"name": "StatefulPartitionedCall/hc_experimental_v7_2/conv_residual_feature_extraction_block_19/max_pooling1d_192/ExpandDims/dim", "op": "Const", "attr": {"value": {"tensor": {"dtype": "DT_INT32", "tensorShape": {}}}, "dtype": {"type": "DT_INT32"}}}, {"name": "StatefulPartitionedCall/hc_experimental_v7_2/conv_residual_feature_extraction_block_19/max_pooling1d_193/ExpandDims/dim", "op": "Const", "attr": {"value": {"tensor": {"dtype": "DT_INT32", "tensorShape": {}}}, "dtype": {"type": "DT_INT32"}}}, {"name": "StatefulPartitionedCall/hc_experimental_v7_2/conv_residual_feature_extraction_block_19/flatten_21/Const", "op": "Const", "attr": {"value": {"tensor": {"dtype": "DT_INT32", "tensorShape": {"dim": [{"size": "2"}]}}}, "dtype": {"type": "DT_INT32"}}}, {"name": "StatefulPartitionedCall/hc_experimental_v7_2/conv_residual_feature_extraction_block_19/dense_19/MatMul/ReadVariableOp", "op": "Const", "attr": {"value": {"tensor": {"dtype": "DT_FLOAT", "tensorShape": {"dim": [{"size": "1152"}, {"size": "576"}]}}}, "dtype": {"type": "DT_FLOAT"}}}, {"name": "StatefulPartitionedCall/hc_experimental_v7_2/conv_residual_feature_extraction_block_19/dense_19/BiasAdd/ReadVariableOp", "op": "Const", "attr": {"value": {"tensor": {"dtype": "DT_FLOAT", "tensorShape": {"dim": [{"size": "576"}]}}}, "dtype": {"type": "DT_FLOAT"}}}, {"name": "StatefulPartitionedCall/hc_experimental_v7_2/d_allele_middle/MatMul/ReadVariableOp", "op": "Const", "attr": {"value": {"tensor": {"dtype": "DT_FLOAT", "tensorShape": {"dim": [{"size": "576"}, {"size": "68"}]}}}, "dtype": {"type": "DT_FLOAT"}}}, {"name": "StatefulPartitionedCall/hc_experimental_v7_2/d_allele_middle/BiasAdd/ReadVariableOp", "op": "Const", "attr": {"value": {"tensor": {"dtype": "DT_FLOAT", "tensorShape": {"dim": [{"size": "68"}]}}}, "dtype": {"type": "DT_FLOAT"}}}, {"name": "StatefulPartitionedCall/hc_experimental_v7_2/d_allele/MatMul/ReadVariableOp", "op": "Const", "attr": {"value": {"tensor": {"dtype": "DT_FLOAT", "tensorShape": {"dim": [{"size": "68"}, {"size": "34"}]}}}, "dtype": {"type": "DT_FLOAT"}}}, {"name": "StatefulPartitionedCall/hc_experimental_v7_2/d_allele/BiasAdd/ReadVariableOp", "op": "Const", "attr": {"value": {"tensor": {"dtype": "DT_FLOAT", "tensorShape": {"dim": [{"size": "34"}]}}}, "dtype": {"type": "DT_FLOAT"}}}, {"name": "StatefulPartitionedCall/hc_experimental_v7_2/d_end/Gelu/mul/x", "op": "Const", "attr": {"value": {"tensor": {"dtype": "DT_FLOAT", "tensorShape": {}}}, "dtype": {"type": "DT_FLOAT"}}}, {"name": "StatefulPartitionedCall/hc_experimental_v7_2/d_end/Gelu/add/x", "op": "Const", "attr": {"value": {"tensor": {"dtype": "DT_FLOAT", "tensorShape": {}}}, "dtype": {"type": "DT_FLOAT"}}}, {"name": "StatefulPartitionedCall/hc_experimental_v7_2/d_end/MatMul/ReadVariableOp", "op": "Const", "attr": {"value": {"tensor": {"dtype": "DT_FLOAT", "tensorShape": {"dim": [{"size": "576"}, {"size": "1"}]}}}, "dtype": {"type": "DT_FLOAT"}}}, {"name": "StatefulPartitionedCall/hc_experimental_v7_2/d_end/BiasAdd/ReadVariableOp", "op": "Const", "attr": {"value": {"tensor": {"dtype": "DT_FLOAT", "tensorShape": {"dim": [{"size": "1"}]}}}, "dtype": {"type": "DT_FLOAT"}}}, {"name": "ConstantFolding/StatefulPartitionedCall/hc_experimental_v7_2/d_end/Gelu/truediv_recip", "op": "Const", "attr": {"value": {"tensor": {"dtype": "DT_FLOAT", "tensorShape": {}}}, "dtype": {"type": "DT_FLOAT"}}}, {"name": "StatefulPartitionedCall/hc_experimental_v7_2/d_start/Gelu/mul/x", "op": "Const", "attr": {"value": {"tensor": {"dtype": "DT_FLOAT", "tensorShape": {}}}, "dtype": {"type": "DT_FLOAT"}}}, {"name": "StatefulPartitionedCall/hc_experimental_v7_2/d_start/Gelu/add/x", "op": "Const", "attr": {"value": {"tensor": {"dtype": "DT_FLOAT", "tensorShape": {}}}, "dtype": {"type": "DT_FLOAT"}}}, {"name": "StatefulPartitionedCall/hc_experimental_v7_2/conv_residual_feature_extraction_block_16/conv1d_and__batch_norm_83/conv1d_265/Conv1D/ExpandDims/dim", "op": "Const", "attr": {"value": {"tensor": {"dtype": "DT_INT32", "tensorShape": {}}}, "dtype": {"type": "DT_INT32"}}}, {"name": "StatefulPartitionedCall/hc_experimental_v7_2/conv_residual_feature_extraction_block_16/conv1d_and__batch_norm_83/conv1d_265/Conv1D/ExpandDims_1", "op": "Const", "attr": {"value": {"tensor": {"dtype": "DT_FLOAT", "tensorShape": {"dim": [{"size": "1"}, {"size": "2"}, {"size": "128"}, {"size": "128"}]}}}, "dtype": {"type": "DT_FLOAT"}}}, {"name": "StatefulPartitionedCall/hc_experimental_v7_2/conv_residual_feature_extraction_block_16/conv1d_and__batch_norm_83/conv1d_265/BiasAdd/ReadVariableOp", "op": "Const", "attr": {"value": {"tensor": {"dtype": "DT_FLOAT", "tensorShape": {"dim": [{"size": "128"}]}}}, "dtype": {"type": "DT_FLOAT"}}}, {"name": "StatefulPartitionedCall/hc_experimental_v7_2/conv_residual_feature_extraction_block_16/conv1d_and__batch_norm_83/conv1d_266/Conv1D/ExpandDims/dim", "op": "Const", "attr": {"value": {"tensor": {"dtype": "DT_INT32", "tensorShape": {}}}, "dtype": {"type": "DT_INT32"}}}, {"name": "StatefulPartitionedCall/hc_experimental_v7_2/conv_residual_feature_extraction_block_16/conv1d_and__batch_norm_83/conv1d_266/Conv1D/ExpandDims_1", "op": "Const", "attr": {"value": {"tensor": {"dtype": "DT_FLOAT", "tensorShape": {"dim": [{"size": "1"}, {"size": "2"}, {"size": "128"}, {"size": "128"}]}}}, "dtype": {"type": "DT_FLOAT"}}}, {"name": "StatefulPartitionedCall/hc_experimental_v7_2/conv_residual_feature_extraction_block_16/conv1d_and__batch_norm_83/conv1d_266/BiasAdd/ReadVariableOp", "op": "Const", "attr": {"value": {"tensor": {"dtype": "DT_FLOAT", "tensorShape": {"dim": [{"size": "128"}]}}}, "dtype": {"type": "DT_FLOAT"}}}, {"name": "StatefulPartitionedCall/hc_experimental_v7_2/conv_residual_feature_extraction_block_16/conv1d_and__batch_norm_83/conv1d_267/Conv1D/ExpandDims/dim", "op": "Const", "attr": {"value": {"tensor": {"dtype": "DT_INT32", "tensorShape": {}}}, "dtype": {"type": "DT_INT32"}}}, {"name": "StatefulPartitionedCall/hc_experimental_v7_2/conv_residual_feature_extraction_block_16/conv1d_and__batch_norm_83/conv1d_267/Conv1D/ExpandDims_1", "op": "Const", "attr": {"value": {"tensor": {"dtype": "DT_FLOAT", "tensorShape": {"dim": [{"size": "1"}, {"size": "2"}, {"size": "128"}, {"size": "128"}]}}}, "dtype": {"type": "DT_FLOAT"}}}, {"name": "StatefulPartitionedCall/hc_experimental_v7_2/conv_residual_feature_extraction_block_16/conv1d_and__batch_norm_83/conv1d_267/BiasAdd/ReadVariableOp", "op": "Const", "attr": {"value": {"tensor": {"dtype": "DT_FLOAT", "tensorShape": {"dim": [{"size": "128"}]}}}, "dtype": {"type": "DT_FLOAT"}}}, {"name": "StatefulPartitionedCall/hc_experimental_v7_2/conv_residual_feature_extraction_block_16/conv1d_and__batch_norm_83/batch_normalization_83/batchnorm/mul", "op": "Const", "attr": {"value": {"tensor": {"dtype": "DT_FLOAT", "tensorShape": {"dim": [{"size": "128"}]}}}, "dtype": {"type": "DT_FLOAT"}}}, {"name": "StatefulPartitionedCall/hc_experimental_v7_2/conv_residual_feature_extraction_block_16/conv1d_and__batch_norm_83/batch_normalization_83/batchnorm/sub", "op": "Const", "attr": {"value": {"tensor": {"dtype": "DT_FLOAT", "tensorShape": {"dim": [{"size": "128"}]}}}, "dtype": {"type": "DT_FLOAT"}}}, {"name": "StatefulPartitionedCall/hc_experimental_v7_2/conv_residual_feature_extraction_block_16/conv1d_and__batch_norm_83/max_pooling1d_161/ExpandDims/dim", "op": "Const", "attr": {"value": {"tensor": {"dtype": "DT_INT32", "tensorShape": {}}}, "dtype": {"type": "DT_INT32"}}}, {"name": "StatefulPartitionedCall/hc_experimental_v7_2/conv_residual_feature_extraction_block_16/conv1d_and__batch_norm_82/conv1d_262/Conv1D/ExpandDims/dim", "op": "Const", "attr": {"value": {"tensor": {"dtype": "DT_INT32", "tensorShape": {}}}, "dtype": {"type": "DT_INT32"}}}, {"name": "StatefulPartitionedCall/hc_experimental_v7_2/conv_residual_feature_extraction_block_16/conv1d_and__batch_norm_82/conv1d_262/Conv1D/ExpandDims_1", "op": "Const", "attr": {"value": {"tensor": {"dtype": "DT_FLOAT", "tensorShape": {"dim": [{"size": "1"}, {"size": "3"}, {"size": "128"}, {"size": "128"}]}}}, "dtype": {"type": "DT_FLOAT"}}}, {"name": "StatefulPartitionedCall/hc_experimental_v7_2/conv_residual_feature_extraction_block_16/conv1d_and__batch_norm_82/conv1d_262/BiasAdd/ReadVariableOp", "op": "Const", "attr": {"value": {"tensor": {"dtype": "DT_FLOAT", "tensorShape": {"dim": [{"size": "128"}]}}}, "dtype": {"type": "DT_FLOAT"}}}, {"name": "StatefulPartitionedCall/hc_experimental_v7_2/conv_residual_feature_extraction_block_16/conv1d_and__batch_norm_82/conv1d_263/Conv1D/ExpandDims/dim", "op": "Const", "attr": {"value": {"tensor": {"dtype": "DT_INT32", "tensorShape": {}}}, "dtype": {"type": "DT_INT32"}}}, {"name": "StatefulPartitionedCall/hc_experimental_v7_2/conv_residual_feature_extraction_block_16/conv1d_and__batch_norm_82/conv1d_263/Conv1D/ExpandDims_1", "op": "Const", "attr": {"value": {"tensor": {"dtype": "DT_FLOAT", "tensorShape": {"dim": [{"size": "1"}, {"size": "3"}, {"size": "128"}, {"size": "128"}]}}}, "dtype": {"type": "DT_FLOAT"}}}, {"name": "StatefulPartitionedCall/hc_experimental_v7_2/conv_residual_feature_extraction_block_16/conv1d_and__batch_norm_82/conv1d_263/BiasAdd/ReadVariableOp", "op": "Const", "attr": {"value": {"tensor": {"dtype": "DT_FLOAT", "tensorShape": {"dim": [{"size": "128"}]}}}, "dtype": {"type": "DT_FLOAT"}}}, {"name": "StatefulPartitionedCall/hc_experimental_v7_2/conv_residual_feature_extraction_block_16/conv1d_and__batch_norm_82/conv1d_264/Conv1D/ExpandDims/dim", "op": "Const", "attr": {"value": {"tensor": {"dtype": "DT_INT32", "tensorShape": {}}}, "dtype": {"type": "DT_INT32"}}}, {"name": "StatefulPartitionedCall/hc_experimental_v7_2/conv_residual_feature_extraction_block_16/conv1d_and__batch_norm_82/conv1d_264/Conv1D/ExpandDims_1", "op": "Const", "attr": {"value": {"tensor": {"dtype": "DT_FLOAT", "tensorShape": {"dim": [{"size": "1"}, {"size": "3"}, {"size": "128"}, {"size": "128"}]}}}, "dtype": {"type": "DT_FLOAT"}}}, {"name": "StatefulPartitionedCall/hc_experimental_v7_2/conv_residual_feature_extraction_block_16/conv1d_and__batch_norm_82/conv1d_264/BiasAdd/ReadVariableOp", "op": "Const", "attr": {"value": {"tensor": {"dtype": "DT_FLOAT", "tensorShape": {"dim": [{"size": "128"}]}}}, "dtype": {"type": "DT_FLOAT"}}}, {"name": "StatefulPartitionedCall/hc_experimental_v7_2/conv_residual_feature_extraction_block_16/conv1d_and__batch_norm_82/batch_normalization_82/batchnorm/mul", "op": "Const", "attr": {"value": {"tensor": {"dtype": "DT_FLOAT", "tensorShape": {"dim": [{"size": "128"}]}}}, "dtype": {"type": "DT_FLOAT"}}}, {"name": "StatefulPartitionedCall/hc_experimental_v7_2/conv_residual_feature_extraction_block_16/conv1d_and__batch_norm_82/batch_normalization_82/batchnorm/sub", "op": "Const", "attr": {"value": {"tensor": {"dtype": "DT_FLOAT", "tensorShape": {"dim": [{"size": "128"}]}}}, "dtype": {"type": "DT_FLOAT"}}}, {"name": "StatefulPartitionedCall/hc_experimental_v7_2/conv_residual_feature_extraction_block_16/conv1d_and__batch_norm_82/max_pooling1d_160/ExpandDims/dim", "op": "Const", "attr": {"value": {"tensor": {"dtype": "DT_INT32", "tensorShape": {}}}, "dtype": {"type": "DT_INT32"}}}, {"name": "StatefulPartitionedCall/hc_experimental_v7_2/conv_residual_feature_extraction_block_16/conv1d_and__batch_norm_81/conv1d_259/Conv1D/ExpandDims/dim", "op": "Const", "attr": {"value": {"tensor": {"dtype": "DT_INT32", "tensorShape": {}}}, "dtype": {"type": "DT_INT32"}}}, {"name": "StatefulPartitionedCall/hc_experimental_v7_2/conv_residual_feature_extraction_block_16/conv1d_and__batch_norm_81/conv1d_259/Conv1D/ExpandDims_1", "op": "Const", "attr": {"value": {"tensor": {"dtype": "DT_FLOAT", "tensorShape": {"dim": [{"size": "1"}, {"size": "3"}, {"size": "128"}, {"size": "128"}]}}}, "dtype": {"type": "DT_FLOAT"}}}, {"name": "StatefulPartitionedCall/hc_experimental_v7_2/conv_residual_feature_extraction_block_16/conv1d_and__batch_norm_81/conv1d_259/BiasAdd/ReadVariableOp", "op": "Const", "attr": {"value": {"tensor": {"dtype": "DT_FLOAT", "tensorShape": {"dim": [{"size": "128"}]}}}, "dtype": {"type": "DT_FLOAT"}}}, {"name": "StatefulPartitionedCall/hc_experimental_v7_2/conv_residual_feature_extraction_block_16/conv1d_and__batch_norm_81/conv1d_260/Conv1D/ExpandDims/dim", "op": "Const", "attr": {"value": {"tensor": {"dtype": "DT_INT32", "tensorShape": {}}}, "dtype": {"type": "DT_INT32"}}}, {"name": "StatefulPartitionedCall/hc_experimental_v7_2/conv_residual_feature_extraction_block_16/conv1d_and__batch_norm_81/conv1d_260/Conv1D/ExpandDims_1", "op": "Const", "attr": {"value": {"tensor": {"dtype": "DT_FLOAT", "tensorShape": {"dim": [{"size": "1"}, {"size": "3"}, {"size": "128"}, {"size": "128"}]}}}, "dtype": {"type": "DT_FLOAT"}}}, {"name": "StatefulPartitionedCall/hc_experimental_v7_2/conv_residual_feature_extraction_block_16/conv1d_and__batch_norm_81/conv1d_260/BiasAdd/ReadVariableOp", "op": "Const", "attr": {"value": {"tensor": {"dtype": "DT_FLOAT", "tensorShape": {"dim": [{"size": "128"}]}}}, "dtype": {"type": "DT_FLOAT"}}}, {"name": "StatefulPartitionedCall/hc_experimental_v7_2/conv_residual_feature_extraction_block_16/conv1d_and__batch_norm_81/conv1d_261/Conv1D/ExpandDims/dim", "op": "Const", "attr": {"value": {"tensor": {"dtype": "DT_INT32", "tensorShape": {}}}, "dtype": {"type": "DT_INT32"}}}, {"name": "StatefulPartitionedCall/hc_experimental_v7_2/conv_residual_feature_extraction_block_16/conv1d_and__batch_norm_81/conv1d_261/Conv1D/ExpandDims_1", "op": "Const", "attr": {"value": {"tensor": {"dtype": "DT_FLOAT", "tensorShape": {"dim": [{"size": "1"}, {"size": "3"}, {"size": "128"}, {"size": "128"}]}}}, "dtype": {"type": "DT_FLOAT"}}}, {"name": "StatefulPartitionedCall/hc_experimental_v7_2/conv_residual_feature_extraction_block_16/conv1d_and__batch_norm_81/conv1d_261/BiasAdd/ReadVariableOp", "op": "Const", "attr": {"value": {"tensor": {"dtype": "DT_FLOAT", "tensorShape": {"dim": [{"size": "128"}]}}}, "dtype": {"type": "DT_FLOAT"}}}, {"name": "StatefulPartitionedCall/hc_experimental_v7_2/conv_residual_feature_extraction_block_16/conv1d_and__batch_norm_81/batch_normalization_81/batchnorm/mul", "op": "Const", "attr": {"value": {"tensor": {"dtype": "DT_FLOAT", "tensorShape": {"dim": [{"size": "128"}]}}}, "dtype": {"type": "DT_FLOAT"}}}, {"name": "StatefulPartitionedCall/hc_experimental_v7_2/conv_residual_feature_extraction_block_16/conv1d_and__batch_norm_81/batch_normalization_81/batchnorm/sub", "op": "Const", "attr": {"value": {"tensor": {"dtype": "DT_FLOAT", "tensorShape": {"dim": [{"size": "128"}]}}}, "dtype": {"type": "DT_FLOAT"}}}, {"name": "StatefulPartitionedCall/hc_experimental_v7_2/conv_residual_feature_extraction_block_16/conv1d_and__batch_norm_81/max_pooling1d_159/ExpandDims/dim", "op": "Const", "attr": {"value": {"tensor": {"dtype": "DT_INT32", "tensorShape": {}}}, "dtype": {"type": "DT_INT32"}}}, {"name": "StatefulPartitionedCall/hc_experimental_v7_2/conv_residual_feature_extraction_block_16/conv1d_and__batch_norm_80/conv1d_256/Conv1D/ExpandDims/dim", "op": "Const", "attr": {"value": {"tensor": {"dtype": "DT_INT32", "tensorShape": {}}}, "dtype": {"type": "DT_INT32"}}}, {"name": "StatefulPartitionedCall/hc_experimental_v7_2/conv_residual_feature_extraction_block_16/conv1d_and__batch_norm_80/conv1d_256/Conv1D/ExpandDims_1", "op": "Const", "attr": {"value": {"tensor": {"dtype": "DT_FLOAT", "tensorShape": {"dim": [{"size": "1"}, {"size": "3"}, {"size": "32"}, {"size": "128"}]}}}, "dtype": {"type": "DT_FLOAT"}}}, {"name": "StatefulPartitionedCall/hc_experimental_v7_2/conv_residual_feature_extraction_block_16/conv1d_and__batch_norm_80/conv1d_256/BiasAdd/ReadVariableOp", "op": "Const", "attr": {"value": {"tensor": {"dtype": "DT_FLOAT", "tensorShape": {"dim": [{"size": "128"}]}}}, "dtype": {"type": "DT_FLOAT"}}}, {"name": "StatefulPartitionedCall/hc_experimental_v7_2/conv_residual_feature_extraction_block_16/conv1d_and__batch_norm_80/conv1d_257/Conv1D/ExpandDims/dim", "op": "Const", "attr": {"value": {"tensor": {"dtype": "DT_INT32", "tensorShape": {}}}, "dtype": {"type": "DT_INT32"}}}, {"name": "StatefulPartitionedCall/hc_experimental_v7_2/conv_residual_feature_extraction_block_16/conv1d_and__batch_norm_80/conv1d_257/Conv1D/ExpandDims_1", "op": "Const", "attr": {"value": {"tensor": {"dtype": "DT_FLOAT", "tensorShape": {"dim": [{"size": "1"}, {"size": "3"}, {"size": "128"}, {"size": "128"}]}}}, "dtype": {"type": "DT_FLOAT"}}}, {"name": "StatefulPartitionedCall/hc_experimental_v7_2/conv_residual_feature_extraction_block_16/conv1d_and__batch_norm_80/conv1d_257/BiasAdd/ReadVariableOp", "op": "Const", "attr": {"value": {"tensor": {"dtype": "DT_FLOAT", "tensorShape": {"dim": [{"size": "128"}]}}}, "dtype": {"type": "DT_FLOAT"}}}, {"name": "StatefulPartitionedCall/hc_experimental_v7_2/conv_residual_feature_extraction_block_16/conv1d_and__batch_norm_80/conv1d_258/Conv1D/ExpandDims/dim", "op": "Const", "attr": {"value": {"tensor": {"dtype": "DT_INT32", "tensorShape": {}}}, "dtype": {"type": "DT_INT32"}}}, {"name": "StatefulPartitionedCall/hc_experimental_v7_2/conv_residual_feature_extraction_block_16/conv1d_and__batch_norm_80/conv1d_258/Conv1D/ExpandDims_1", "op": "Const", "attr": {"value": {"tensor": {"dtype": "DT_FLOAT", "tensorShape": {"dim": [{"size": "1"}, {"size": "3"}, {"size": "128"}, {"size": "128"}]}}}, "dtype": {"type": "DT_FLOAT"}}}, {"name": "StatefulPartitionedCall/hc_experimental_v7_2/conv_residual_feature_extraction_block_16/conv1d_and__batch_norm_80/conv1d_258/BiasAdd/ReadVariableOp", "op": "Const", "attr": {"value": {"tensor": {"dtype": "DT_FLOAT", "tensorShape": {"dim": [{"size": "128"}]}}}, "dtype": {"type": "DT_FLOAT"}}}, {"name": "StatefulPartitionedCall/hc_experimental_v7_2/conv_residual_feature_extraction_block_16/conv1d_and__batch_norm_80/batch_normalization_80/batchnorm/mul", "op": "Const", "attr": {"value": {"tensor": {"dtype": "DT_FLOAT", "tensorShape": {"dim": [{"size": "128"}]}}}, "dtype": {"type": "DT_FLOAT"}}}, {"name": "StatefulPartitionedCall/hc_experimental_v7_2/conv_residual_feature_extraction_block_16/conv1d_and__batch_norm_80/batch_normalization_80/batchnorm/sub", "op": "Const", "attr": {"value": {"tensor": {"dtype": "DT_FLOAT", "tensorShape": {"dim": [{"size": "128"}]}}}, "dtype": {"type": "DT_FLOAT"}}}, {"name": "StatefulPartitionedCall/hc_experimental_v7_2/conv_residual_feature_extraction_block_16/conv1d_and__batch_norm_80/max_pooling1d_158/ExpandDims/dim", "op": "Const", "attr": {"value": {"tensor": {"dtype": "DT_INT32", "tensorShape": {}}}, "dtype": {"type": "DT_INT32"}}}, {"name": "StatefulPartitionedCall/hc_experimental_v7_2/conv_residual_feature_extraction_block_16/conv1d_268/Conv1D/ExpandDims/dim", "op": "Const", "attr": {"value": {"tensor": {"dtype": "DT_INT32", "tensorShape": {}}}, "dtype": {"type": "DT_INT32"}}}, {"name": "StatefulPartitionedCall/hc_experimental_v7_2/conv_residual_feature_extraction_block_16/conv1d_268/Conv1D/ExpandDims_1", "op": "Const", "attr": {"value": {"tensor": {"dtype": "DT_FLOAT", "tensorShape": {"dim": [{"size": "1"}, {"size": "5"}, {"size": "32"}, {"size": "128"}]}}}, "dtype": {"type": "DT_FLOAT"}}}, {"name": "StatefulPartitionedCall/hc_experimental_v7_2/conv_residual_feature_extraction_block_16/conv1d_268/BiasAdd/ReadVariableOp", "op": "Const", "attr": {"value": {"tensor": {"dtype": "DT_FLOAT", "tensorShape": {"dim": [{"size": "128"}]}}}, "dtype": {"type": "DT_FLOAT"}}}, {"name": "StatefulPartitionedCall/hc_experimental_v7_2/conv_residual_feature_extraction_block_16/max_pooling1d_162/ExpandDims/dim", "op": "Const", "attr": {"value": {"tensor": {"dtype": "DT_INT32", "tensorShape": {}}}, "dtype": {"type": "DT_INT32"}}}, {"name": "StatefulPartitionedCall/hc_experimental_v7_2/conv_residual_feature_extraction_block_16/max_pooling1d_162/ExpandDims_1/dim", "op": "Const", "attr": {"value": {"tensor": {"dtype": "DT_INT32", "tensorShape": {}}}, "dtype": {"type": "DT_INT32"}}}, {"name": "StatefulPartitionedCall/hc_experimental_v7_2/conv_residual_feature_extraction_block_16/max_pooling1d_163/ExpandDims/dim", "op": "Const", "attr": {"value": {"tensor": {"dtype": "DT_INT32", "tensorShape": {}}}, "dtype": {"type": "DT_INT32"}}}, {"name": "StatefulPartitionedCall/hc_experimental_v7_2/conv_residual_feature_extraction_block_16/max_pooling1d_164/ExpandDims/dim", "op": "Const", "attr": {"value": {"tensor": {"dtype": "DT_INT32", "tensorShape": {}}}, "dtype": {"type": "DT_INT32"}}}, {"name": "StatefulPartitionedCall/hc_experimental_v7_2/conv_residual_feature_extraction_block_16/max_pooling1d_165/ExpandDims/dim", "op": "Const", "attr": {"value": {"tensor": {"dtype": "DT_INT32", "tensorShape": {}}}, "dtype": {"type": "DT_INT32"}}}, {"name": "StatefulPartitionedCall/hc_experimental_v7_2/conv_residual_feature_extraction_block_16/flatten_18/Const", "op": "Const", "attr": {"value": {"tensor": {"dtype": "DT_INT32", "tensorShape": {"dim": [{"size": "2"}]}}}, "dtype": {"type": "DT_INT32"}}}, {"name": "StatefulPartitionedCall/hc_experimental_v7_2/conv_residual_feature_extraction_block_16/dense_16/MatMul/ReadVariableOp", "op": "Const", "attr": {"value": {"tensor": {"dtype": "DT_FLOAT", "tensorShape": {"dim": [{"size": "2304"}, {"size": "576"}]}}}, "dtype": {"type": "DT_FLOAT"}}}, {"name": "StatefulPartitionedCall/hc_experimental_v7_2/conv_residual_feature_extraction_block_16/dense_16/BiasAdd/ReadVariableOp", "op": "Const", "attr": {"value": {"tensor": {"dtype": "DT_FLOAT", "tensorShape": {"dim": [{"size": "576"}]}}}, "dtype": {"type": "DT_FLOAT"}}}, {"name": "StatefulPartitionedCall/hc_experimental_v7_2/d_start/MatMul/ReadVariableOp", "op": "Const", "attr": {"value": {"tensor": {"dtype": "DT_FLOAT", "tensorShape": {"dim": [{"size": "576"}, {"size": "1"}]}}}, "dtype": {"type": "DT_FLOAT"}}}, {"name": "StatefulPartitionedCall/hc_experimental_v7_2/d_start/BiasAdd/ReadVariableOp", "op": "Const", "attr": {"value": {"tensor": {"dtype": "DT_FLOAT", "tensorShape": {"dim": [{"size": "1"}]}}}, "dtype": {"type": "DT_FLOAT"}}}, {"name": "ConstantFolding/StatefulPartitionedCall/hc_experimental_v7_2/d_start/Gelu/truediv_recip", "op": "Const", "attr": {"value": {"tensor": {"dtype": "DT_FLOAT", "tensorShape": {}}}, "dtype": {"type": "DT_FLOAT"}}}, {"name": "StatefulPartitionedCall/hc_experimental_v7_2/indel_count_mid/Gelu/mul/x", "op": "Const", "attr": {"value": {"tensor": {"dtype": "DT_FLOAT", "tensorShape": {}}}, "dtype": {"type": "DT_FLOAT"}}}, {"name": "StatefulPartitionedCall/hc_experimental_v7_2/indel_count_mid/Gelu/add/x", "op": "Const", "attr": {"value": {"tensor": {"dtype": "DT_FLOAT", "tensorShape": {}}}, "dtype": {"type": "DT_FLOAT"}}}, {"name": "StatefulPartitionedCall/hc_experimental_v7_2/indel_count_mid/MatMul/ReadVariableOp", "op": "Const", "attr": {"value": {"tensor": {"dtype": "DT_FLOAT", "tensorShape": {"dim": [{"size": "576"}, {"size": "576"}]}}}, "dtype": {"type": "DT_FLOAT"}}}, {"name": "StatefulPartitionedCall/hc_experimental_v7_2/indel_count_mid/BiasAdd/ReadVariableOp", "op": "Const", "attr": {"value": {"tensor": {"dtype": "DT_FLOAT", "tensorShape": {"dim": [{"size": "576"}]}}}, "dtype": {"type": "DT_FLOAT"}}}, {"name": "ConstantFolding/StatefulPartitionedCall/hc_experimental_v7_2/indel_count_mid/Gelu/truediv_recip", "op": "Const", "attr": {"value": {"tensor": {"dtype": "DT_FLOAT", "tensorShape": {}}}, "dtype": {"type": "DT_FLOAT"}}}, {"name": "StatefulPartitionedCall/hc_experimental_v7_2/indel_count/MatMul/ReadVariableOp", "op": "Const", "attr": {"value": {"tensor": {"dtype": "DT_FLOAT", "tensorShape": {"dim": [{"size": "576"}, {"size": "1"}]}}}, "dtype": {"type": "DT_FLOAT"}}}, {"name": "StatefulPartitionedCall/hc_experimental_v7_2/indel_count/BiasAdd/ReadVariableOp", "op": "Const", "attr": {"value": {"tensor": {"dtype": "DT_FLOAT", "tensorShape": {"dim": [{"size": "1"}]}}}, "dtype": {"type": "DT_FLOAT"}}}, {"name": "StatefulPartitionedCall/hc_experimental_v7_2/conv_residual_feature_extraction_block_20/conv1d_and__batch_norm_103/conv1d_329/Conv1D/ExpandDims/dim", "op": "Const", "attr": {"value": {"tensor": {"dtype": "DT_INT32", "tensorShape": {}}}, "dtype": {"type": "DT_INT32"}}}, {"name": "StatefulPartitionedCall/hc_experimental_v7_2/conv_residual_feature_extraction_block_20/conv1d_and__batch_norm_103/conv1d_329/Conv1D/ExpandDims_1", "op": "Const", "attr": {"value": {"tensor": {"dtype": "DT_FLOAT", "tensorShape": {"dim": [{"size": "1"}, {"size": "2"}, {"size": "128"}, {"size": "128"}]}}}, "dtype": {"type": "DT_FLOAT"}}}, {"name": "StatefulPartitionedCall/hc_experimental_v7_2/conv_residual_feature_extraction_block_20/conv1d_and__batch_norm_103/conv1d_329/BiasAdd/ReadVariableOp", "op": "Const", "attr": {"value": {"tensor": {"dtype": "DT_FLOAT", "tensorShape": {"dim": [{"size": "128"}]}}}, "dtype": {"type": "DT_FLOAT"}}}, {"name": "StatefulPartitionedCall/hc_experimental_v7_2/conv_residual_feature_extraction_block_20/conv1d_and__batch_norm_103/conv1d_330/Conv1D/ExpandDims/dim", "op": "Const", "attr": {"value": {"tensor": {"dtype": "DT_INT32", "tensorShape": {}}}, "dtype": {"type": "DT_INT32"}}}, {"name": "StatefulPartitionedCall/hc_experimental_v7_2/conv_residual_feature_extraction_block_20/conv1d_and__batch_norm_103/conv1d_330/Conv1D/ExpandDims_1", "op": "Const", "attr": {"value": {"tensor": {"dtype": "DT_FLOAT", "tensorShape": {"dim": [{"size": "1"}, {"size": "2"}, {"size": "128"}, {"size": "128"}]}}}, "dtype": {"type": "DT_FLOAT"}}}, {"name": "StatefulPartitionedCall/hc_experimental_v7_2/conv_residual_feature_extraction_block_20/conv1d_and__batch_norm_103/conv1d_330/BiasAdd/ReadVariableOp", "op": "Const", "attr": {"value": {"tensor": {"dtype": "DT_FLOAT", "tensorShape": {"dim": [{"size": "128"}]}}}, "dtype": {"type": "DT_FLOAT"}}}, {"name": "StatefulPartitionedCall/hc_experimental_v7_2/conv_residual_feature_extraction_block_20/conv1d_and__batch_norm_103/conv1d_331/Conv1D/ExpandDims/dim", "op": "Const", "attr": {"value": {"tensor": {"dtype": "DT_INT32", "tensorShape": {}}}, "dtype": {"type": "DT_INT32"}}}, {"name": "StatefulPartitionedCall/hc_experimental_v7_2/conv_residual_feature_extraction_block_20/conv1d_and__batch_norm_103/conv1d_331/Conv1D/ExpandDims_1", "op": "Const", "attr": {"value": {"tensor": {"dtype": "DT_FLOAT", "tensorShape": {"dim": [{"size": "1"}, {"size": "2"}, {"size": "128"}, {"size": "128"}]}}}, "dtype": {"type": "DT_FLOAT"}}}, {"name": "StatefulPartitionedCall/hc_experimental_v7_2/conv_residual_feature_extraction_block_20/conv1d_and__batch_norm_103/conv1d_331/BiasAdd/ReadVariableOp", "op": "Const", "attr": {"value": {"tensor": {"dtype": "DT_FLOAT", "tensorShape": {"dim": [{"size": "128"}]}}}, "dtype": {"type": "DT_FLOAT"}}}, {"name": "StatefulPartitionedCall/hc_experimental_v7_2/conv_residual_feature_extraction_block_20/conv1d_and__batch_norm_103/batch_normalization_103/batchnorm/mul", "op": "Const", "attr": {"value": {"tensor": {"dtype": "DT_FLOAT", "tensorShape": {"dim": [{"size": "128"}]}}}, "dtype": {"type": "DT_FLOAT"}}}, {"name": "StatefulPartitionedCall/hc_experimental_v7_2/conv_residual_feature_extraction_block_20/conv1d_and__batch_norm_103/batch_normalization_103/batchnorm/sub", "op": "Const", "attr": {"value": {"tensor": {"dtype": "DT_FLOAT", "tensorShape": {"dim": [{"size": "128"}]}}}, "dtype": {"type": "DT_FLOAT"}}}, {"name": "StatefulPartitionedCall/hc_experimental_v7_2/conv_residual_feature_extraction_block_20/conv1d_and__batch_norm_103/max_pooling1d_199/ExpandDims/dim", "op": "Const", "attr": {"value": {"tensor": {"dtype": "DT_INT32", "tensorShape": {}}}, "dtype": {"type": "DT_INT32"}}}, {"name": "StatefulPartitionedCall/hc_experimental_v7_2/conv_residual_feature_extraction_block_20/conv1d_and__batch_norm_102/conv1d_326/Conv1D/ExpandDims/dim", "op": "Const", "attr": {"value": {"tensor": {"dtype": "DT_INT32", "tensorShape": {}}}, "dtype": {"type": "DT_INT32"}}}, {"name": "StatefulPartitionedCall/hc_experimental_v7_2/conv_residual_feature_extraction_block_20/conv1d_and__batch_norm_102/conv1d_326/Conv1D/ExpandDims_1", "op": "Const", "attr": {"value": {"tensor": {"dtype": "DT_FLOAT", "tensorShape": {"dim": [{"size": "1"}, {"size": "2"}, {"size": "128"}, {"size": "128"}]}}}, "dtype": {"type": "DT_FLOAT"}}}, {"name": "StatefulPartitionedCall/hc_experimental_v7_2/conv_residual_feature_extraction_block_20/conv1d_and__batch_norm_102/conv1d_326/BiasAdd/ReadVariableOp", "op": "Const", "attr": {"value": {"tensor": {"dtype": "DT_FLOAT", "tensorShape": {"dim": [{"size": "128"}]}}}, "dtype": {"type": "DT_FLOAT"}}}, {"name": "StatefulPartitionedCall/hc_experimental_v7_2/conv_residual_feature_extraction_block_20/conv1d_and__batch_norm_102/conv1d_327/Conv1D/ExpandDims/dim", "op": "Const", "attr": {"value": {"tensor": {"dtype": "DT_INT32", "tensorShape": {}}}, "dtype": {"type": "DT_INT32"}}}, {"name": "StatefulPartitionedCall/hc_experimental_v7_2/conv_residual_feature_extraction_block_20/conv1d_and__batch_norm_102/conv1d_327/Conv1D/ExpandDims_1", "op": "Const", "attr": {"value": {"tensor": {"dtype": "DT_FLOAT", "tensorShape": {"dim": [{"size": "1"}, {"size": "2"}, {"size": "128"}, {"size": "128"}]}}}, "dtype": {"type": "DT_FLOAT"}}}, {"name": "StatefulPartitionedCall/hc_experimental_v7_2/conv_residual_feature_extraction_block_20/conv1d_and__batch_norm_102/conv1d_327/BiasAdd/ReadVariableOp", "op": "Const", "attr": {"value": {"tensor": {"dtype": "DT_FLOAT", "tensorShape": {"dim": [{"size": "128"}]}}}, "dtype": {"type": "DT_FLOAT"}}}, {"name": "StatefulPartitionedCall/hc_experimental_v7_2/conv_residual_feature_extraction_block_20/conv1d_and__batch_norm_102/conv1d_328/Conv1D/ExpandDims/dim", "op": "Const", "attr": {"value": {"tensor": {"dtype": "DT_INT32", "tensorShape": {}}}, "dtype": {"type": "DT_INT32"}}}, {"name": "StatefulPartitionedCall/hc_experimental_v7_2/conv_residual_feature_extraction_block_20/conv1d_and__batch_norm_102/conv1d_328/Conv1D/ExpandDims_1", "op": "Const", "attr": {"value": {"tensor": {"dtype": "DT_FLOAT", "tensorShape": {"dim": [{"size": "1"}, {"size": "2"}, {"size": "128"}, {"size": "128"}]}}}, "dtype": {"type": "DT_FLOAT"}}}, {"name": "StatefulPartitionedCall/hc_experimental_v7_2/conv_residual_feature_extraction_block_20/conv1d_and__batch_norm_102/conv1d_328/BiasAdd/ReadVariableOp", "op": "Const", "attr": {"value": {"tensor": {"dtype": "DT_FLOAT", "tensorShape": {"dim": [{"size": "128"}]}}}, "dtype": {"type": "DT_FLOAT"}}}, {"name": "StatefulPartitionedCall/hc_experimental_v7_2/conv_residual_feature_extraction_block_20/conv1d_and__batch_norm_102/batch_normalization_102/batchnorm/mul", "op": "Const", "attr": {"value": {"tensor": {"dtype": "DT_FLOAT", "tensorShape": {"dim": [{"size": "128"}]}}}, "dtype": {"type": "DT_FLOAT"}}}, {"name": "StatefulPartitionedCall/hc_experimental_v7_2/conv_residual_feature_extraction_block_20/conv1d_and__batch_norm_102/batch_normalization_102/batchnorm/sub", "op": "Const", "attr": {"value": {"tensor": {"dtype": "DT_FLOAT", "tensorShape": {"dim": [{"size": "128"}]}}}, "dtype": {"type": "DT_FLOAT"}}}, {"name": "StatefulPartitionedCall/hc_experimental_v7_2/conv_residual_feature_extraction_block_20/conv1d_and__batch_norm_102/max_pooling1d_198/ExpandDims/dim", "op": "Const", "attr": {"value": {"tensor": {"dtype": "DT_INT32", "tensorShape": {}}}, "dtype": {"type": "DT_INT32"}}}, {"name": "StatefulPartitionedCall/hc_experimental_v7_2/conv_residual_feature_extraction_block_20/conv1d_and__batch_norm_101/conv1d_323/Conv1D/ExpandDims/dim", "op": "Const", "attr": {"value": {"tensor": {"dtype": "DT_INT32", "tensorShape": {}}}, "dtype": {"type": "DT_INT32"}}}, {"name": "StatefulPartitionedCall/hc_experimental_v7_2/conv_residual_feature_extraction_block_20/conv1d_and__batch_norm_101/conv1d_323/Conv1D/ExpandDims_1", "op": "Const", "attr": {"value": {"tensor": {"dtype": "DT_FLOAT", "tensorShape": {"dim": [{"size": "1"}, {"size": "2"}, {"size": "128"}, {"size": "128"}]}}}, "dtype": {"type": "DT_FLOAT"}}}, {"name": "StatefulPartitionedCall/hc_experimental_v7_2/conv_residual_feature_extraction_block_20/conv1d_and__batch_norm_101/conv1d_323/BiasAdd/ReadVariableOp", "op": "Const", "attr": {"value": {"tensor": {"dtype": "DT_FLOAT", "tensorShape": {"dim": [{"size": "128"}]}}}, "dtype": {"type": "DT_FLOAT"}}}, {"name": "StatefulPartitionedCall/hc_experimental_v7_2/conv_residual_feature_extraction_block_20/conv1d_and__batch_norm_101/conv1d_324/Conv1D/ExpandDims/dim", "op": "Const", "attr": {"value": {"tensor": {"dtype": "DT_INT32", "tensorShape": {}}}, "dtype": {"type": "DT_INT32"}}}, {"name": "StatefulPartitionedCall/hc_experimental_v7_2/conv_residual_feature_extraction_block_20/conv1d_and__batch_norm_101/conv1d_324/Conv1D/ExpandDims_1", "op": "Const", "attr": {"value": {"tensor": {"dtype": "DT_FLOAT", "tensorShape": {"dim": [{"size": "1"}, {"size": "2"}, {"size": "128"}, {"size": "128"}]}}}, "dtype": {"type": "DT_FLOAT"}}}, {"name": "StatefulPartitionedCall/hc_experimental_v7_2/conv_residual_feature_extraction_block_20/conv1d_and__batch_norm_101/conv1d_324/BiasAdd/ReadVariableOp", "op": "Const", "attr": {"value": {"tensor": {"dtype": "DT_FLOAT", "tensorShape": {"dim": [{"size": "128"}]}}}, "dtype": {"type": "DT_FLOAT"}}}, {"name": "StatefulPartitionedCall/hc_experimental_v7_2/conv_residual_feature_extraction_block_20/conv1d_and__batch_norm_101/conv1d_325/Conv1D/ExpandDims/dim", "op": "Const", "attr": {"value": {"tensor": {"dtype": "DT_INT32", "tensorShape": {}}}, "dtype": {"type": "DT_INT32"}}}, {"name": "StatefulPartitionedCall/hc_experimental_v7_2/conv_residual_feature_extraction_block_20/conv1d_and__batch_norm_101/conv1d_325/Conv1D/ExpandDims_1", "op": "Const", "attr": {"value": {"tensor": {"dtype": "DT_FLOAT", "tensorShape": {"dim": [{"size": "1"}, {"size": "2"}, {"size": "128"}, {"size": "128"}]}}}, "dtype": {"type": "DT_FLOAT"}}}, {"name": "StatefulPartitionedCall/hc_experimental_v7_2/conv_residual_feature_extraction_block_20/conv1d_and__batch_norm_101/conv1d_325/BiasAdd/ReadVariableOp", "op": "Const", "attr": {"value": {"tensor": {"dtype": "DT_FLOAT", "tensorShape": {"dim": [{"size": "128"}]}}}, "dtype": {"type": "DT_FLOAT"}}}, {"name": "StatefulPartitionedCall/hc_experimental_v7_2/conv_residual_feature_extraction_block_20/conv1d_and__batch_norm_101/batch_normalization_101/batchnorm/mul", "op": "Const", "attr": {"value": {"tensor": {"dtype": "DT_FLOAT", "tensorShape": {"dim": [{"size": "128"}]}}}, "dtype": {"type": "DT_FLOAT"}}}, {"name": "StatefulPartitionedCall/hc_experimental_v7_2/conv_residual_feature_extraction_block_20/conv1d_and__batch_norm_101/batch_normalization_101/batchnorm/sub", "op": "Const", "attr": {"value": {"tensor": {"dtype": "DT_FLOAT", "tensorShape": {"dim": [{"size": "128"}]}}}, "dtype": {"type": "DT_FLOAT"}}}, {"name": "StatefulPartitionedCall/hc_experimental_v7_2/conv_residual_feature_extraction_block_20/conv1d_and__batch_norm_101/max_pooling1d_197/ExpandDims/dim", "op": "Const", "attr": {"value": {"tensor": {"dtype": "DT_INT32", "tensorShape": {}}}, "dtype": {"type": "DT_INT32"}}}, {"name": "StatefulPartitionedCall/hc_experimental_v7_2/conv_residual_feature_extraction_block_20/conv1d_and__batch_norm_100/conv1d_320/Conv1D/ExpandDims/dim", "op": "Const", "attr": {"value": {"tensor": {"dtype": "DT_INT32", "tensorShape": {}}}, "dtype": {"type": "DT_INT32"}}}, {"name": "StatefulPartitionedCall/hc_experimental_v7_2/conv_residual_feature_extraction_block_20/conv1d_and__batch_norm_100/conv1d_320/Conv1D/ExpandDims_1", "op": "Const", "attr": {"value": {"tensor": {"dtype": "DT_FLOAT", "tensorShape": {"dim": [{"size": "1"}, {"size": "3"}, {"size": "128"}, {"size": "128"}]}}}, "dtype": {"type": "DT_FLOAT"}}}, {"name": "StatefulPartitionedCall/hc_experimental_v7_2/conv_residual_feature_extraction_block_20/conv1d_and__batch_norm_100/conv1d_320/BiasAdd/ReadVariableOp", "op": "Const", "attr": {"value": {"tensor": {"dtype": "DT_FLOAT", "tensorShape": {"dim": [{"size": "128"}]}}}, "dtype": {"type": "DT_FLOAT"}}}, {"name": "StatefulPartitionedCall/hc_experimental_v7_2/conv_residual_feature_extraction_block_20/conv1d_and__batch_norm_100/conv1d_321/Conv1D/ExpandDims/dim", "op": "Const", "attr": {"value": {"tensor": {"dtype": "DT_INT32", "tensorShape": {}}}, "dtype": {"type": "DT_INT32"}}}, {"name": "StatefulPartitionedCall/hc_experimental_v7_2/conv_residual_feature_extraction_block_20/conv1d_and__batch_norm_100/conv1d_321/Conv1D/ExpandDims_1", "op": "Const", "attr": {"value": {"tensor": {"dtype": "DT_FLOAT", "tensorShape": {"dim": [{"size": "1"}, {"size": "3"}, {"size": "128"}, {"size": "128"}]}}}, "dtype": {"type": "DT_FLOAT"}}}, {"name": "StatefulPartitionedCall/hc_experimental_v7_2/conv_residual_feature_extraction_block_20/conv1d_and__batch_norm_100/conv1d_321/BiasAdd/ReadVariableOp", "op": "Const", "attr": {"value": {"tensor": {"dtype": "DT_FLOAT", "tensorShape": {"dim": [{"size": "128"}]}}}, "dtype": {"type": "DT_FLOAT"}}}, {"name": "StatefulPartitionedCall/hc_experimental_v7_2/conv_residual_feature_extraction_block_20/conv1d_and__batch_norm_100/conv1d_322/Conv1D/ExpandDims/dim", "op": "Const", "attr": {"value": {"tensor": {"dtype": "DT_INT32", "tensorShape": {}}}, "dtype": {"type": "DT_INT32"}}}, {"name": "StatefulPartitionedCall/hc_experimental_v7_2/conv_residual_feature_extraction_block_20/conv1d_and__batch_norm_100/conv1d_322/Conv1D/ExpandDims_1", "op": "Const", "attr": {"value": {"tensor": {"dtype": "DT_FLOAT", "tensorShape": {"dim": [{"size": "1"}, {"size": "3"}, {"size": "128"}, {"size": "128"}]}}}, "dtype": {"type": "DT_FLOAT"}}}, {"name": "StatefulPartitionedCall/hc_experimental_v7_2/conv_residual_feature_extraction_block_20/conv1d_and__batch_norm_100/conv1d_322/BiasAdd/ReadVariableOp", "op": "Const", "attr": {"value": {"tensor": {"dtype": "DT_FLOAT", "tensorShape": {"dim": [{"size": "128"}]}}}, "dtype": {"type": "DT_FLOAT"}}}, {"name": "StatefulPartitionedCall/hc_experimental_v7_2/conv_residual_feature_extraction_block_20/conv1d_and__batch_norm_100/batch_normalization_100/batchnorm/mul", "op": "Const", "attr": {"value": {"tensor": {"dtype": "DT_FLOAT", "tensorShape": {"dim": [{"size": "128"}]}}}, "dtype": {"type": "DT_FLOAT"}}}, {"name": "StatefulPartitionedCall/hc_experimental_v7_2/conv_residual_feature_extraction_block_20/conv1d_and__batch_norm_100/batch_normalization_100/batchnorm/sub", "op": "Const", "attr": {"value": {"tensor": {"dtype": "DT_FLOAT", "tensorShape": {"dim": [{"size": "128"}]}}}, "dtype": {"type": "DT_FLOAT"}}}, {"name": "StatefulPartitionedCall/hc_experimental_v7_2/conv_residual_feature_extraction_block_20/conv1d_and__batch_norm_100/max_pooling1d_196/ExpandDims/dim", "op": "Const", "attr": {"value": {"tensor": {"dtype": "DT_INT32", "tensorShape": {}}}, "dtype": {"type": "DT_INT32"}}}, {"name": "StatefulPartitionedCall/hc_experimental_v7_2/conv_residual_feature_extraction_block_20/conv1d_and__batch_norm_99/conv1d_317/Conv1D/ExpandDims/dim", "op": "Const", "attr": {"value": {"tensor": {"dtype": "DT_INT32", "tensorShape": {}}}, "dtype": {"type": "DT_INT32"}}}, {"name": "StatefulPartitionedCall/hc_experimental_v7_2/conv_residual_feature_extraction_block_20/conv1d_and__batch_norm_99/conv1d_317/Conv1D/ExpandDims_1", "op": "Const", "attr": {"value": {"tensor": {"dtype": "DT_FLOAT", "tensorShape": {"dim": [{"size": "1"}, {"size": "3"}, {"size": "128"}, {"size": "128"}]}}}, "dtype": {"type": "DT_FLOAT"}}}, {"name": "StatefulPartitionedCall/hc_experimental_v7_2/conv_residual_feature_extraction_block_20/conv1d_and__batch_norm_99/conv1d_317/BiasAdd/ReadVariableOp", "op": "Const", "attr": {"value": {"tensor": {"dtype": "DT_FLOAT", "tensorShape": {"dim": [{"size": "128"}]}}}, "dtype": {"type": "DT_FLOAT"}}}, {"name": "StatefulPartitionedCall/hc_experimental_v7_2/conv_residual_feature_extraction_block_20/conv1d_and__batch_norm_99/conv1d_318/Conv1D/ExpandDims/dim", "op": "Const", "attr": {"value": {"tensor": {"dtype": "DT_INT32", "tensorShape": {}}}, "dtype": {"type": "DT_INT32"}}}, {"name": "StatefulPartitionedCall/hc_experimental_v7_2/conv_residual_feature_extraction_block_20/conv1d_and__batch_norm_99/conv1d_318/Conv1D/ExpandDims_1", "op": "Const", "attr": {"value": {"tensor": {"dtype": "DT_FLOAT", "tensorShape": {"dim": [{"size": "1"}, {"size": "3"}, {"size": "128"}, {"size": "128"}]}}}, "dtype": {"type": "DT_FLOAT"}}}, {"name": "StatefulPartitionedCall/hc_experimental_v7_2/conv_residual_feature_extraction_block_20/conv1d_and__batch_norm_99/conv1d_318/BiasAdd/ReadVariableOp", "op": "Const", "attr": {"value": {"tensor": {"dtype": "DT_FLOAT", "tensorShape": {"dim": [{"size": "128"}]}}}, "dtype": {"type": "DT_FLOAT"}}}, {"name": "StatefulPartitionedCall/hc_experimental_v7_2/conv_residual_feature_extraction_block_20/conv1d_and__batch_norm_99/conv1d_319/Conv1D/ExpandDims/dim", "op": "Const", "attr": {"value": {"tensor": {"dtype": "DT_INT32", "tensorShape": {}}}, "dtype": {"type": "DT_INT32"}}}, {"name": "StatefulPartitionedCall/hc_experimental_v7_2/conv_residual_feature_extraction_block_20/conv1d_and__batch_norm_99/conv1d_319/Conv1D/ExpandDims_1", "op": "Const", "attr": {"value": {"tensor": {"dtype": "DT_FLOAT", "tensorShape": {"dim": [{"size": "1"}, {"size": "3"}, {"size": "128"}, {"size": "128"}]}}}, "dtype": {"type": "DT_FLOAT"}}}, {"name": "StatefulPartitionedCall/hc_experimental_v7_2/conv_residual_feature_extraction_block_20/conv1d_and__batch_norm_99/conv1d_319/BiasAdd/ReadVariableOp", "op": "Const", "attr": {"value": {"tensor": {"dtype": "DT_FLOAT", "tensorShape": {"dim": [{"size": "128"}]}}}, "dtype": {"type": "DT_FLOAT"}}}, {"name": "StatefulPartitionedCall/hc_experimental_v7_2/conv_residual_feature_extraction_block_20/conv1d_and__batch_norm_99/batch_normalization_99/batchnorm/mul", "op": "Const", "attr": {"value": {"tensor": {"dtype": "DT_FLOAT", "tensorShape": {"dim": [{"size": "128"}]}}}, "dtype": {"type": "DT_FLOAT"}}}, {"name": "StatefulPartitionedCall/hc_experimental_v7_2/conv_residual_feature_extraction_block_20/conv1d_and__batch_norm_99/batch_normalization_99/batchnorm/sub", "op": "Const", "attr": {"value": {"tensor": {"dtype": "DT_FLOAT", "tensorShape": {"dim": [{"size": "128"}]}}}, "dtype": {"type": "DT_FLOAT"}}}, {"name": "StatefulPartitionedCall/hc_experimental_v7_2/conv_residual_feature_extraction_block_20/conv1d_and__batch_norm_99/max_pooling1d_195/ExpandDims/dim", "op": "Const", "attr": {"value": {"tensor": {"dtype": "DT_INT32", "tensorShape": {}}}, "dtype": {"type": "DT_INT32"}}}, {"name": "StatefulPartitionedCall/hc_experimental_v7_2/conv_residual_feature_extraction_block_20/conv1d_and__batch_norm_98/conv1d_314/Conv1D/ExpandDims/dim", "op": "Const", "attr": {"value": {"tensor": {"dtype": "DT_INT32", "tensorShape": {}}}, "dtype": {"type": "DT_INT32"}}}, {"name": "StatefulPartitionedCall/hc_experimental_v7_2/conv_residual_feature_extraction_block_20/conv1d_and__batch_norm_98/conv1d_314/Conv1D/ExpandDims_1", "op": "Const", "attr": {"value": {"tensor": {"dtype": "DT_FLOAT", "tensorShape": {"dim": [{"size": "1"}, {"size": "3"}, {"size": "32"}, {"size": "128"}]}}}, "dtype": {"type": "DT_FLOAT"}}}, {"name": "StatefulPartitionedCall/hc_experimental_v7_2/conv_residual_feature_extraction_block_20/conv1d_and__batch_norm_98/conv1d_314/BiasAdd/ReadVariableOp", "op": "Const", "attr": {"value": {"tensor": {"dtype": "DT_FLOAT", "tensorShape": {"dim": [{"size": "128"}]}}}, "dtype": {"type": "DT_FLOAT"}}}, {"name": "StatefulPartitionedCall/hc_experimental_v7_2/conv_residual_feature_extraction_block_20/conv1d_and__batch_norm_98/conv1d_315/Conv1D/ExpandDims/dim", "op": "Const", "attr": {"value": {"tensor": {"dtype": "DT_INT32", "tensorShape": {}}}, "dtype": {"type": "DT_INT32"}}}, {"name": "StatefulPartitionedCall/hc_experimental_v7_2/conv_residual_feature_extraction_block_20/conv1d_and__batch_norm_98/conv1d_315/Conv1D/ExpandDims_1", "op": "Const", "attr": {"value": {"tensor": {"dtype": "DT_FLOAT", "tensorShape": {"dim": [{"size": "1"}, {"size": "3"}, {"size": "128"}, {"size": "128"}]}}}, "dtype": {"type": "DT_FLOAT"}}}, {"name": "StatefulPartitionedCall/hc_experimental_v7_2/conv_residual_feature_extraction_block_20/conv1d_and__batch_norm_98/conv1d_315/BiasAdd/ReadVariableOp", "op": "Const", "attr": {"value": {"tensor": {"dtype": "DT_FLOAT", "tensorShape": {"dim": [{"size": "128"}]}}}, "dtype": {"type": "DT_FLOAT"}}}, {"name": "StatefulPartitionedCall/hc_experimental_v7_2/conv_residual_feature_extraction_block_20/conv1d_and__batch_norm_98/conv1d_316/Conv1D/ExpandDims/dim", "op": "Const", "attr": {"value": {"tensor": {"dtype": "DT_INT32", "tensorShape": {}}}, "dtype": {"type": "DT_INT32"}}}, {"name": "StatefulPartitionedCall/hc_experimental_v7_2/conv_residual_feature_extraction_block_20/conv1d_and__batch_norm_98/conv1d_316/Conv1D/ExpandDims_1", "op": "Const", "attr": {"value": {"tensor": {"dtype": "DT_FLOAT", "tensorShape": {"dim": [{"size": "1"}, {"size": "3"}, {"size": "128"}, {"size": "128"}]}}}, "dtype": {"type": "DT_FLOAT"}}}, {"name": "StatefulPartitionedCall/hc_experimental_v7_2/conv_residual_feature_extraction_block_20/conv1d_and__batch_norm_98/conv1d_316/BiasAdd/ReadVariableOp", "op": "Const", "attr": {"value": {"tensor": {"dtype": "DT_FLOAT", "tensorShape": {"dim": [{"size": "128"}]}}}, "dtype": {"type": "DT_FLOAT"}}}, {"name": "StatefulPartitionedCall/hc_experimental_v7_2/conv_residual_feature_extraction_block_20/conv1d_and__batch_norm_98/batch_normalization_98/batchnorm/mul", "op": "Const", "attr": {"value": {"tensor": {"dtype": "DT_FLOAT", "tensorShape": {"dim": [{"size": "128"}]}}}, "dtype": {"type": "DT_FLOAT"}}}, {"name": "StatefulPartitionedCall/hc_experimental_v7_2/conv_residual_feature_extraction_block_20/conv1d_and__batch_norm_98/batch_normalization_98/batchnorm/sub", "op": "Const", "attr": {"value": {"tensor": {"dtype": "DT_FLOAT", "tensorShape": {"dim": [{"size": "128"}]}}}, "dtype": {"type": "DT_FLOAT"}}}, {"name": "StatefulPartitionedCall/hc_experimental_v7_2/conv_residual_feature_extraction_block_20/conv1d_and__batch_norm_98/max_pooling1d_194/ExpandDims/dim", "op": "Const", "attr": {"value": {"tensor": {"dtype": "DT_INT32", "tensorShape": {}}}, "dtype": {"type": "DT_INT32"}}}, {"name": "StatefulPartitionedCall/hc_experimental_v7_2/cutout_layer_8/Max/reduction_indices", "op": "Const", "attr": {"value": {"tensor": {"dtype": "DT_INT32", "tensorShape": {}}}, "dtype": {"type": "DT_INT32"}}}, {"name": "StatefulPartitionedCall/hc_experimental_v7_2/cutout_layer_8/clip_by_value/Minimum/y", "op": "Const", "attr": {"value": {"tensor": {"dtype": "DT_FLOAT", "tensorShape": {}}}, "dtype": {"type": "DT_FLOAT"}}}, {"name": "StatefulPartitionedCall/hc_experimental_v7_2/cutout_layer_8/clip_by_value/y", "op": "Const", "attr": {"value": {"tensor": {"dtype": "DT_FLOAT", "tensorShape": {}}}, "dtype": {"type": "DT_FLOAT"}}}, {"name": "StatefulPartitionedCall/hc_experimental_v7_2/cutout_layer_8/Cast", "op": "Const", "attr": {"value": {"tensor": {"dtype": "DT_FLOAT", "tensorShape": {"dim": [{"size": "576"}]}}}, "dtype": {"type": "DT_FLOAT"}}}, {"name": "StatefulPartitionedCall/hc_experimental_v7_2/cutout_layer_8/Max_1/reduction_indices", "op": "Const", "attr": {"value": {"tensor": {"dtype": "DT_INT32", "tensorShape": {}}}, "dtype": {"type": "DT_INT32"}}}, {"name": "StatefulPartitionedCall/hc_experimental_v7_2/cutout_layer_8/clip_by_value_1/Minimum/y", "op": "Const", "attr": {"value": {"tensor": {"dtype": "DT_FLOAT", "tensorShape": {}}}, "dtype": {"type": "DT_FLOAT"}}}, {"name": "StatefulPartitionedCall/hc_experimental_v7_2/cutout_layer_8/clip_by_value_1/y", "op": "Const", "attr": {"value": {"tensor": {"dtype": "DT_FLOAT", "tensorShape": {}}}, "dtype": {"type": "DT_FLOAT"}}}, {"name": "StatefulPartitionedCall/hc_experimental_v7_2/ExpandDims_2/dim", "op": "Const", "attr": {"value": {"tensor": {"dtype": "DT_INT32", "tensorShape": {}}}, "dtype": {"type": "DT_INT32"}}}, {"name": "StatefulPartitionedCall/hc_experimental_v7_2/conv_residual_feature_extraction_block_20/conv1d_332/Conv1D/ExpandDims/dim", "op": "Const", "attr": {"value": {"tensor": {"dtype": "DT_INT32", "tensorShape": {}}}, "dtype": {"type": "DT_INT32"}}}, {"name": "StatefulPartitionedCall/hc_experimental_v7_2/conv_residual_feature_extraction_block_20/conv1d_332/Conv1D/ExpandDims_1", "op": "Const", "attr": {"value": {"tensor": {"dtype": "DT_FLOAT", "tensorShape": {"dim": [{"size": "1"}, {"size": "5"}, {"size": "32"}, {"size": "128"}]}}}, "dtype": {"type": "DT_FLOAT"}}}, {"name": "StatefulPartitionedCall/hc_experimental_v7_2/conv_residual_feature_extraction_block_20/conv1d_332/BiasAdd/ReadVariableOp", "op": "Const", "attr": {"value": {"tensor": {"dtype": "DT_FLOAT", "tensorShape": {"dim": [{"size": "128"}]}}}, "dtype": {"type": "DT_FLOAT"}}}, {"name": "StatefulPartitionedCall/hc_experimental_v7_2/conv_residual_feature_extraction_block_20/max_pooling1d_200/ExpandDims/dim", "op": "Const", "attr": {"value": {"tensor": {"dtype": "DT_INT32", "tensorShape": {}}}, "dtype": {"type": "DT_INT32"}}}, {"name": "StatefulPartitionedCall/hc_experimental_v7_2/conv_residual_feature_extraction_block_20/max_pooling1d_200/ExpandDims_1/dim", "op": "Const", "attr": {"value": {"tensor": {"dtype": "DT_INT32", "tensorShape": {}}}, "dtype": {"type": "DT_INT32"}}}, {"name": "StatefulPartitionedCall/hc_experimental_v7_2/conv_residual_feature_extraction_block_20/max_pooling1d_201/ExpandDims/dim", "op": "Const", "attr": {"value": {"tensor": {"dtype": "DT_INT32", "tensorShape": {}}}, "dtype": {"type": "DT_INT32"}}}, {"name": "StatefulPartitionedCall/hc_experimental_v7_2/conv_residual_feature_extraction_block_20/max_pooling1d_202/ExpandDims/dim", "op": "Const", "attr": {"value": {"tensor": {"dtype": "DT_INT32", "tensorShape": {}}}, "dtype": {"type": "DT_INT32"}}}, {"name": "StatefulPartitionedCall/hc_experimental_v7_2/conv_residual_feature_extraction_block_20/max_pooling1d_203/ExpandDims/dim", "op": "Const", "attr": {"value": {"tensor": {"dtype": "DT_INT32", "tensorShape": {}}}, "dtype": {"type": "DT_INT32"}}}, {"name": "StatefulPartitionedCall/hc_experimental_v7_2/conv_residual_feature_extraction_block_20/max_pooling1d_204/ExpandDims/dim", "op": "Const", "attr": {"value": {"tensor": {"dtype": "DT_INT32", "tensorShape": {}}}, "dtype": {"type": "DT_INT32"}}}, {"name": "StatefulPartitionedCall/hc_experimental_v7_2/conv_residual_feature_extraction_block_20/max_pooling1d_205/ExpandDims/dim", "op": "Const", "attr": {"value": {"tensor": {"dtype": "DT_INT32", "tensorShape": {}}}, "dtype": {"type": "DT_INT32"}}}, {"name": "StatefulPartitionedCall/hc_experimental_v7_2/conv_residual_feature_extraction_block_20/flatten_22/Const", "op": "Const", "attr": {"value": {"tensor": {"dtype": "DT_INT32", "tensorShape": {"dim": [{"size": "2"}]}}}, "dtype": {"type": "DT_INT32"}}}, {"name": "StatefulPartitionedCall/hc_experimental_v7_2/conv_residual_feature_extraction_block_20/dense_20/MatMul/ReadVariableOp", "op": "Const", "attr": {"value": {"tensor": {"dtype": "DT_FLOAT", "tensorShape": {"dim": [{"size": "512"}, {"size": "576"}]}}}, "dtype": {"type": "DT_FLOAT"}}}, {"name": "StatefulPartitionedCall/hc_experimental_v7_2/conv_residual_feature_extraction_block_20/dense_20/BiasAdd/ReadVariableOp", "op": "Const", "attr": {"value": {"tensor": {"dtype": "DT_FLOAT", "tensorShape": {"dim": [{"size": "576"}]}}}, "dtype": {"type": "DT_FLOAT"}}}, {"name": "StatefulPartitionedCall/hc_experimental_v7_2/j_allele_middle/MatMul/ReadVariableOp", "op": "Const", "attr": {"value": {"tensor": {"dtype": "DT_FLOAT", "tensorShape": {"dim": [{"size": "576"}, {"size": "14"}]}}}, "dtype": {"type": "DT_FLOAT"}}}, {"name": "StatefulPartitionedCall/hc_experimental_v7_2/j_allele_middle/BiasAdd/ReadVariableOp", "op": "Const", "attr": {"value": {"tensor": {"dtype": "DT_FLOAT", "tensorShape": {"dim": [{"size": "14"}]}}}, "dtype": {"type": "DT_FLOAT"}}}, {"name": "StatefulPartitionedCall/hc_experimental_v7_2/j_allele/MatMul/ReadVariableOp", "op": "Const", "attr": {"value": {"tensor": {"dtype": "DT_FLOAT", "tensorShape": {"dim": [{"size": "14"}, {"size": "7"}]}}}, "dtype": {"type": "DT_FLOAT"}}}, {"name": "StatefulPartitionedCall/hc_experimental_v7_2/j_allele/BiasAdd/ReadVariableOp", "op": "Const", "attr": {"value": {"tensor": {"dtype": "DT_FLOAT", "tensorShape": {"dim": [{"size": "7"}]}}}, "dtype": {"type": "DT_FLOAT"}}}, {"name": "StatefulPartitionedCall/hc_experimental_v7_2/j_end/Gelu/mul/x", "op": "Const", "attr": {"value": {"tensor": {"dtype": "DT_FLOAT", "tensorShape": {}}}, "dtype": {"type": "DT_FLOAT"}}}, {"name": "StatefulPartitionedCall/hc_experimental_v7_2/j_end/Gelu/add/x", "op": "Const", "attr": {"value": {"tensor": {"dtype": "DT_FLOAT", "tensorShape": {}}}, "dtype": {"type": "DT_FLOAT"}}}, {"name": "StatefulPartitionedCall/hc_experimental_v7_2/j_end/MatMul/ReadVariableOp", "op": "Const", "attr": {"value": {"tensor": {"dtype": "DT_FLOAT", "tensorShape": {"dim": [{"size": "576"}, {"size": "1"}]}}}, "dtype": {"type": "DT_FLOAT"}}}, {"name": "StatefulPartitionedCall/hc_experimental_v7_2/j_end/BiasAdd/ReadVariableOp", "op": "Const", "attr": {"value": {"tensor": {"dtype": "DT_FLOAT", "tensorShape": {"dim": [{"size": "1"}]}}}, "dtype": {"type": "DT_FLOAT"}}}, {"name": "ConstantFolding/StatefulPartitionedCall/hc_experimental_v7_2/j_end/Gelu/truediv_recip", "op": "Const", "attr": {"value": {"tensor": {"dtype": "DT_FLOAT", "tensorShape": {}}}, "dtype": {"type": "DT_FLOAT"}}}, {"name": "StatefulPartitionedCall/hc_experimental_v7_2/j_start/Gelu/mul/x", "op": "Const", "attr": {"value": {"tensor": {"dtype": "DT_FLOAT", "tensorShape": {}}}, "dtype": {"type": "DT_FLOAT"}}}, {"name": "StatefulPartitionedCall/hc_experimental_v7_2/j_start/Gelu/add/x", "op": "Const", "attr": {"value": {"tensor": {"dtype": "DT_FLOAT", "tensorShape": {}}}, "dtype": {"type": "DT_FLOAT"}}}, {"name": "StatefulPartitionedCall/hc_experimental_v7_2/conv_residual_feature_extraction_block_17/conv1d_and__batch_norm_87/conv1d_278/Conv1D/ExpandDims/dim", "op": "Const", "attr": {"value": {"tensor": {"dtype": "DT_INT32", "tensorShape": {}}}, "dtype": {"type": "DT_INT32"}}}, {"name": "StatefulPartitionedCall/hc_experimental_v7_2/conv_residual_feature_extraction_block_17/conv1d_and__batch_norm_87/conv1d_278/Conv1D/ExpandDims_1", "op": "Const", "attr": {"value": {"tensor": {"dtype": "DT_FLOAT", "tensorShape": {"dim": [{"size": "1"}, {"size": "2"}, {"size": "128"}, {"size": "128"}]}}}, "dtype": {"type": "DT_FLOAT"}}}, {"name": "StatefulPartitionedCall/hc_experimental_v7_2/conv_residual_feature_extraction_block_17/conv1d_and__batch_norm_87/conv1d_278/BiasAdd/ReadVariableOp", "op": "Const", "attr": {"value": {"tensor": {"dtype": "DT_FLOAT", "tensorShape": {"dim": [{"size": "128"}]}}}, "dtype": {"type": "DT_FLOAT"}}}, {"name": "StatefulPartitionedCall/hc_experimental_v7_2/conv_residual_feature_extraction_block_17/conv1d_and__batch_norm_87/conv1d_279/Conv1D/ExpandDims/dim", "op": "Const", "attr": {"value": {"tensor": {"dtype": "DT_INT32", "tensorShape": {}}}, "dtype": {"type": "DT_INT32"}}}, {"name": "StatefulPartitionedCall/hc_experimental_v7_2/conv_residual_feature_extraction_block_17/conv1d_and__batch_norm_87/conv1d_279/Conv1D/ExpandDims_1", "op": "Const", "attr": {"value": {"tensor": {"dtype": "DT_FLOAT", "tensorShape": {"dim": [{"size": "1"}, {"size": "2"}, {"size": "128"}, {"size": "128"}]}}}, "dtype": {"type": "DT_FLOAT"}}}, {"name": "StatefulPartitionedCall/hc_experimental_v7_2/conv_residual_feature_extraction_block_17/conv1d_and__batch_norm_87/conv1d_279/BiasAdd/ReadVariableOp", "op": "Const", "attr": {"value": {"tensor": {"dtype": "DT_FLOAT", "tensorShape": {"dim": [{"size": "128"}]}}}, "dtype": {"type": "DT_FLOAT"}}}, {"name": "StatefulPartitionedCall/hc_experimental_v7_2/conv_residual_feature_extraction_block_17/conv1d_and__batch_norm_87/conv1d_280/Conv1D/ExpandDims/dim", "op": "Const", "attr": {"value": {"tensor": {"dtype": "DT_INT32", "tensorShape": {}}}, "dtype": {"type": "DT_INT32"}}}, {"name": "StatefulPartitionedCall/hc_experimental_v7_2/conv_residual_feature_extraction_block_17/conv1d_and__batch_norm_87/conv1d_280/Conv1D/ExpandDims_1", "op": "Const", "attr": {"value": {"tensor": {"dtype": "DT_FLOAT", "tensorShape": {"dim": [{"size": "1"}, {"size": "2"}, {"size": "128"}, {"size": "128"}]}}}, "dtype": {"type": "DT_FLOAT"}}}, {"name": "StatefulPartitionedCall/hc_experimental_v7_2/conv_residual_feature_extraction_block_17/conv1d_and__batch_norm_87/conv1d_280/BiasAdd/ReadVariableOp", "op": "Const", "attr": {"value": {"tensor": {"dtype": "DT_FLOAT", "tensorShape": {"dim": [{"size": "128"}]}}}, "dtype": {"type": "DT_FLOAT"}}}, {"name": "StatefulPartitionedCall/hc_experimental_v7_2/conv_residual_feature_extraction_block_17/conv1d_and__batch_norm_87/batch_normalization_87/batchnorm/mul", "op": "Const", "attr": {"value": {"tensor": {"dtype": "DT_FLOAT", "tensorShape": {"dim": [{"size": "128"}]}}}, "dtype": {"type": "DT_FLOAT"}}}, {"name": "StatefulPartitionedCall/hc_experimental_v7_2/conv_residual_feature_extraction_block_17/conv1d_and__batch_norm_87/batch_normalization_87/batchnorm/sub", "op": "Const", "attr": {"value": {"tensor": {"dtype": "DT_FLOAT", "tensorShape": {"dim": [{"size": "128"}]}}}, "dtype": {"type": "DT_FLOAT"}}}, {"name": "StatefulPartitionedCall/hc_experimental_v7_2/conv_residual_feature_extraction_block_17/conv1d_and__batch_norm_87/max_pooling1d_169/ExpandDims/dim", "op": "Const", "attr": {"value": {"tensor": {"dtype": "DT_INT32", "tensorShape": {}}}, "dtype": {"type": "DT_INT32"}}}, {"name": "StatefulPartitionedCall/hc_experimental_v7_2/conv_residual_feature_extraction_block_17/conv1d_and__batch_norm_86/conv1d_275/Conv1D/ExpandDims/dim", "op": "Const", "attr": {"value": {"tensor": {"dtype": "DT_INT32", "tensorShape": {}}}, "dtype": {"type": "DT_INT32"}}}, {"name": "StatefulPartitionedCall/hc_experimental_v7_2/conv_residual_feature_extraction_block_17/conv1d_and__batch_norm_86/conv1d_275/Conv1D/ExpandDims_1", "op": "Const", "attr": {"value": {"tensor": {"dtype": "DT_FLOAT", "tensorShape": {"dim": [{"size": "1"}, {"size": "3"}, {"size": "128"}, {"size": "128"}]}}}, "dtype": {"type": "DT_FLOAT"}}}, {"name": "StatefulPartitionedCall/hc_experimental_v7_2/conv_residual_feature_extraction_block_17/conv1d_and__batch_norm_86/conv1d_275/BiasAdd/ReadVariableOp", "op": "Const", "attr": {"value": {"tensor": {"dtype": "DT_FLOAT", "tensorShape": {"dim": [{"size": "128"}]}}}, "dtype": {"type": "DT_FLOAT"}}}, {"name": "StatefulPartitionedCall/hc_experimental_v7_2/conv_residual_feature_extraction_block_17/conv1d_and__batch_norm_86/conv1d_276/Conv1D/ExpandDims/dim", "op": "Const", "attr": {"value": {"tensor": {"dtype": "DT_INT32", "tensorShape": {}}}, "dtype": {"type": "DT_INT32"}}}, {"name": "StatefulPartitionedCall/hc_experimental_v7_2/conv_residual_feature_extraction_block_17/conv1d_and__batch_norm_86/conv1d_276/Conv1D/ExpandDims_1", "op": "Const", "attr": {"value": {"tensor": {"dtype": "DT_FLOAT", "tensorShape": {"dim": [{"size": "1"}, {"size": "3"}, {"size": "128"}, {"size": "128"}]}}}, "dtype": {"type": "DT_FLOAT"}}}, {"name": "StatefulPartitionedCall/hc_experimental_v7_2/conv_residual_feature_extraction_block_17/conv1d_and__batch_norm_86/conv1d_276/BiasAdd/ReadVariableOp", "op": "Const", "attr": {"value": {"tensor": {"dtype": "DT_FLOAT", "tensorShape": {"dim": [{"size": "128"}]}}}, "dtype": {"type": "DT_FLOAT"}}}, {"name": "StatefulPartitionedCall/hc_experimental_v7_2/conv_residual_feature_extraction_block_17/conv1d_and__batch_norm_86/conv1d_277/Conv1D/ExpandDims/dim", "op": "Const", "attr": {"value": {"tensor": {"dtype": "DT_INT32", "tensorShape": {}}}, "dtype": {"type": "DT_INT32"}}}, {"name": "StatefulPartitionedCall/hc_experimental_v7_2/conv_residual_feature_extraction_block_17/conv1d_and__batch_norm_86/conv1d_277/Conv1D/ExpandDims_1", "op": "Const", "attr": {"value": {"tensor": {"dtype": "DT_FLOAT", "tensorShape": {"dim": [{"size": "1"}, {"size": "3"}, {"size": "128"}, {"size": "128"}]}}}, "dtype": {"type": "DT_FLOAT"}}}, {"name": "StatefulPartitionedCall/hc_experimental_v7_2/conv_residual_feature_extraction_block_17/conv1d_and__batch_norm_86/conv1d_277/BiasAdd/ReadVariableOp", "op": "Const", "attr": {"value": {"tensor": {"dtype": "DT_FLOAT", "tensorShape": {"dim": [{"size": "128"}]}}}, "dtype": {"type": "DT_FLOAT"}}}, {"name": "StatefulPartitionedCall/hc_experimental_v7_2/conv_residual_feature_extraction_block_17/conv1d_and__batch_norm_86/batch_normalization_86/batchnorm/mul", "op": "Const", "attr": {"value": {"tensor": {"dtype": "DT_FLOAT", "tensorShape": {"dim": [{"size": "128"}]}}}, "dtype": {"type": "DT_FLOAT"}}}, {"name": "StatefulPartitionedCall/hc_experimental_v7_2/conv_residual_feature_extraction_block_17/conv1d_and__batch_norm_86/batch_normalization_86/batchnorm/sub", "op": "Const", "attr": {"value": {"tensor": {"dtype": "DT_FLOAT", "tensorShape": {"dim": [{"size": "128"}]}}}, "dtype": {"type": "DT_FLOAT"}}}, {"name": "StatefulPartitionedCall/hc_experimental_v7_2/conv_residual_feature_extraction_block_17/conv1d_and__batch_norm_86/max_pooling1d_168/ExpandDims/dim", "op": "Const", "attr": {"value": {"tensor": {"dtype": "DT_INT32", "tensorShape": {}}}, "dtype": {"type": "DT_INT32"}}}, {"name": "StatefulPartitionedCall/hc_experimental_v7_2/conv_residual_feature_extraction_block_17/conv1d_and__batch_norm_85/conv1d_272/Conv1D/ExpandDims/dim", "op": "Const", "attr": {"value": {"tensor": {"dtype": "DT_INT32", "tensorShape": {}}}, "dtype": {"type": "DT_INT32"}}}, {"name": "StatefulPartitionedCall/hc_experimental_v7_2/conv_residual_feature_extraction_block_17/conv1d_and__batch_norm_85/conv1d_272/Conv1D/ExpandDims_1", "op": "Const", "attr": {"value": {"tensor": {"dtype": "DT_FLOAT", "tensorShape": {"dim": [{"size": "1"}, {"size": "3"}, {"size": "128"}, {"size": "128"}]}}}, "dtype": {"type": "DT_FLOAT"}}}, {"name": "StatefulPartitionedCall/hc_experimental_v7_2/conv_residual_feature_extraction_block_17/conv1d_and__batch_norm_85/conv1d_272/BiasAdd/ReadVariableOp", "op": "Const", "attr": {"value": {"tensor": {"dtype": "DT_FLOAT", "tensorShape": {"dim": [{"size": "128"}]}}}, "dtype": {"type": "DT_FLOAT"}}}, {"name": "StatefulPartitionedCall/hc_experimental_v7_2/conv_residual_feature_extraction_block_17/conv1d_and__batch_norm_85/conv1d_273/Conv1D/ExpandDims/dim", "op": "Const", "attr": {"value": {"tensor": {"dtype": "DT_INT32", "tensorShape": {}}}, "dtype": {"type": "DT_INT32"}}}, {"name": "StatefulPartitionedCall/hc_experimental_v7_2/conv_residual_feature_extraction_block_17/conv1d_and__batch_norm_85/conv1d_273/Conv1D/ExpandDims_1", "op": "Const", "attr": {"value": {"tensor": {"dtype": "DT_FLOAT", "tensorShape": {"dim": [{"size": "1"}, {"size": "3"}, {"size": "128"}, {"size": "128"}]}}}, "dtype": {"type": "DT_FLOAT"}}}, {"name": "StatefulPartitionedCall/hc_experimental_v7_2/conv_residual_feature_extraction_block_17/conv1d_and__batch_norm_85/conv1d_273/BiasAdd/ReadVariableOp", "op": "Const", "attr": {"value": {"tensor": {"dtype": "DT_FLOAT", "tensorShape": {"dim": [{"size": "128"}]}}}, "dtype": {"type": "DT_FLOAT"}}}, {"name": "StatefulPartitionedCall/hc_experimental_v7_2/conv_residual_feature_extraction_block_17/conv1d_and__batch_norm_85/conv1d_274/Conv1D/ExpandDims/dim", "op": "Const", "attr": {"value": {"tensor": {"dtype": "DT_INT32", "tensorShape": {}}}, "dtype": {"type": "DT_INT32"}}}, {"name": "StatefulPartitionedCall/hc_experimental_v7_2/conv_residual_feature_extraction_block_17/conv1d_and__batch_norm_85/conv1d_274/Conv1D/ExpandDims_1", "op": "Const", "attr": {"value": {"tensor": {"dtype": "DT_FLOAT", "tensorShape": {"dim": [{"size": "1"}, {"size": "3"}, {"size": "128"}, {"size": "128"}]}}}, "dtype": {"type": "DT_FLOAT"}}}, {"name": "StatefulPartitionedCall/hc_experimental_v7_2/conv_residual_feature_extraction_block_17/conv1d_and__batch_norm_85/conv1d_274/BiasAdd/ReadVariableOp", "op": "Const", "attr": {"value": {"tensor": {"dtype": "DT_FLOAT", "tensorShape": {"dim": [{"size": "128"}]}}}, "dtype": {"type": "DT_FLOAT"}}}, {"name": "StatefulPartitionedCall/hc_experimental_v7_2/conv_residual_feature_extraction_block_17/conv1d_and__batch_norm_85/batch_normalization_85/batchnorm/mul", "op": "Const", "attr": {"value": {"tensor": {"dtype": "DT_FLOAT", "tensorShape": {"dim": [{"size": "128"}]}}}, "dtype": {"type": "DT_FLOAT"}}}, {"name": "StatefulPartitionedCall/hc_experimental_v7_2/conv_residual_feature_extraction_block_17/conv1d_and__batch_norm_85/batch_normalization_85/batchnorm/sub", "op": "Const", "attr": {"value": {"tensor": {"dtype": "DT_FLOAT", "tensorShape": {"dim": [{"size": "128"}]}}}, "dtype": {"type": "DT_FLOAT"}}}, {"name": "StatefulPartitionedCall/hc_experimental_v7_2/conv_residual_feature_extraction_block_17/conv1d_and__batch_norm_85/max_pooling1d_167/ExpandDims/dim", "op": "Const", "attr": {"value": {"tensor": {"dtype": "DT_INT32", "tensorShape": {}}}, "dtype": {"type": "DT_INT32"}}}, {"name": "StatefulPartitionedCall/hc_experimental_v7_2/conv_residual_feature_extraction_block_17/conv1d_and__batch_norm_84/conv1d_269/Conv1D/ExpandDims/dim", "op": "Const", "attr": {"value": {"tensor": {"dtype": "DT_INT32", "tensorShape": {}}}, "dtype": {"type": "DT_INT32"}}}, {"name": "StatefulPartitionedCall/hc_experimental_v7_2/conv_residual_feature_extraction_block_17/conv1d_and__batch_norm_84/conv1d_269/Conv1D/ExpandDims_1", "op": "Const", "attr": {"value": {"tensor": {"dtype": "DT_FLOAT", "tensorShape": {"dim": [{"size": "1"}, {"size": "3"}, {"size": "32"}, {"size": "128"}]}}}, "dtype": {"type": "DT_FLOAT"}}}, {"name": "StatefulPartitionedCall/hc_experimental_v7_2/conv_residual_feature_extraction_block_17/conv1d_and__batch_norm_84/conv1d_269/BiasAdd/ReadVariableOp", "op": "Const", "attr": {"value": {"tensor": {"dtype": "DT_FLOAT", "tensorShape": {"dim": [{"size": "128"}]}}}, "dtype": {"type": "DT_FLOAT"}}}, {"name": "StatefulPartitionedCall/hc_experimental_v7_2/conv_residual_feature_extraction_block_17/conv1d_and__batch_norm_84/conv1d_270/Conv1D/ExpandDims/dim", "op": "Const", "attr": {"value": {"tensor": {"dtype": "DT_INT32", "tensorShape": {}}}, "dtype": {"type": "DT_INT32"}}}, {"name": "StatefulPartitionedCall/hc_experimental_v7_2/conv_residual_feature_extraction_block_17/conv1d_and__batch_norm_84/conv1d_270/Conv1D/ExpandDims_1", "op": "Const", "attr": {"value": {"tensor": {"dtype": "DT_FLOAT", "tensorShape": {"dim": [{"size": "1"}, {"size": "3"}, {"size": "128"}, {"size": "128"}]}}}, "dtype": {"type": "DT_FLOAT"}}}, {"name": "StatefulPartitionedCall/hc_experimental_v7_2/conv_residual_feature_extraction_block_17/conv1d_and__batch_norm_84/conv1d_270/BiasAdd/ReadVariableOp", "op": "Const", "attr": {"value": {"tensor": {"dtype": "DT_FLOAT", "tensorShape": {"dim": [{"size": "128"}]}}}, "dtype": {"type": "DT_FLOAT"}}}, {"name": "StatefulPartitionedCall/hc_experimental_v7_2/conv_residual_feature_extraction_block_17/conv1d_and__batch_norm_84/conv1d_271/Conv1D/ExpandDims/dim", "op": "Const", "attr": {"value": {"tensor": {"dtype": "DT_INT32", "tensorShape": {}}}, "dtype": {"type": "DT_INT32"}}}, {"name": "StatefulPartitionedCall/hc_experimental_v7_2/conv_residual_feature_extraction_block_17/conv1d_and__batch_norm_84/conv1d_271/Conv1D/ExpandDims_1", "op": "Const", "attr": {"value": {"tensor": {"dtype": "DT_FLOAT", "tensorShape": {"dim": [{"size": "1"}, {"size": "3"}, {"size": "128"}, {"size": "128"}]}}}, "dtype": {"type": "DT_FLOAT"}}}, {"name": "StatefulPartitionedCall/hc_experimental_v7_2/conv_residual_feature_extraction_block_17/conv1d_and__batch_norm_84/conv1d_271/BiasAdd/ReadVariableOp", "op": "Const", "attr": {"value": {"tensor": {"dtype": "DT_FLOAT", "tensorShape": {"dim": [{"size": "128"}]}}}, "dtype": {"type": "DT_FLOAT"}}}, {"name": "StatefulPartitionedCall/hc_experimental_v7_2/conv_residual_feature_extraction_block_17/conv1d_and__batch_norm_84/batch_normalization_84/batchnorm/mul", "op": "Const", "attr": {"value": {"tensor": {"dtype": "DT_FLOAT", "tensorShape": {"dim": [{"size": "128"}]}}}, "dtype": {"type": "DT_FLOAT"}}}, {"name": "StatefulPartitionedCall/hc_experimental_v7_2/conv_residual_feature_extraction_block_17/conv1d_and__batch_norm_84/batch_normalization_84/batchnorm/sub", "op": "Const", "attr": {"value": {"tensor": {"dtype": "DT_FLOAT", "tensorShape": {"dim": [{"size": "128"}]}}}, "dtype": {"type": "DT_FLOAT"}}}, {"name": "StatefulPartitionedCall/hc_experimental_v7_2/conv_residual_feature_extraction_block_17/conv1d_and__batch_norm_84/max_pooling1d_166/ExpandDims/dim", "op": "Const", "attr": {"value": {"tensor": {"dtype": "DT_INT32", "tensorShape": {}}}, "dtype": {"type": "DT_INT32"}}}, {"name": "StatefulPartitionedCall/hc_experimental_v7_2/conv_residual_feature_extraction_block_17/conv1d_281/Conv1D/ExpandDims/dim", "op": "Const", "attr": {"value": {"tensor": {"dtype": "DT_INT32", "tensorShape": {}}}, "dtype": {"type": "DT_INT32"}}}, {"name": "StatefulPartitionedCall/hc_experimental_v7_2/conv_residual_feature_extraction_block_17/conv1d_281/Conv1D/ExpandDims_1", "op": "Const", "attr": {"value": {"tensor": {"dtype": "DT_FLOAT", "tensorShape": {"dim": [{"size": "1"}, {"size": "5"}, {"size": "32"}, {"size": "128"}]}}}, "dtype": {"type": "DT_FLOAT"}}}, {"name": "StatefulPartitionedCall/hc_experimental_v7_2/conv_residual_feature_extraction_block_17/conv1d_281/BiasAdd/ReadVariableOp", "op": "Const", "attr": {"value": {"tensor": {"dtype": "DT_FLOAT", "tensorShape": {"dim": [{"size": "128"}]}}}, "dtype": {"type": "DT_FLOAT"}}}, {"name": "StatefulPartitionedCall/hc_experimental_v7_2/conv_residual_feature_extraction_block_17/max_pooling1d_170/ExpandDims/dim", "op": "Const", "attr": {"value": {"tensor": {"dtype": "DT_INT32", "tensorShape": {}}}, "dtype": {"type": "DT_INT32"}}}, {"name": "StatefulPartitionedCall/hc_experimental_v7_2/conv_residual_feature_extraction_block_17/max_pooling1d_170/ExpandDims_1/dim", "op": "Const", "attr": {"value": {"tensor": {"dtype": "DT_INT32", "tensorShape": {}}}, "dtype": {"type": "DT_INT32"}}}, {"name": "StatefulPartitionedCall/hc_experimental_v7_2/conv_residual_feature_extraction_block_17/max_pooling1d_171/ExpandDims/dim", "op": "Const", "attr": {"value": {"tensor": {"dtype": "DT_INT32", "tensorShape": {}}}, "dtype": {"type": "DT_INT32"}}}, {"name": "StatefulPartitionedCall/hc_experimental_v7_2/conv_residual_feature_extraction_block_17/max_pooling1d_172/ExpandDims/dim", "op": "Const", "attr": {"value": {"tensor": {"dtype": "DT_INT32", "tensorShape": {}}}, "dtype": {"type": "DT_INT32"}}}, {"name": "StatefulPartitionedCall/hc_experimental_v7_2/conv_residual_feature_extraction_block_17/max_pooling1d_173/ExpandDims/dim", "op": "Const", "attr": {"value": {"tensor": {"dtype": "DT_INT32", "tensorShape": {}}}, "dtype": {"type": "DT_INT32"}}}, {"name": "StatefulPartitionedCall/hc_experimental_v7_2/conv_residual_feature_extraction_block_17/flatten_19/Const", "op": "Const", "attr": {"value": {"tensor": {"dtype": "DT_INT32", "tensorShape": {"dim": [{"size": "2"}]}}}, "dtype": {"type": "DT_INT32"}}}, {"name": "StatefulPartitionedCall/hc_experimental_v7_2/conv_residual_feature_extraction_block_17/dense_17/MatMul/ReadVariableOp", "op": "Const", "attr": {"value": {"tensor": {"dtype": "DT_FLOAT", "tensorShape": {"dim": [{"size": "2304"}, {"size": "576"}]}}}, "dtype": {"type": "DT_FLOAT"}}}, {"name": "StatefulPartitionedCall/hc_experimental_v7_2/conv_residual_feature_extraction_block_17/dense_17/BiasAdd/ReadVariableOp", "op": "Const", "attr": {"value": {"tensor": {"dtype": "DT_FLOAT", "tensorShape": {"dim": [{"size": "576"}]}}}, "dtype": {"type": "DT_FLOAT"}}}, {"name": "StatefulPartitionedCall/hc_experimental_v7_2/j_start/MatMul/ReadVariableOp", "op": "Const", "attr": {"value": {"tensor": {"dtype": "DT_FLOAT", "tensorShape": {"dim": [{"size": "576"}, {"size": "1"}]}}}, "dtype": {"type": "DT_FLOAT"}}}, {"name": "StatefulPartitionedCall/hc_experimental_v7_2/j_start/BiasAdd/ReadVariableOp", "op": "Const", "attr": {"value": {"tensor": {"dtype": "DT_FLOAT", "tensorShape": {"dim": [{"size": "1"}]}}}, "dtype": {"type": "DT_FLOAT"}}}, {"name": "ConstantFolding/StatefulPartitionedCall/hc_experimental_v7_2/j_start/Gelu/truediv_recip", "op": "Const", "attr": {"value": {"tensor": {"dtype": "DT_FLOAT", "tensorShape": {}}}, "dtype": {"type": "DT_FLOAT"}}}, {"name": "StatefulPartitionedCall/hc_experimental_v7_2/mutation_rate_mid/Gelu/mul/x", "op": "Const", "attr": {"value": {"tensor": {"dtype": "DT_FLOAT", "tensorShape": {}}}, "dtype": {"type": "DT_FLOAT"}}}, {"name": "StatefulPartitionedCall/hc_experimental_v7_2/mutation_rate_mid/Gelu/add/x", "op": "Const", "attr": {"value": {"tensor": {"dtype": "DT_FLOAT", "tensorShape": {}}}, "dtype": {"type": "DT_FLOAT"}}}, {"name": "StatefulPartitionedCall/hc_experimental_v7_2/mutation_rate_mid/MatMul/ReadVariableOp", "op": "Const", "attr": {"value": {"tensor": {"dtype": "DT_FLOAT", "tensorShape": {"dim": [{"size": "576"}, {"size": "576"}]}}}, "dtype": {"type": "DT_FLOAT"}}}, {"name": "StatefulPartitionedCall/hc_experimental_v7_2/mutation_rate_mid/BiasAdd/ReadVariableOp", "op": "Const", "attr": {"value": {"tensor": {"dtype": "DT_FLOAT", "tensorShape": {"dim": [{"size": "576"}]}}}, "dtype": {"type": "DT_FLOAT"}}}, {"name": "ConstantFolding/StatefulPartitionedCall/hc_experimental_v7_2/mutation_rate_mid/Gelu/truediv_recip", "op": "Const", "attr": {"value": {"tensor": {"dtype": "DT_FLOAT", "tensorShape": {}}}, "dtype": {"type": "DT_FLOAT"}}}, {"name": "StatefulPartitionedCall/hc_experimental_v7_2/mutation_rate/MatMul/ReadVariableOp", "op": "Const", "attr": {"value": {"tensor": {"dtype": "DT_FLOAT", "tensorShape": {"dim": [{"size": "576"}, {"size": "1"}]}}}, "dtype": {"type": "DT_FLOAT"}}}, {"name": "StatefulPartitionedCall/hc_experimental_v7_2/mutation_rate/BiasAdd/ReadVariableOp", "op": "Const", "attr": {"value": {"tensor": {"dtype": "DT_FLOAT", "tensorShape": {"dim": [{"size": "1"}]}}}, "dtype": {"type": "DT_FLOAT"}}}, {"name": "StatefulPartitionedCall/hc_experimental_v7_2/conv_residual_feature_extraction_block_14/conv1d_and__batch_norm_75/conv1d_239/Conv1D/ExpandDims/dim", "op": "Const", "attr": {"value": {"tensor": {"dtype": "DT_INT32", "tensorShape": {}}}, "dtype": {"type": "DT_INT32"}}}, {"name": "StatefulPartitionedCall/hc_experimental_v7_2/conv_residual_feature_extraction_block_14/conv1d_and__batch_norm_75/conv1d_239/Conv1D/ExpandDims_1", "op": "Const", "attr": {"value": {"tensor": {"dtype": "DT_FLOAT", "tensorShape": {"dim": [{"size": "1"}, {"size": "2"}, {"size": "128"}, {"size": "128"}]}}}, "dtype": {"type": "DT_FLOAT"}}}, {"name": "StatefulPartitionedCall/hc_experimental_v7_2/conv_residual_feature_extraction_block_14/conv1d_and__batch_norm_75/conv1d_239/BiasAdd/ReadVariableOp", "op": "Const", "attr": {"value": {"tensor": {"dtype": "DT_FLOAT", "tensorShape": {"dim": [{"size": "128"}]}}}, "dtype": {"type": "DT_FLOAT"}}}, {"name": "StatefulPartitionedCall/hc_experimental_v7_2/conv_residual_feature_extraction_block_14/conv1d_and__batch_norm_75/conv1d_240/Conv1D/ExpandDims/dim", "op": "Const", "attr": {"value": {"tensor": {"dtype": "DT_INT32", "tensorShape": {}}}, "dtype": {"type": "DT_INT32"}}}, {"name": "StatefulPartitionedCall/hc_experimental_v7_2/conv_residual_feature_extraction_block_14/conv1d_and__batch_norm_75/conv1d_240/Conv1D/ExpandDims_1", "op": "Const", "attr": {"value": {"tensor": {"dtype": "DT_FLOAT", "tensorShape": {"dim": [{"size": "1"}, {"size": "2"}, {"size": "128"}, {"size": "128"}]}}}, "dtype": {"type": "DT_FLOAT"}}}, {"name": "StatefulPartitionedCall/hc_experimental_v7_2/conv_residual_feature_extraction_block_14/conv1d_and__batch_norm_75/conv1d_240/BiasAdd/ReadVariableOp", "op": "Const", "attr": {"value": {"tensor": {"dtype": "DT_FLOAT", "tensorShape": {"dim": [{"size": "128"}]}}}, "dtype": {"type": "DT_FLOAT"}}}, {"name": "StatefulPartitionedCall/hc_experimental_v7_2/conv_residual_feature_extraction_block_14/conv1d_and__batch_norm_75/conv1d_241/Conv1D/ExpandDims/dim", "op": "Const", "attr": {"value": {"tensor": {"dtype": "DT_INT32", "tensorShape": {}}}, "dtype": {"type": "DT_INT32"}}}, {"name": "StatefulPartitionedCall/hc_experimental_v7_2/conv_residual_feature_extraction_block_14/conv1d_and__batch_norm_75/conv1d_241/Conv1D/ExpandDims_1", "op": "Const", "attr": {"value": {"tensor": {"dtype": "DT_FLOAT", "tensorShape": {"dim": [{"size": "1"}, {"size": "2"}, {"size": "128"}, {"size": "128"}]}}}, "dtype": {"type": "DT_FLOAT"}}}, {"name": "StatefulPartitionedCall/hc_experimental_v7_2/conv_residual_feature_extraction_block_14/conv1d_and__batch_norm_75/conv1d_241/BiasAdd/ReadVariableOp", "op": "Const", "attr": {"value": {"tensor": {"dtype": "DT_FLOAT", "tensorShape": {"dim": [{"size": "128"}]}}}, "dtype": {"type": "DT_FLOAT"}}}, {"name": "StatefulPartitionedCall/hc_experimental_v7_2/conv_residual_feature_extraction_block_14/conv1d_and__batch_norm_75/batch_normalization_75/batchnorm/mul", "op": "Const", "attr": {"value": {"tensor": {"dtype": "DT_FLOAT", "tensorShape": {"dim": [{"size": "128"}]}}}, "dtype": {"type": "DT_FLOAT"}}}, {"name": "StatefulPartitionedCall/hc_experimental_v7_2/conv_residual_feature_extraction_block_14/conv1d_and__batch_norm_75/batch_normalization_75/batchnorm/sub", "op": "Const", "attr": {"value": {"tensor": {"dtype": "DT_FLOAT", "tensorShape": {"dim": [{"size": "128"}]}}}, "dtype": {"type": "DT_FLOAT"}}}, {"name": "StatefulPartitionedCall/hc_experimental_v7_2/conv_residual_feature_extraction_block_14/conv1d_and__batch_norm_75/max_pooling1d_143/ExpandDims/dim", "op": "Const", "attr": {"value": {"tensor": {"dtype": "DT_INT32", "tensorShape": {}}}, "dtype": {"type": "DT_INT32"}}}, {"name": "StatefulPartitionedCall/hc_experimental_v7_2/conv_residual_feature_extraction_block_14/conv1d_and__batch_norm_74/conv1d_236/Conv1D/ExpandDims/dim", "op": "Const", "attr": {"value": {"tensor": {"dtype": "DT_INT32", "tensorShape": {}}}, "dtype": {"type": "DT_INT32"}}}, {"name": "StatefulPartitionedCall/hc_experimental_v7_2/conv_residual_feature_extraction_block_14/conv1d_and__batch_norm_74/conv1d_236/Conv1D/ExpandDims_1", "op": "Const", "attr": {"value": {"tensor": {"dtype": "DT_FLOAT", "tensorShape": {"dim": [{"size": "1"}, {"size": "2"}, {"size": "128"}, {"size": "128"}]}}}, "dtype": {"type": "DT_FLOAT"}}}, {"name": "StatefulPartitionedCall/hc_experimental_v7_2/conv_residual_feature_extraction_block_14/conv1d_and__batch_norm_74/conv1d_236/BiasAdd/ReadVariableOp", "op": "Const", "attr": {"value": {"tensor": {"dtype": "DT_FLOAT", "tensorShape": {"dim": [{"size": "128"}]}}}, "dtype": {"type": "DT_FLOAT"}}}, {"name": "StatefulPartitionedCall/hc_experimental_v7_2/conv_residual_feature_extraction_block_14/conv1d_and__batch_norm_74/conv1d_237/Conv1D/ExpandDims/dim", "op": "Const", "attr": {"value": {"tensor": {"dtype": "DT_INT32", "tensorShape": {}}}, "dtype": {"type": "DT_INT32"}}}, {"name": "StatefulPartitionedCall/hc_experimental_v7_2/conv_residual_feature_extraction_block_14/conv1d_and__batch_norm_74/conv1d_237/Conv1D/ExpandDims_1", "op": "Const", "attr": {"value": {"tensor": {"dtype": "DT_FLOAT", "tensorShape": {"dim": [{"size": "1"}, {"size": "2"}, {"size": "128"}, {"size": "128"}]}}}, "dtype": {"type": "DT_FLOAT"}}}, {"name": "StatefulPartitionedCall/hc_experimental_v7_2/conv_residual_feature_extraction_block_14/conv1d_and__batch_norm_74/conv1d_237/BiasAdd/ReadVariableOp", "op": "Const", "attr": {"value": {"tensor": {"dtype": "DT_FLOAT", "tensorShape": {"dim": [{"size": "128"}]}}}, "dtype": {"type": "DT_FLOAT"}}}, {"name": "StatefulPartitionedCall/hc_experimental_v7_2/conv_residual_feature_extraction_block_14/conv1d_and__batch_norm_74/conv1d_238/Conv1D/ExpandDims/dim", "op": "Const", "attr": {"value": {"tensor": {"dtype": "DT_INT32", "tensorShape": {}}}, "dtype": {"type": "DT_INT32"}}}, {"name": "StatefulPartitionedCall/hc_experimental_v7_2/conv_residual_feature_extraction_block_14/conv1d_and__batch_norm_74/conv1d_238/Conv1D/ExpandDims_1", "op": "Const", "attr": {"value": {"tensor": {"dtype": "DT_FLOAT", "tensorShape": {"dim": [{"size": "1"}, {"size": "2"}, {"size": "128"}, {"size": "128"}]}}}, "dtype": {"type": "DT_FLOAT"}}}, {"name": "StatefulPartitionedCall/hc_experimental_v7_2/conv_residual_feature_extraction_block_14/conv1d_and__batch_norm_74/conv1d_238/BiasAdd/ReadVariableOp", "op": "Const", "attr": {"value": {"tensor": {"dtype": "DT_FLOAT", "tensorShape": {"dim": [{"size": "128"}]}}}, "dtype": {"type": "DT_FLOAT"}}}, {"name": "StatefulPartitionedCall/hc_experimental_v7_2/conv_residual_feature_extraction_block_14/conv1d_and__batch_norm_74/batch_normalization_74/batchnorm/mul", "op": "Const", "attr": {"value": {"tensor": {"dtype": "DT_FLOAT", "tensorShape": {"dim": [{"size": "128"}]}}}, "dtype": {"type": "DT_FLOAT"}}}, {"name": "StatefulPartitionedCall/hc_experimental_v7_2/conv_residual_feature_extraction_block_14/conv1d_and__batch_norm_74/batch_normalization_74/batchnorm/sub", "op": "Const", "attr": {"value": {"tensor": {"dtype": "DT_FLOAT", "tensorShape": {"dim": [{"size": "128"}]}}}, "dtype": {"type": "DT_FLOAT"}}}, {"name": "StatefulPartitionedCall/hc_experimental_v7_2/conv_residual_feature_extraction_block_14/conv1d_and__batch_norm_74/max_pooling1d_142/ExpandDims/dim", "op": "Const", "attr": {"value": {"tensor": {"dtype": "DT_INT32", "tensorShape": {}}}, "dtype": {"type": "DT_INT32"}}}, {"name": "StatefulPartitionedCall/hc_experimental_v7_2/conv_residual_feature_extraction_block_14/conv1d_and__batch_norm_73/conv1d_233/Conv1D/ExpandDims/dim", "op": "Const", "attr": {"value": {"tensor": {"dtype": "DT_INT32", "tensorShape": {}}}, "dtype": {"type": "DT_INT32"}}}, {"name": "StatefulPartitionedCall/hc_experimental_v7_2/conv_residual_feature_extraction_block_14/conv1d_and__batch_norm_73/conv1d_233/Conv1D/ExpandDims_1", "op": "Const", "attr": {"value": {"tensor": {"dtype": "DT_FLOAT", "tensorShape": {"dim": [{"size": "1"}, {"size": "2"}, {"size": "128"}, {"size": "128"}]}}}, "dtype": {"type": "DT_FLOAT"}}}, {"name": "StatefulPartitionedCall/hc_experimental_v7_2/conv_residual_feature_extraction_block_14/conv1d_and__batch_norm_73/conv1d_233/BiasAdd/ReadVariableOp", "op": "Const", "attr": {"value": {"tensor": {"dtype": "DT_FLOAT", "tensorShape": {"dim": [{"size": "128"}]}}}, "dtype": {"type": "DT_FLOAT"}}}, {"name": "StatefulPartitionedCall/hc_experimental_v7_2/conv_residual_feature_extraction_block_14/conv1d_and__batch_norm_73/conv1d_234/Conv1D/ExpandDims/dim", "op": "Const", "attr": {"value": {"tensor": {"dtype": "DT_INT32", "tensorShape": {}}}, "dtype": {"type": "DT_INT32"}}}, {"name": "StatefulPartitionedCall/hc_experimental_v7_2/conv_residual_feature_extraction_block_14/conv1d_and__batch_norm_73/conv1d_234/Conv1D/ExpandDims_1", "op": "Const", "attr": {"value": {"tensor": {"dtype": "DT_FLOAT", "tensorShape": {"dim": [{"size": "1"}, {"size": "2"}, {"size": "128"}, {"size": "128"}]}}}, "dtype": {"type": "DT_FLOAT"}}}, {"name": "StatefulPartitionedCall/hc_experimental_v7_2/conv_residual_feature_extraction_block_14/conv1d_and__batch_norm_73/conv1d_234/BiasAdd/ReadVariableOp", "op": "Const", "attr": {"value": {"tensor": {"dtype": "DT_FLOAT", "tensorShape": {"dim": [{"size": "128"}]}}}, "dtype": {"type": "DT_FLOAT"}}}, {"name": "StatefulPartitionedCall/hc_experimental_v7_2/conv_residual_feature_extraction_block_14/conv1d_and__batch_norm_73/conv1d_235/Conv1D/ExpandDims/dim", "op": "Const", "attr": {"value": {"tensor": {"dtype": "DT_INT32", "tensorShape": {}}}, "dtype": {"type": "DT_INT32"}}}, {"name": "StatefulPartitionedCall/hc_experimental_v7_2/conv_residual_feature_extraction_block_14/conv1d_and__batch_norm_73/conv1d_235/Conv1D/ExpandDims_1", "op": "Const", "attr": {"value": {"tensor": {"dtype": "DT_FLOAT", "tensorShape": {"dim": [{"size": "1"}, {"size": "2"}, {"size": "128"}, {"size": "128"}]}}}, "dtype": {"type": "DT_FLOAT"}}}, {"name": "StatefulPartitionedCall/hc_experimental_v7_2/conv_residual_feature_extraction_block_14/conv1d_and__batch_norm_73/conv1d_235/BiasAdd/ReadVariableOp", "op": "Const", "attr": {"value": {"tensor": {"dtype": "DT_FLOAT", "tensorShape": {"dim": [{"size": "128"}]}}}, "dtype": {"type": "DT_FLOAT"}}}, {"name": "StatefulPartitionedCall/hc_experimental_v7_2/conv_residual_feature_extraction_block_14/conv1d_and__batch_norm_73/batch_normalization_73/batchnorm/mul", "op": "Const", "attr": {"value": {"tensor": {"dtype": "DT_FLOAT", "tensorShape": {"dim": [{"size": "128"}]}}}, "dtype": {"type": "DT_FLOAT"}}}, {"name": "StatefulPartitionedCall/hc_experimental_v7_2/conv_residual_feature_extraction_block_14/conv1d_and__batch_norm_73/batch_normalization_73/batchnorm/sub", "op": "Const", "attr": {"value": {"tensor": {"dtype": "DT_FLOAT", "tensorShape": {"dim": [{"size": "128"}]}}}, "dtype": {"type": "DT_FLOAT"}}}, {"name": "StatefulPartitionedCall/hc_experimental_v7_2/conv_residual_feature_extraction_block_14/conv1d_and__batch_norm_73/max_pooling1d_141/ExpandDims/dim", "op": "Const", "attr": {"value": {"tensor": {"dtype": "DT_INT32", "tensorShape": {}}}, "dtype": {"type": "DT_INT32"}}}, {"name": "StatefulPartitionedCall/hc_experimental_v7_2/conv_residual_feature_extraction_block_14/conv1d_and__batch_norm_72/conv1d_230/Conv1D/ExpandDims/dim", "op": "Const", "attr": {"value": {"tensor": {"dtype": "DT_INT32", "tensorShape": {}}}, "dtype": {"type": "DT_INT32"}}}, {"name": "StatefulPartitionedCall/hc_experimental_v7_2/conv_residual_feature_extraction_block_14/conv1d_and__batch_norm_72/conv1d_230/Conv1D/ExpandDims_1", "op": "Const", "attr": {"value": {"tensor": {"dtype": "DT_FLOAT", "tensorShape": {"dim": [{"size": "1"}, {"size": "3"}, {"size": "128"}, {"size": "128"}]}}}, "dtype": {"type": "DT_FLOAT"}}}, {"name": "StatefulPartitionedCall/hc_experimental_v7_2/conv_residual_feature_extraction_block_14/conv1d_and__batch_norm_72/conv1d_230/BiasAdd/ReadVariableOp", "op": "Const", "attr": {"value": {"tensor": {"dtype": "DT_FLOAT", "tensorShape": {"dim": [{"size": "128"}]}}}, "dtype": {"type": "DT_FLOAT"}}}, {"name": "StatefulPartitionedCall/hc_experimental_v7_2/conv_residual_feature_extraction_block_14/conv1d_and__batch_norm_72/conv1d_231/Conv1D/ExpandDims/dim", "op": "Const", "attr": {"value": {"tensor": {"dtype": "DT_INT32", "tensorShape": {}}}, "dtype": {"type": "DT_INT32"}}}, {"name": "StatefulPartitionedCall/hc_experimental_v7_2/conv_residual_feature_extraction_block_14/conv1d_and__batch_norm_72/conv1d_231/Conv1D/ExpandDims_1", "op": "Const", "attr": {"value": {"tensor": {"dtype": "DT_FLOAT", "tensorShape": {"dim": [{"size": "1"}, {"size": "3"}, {"size": "128"}, {"size": "128"}]}}}, "dtype": {"type": "DT_FLOAT"}}}, {"name": "StatefulPartitionedCall/hc_experimental_v7_2/conv_residual_feature_extraction_block_14/conv1d_and__batch_norm_72/conv1d_231/BiasAdd/ReadVariableOp", "op": "Const", "attr": {"value": {"tensor": {"dtype": "DT_FLOAT", "tensorShape": {"dim": [{"size": "128"}]}}}, "dtype": {"type": "DT_FLOAT"}}}, {"name": "StatefulPartitionedCall/hc_experimental_v7_2/conv_residual_feature_extraction_block_14/conv1d_and__batch_norm_72/conv1d_232/Conv1D/ExpandDims/dim", "op": "Const", "attr": {"value": {"tensor": {"dtype": "DT_INT32", "tensorShape": {}}}, "dtype": {"type": "DT_INT32"}}}, {"name": "StatefulPartitionedCall/hc_experimental_v7_2/conv_residual_feature_extraction_block_14/conv1d_and__batch_norm_72/conv1d_232/Conv1D/ExpandDims_1", "op": "Const", "attr": {"value": {"tensor": {"dtype": "DT_FLOAT", "tensorShape": {"dim": [{"size": "1"}, {"size": "3"}, {"size": "128"}, {"size": "128"}]}}}, "dtype": {"type": "DT_FLOAT"}}}, {"name": "StatefulPartitionedCall/hc_experimental_v7_2/conv_residual_feature_extraction_block_14/conv1d_and__batch_norm_72/conv1d_232/BiasAdd/ReadVariableOp", "op": "Const", "attr": {"value": {"tensor": {"dtype": "DT_FLOAT", "tensorShape": {"dim": [{"size": "128"}]}}}, "dtype": {"type": "DT_FLOAT"}}}, {"name": "StatefulPartitionedCall/hc_experimental_v7_2/conv_residual_feature_extraction_block_14/conv1d_and__batch_norm_72/batch_normalization_72/batchnorm/mul", "op": "Const", "attr": {"value": {"tensor": {"dtype": "DT_FLOAT", "tensorShape": {"dim": [{"size": "128"}]}}}, "dtype": {"type": "DT_FLOAT"}}}, {"name": "StatefulPartitionedCall/hc_experimental_v7_2/conv_residual_feature_extraction_block_14/conv1d_and__batch_norm_72/batch_normalization_72/batchnorm/sub", "op": "Const", "attr": {"value": {"tensor": {"dtype": "DT_FLOAT", "tensorShape": {"dim": [{"size": "128"}]}}}, "dtype": {"type": "DT_FLOAT"}}}, {"name": "StatefulPartitionedCall/hc_experimental_v7_2/conv_residual_feature_extraction_block_14/conv1d_and__batch_norm_72/max_pooling1d_140/ExpandDims/dim", "op": "Const", "attr": {"value": {"tensor": {"dtype": "DT_INT32", "tensorShape": {}}}, "dtype": {"type": "DT_INT32"}}}, {"name": "StatefulPartitionedCall/hc_experimental_v7_2/conv_residual_feature_extraction_block_14/conv1d_and__batch_norm_71/conv1d_227/Conv1D/ExpandDims/dim", "op": "Const", "attr": {"value": {"tensor": {"dtype": "DT_INT32", "tensorShape": {}}}, "dtype": {"type": "DT_INT32"}}}, {"name": "StatefulPartitionedCall/hc_experimental_v7_2/conv_residual_feature_extraction_block_14/conv1d_and__batch_norm_71/conv1d_227/Conv1D/ExpandDims_1", "op": "Const", "attr": {"value": {"tensor": {"dtype": "DT_FLOAT", "tensorShape": {"dim": [{"size": "1"}, {"size": "3"}, {"size": "128"}, {"size": "128"}]}}}, "dtype": {"type": "DT_FLOAT"}}}, {"name": "StatefulPartitionedCall/hc_experimental_v7_2/conv_residual_feature_extraction_block_14/conv1d_and__batch_norm_71/conv1d_227/BiasAdd/ReadVariableOp", "op": "Const", "attr": {"value": {"tensor": {"dtype": "DT_FLOAT", "tensorShape": {"dim": [{"size": "128"}]}}}, "dtype": {"type": "DT_FLOAT"}}}, {"name": "StatefulPartitionedCall/hc_experimental_v7_2/conv_residual_feature_extraction_block_14/conv1d_and__batch_norm_71/conv1d_228/Conv1D/ExpandDims/dim", "op": "Const", "attr": {"value": {"tensor": {"dtype": "DT_INT32", "tensorShape": {}}}, "dtype": {"type": "DT_INT32"}}}, {"name": "StatefulPartitionedCall/hc_experimental_v7_2/conv_residual_feature_extraction_block_14/conv1d_and__batch_norm_71/conv1d_228/Conv1D/ExpandDims_1", "op": "Const", "attr": {"value": {"tensor": {"dtype": "DT_FLOAT", "tensorShape": {"dim": [{"size": "1"}, {"size": "3"}, {"size": "128"}, {"size": "128"}]}}}, "dtype": {"type": "DT_FLOAT"}}}, {"name": "StatefulPartitionedCall/hc_experimental_v7_2/conv_residual_feature_extraction_block_14/conv1d_and__batch_norm_71/conv1d_228/BiasAdd/ReadVariableOp", "op": "Const", "attr": {"value": {"tensor": {"dtype": "DT_FLOAT", "tensorShape": {"dim": [{"size": "128"}]}}}, "dtype": {"type": "DT_FLOAT"}}}, {"name": "StatefulPartitionedCall/hc_experimental_v7_2/conv_residual_feature_extraction_block_14/conv1d_and__batch_norm_71/conv1d_229/Conv1D/ExpandDims/dim", "op": "Const", "attr": {"value": {"tensor": {"dtype": "DT_INT32", "tensorShape": {}}}, "dtype": {"type": "DT_INT32"}}}, {"name": "StatefulPartitionedCall/hc_experimental_v7_2/conv_residual_feature_extraction_block_14/conv1d_and__batch_norm_71/conv1d_229/Conv1D/ExpandDims_1", "op": "Const", "attr": {"value": {"tensor": {"dtype": "DT_FLOAT", "tensorShape": {"dim": [{"size": "1"}, {"size": "3"}, {"size": "128"}, {"size": "128"}]}}}, "dtype": {"type": "DT_FLOAT"}}}, {"name": "StatefulPartitionedCall/hc_experimental_v7_2/conv_residual_feature_extraction_block_14/conv1d_and__batch_norm_71/conv1d_229/BiasAdd/ReadVariableOp", "op": "Const", "attr": {"value": {"tensor": {"dtype": "DT_FLOAT", "tensorShape": {"dim": [{"size": "128"}]}}}, "dtype": {"type": "DT_FLOAT"}}}, {"name": "StatefulPartitionedCall/hc_experimental_v7_2/conv_residual_feature_extraction_block_14/conv1d_and__batch_norm_71/batch_normalization_71/batchnorm/mul", "op": "Const", "attr": {"value": {"tensor": {"dtype": "DT_FLOAT", "tensorShape": {"dim": [{"size": "128"}]}}}, "dtype": {"type": "DT_FLOAT"}}}, {"name": "StatefulPartitionedCall/hc_experimental_v7_2/conv_residual_feature_extraction_block_14/conv1d_and__batch_norm_71/batch_normalization_71/batchnorm/sub", "op": "Const", "attr": {"value": {"tensor": {"dtype": "DT_FLOAT", "tensorShape": {"dim": [{"size": "128"}]}}}, "dtype": {"type": "DT_FLOAT"}}}, {"name": "StatefulPartitionedCall/hc_experimental_v7_2/conv_residual_feature_extraction_block_14/conv1d_and__batch_norm_71/max_pooling1d_139/ExpandDims/dim", "op": "Const", "attr": {"value": {"tensor": {"dtype": "DT_INT32", "tensorShape": {}}}, "dtype": {"type": "DT_INT32"}}}, {"name": "StatefulPartitionedCall/hc_experimental_v7_2/conv_residual_feature_extraction_block_14/conv1d_and__batch_norm_70/conv1d_224/Conv1D/ExpandDims/dim", "op": "Const", "attr": {"value": {"tensor": {"dtype": "DT_INT32", "tensorShape": {}}}, "dtype": {"type": "DT_INT32"}}}, {"name": "StatefulPartitionedCall/hc_experimental_v7_2/conv_residual_feature_extraction_block_14/conv1d_and__batch_norm_70/conv1d_224/Conv1D/ExpandDims_1", "op": "Const", "attr": {"value": {"tensor": {"dtype": "DT_FLOAT", "tensorShape": {"dim": [{"size": "1"}, {"size": "3"}, {"size": "32"}, {"size": "128"}]}}}, "dtype": {"type": "DT_FLOAT"}}}, {"name": "StatefulPartitionedCall/hc_experimental_v7_2/conv_residual_feature_extraction_block_14/conv1d_and__batch_norm_70/conv1d_224/BiasAdd/ReadVariableOp", "op": "Const", "attr": {"value": {"tensor": {"dtype": "DT_FLOAT", "tensorShape": {"dim": [{"size": "128"}]}}}, "dtype": {"type": "DT_FLOAT"}}}, {"name": "StatefulPartitionedCall/hc_experimental_v7_2/conv_residual_feature_extraction_block_14/conv1d_and__batch_norm_70/conv1d_225/Conv1D/ExpandDims/dim", "op": "Const", "attr": {"value": {"tensor": {"dtype": "DT_INT32", "tensorShape": {}}}, "dtype": {"type": "DT_INT32"}}}, {"name": "StatefulPartitionedCall/hc_experimental_v7_2/conv_residual_feature_extraction_block_14/conv1d_and__batch_norm_70/conv1d_225/Conv1D/ExpandDims_1", "op": "Const", "attr": {"value": {"tensor": {"dtype": "DT_FLOAT", "tensorShape": {"dim": [{"size": "1"}, {"size": "3"}, {"size": "128"}, {"size": "128"}]}}}, "dtype": {"type": "DT_FLOAT"}}}, {"name": "StatefulPartitionedCall/hc_experimental_v7_2/conv_residual_feature_extraction_block_14/conv1d_and__batch_norm_70/conv1d_225/BiasAdd/ReadVariableOp", "op": "Const", "attr": {"value": {"tensor": {"dtype": "DT_FLOAT", "tensorShape": {"dim": [{"size": "128"}]}}}, "dtype": {"type": "DT_FLOAT"}}}, {"name": "StatefulPartitionedCall/hc_experimental_v7_2/conv_residual_feature_extraction_block_14/conv1d_and__batch_norm_70/conv1d_226/Conv1D/ExpandDims/dim", "op": "Const", "attr": {"value": {"tensor": {"dtype": "DT_INT32", "tensorShape": {}}}, "dtype": {"type": "DT_INT32"}}}, {"name": "StatefulPartitionedCall/hc_experimental_v7_2/conv_residual_feature_extraction_block_14/conv1d_and__batch_norm_70/conv1d_226/Conv1D/ExpandDims_1", "op": "Const", "attr": {"value": {"tensor": {"dtype": "DT_FLOAT", "tensorShape": {"dim": [{"size": "1"}, {"size": "3"}, {"size": "128"}, {"size": "128"}]}}}, "dtype": {"type": "DT_FLOAT"}}}, {"name": "StatefulPartitionedCall/hc_experimental_v7_2/conv_residual_feature_extraction_block_14/conv1d_and__batch_norm_70/conv1d_226/BiasAdd/ReadVariableOp", "op": "Const", "attr": {"value": {"tensor": {"dtype": "DT_FLOAT", "tensorShape": {"dim": [{"size": "128"}]}}}, "dtype": {"type": "DT_FLOAT"}}}, {"name": "StatefulPartitionedCall/hc_experimental_v7_2/conv_residual_feature_extraction_block_14/conv1d_and__batch_norm_70/batch_normalization_70/batchnorm/mul", "op": "Const", "attr": {"value": {"tensor": {"dtype": "DT_FLOAT", "tensorShape": {"dim": [{"size": "128"}]}}}, "dtype": {"type": "DT_FLOAT"}}}, {"name": "StatefulPartitionedCall/hc_experimental_v7_2/conv_residual_feature_extraction_block_14/conv1d_and__batch_norm_70/batch_normalization_70/batchnorm/sub", "op": "Const", "attr": {"value": {"tensor": {"dtype": "DT_FLOAT", "tensorShape": {"dim": [{"size": "128"}]}}}, "dtype": {"type": "DT_FLOAT"}}}, {"name": "StatefulPartitionedCall/hc_experimental_v7_2/conv_residual_feature_extraction_block_14/conv1d_and__batch_norm_70/max_pooling1d_138/ExpandDims/dim", "op": "Const", "attr": {"value": {"tensor": {"dtype": "DT_INT32", "tensorShape": {}}}, "dtype": {"type": "DT_INT32"}}}, {"name": "StatefulPartitionedCall/hc_experimental_v7_2/conv_residual_feature_extraction_block_14/conv1d_242/Conv1D/ExpandDims/dim", "op": "Const", "attr": {"value": {"tensor": {"dtype": "DT_INT32", "tensorShape": {}}}, "dtype": {"type": "DT_INT32"}}}, {"name": "StatefulPartitionedCall/hc_experimental_v7_2/conv_residual_feature_extraction_block_14/conv1d_242/Conv1D/ExpandDims_1", "op": "Const", "attr": {"value": {"tensor": {"dtype": "DT_FLOAT", "tensorShape": {"dim": [{"size": "1"}, {"size": "5"}, {"size": "32"}, {"size": "128"}]}}}, "dtype": {"type": "DT_FLOAT"}}}, {"name": "StatefulPartitionedCall/hc_experimental_v7_2/conv_residual_feature_extraction_block_14/conv1d_242/BiasAdd/ReadVariableOp", "op": "Const", "attr": {"value": {"tensor": {"dtype": "DT_FLOAT", "tensorShape": {"dim": [{"size": "128"}]}}}, "dtype": {"type": "DT_FLOAT"}}}, {"name": "StatefulPartitionedCall/hc_experimental_v7_2/conv_residual_feature_extraction_block_14/max_pooling1d_144/ExpandDims/dim", "op": "Const", "attr": {"value": {"tensor": {"dtype": "DT_INT32", "tensorShape": {}}}, "dtype": {"type": "DT_INT32"}}}, {"name": "StatefulPartitionedCall/hc_experimental_v7_2/conv_residual_feature_extraction_block_14/max_pooling1d_144/ExpandDims_1/dim", "op": "Const", "attr": {"value": {"tensor": {"dtype": "DT_INT32", "tensorShape": {}}}, "dtype": {"type": "DT_INT32"}}}, {"name": "StatefulPartitionedCall/hc_experimental_v7_2/conv_residual_feature_extraction_block_14/max_pooling1d_145/ExpandDims/dim", "op": "Const", "attr": {"value": {"tensor": {"dtype": "DT_INT32", "tensorShape": {}}}, "dtype": {"type": "DT_INT32"}}}, {"name": "StatefulPartitionedCall/hc_experimental_v7_2/conv_residual_feature_extraction_block_14/max_pooling1d_146/ExpandDims/dim", "op": "Const", "attr": {"value": {"tensor": {"dtype": "DT_INT32", "tensorShape": {}}}, "dtype": {"type": "DT_INT32"}}}, {"name": "StatefulPartitionedCall/hc_experimental_v7_2/conv_residual_feature_extraction_block_14/max_pooling1d_147/ExpandDims/dim", "op": "Const", "attr": {"value": {"tensor": {"dtype": "DT_INT32", "tensorShape": {}}}, "dtype": {"type": "DT_INT32"}}}, {"name": "StatefulPartitionedCall/hc_experimental_v7_2/conv_residual_feature_extraction_block_14/max_pooling1d_148/ExpandDims/dim", "op": "Const", "attr": {"value": {"tensor": {"dtype": "DT_INT32", "tensorShape": {}}}, "dtype": {"type": "DT_INT32"}}}, {"name": "StatefulPartitionedCall/hc_experimental_v7_2/conv_residual_feature_extraction_block_14/max_pooling1d_149/ExpandDims/dim", "op": "Const", "attr": {"value": {"tensor": {"dtype": "DT_INT32", "tensorShape": {}}}, "dtype": {"type": "DT_INT32"}}}, {"name": "StatefulPartitionedCall/hc_experimental_v7_2/conv_residual_feature_extraction_block_14/flatten_16/Const", "op": "Const", "attr": {"value": {"tensor": {"dtype": "DT_INT32", "tensorShape": {"dim": [{"size": "2"}]}}}, "dtype": {"type": "DT_INT32"}}}, {"name": "StatefulPartitionedCall/hc_experimental_v7_2/conv_residual_feature_extraction_block_14/dense_14/MatMul/ReadVariableOp", "op": "Const", "attr": {"value": {"tensor": {"dtype": "DT_FLOAT", "tensorShape": {"dim": [{"size": "512"}, {"size": "576"}]}}}, "dtype": {"type": "DT_FLOAT"}}}, {"name": "StatefulPartitionedCall/hc_experimental_v7_2/conv_residual_feature_extraction_block_14/dense_14/BiasAdd/ReadVariableOp", "op": "Const", "attr": {"value": {"tensor": {"dtype": "DT_FLOAT", "tensorShape": {"dim": [{"size": "576"}]}}}, "dtype": {"type": "DT_FLOAT"}}}, {"name": "StatefulPartitionedCall/hc_experimental_v7_2/productive/MatMul/ReadVariableOp", "op": "Const", "attr": {"value": {"tensor": {"dtype": "DT_FLOAT", "tensorShape": {"dim": [{"size": "576"}, {"size": "1"}]}}}, "dtype": {"type": "DT_FLOAT"}}}, {"name": "StatefulPartitionedCall/hc_experimental_v7_2/productive/BiasAdd/ReadVariableOp", "op": "Const", "attr": {"value": {"tensor": {"dtype": "DT_FLOAT", "tensorShape": {"dim": [{"size": "1"}]}}}, "dtype": {"type": "DT_FLOAT"}}}, {"name": "StatefulPartitionedCall/hc_experimental_v7_2/conv_residual_feature_extraction_block_18/conv1d_and__batch_norm_93/conv1d_297/Conv1D/ExpandDims/dim", "op": "Const", "attr": {"value": {"tensor": {"dtype": "DT_INT32", "tensorShape": {}}}, "dtype": {"type": "DT_INT32"}}}, {"name": "StatefulPartitionedCall/hc_experimental_v7_2/conv_residual_feature_extraction_block_18/conv1d_and__batch_norm_93/conv1d_297/Conv1D/ExpandDims_1", "op": "Const", "attr": {"value": {"tensor": {"dtype": "DT_FLOAT", "tensorShape": {"dim": [{"size": "1"}, {"size": "2"}, {"size": "128"}, {"size": "128"}]}}}, "dtype": {"type": "DT_FLOAT"}}}, {"name": "StatefulPartitionedCall/hc_experimental_v7_2/conv_residual_feature_extraction_block_18/conv1d_and__batch_norm_93/conv1d_297/BiasAdd/ReadVariableOp", "op": "Const", "attr": {"value": {"tensor": {"dtype": "DT_FLOAT", "tensorShape": {"dim": [{"size": "128"}]}}}, "dtype": {"type": "DT_FLOAT"}}}, {"name": "StatefulPartitionedCall/hc_experimental_v7_2/conv_residual_feature_extraction_block_18/conv1d_and__batch_norm_93/conv1d_298/Conv1D/ExpandDims/dim", "op": "Const", "attr": {"value": {"tensor": {"dtype": "DT_INT32", "tensorShape": {}}}, "dtype": {"type": "DT_INT32"}}}, {"name": "StatefulPartitionedCall/hc_experimental_v7_2/conv_residual_feature_extraction_block_18/conv1d_and__batch_norm_93/conv1d_298/Conv1D/ExpandDims_1", "op": "Const", "attr": {"value": {"tensor": {"dtype": "DT_FLOAT", "tensorShape": {"dim": [{"size": "1"}, {"size": "2"}, {"size": "128"}, {"size": "128"}]}}}, "dtype": {"type": "DT_FLOAT"}}}, {"name": "StatefulPartitionedCall/hc_experimental_v7_2/conv_residual_feature_extraction_block_18/conv1d_and__batch_norm_93/conv1d_298/BiasAdd/ReadVariableOp", "op": "Const", "attr": {"value": {"tensor": {"dtype": "DT_FLOAT", "tensorShape": {"dim": [{"size": "128"}]}}}, "dtype": {"type": "DT_FLOAT"}}}, {"name": "StatefulPartitionedCall/hc_experimental_v7_2/conv_residual_feature_extraction_block_18/conv1d_and__batch_norm_93/conv1d_299/Conv1D/ExpandDims/dim", "op": "Const", "attr": {"value": {"tensor": {"dtype": "DT_INT32", "tensorShape": {}}}, "dtype": {"type": "DT_INT32"}}}, {"name": "StatefulPartitionedCall/hc_experimental_v7_2/conv_residual_feature_extraction_block_18/conv1d_and__batch_norm_93/conv1d_299/Conv1D/ExpandDims_1", "op": "Const", "attr": {"value": {"tensor": {"dtype": "DT_FLOAT", "tensorShape": {"dim": [{"size": "1"}, {"size": "2"}, {"size": "128"}, {"size": "128"}]}}}, "dtype": {"type": "DT_FLOAT"}}}, {"name": "StatefulPartitionedCall/hc_experimental_v7_2/conv_residual_feature_extraction_block_18/conv1d_and__batch_norm_93/conv1d_299/BiasAdd/ReadVariableOp", "op": "Const", "attr": {"value": {"tensor": {"dtype": "DT_FLOAT", "tensorShape": {"dim": [{"size": "128"}]}}}, "dtype": {"type": "DT_FLOAT"}}}, {"name": "StatefulPartitionedCall/hc_experimental_v7_2/conv_residual_feature_extraction_block_18/conv1d_and__batch_norm_93/batch_normalization_93/batchnorm/mul", "op": "Const", "attr": {"value": {"tensor": {"dtype": "DT_FLOAT", "tensorShape": {"dim": [{"size": "128"}]}}}, "dtype": {"type": "DT_FLOAT"}}}, {"name": "StatefulPartitionedCall/hc_experimental_v7_2/conv_residual_feature_extraction_block_18/conv1d_and__batch_norm_93/batch_normalization_93/batchnorm/sub", "op": "Const", "attr": {"value": {"tensor": {"dtype": "DT_FLOAT", "tensorShape": {"dim": [{"size": "128"}]}}}, "dtype": {"type": "DT_FLOAT"}}}, {"name": "StatefulPartitionedCall/hc_experimental_v7_2/conv_residual_feature_extraction_block_18/conv1d_and__batch_norm_93/max_pooling1d_179/ExpandDims/dim", "op": "Const", "attr": {"value": {"tensor": {"dtype": "DT_INT32", "tensorShape": {}}}, "dtype": {"type": "DT_INT32"}}}, {"name": "StatefulPartitionedCall/hc_experimental_v7_2/conv_residual_feature_extraction_block_18/conv1d_and__batch_norm_92/conv1d_294/Conv1D/ExpandDims/dim", "op": "Const", "attr": {"value": {"tensor": {"dtype": "DT_INT32", "tensorShape": {}}}, "dtype": {"type": "DT_INT32"}}}, {"name": "StatefulPartitionedCall/hc_experimental_v7_2/conv_residual_feature_extraction_block_18/conv1d_and__batch_norm_92/conv1d_294/Conv1D/ExpandDims_1", "op": "Const", "attr": {"value": {"tensor": {"dtype": "DT_FLOAT", "tensorShape": {"dim": [{"size": "1"}, {"size": "2"}, {"size": "128"}, {"size": "128"}]}}}, "dtype": {"type": "DT_FLOAT"}}}, {"name": "StatefulPartitionedCall/hc_experimental_v7_2/conv_residual_feature_extraction_block_18/conv1d_and__batch_norm_92/conv1d_294/BiasAdd/ReadVariableOp", "op": "Const", "attr": {"value": {"tensor": {"dtype": "DT_FLOAT", "tensorShape": {"dim": [{"size": "128"}]}}}, "dtype": {"type": "DT_FLOAT"}}}, {"name": "StatefulPartitionedCall/hc_experimental_v7_2/conv_residual_feature_extraction_block_18/conv1d_and__batch_norm_92/conv1d_295/Conv1D/ExpandDims/dim", "op": "Const", "attr": {"value": {"tensor": {"dtype": "DT_INT32", "tensorShape": {}}}, "dtype": {"type": "DT_INT32"}}}, {"name": "StatefulPartitionedCall/hc_experimental_v7_2/conv_residual_feature_extraction_block_18/conv1d_and__batch_norm_92/conv1d_295/Conv1D/ExpandDims_1", "op": "Const", "attr": {"value": {"tensor": {"dtype": "DT_FLOAT", "tensorShape": {"dim": [{"size": "1"}, {"size": "2"}, {"size": "128"}, {"size": "128"}]}}}, "dtype": {"type": "DT_FLOAT"}}}, {"name": "StatefulPartitionedCall/hc_experimental_v7_2/conv_residual_feature_extraction_block_18/conv1d_and__batch_norm_92/conv1d_295/BiasAdd/ReadVariableOp", "op": "Const", "attr": {"value": {"tensor": {"dtype": "DT_FLOAT", "tensorShape": {"dim": [{"size": "128"}]}}}, "dtype": {"type": "DT_FLOAT"}}}, {"name": "StatefulPartitionedCall/hc_experimental_v7_2/conv_residual_feature_extraction_block_18/conv1d_and__batch_norm_92/conv1d_296/Conv1D/ExpandDims/dim", "op": "Const", "attr": {"value": {"tensor": {"dtype": "DT_INT32", "tensorShape": {}}}, "dtype": {"type": "DT_INT32"}}}, {"name": "StatefulPartitionedCall/hc_experimental_v7_2/conv_residual_feature_extraction_block_18/conv1d_and__batch_norm_92/conv1d_296/Conv1D/ExpandDims_1", "op": "Const", "attr": {"value": {"tensor": {"dtype": "DT_FLOAT", "tensorShape": {"dim": [{"size": "1"}, {"size": "2"}, {"size": "128"}, {"size": "128"}]}}}, "dtype": {"type": "DT_FLOAT"}}}, {"name": "StatefulPartitionedCall/hc_experimental_v7_2/conv_residual_feature_extraction_block_18/conv1d_and__batch_norm_92/conv1d_296/BiasAdd/ReadVariableOp", "op": "Const", "attr": {"value": {"tensor": {"dtype": "DT_FLOAT", "tensorShape": {"dim": [{"size": "128"}]}}}, "dtype": {"type": "DT_FLOAT"}}}, {"name": "StatefulPartitionedCall/hc_experimental_v7_2/conv_residual_feature_extraction_block_18/conv1d_and__batch_norm_92/batch_normalization_92/batchnorm/mul", "op": "Const", "attr": {"value": {"tensor": {"dtype": "DT_FLOAT", "tensorShape": {"dim": [{"size": "128"}]}}}, "dtype": {"type": "DT_FLOAT"}}}, {"name": "StatefulPartitionedCall/hc_experimental_v7_2/conv_residual_feature_extraction_block_18/conv1d_and__batch_norm_92/batch_normalization_92/batchnorm/sub", "op": "Const", "attr": {"value": {"tensor": {"dtype": "DT_FLOAT", "tensorShape": {"dim": [{"size": "128"}]}}}, "dtype": {"type": "DT_FLOAT"}}}, {"name": "StatefulPartitionedCall/hc_experimental_v7_2/conv_residual_feature_extraction_block_18/conv1d_and__batch_norm_92/max_pooling1d_178/ExpandDims/dim", "op": "Const", "attr": {"value": {"tensor": {"dtype": "DT_INT32", "tensorShape": {}}}, "dtype": {"type": "DT_INT32"}}}, {"name": "StatefulPartitionedCall/hc_experimental_v7_2/conv_residual_feature_extraction_block_18/conv1d_and__batch_norm_91/conv1d_291/Conv1D/ExpandDims/dim", "op": "Const", "attr": {"value": {"tensor": {"dtype": "DT_INT32", "tensorShape": {}}}, "dtype": {"type": "DT_INT32"}}}, {"name": "StatefulPartitionedCall/hc_experimental_v7_2/conv_residual_feature_extraction_block_18/conv1d_and__batch_norm_91/conv1d_291/Conv1D/ExpandDims_1", "op": "Const", "attr": {"value": {"tensor": {"dtype": "DT_FLOAT", "tensorShape": {"dim": [{"size": "1"}, {"size": "2"}, {"size": "128"}, {"size": "128"}]}}}, "dtype": {"type": "DT_FLOAT"}}}, {"name": "StatefulPartitionedCall/hc_experimental_v7_2/conv_residual_feature_extraction_block_18/conv1d_and__batch_norm_91/conv1d_291/BiasAdd/ReadVariableOp", "op": "Const", "attr": {"value": {"tensor": {"dtype": "DT_FLOAT", "tensorShape": {"dim": [{"size": "128"}]}}}, "dtype": {"type": "DT_FLOAT"}}}, {"name": "StatefulPartitionedCall/hc_experimental_v7_2/conv_residual_feature_extraction_block_18/conv1d_and__batch_norm_91/conv1d_292/Conv1D/ExpandDims/dim", "op": "Const", "attr": {"value": {"tensor": {"dtype": "DT_INT32", "tensorShape": {}}}, "dtype": {"type": "DT_INT32"}}}, {"name": "StatefulPartitionedCall/hc_experimental_v7_2/conv_residual_feature_extraction_block_18/conv1d_and__batch_norm_91/conv1d_292/Conv1D/ExpandDims_1", "op": "Const", "attr": {"value": {"tensor": {"dtype": "DT_FLOAT", "tensorShape": {"dim": [{"size": "1"}, {"size": "2"}, {"size": "128"}, {"size": "128"}]}}}, "dtype": {"type": "DT_FLOAT"}}}, {"name": "StatefulPartitionedCall/hc_experimental_v7_2/conv_residual_feature_extraction_block_18/conv1d_and__batch_norm_91/conv1d_292/BiasAdd/ReadVariableOp", "op": "Const", "attr": {"value": {"tensor": {"dtype": "DT_FLOAT", "tensorShape": {"dim": [{"size": "128"}]}}}, "dtype": {"type": "DT_FLOAT"}}}, {"name": "StatefulPartitionedCall/hc_experimental_v7_2/conv_residual_feature_extraction_block_18/conv1d_and__batch_norm_91/conv1d_293/Conv1D/ExpandDims/dim", "op": "Const", "attr": {"value": {"tensor": {"dtype": "DT_INT32", "tensorShape": {}}}, "dtype": {"type": "DT_INT32"}}}, {"name": "StatefulPartitionedCall/hc_experimental_v7_2/conv_residual_feature_extraction_block_18/conv1d_and__batch_norm_91/conv1d_293/Conv1D/ExpandDims_1", "op": "Const", "attr": {"value": {"tensor": {"dtype": "DT_FLOAT", "tensorShape": {"dim": [{"size": "1"}, {"size": "2"}, {"size": "128"}, {"size": "128"}]}}}, "dtype": {"type": "DT_FLOAT"}}}, {"name": "StatefulPartitionedCall/hc_experimental_v7_2/conv_residual_feature_extraction_block_18/conv1d_and__batch_norm_91/conv1d_293/BiasAdd/ReadVariableOp", "op": "Const", "attr": {"value": {"tensor": {"dtype": "DT_FLOAT", "tensorShape": {"dim": [{"size": "128"}]}}}, "dtype": {"type": "DT_FLOAT"}}}, {"name": "StatefulPartitionedCall/hc_experimental_v7_2/conv_residual_feature_extraction_block_18/conv1d_and__batch_norm_91/batch_normalization_91/batchnorm/mul", "op": "Const", "attr": {"value": {"tensor": {"dtype": "DT_FLOAT", "tensorShape": {"dim": [{"size": "128"}]}}}, "dtype": {"type": "DT_FLOAT"}}}, {"name": "StatefulPartitionedCall/hc_experimental_v7_2/conv_residual_feature_extraction_block_18/conv1d_and__batch_norm_91/batch_normalization_91/batchnorm/sub", "op": "Const", "attr": {"value": {"tensor": {"dtype": "DT_FLOAT", "tensorShape": {"dim": [{"size": "128"}]}}}, "dtype": {"type": "DT_FLOAT"}}}, {"name": "StatefulPartitionedCall/hc_experimental_v7_2/conv_residual_feature_extraction_block_18/conv1d_and__batch_norm_91/max_pooling1d_177/ExpandDims/dim", "op": "Const", "attr": {"value": {"tensor": {"dtype": "DT_INT32", "tensorShape": {}}}, "dtype": {"type": "DT_INT32"}}}, {"name": "StatefulPartitionedCall/hc_experimental_v7_2/conv_residual_feature_extraction_block_18/conv1d_and__batch_norm_90/conv1d_288/Conv1D/ExpandDims/dim", "op": "Const", "attr": {"value": {"tensor": {"dtype": "DT_INT32", "tensorShape": {}}}, "dtype": {"type": "DT_INT32"}}}, {"name": "StatefulPartitionedCall/hc_experimental_v7_2/conv_residual_feature_extraction_block_18/conv1d_and__batch_norm_90/conv1d_288/Conv1D/ExpandDims_1", "op": "Const", "attr": {"value": {"tensor": {"dtype": "DT_FLOAT", "tensorShape": {"dim": [{"size": "1"}, {"size": "3"}, {"size": "128"}, {"size": "128"}]}}}, "dtype": {"type": "DT_FLOAT"}}}, {"name": "StatefulPartitionedCall/hc_experimental_v7_2/conv_residual_feature_extraction_block_18/conv1d_and__batch_norm_90/conv1d_288/BiasAdd/ReadVariableOp", "op": "Const", "attr": {"value": {"tensor": {"dtype": "DT_FLOAT", "tensorShape": {"dim": [{"size": "128"}]}}}, "dtype": {"type": "DT_FLOAT"}}}, {"name": "StatefulPartitionedCall/hc_experimental_v7_2/conv_residual_feature_extraction_block_18/conv1d_and__batch_norm_90/conv1d_289/Conv1D/ExpandDims/dim", "op": "Const", "attr": {"value": {"tensor": {"dtype": "DT_INT32", "tensorShape": {}}}, "dtype": {"type": "DT_INT32"}}}, {"name": "StatefulPartitionedCall/hc_experimental_v7_2/conv_residual_feature_extraction_block_18/conv1d_and__batch_norm_90/conv1d_289/Conv1D/ExpandDims_1", "op": "Const", "attr": {"value": {"tensor": {"dtype": "DT_FLOAT", "tensorShape": {"dim": [{"size": "1"}, {"size": "3"}, {"size": "128"}, {"size": "128"}]}}}, "dtype": {"type": "DT_FLOAT"}}}, {"name": "StatefulPartitionedCall/hc_experimental_v7_2/conv_residual_feature_extraction_block_18/conv1d_and__batch_norm_90/conv1d_289/BiasAdd/ReadVariableOp", "op": "Const", "attr": {"value": {"tensor": {"dtype": "DT_FLOAT", "tensorShape": {"dim": [{"size": "128"}]}}}, "dtype": {"type": "DT_FLOAT"}}}, {"name": "StatefulPartitionedCall/hc_experimental_v7_2/conv_residual_feature_extraction_block_18/conv1d_and__batch_norm_90/conv1d_290/Conv1D/ExpandDims/dim", "op": "Const", "attr": {"value": {"tensor": {"dtype": "DT_INT32", "tensorShape": {}}}, "dtype": {"type": "DT_INT32"}}}, {"name": "StatefulPartitionedCall/hc_experimental_v7_2/conv_residual_feature_extraction_block_18/conv1d_and__batch_norm_90/conv1d_290/Conv1D/ExpandDims_1", "op": "Const", "attr": {"value": {"tensor": {"dtype": "DT_FLOAT", "tensorShape": {"dim": [{"size": "1"}, {"size": "3"}, {"size": "128"}, {"size": "128"}]}}}, "dtype": {"type": "DT_FLOAT"}}}, {"name": "StatefulPartitionedCall/hc_experimental_v7_2/conv_residual_feature_extraction_block_18/conv1d_and__batch_norm_90/conv1d_290/BiasAdd/ReadVariableOp", "op": "Const", "attr": {"value": {"tensor": {"dtype": "DT_FLOAT", "tensorShape": {"dim": [{"size": "128"}]}}}, "dtype": {"type": "DT_FLOAT"}}}, {"name": "StatefulPartitionedCall/hc_experimental_v7_2/conv_residual_feature_extraction_block_18/conv1d_and__batch_norm_90/batch_normalization_90/batchnorm/mul", "op": "Const", "attr": {"value": {"tensor": {"dtype": "DT_FLOAT", "tensorShape": {"dim": [{"size": "128"}]}}}, "dtype": {"type": "DT_FLOAT"}}}, {"name": "StatefulPartitionedCall/hc_experimental_v7_2/conv_residual_feature_extraction_block_18/conv1d_and__batch_norm_90/batch_normalization_90/batchnorm/sub", "op": "Const", "attr": {"value": {"tensor": {"dtype": "DT_FLOAT", "tensorShape": {"dim": [{"size": "128"}]}}}, "dtype": {"type": "DT_FLOAT"}}}, {"name": "StatefulPartitionedCall/hc_experimental_v7_2/conv_residual_feature_extraction_block_18/conv1d_and__batch_norm_90/max_pooling1d_176/ExpandDims/dim", "op": "Const", "attr": {"value": {"tensor": {"dtype": "DT_INT32", "tensorShape": {}}}, "dtype": {"type": "DT_INT32"}}}, {"name": "StatefulPartitionedCall/hc_experimental_v7_2/conv_residual_feature_extraction_block_18/conv1d_and__batch_norm_89/conv1d_285/Conv1D/ExpandDims/dim", "op": "Const", "attr": {"value": {"tensor": {"dtype": "DT_INT32", "tensorShape": {}}}, "dtype": {"type": "DT_INT32"}}}, {"name": "StatefulPartitionedCall/hc_experimental_v7_2/conv_residual_feature_extraction_block_18/conv1d_and__batch_norm_89/conv1d_285/Conv1D/ExpandDims_1", "op": "Const", "attr": {"value": {"tensor": {"dtype": "DT_FLOAT", "tensorShape": {"dim": [{"size": "1"}, {"size": "3"}, {"size": "128"}, {"size": "128"}]}}}, "dtype": {"type": "DT_FLOAT"}}}, {"name": "StatefulPartitionedCall/hc_experimental_v7_2/conv_residual_feature_extraction_block_18/conv1d_and__batch_norm_89/conv1d_285/BiasAdd/ReadVariableOp", "op": "Const", "attr": {"value": {"tensor": {"dtype": "DT_FLOAT", "tensorShape": {"dim": [{"size": "128"}]}}}, "dtype": {"type": "DT_FLOAT"}}}, {"name": "StatefulPartitionedCall/hc_experimental_v7_2/conv_residual_feature_extraction_block_18/conv1d_and__batch_norm_89/conv1d_286/Conv1D/ExpandDims/dim", "op": "Const", "attr": {"value": {"tensor": {"dtype": "DT_INT32", "tensorShape": {}}}, "dtype": {"type": "DT_INT32"}}}, {"name": "StatefulPartitionedCall/hc_experimental_v7_2/conv_residual_feature_extraction_block_18/conv1d_and__batch_norm_89/conv1d_286/Conv1D/ExpandDims_1", "op": "Const", "attr": {"value": {"tensor": {"dtype": "DT_FLOAT", "tensorShape": {"dim": [{"size": "1"}, {"size": "3"}, {"size": "128"}, {"size": "128"}]}}}, "dtype": {"type": "DT_FLOAT"}}}, {"name": "StatefulPartitionedCall/hc_experimental_v7_2/conv_residual_feature_extraction_block_18/conv1d_and__batch_norm_89/conv1d_286/BiasAdd/ReadVariableOp", "op": "Const", "attr": {"value": {"tensor": {"dtype": "DT_FLOAT", "tensorShape": {"dim": [{"size": "128"}]}}}, "dtype": {"type": "DT_FLOAT"}}}, {"name": "StatefulPartitionedCall/hc_experimental_v7_2/conv_residual_feature_extraction_block_18/conv1d_and__batch_norm_89/conv1d_287/Conv1D/ExpandDims/dim", "op": "Const", "attr": {"value": {"tensor": {"dtype": "DT_INT32", "tensorShape": {}}}, "dtype": {"type": "DT_INT32"}}}, {"name": "StatefulPartitionedCall/hc_experimental_v7_2/conv_residual_feature_extraction_block_18/conv1d_and__batch_norm_89/conv1d_287/Conv1D/ExpandDims_1", "op": "Const", "attr": {"value": {"tensor": {"dtype": "DT_FLOAT", "tensorShape": {"dim": [{"size": "1"}, {"size": "3"}, {"size": "128"}, {"size": "128"}]}}}, "dtype": {"type": "DT_FLOAT"}}}, {"name": "StatefulPartitionedCall/hc_experimental_v7_2/conv_residual_feature_extraction_block_18/conv1d_and__batch_norm_89/conv1d_287/BiasAdd/ReadVariableOp", "op": "Const", "attr": {"value": {"tensor": {"dtype": "DT_FLOAT", "tensorShape": {"dim": [{"size": "128"}]}}}, "dtype": {"type": "DT_FLOAT"}}}, {"name": "StatefulPartitionedCall/hc_experimental_v7_2/conv_residual_feature_extraction_block_18/conv1d_and__batch_norm_89/batch_normalization_89/batchnorm/mul", "op": "Const", "attr": {"value": {"tensor": {"dtype": "DT_FLOAT", "tensorShape": {"dim": [{"size": "128"}]}}}, "dtype": {"type": "DT_FLOAT"}}}, {"name": "StatefulPartitionedCall/hc_experimental_v7_2/conv_residual_feature_extraction_block_18/conv1d_and__batch_norm_89/batch_normalization_89/batchnorm/sub", "op": "Const", "attr": {"value": {"tensor": {"dtype": "DT_FLOAT", "tensorShape": {"dim": [{"size": "128"}]}}}, "dtype": {"type": "DT_FLOAT"}}}, {"name": "StatefulPartitionedCall/hc_experimental_v7_2/conv_residual_feature_extraction_block_18/conv1d_and__batch_norm_89/max_pooling1d_175/ExpandDims/dim", "op": "Const", "attr": {"value": {"tensor": {"dtype": "DT_INT32", "tensorShape": {}}}, "dtype": {"type": "DT_INT32"}}}, {"name": "StatefulPartitionedCall/hc_experimental_v7_2/conv_residual_feature_extraction_block_18/conv1d_and__batch_norm_88/conv1d_282/Conv1D/ExpandDims/dim", "op": "Const", "attr": {"value": {"tensor": {"dtype": "DT_INT32", "tensorShape": {}}}, "dtype": {"type": "DT_INT32"}}}, {"name": "StatefulPartitionedCall/hc_experimental_v7_2/conv_residual_feature_extraction_block_18/conv1d_and__batch_norm_88/conv1d_282/Conv1D/ExpandDims_1", "op": "Const", "attr": {"value": {"tensor": {"dtype": "DT_FLOAT", "tensorShape": {"dim": [{"size": "1"}, {"size": "3"}, {"size": "32"}, {"size": "128"}]}}}, "dtype": {"type": "DT_FLOAT"}}}, {"name": "StatefulPartitionedCall/hc_experimental_v7_2/conv_residual_feature_extraction_block_18/conv1d_and__batch_norm_88/conv1d_282/BiasAdd/ReadVariableOp", "op": "Const", "attr": {"value": {"tensor": {"dtype": "DT_FLOAT", "tensorShape": {"dim": [{"size": "128"}]}}}, "dtype": {"type": "DT_FLOAT"}}}, {"name": "StatefulPartitionedCall/hc_experimental_v7_2/conv_residual_feature_extraction_block_18/conv1d_and__batch_norm_88/conv1d_283/Conv1D/ExpandDims/dim", "op": "Const", "attr": {"value": {"tensor": {"dtype": "DT_INT32", "tensorShape": {}}}, "dtype": {"type": "DT_INT32"}}}, {"name": "StatefulPartitionedCall/hc_experimental_v7_2/conv_residual_feature_extraction_block_18/conv1d_and__batch_norm_88/conv1d_283/Conv1D/ExpandDims_1", "op": "Const", "attr": {"value": {"tensor": {"dtype": "DT_FLOAT", "tensorShape": {"dim": [{"size": "1"}, {"size": "3"}, {"size": "128"}, {"size": "128"}]}}}, "dtype": {"type": "DT_FLOAT"}}}, {"name": "StatefulPartitionedCall/hc_experimental_v7_2/conv_residual_feature_extraction_block_18/conv1d_and__batch_norm_88/conv1d_283/BiasAdd/ReadVariableOp", "op": "Const", "attr": {"value": {"tensor": {"dtype": "DT_FLOAT", "tensorShape": {"dim": [{"size": "128"}]}}}, "dtype": {"type": "DT_FLOAT"}}}, {"name": "StatefulPartitionedCall/hc_experimental_v7_2/conv_residual_feature_extraction_block_18/conv1d_and__batch_norm_88/conv1d_284/Conv1D/ExpandDims/dim", "op": "Const", "attr": {"value": {"tensor": {"dtype": "DT_INT32", "tensorShape": {}}}, "dtype": {"type": "DT_INT32"}}}, {"name": "StatefulPartitionedCall/hc_experimental_v7_2/conv_residual_feature_extraction_block_18/conv1d_and__batch_norm_88/conv1d_284/Conv1D/ExpandDims_1", "op": "Const", "attr": {"value": {"tensor": {"dtype": "DT_FLOAT", "tensorShape": {"dim": [{"size": "1"}, {"size": "3"}, {"size": "128"}, {"size": "128"}]}}}, "dtype": {"type": "DT_FLOAT"}}}, {"name": "StatefulPartitionedCall/hc_experimental_v7_2/conv_residual_feature_extraction_block_18/conv1d_and__batch_norm_88/conv1d_284/BiasAdd/ReadVariableOp", "op": "Const", "attr": {"value": {"tensor": {"dtype": "DT_FLOAT", "tensorShape": {"dim": [{"size": "128"}]}}}, "dtype": {"type": "DT_FLOAT"}}}, {"name": "StatefulPartitionedCall/hc_experimental_v7_2/conv_residual_feature_extraction_block_18/conv1d_and__batch_norm_88/batch_normalization_88/batchnorm/mul", "op": "Const", "attr": {"value": {"tensor": {"dtype": "DT_FLOAT", "tensorShape": {"dim": [{"size": "128"}]}}}, "dtype": {"type": "DT_FLOAT"}}}, {"name": "StatefulPartitionedCall/hc_experimental_v7_2/conv_residual_feature_extraction_block_18/conv1d_and__batch_norm_88/batch_normalization_88/batchnorm/sub", "op": "Const", "attr": {"value": {"tensor": {"dtype": "DT_FLOAT", "tensorShape": {"dim": [{"size": "128"}]}}}, "dtype": {"type": "DT_FLOAT"}}}, {"name": "StatefulPartitionedCall/hc_experimental_v7_2/conv_residual_feature_extraction_block_18/conv1d_and__batch_norm_88/max_pooling1d_174/ExpandDims/dim", "op": "Const", "attr": {"value": {"tensor": {"dtype": "DT_INT32", "tensorShape": {}}}, "dtype": {"type": "DT_INT32"}}}, {"name": "StatefulPartitionedCall/hc_experimental_v7_2/v_start/Gelu/mul/x", "op": "Const", "attr": {"value": {"tensor": {"dtype": "DT_FLOAT", "tensorShape": {}}}, "dtype": {"type": "DT_FLOAT"}}}, {"name": "StatefulPartitionedCall/hc_experimental_v7_2/v_start/Gelu/add/x", "op": "Const", "attr": {"value": {"tensor": {"dtype": "DT_FLOAT", "tensorShape": {}}}, "dtype": {"type": "DT_FLOAT"}}}, {"name": "StatefulPartitionedCall/hc_experimental_v7_2/v_start/MatMul/ReadVariableOp", "op": "Const", "attr": {"value": {"tensor": {"dtype": "DT_FLOAT", "tensorShape": {"dim": [{"size": "576"}, {"size": "1"}]}}}, "dtype": {"type": "DT_FLOAT"}}}, {"name": "StatefulPartitionedCall/hc_experimental_v7_2/v_start/BiasAdd/ReadVariableOp", "op": "Const", "attr": {"value": {"tensor": {"dtype": "DT_FLOAT", "tensorShape": {"dim": [{"size": "1"}]}}}, "dtype": {"type": "DT_FLOAT"}}}, {"name": "ConstantFolding/StatefulPartitionedCall/hc_experimental_v7_2/v_start/Gelu/truediv_recip", "op": "Const", "attr": {"value": {"tensor": {"dtype": "DT_FLOAT", "tensorShape": {}}}, "dtype": {"type": "DT_FLOAT"}}}, {"name": "StatefulPartitionedCall/hc_experimental_v7_2/cutout_layer_6/Max/reduction_indices", "op": "Const", "attr": {"value": {"tensor": {"dtype": "DT_INT32", "tensorShape": {}}}, "dtype": {"type": "DT_INT32"}}}, {"name": "StatefulPartitionedCall/hc_experimental_v7_2/cutout_layer_6/clip_by_value/Minimum/y", "op": "Const", "attr": {"value": {"tensor": {"dtype": "DT_FLOAT", "tensorShape": {}}}, "dtype": {"type": "DT_FLOAT"}}}, {"name": "StatefulPartitionedCall/hc_experimental_v7_2/cutout_layer_6/clip_by_value/y", "op": "Const", "attr": {"value": {"tensor": {"dtype": "DT_FLOAT", "tensorShape": {}}}, "dtype": {"type": "DT_FLOAT"}}}, {"name": "StatefulPartitionedCall/hc_experimental_v7_2/cutout_layer_6/Cast", "op": "Const", "attr": {"value": {"tensor": {"dtype": "DT_FLOAT", "tensorShape": {"dim": [{"size": "576"}]}}}, "dtype": {"type": "DT_FLOAT"}}}, {"name": "StatefulPartitionedCall/hc_experimental_v7_2/v_end/Gelu/mul/x", "op": "Const", "attr": {"value": {"tensor": {"dtype": "DT_FLOAT", "tensorShape": {}}}, "dtype": {"type": "DT_FLOAT"}}}, {"name": "StatefulPartitionedCall/hc_experimental_v7_2/v_end/Gelu/add/x", "op": "Const", "attr": {"value": {"tensor": {"dtype": "DT_FLOAT", "tensorShape": {}}}, "dtype": {"type": "DT_FLOAT"}}}, {"name": "StatefulPartitionedCall/hc_experimental_v7_2/conv_residual_feature_extraction_block_15/conv1d_and__batch_norm_79/conv1d_252/Conv1D/ExpandDims/dim", "op": "Const", "attr": {"value": {"tensor": {"dtype": "DT_INT32", "tensorShape": {}}}, "dtype": {"type": "DT_INT32"}}}, {"name": "StatefulPartitionedCall/hc_experimental_v7_2/conv_residual_feature_extraction_block_15/conv1d_and__batch_norm_79/conv1d_252/Conv1D/ExpandDims_1", "op": "Const", "attr": {"value": {"tensor": {"dtype": "DT_FLOAT", "tensorShape": {"dim": [{"size": "1"}, {"size": "2"}, {"size": "128"}, {"size": "128"}]}}}, "dtype": {"type": "DT_FLOAT"}}}, {"name": "StatefulPartitionedCall/hc_experimental_v7_2/conv_residual_feature_extraction_block_15/conv1d_and__batch_norm_79/conv1d_252/BiasAdd/ReadVariableOp", "op": "Const", "attr": {"value": {"tensor": {"dtype": "DT_FLOAT", "tensorShape": {"dim": [{"size": "128"}]}}}, "dtype": {"type": "DT_FLOAT"}}}, {"name": "StatefulPartitionedCall/hc_experimental_v7_2/conv_residual_feature_extraction_block_15/conv1d_and__batch_norm_79/conv1d_253/Conv1D/ExpandDims/dim", "op": "Const", "attr": {"value": {"tensor": {"dtype": "DT_INT32", "tensorShape": {}}}, "dtype": {"type": "DT_INT32"}}}, {"name": "StatefulPartitionedCall/hc_experimental_v7_2/conv_residual_feature_extraction_block_15/conv1d_and__batch_norm_79/conv1d_253/Conv1D/ExpandDims_1", "op": "Const", "attr": {"value": {"tensor": {"dtype": "DT_FLOAT", "tensorShape": {"dim": [{"size": "1"}, {"size": "2"}, {"size": "128"}, {"size": "128"}]}}}, "dtype": {"type": "DT_FLOAT"}}}, {"name": "StatefulPartitionedCall/hc_experimental_v7_2/conv_residual_feature_extraction_block_15/conv1d_and__batch_norm_79/conv1d_253/BiasAdd/ReadVariableOp", "op": "Const", "attr": {"value": {"tensor": {"dtype": "DT_FLOAT", "tensorShape": {"dim": [{"size": "128"}]}}}, "dtype": {"type": "DT_FLOAT"}}}, {"name": "StatefulPartitionedCall/hc_experimental_v7_2/conv_residual_feature_extraction_block_15/conv1d_and__batch_norm_79/conv1d_254/Conv1D/ExpandDims/dim", "op": "Const", "attr": {"value": {"tensor": {"dtype": "DT_INT32", "tensorShape": {}}}, "dtype": {"type": "DT_INT32"}}}, {"name": "StatefulPartitionedCall/hc_experimental_v7_2/conv_residual_feature_extraction_block_15/conv1d_and__batch_norm_79/conv1d_254/Conv1D/ExpandDims_1", "op": "Const", "attr": {"value": {"tensor": {"dtype": "DT_FLOAT", "tensorShape": {"dim": [{"size": "1"}, {"size": "2"}, {"size": "128"}, {"size": "128"}]}}}, "dtype": {"type": "DT_FLOAT"}}}, {"name": "StatefulPartitionedCall/hc_experimental_v7_2/conv_residual_feature_extraction_block_15/conv1d_and__batch_norm_79/conv1d_254/BiasAdd/ReadVariableOp", "op": "Const", "attr": {"value": {"tensor": {"dtype": "DT_FLOAT", "tensorShape": {"dim": [{"size": "128"}]}}}, "dtype": {"type": "DT_FLOAT"}}}, {"name": "StatefulPartitionedCall/hc_experimental_v7_2/conv_residual_feature_extraction_block_15/conv1d_and__batch_norm_79/batch_normalization_79/batchnorm/mul", "op": "Const", "attr": {"value": {"tensor": {"dtype": "DT_FLOAT", "tensorShape": {"dim": [{"size": "128"}]}}}, "dtype": {"type": "DT_FLOAT"}}}, {"name": "StatefulPartitionedCall/hc_experimental_v7_2/conv_residual_feature_extraction_block_15/conv1d_and__batch_norm_79/batch_normalization_79/batchnorm/sub", "op": "Const", "attr": {"value": {"tensor": {"dtype": "DT_FLOAT", "tensorShape": {"dim": [{"size": "128"}]}}}, "dtype": {"type": "DT_FLOAT"}}}, {"name": "StatefulPartitionedCall/hc_experimental_v7_2/conv_residual_feature_extraction_block_15/conv1d_and__batch_norm_79/max_pooling1d_153/ExpandDims/dim", "op": "Const", "attr": {"value": {"tensor": {"dtype": "DT_INT32", "tensorShape": {}}}, "dtype": {"type": "DT_INT32"}}}, {"name": "StatefulPartitionedCall/hc_experimental_v7_2/conv_residual_feature_extraction_block_15/conv1d_and__batch_norm_78/conv1d_249/Conv1D/ExpandDims/dim", "op": "Const", "attr": {"value": {"tensor": {"dtype": "DT_INT32", "tensorShape": {}}}, "dtype": {"type": "DT_INT32"}}}, {"name": "StatefulPartitionedCall/hc_experimental_v7_2/conv_residual_feature_extraction_block_15/conv1d_and__batch_norm_78/conv1d_249/Conv1D/ExpandDims_1", "op": "Const", "attr": {"value": {"tensor": {"dtype": "DT_FLOAT", "tensorShape": {"dim": [{"size": "1"}, {"size": "3"}, {"size": "128"}, {"size": "128"}]}}}, "dtype": {"type": "DT_FLOAT"}}}, {"name": "StatefulPartitionedCall/hc_experimental_v7_2/conv_residual_feature_extraction_block_15/conv1d_and__batch_norm_78/conv1d_249/BiasAdd/ReadVariableOp", "op": "Const", "attr": {"value": {"tensor": {"dtype": "DT_FLOAT", "tensorShape": {"dim": [{"size": "128"}]}}}, "dtype": {"type": "DT_FLOAT"}}}, {"name": "StatefulPartitionedCall/hc_experimental_v7_2/conv_residual_feature_extraction_block_15/conv1d_and__batch_norm_78/conv1d_250/Conv1D/ExpandDims/dim", "op": "Const", "attr": {"value": {"tensor": {"dtype": "DT_INT32", "tensorShape": {}}}, "dtype": {"type": "DT_INT32"}}}, {"name": "StatefulPartitionedCall/hc_experimental_v7_2/conv_residual_feature_extraction_block_15/conv1d_and__batch_norm_78/conv1d_250/Conv1D/ExpandDims_1", "op": "Const", "attr": {"value": {"tensor": {"dtype": "DT_FLOAT", "tensorShape": {"dim": [{"size": "1"}, {"size": "3"}, {"size": "128"}, {"size": "128"}]}}}, "dtype": {"type": "DT_FLOAT"}}}, {"name": "StatefulPartitionedCall/hc_experimental_v7_2/conv_residual_feature_extraction_block_15/conv1d_and__batch_norm_78/conv1d_250/BiasAdd/ReadVariableOp", "op": "Const", "attr": {"value": {"tensor": {"dtype": "DT_FLOAT", "tensorShape": {"dim": [{"size": "128"}]}}}, "dtype": {"type": "DT_FLOAT"}}}, {"name": "StatefulPartitionedCall/hc_experimental_v7_2/conv_residual_feature_extraction_block_15/conv1d_and__batch_norm_78/conv1d_251/Conv1D/ExpandDims/dim", "op": "Const", "attr": {"value": {"tensor": {"dtype": "DT_INT32", "tensorShape": {}}}, "dtype": {"type": "DT_INT32"}}}, {"name": "StatefulPartitionedCall/hc_experimental_v7_2/conv_residual_feature_extraction_block_15/conv1d_and__batch_norm_78/conv1d_251/Conv1D/ExpandDims_1", "op": "Const", "attr": {"value": {"tensor": {"dtype": "DT_FLOAT", "tensorShape": {"dim": [{"size": "1"}, {"size": "3"}, {"size": "128"}, {"size": "128"}]}}}, "dtype": {"type": "DT_FLOAT"}}}, {"name": "StatefulPartitionedCall/hc_experimental_v7_2/conv_residual_feature_extraction_block_15/conv1d_and__batch_norm_78/conv1d_251/BiasAdd/ReadVariableOp", "op": "Const", "attr": {"value": {"tensor": {"dtype": "DT_FLOAT", "tensorShape": {"dim": [{"size": "128"}]}}}, "dtype": {"type": "DT_FLOAT"}}}, {"name": "StatefulPartitionedCall/hc_experimental_v7_2/conv_residual_feature_extraction_block_15/conv1d_and__batch_norm_78/batch_normalization_78/batchnorm/mul", …
ure_extraction_block_17/conv1d_281/BiasAdd/ReadVariableOp", "shape": [128], "dtype": "float32"}, {"name": "StatefulPartitionedCall/hc_experimental_v7_2/conv_residual_feature_extraction_block_17/max_pooling1d_170/ExpandDims/dim", "shape": [], "dtype": "int32"}, {"name": "StatefulPartitionedCall/hc_experimental_v7_2/conv_residual_feature_extraction_block_17/max_pooling1d_170/ExpandDims_1/dim", "shape": [], "dtype": "int32"}, {"name": "StatefulPartitionedCall/hc_experimental_v7_2/conv_residual_feature_extraction_block_17/max_pooling1d_171/ExpandDims/dim", "shape": [], "dtype": "int32"}, {"name": "StatefulPartitionedCall/hc_experimental_v7_2/conv_residual_feature_extraction_block_17/max_pooling1d_172/ExpandDims/dim", "shape": [], "dtype": "int32"}, {"name": "StatefulPartitionedCall/hc_experimental_v7_2/conv_residual_feature_extraction_block_17/max_pooling1d_173/ExpandDims/dim", "shape": [], "dtype": "int32"}, {"name": "StatefulPartitionedCall/hc_experimental_v7_2/conv_residual_feature_extraction_block_17/flatten_19/Const", "shape": [2], "dtype": "int32"}, {"name": "StatefulPartitionedCall/hc_experimental_v7_2/conv_residual_feature_extraction_block_17/dense_17/MatMul/ReadVariableOp", "shape": [2304, 576], "dtype": "float32"}, {"name": "StatefulPartitionedCall/hc_experimental_v7_2/conv_residual_feature_extraction_block_17/dense_17/BiasAdd/ReadVariableOp", "shape": [576], "dtype": "float32"}, {"name": "StatefulPartitionedCall/hc_experimental_v7_2/j_start/MatMul/ReadVariableOp", "shape": [576, 1], "dtype": "float32"}, {"name": "StatefulPartitionedCall/hc_experimental_v7_2/j_start/BiasAdd/ReadVariableOp", "shape": [1], "dtype": "float32"}, {"name": "ConstantFolding/StatefulPartitionedCall/hc_experimental_v7_2/j_start/Gelu/truediv_recip", "shape": [], "dtype": "float32"}, {"name": "StatefulPartitionedCall/hc_experimental_v7_2/mutation_rate_mid/Gelu/mul/x", "shape": [], "dtype": "float32"}, {"name": "StatefulPartitionedCall/hc_experimental_v7_2/mutation_rate_mid/Gelu/add/x", "shape": [], "dtype": "float32"}, {"name": "StatefulPartitionedCall/hc_experimental_v7_2/mutation_rate_mid/MatMul/ReadVariableOp", "shape": [576, 576], "dtype": "float32"}, {"name": "StatefulPartitionedCall/hc_experimental_v7_2/mutation_rate_mid/BiasAdd/ReadVariableOp", "shape": [576], "dtype": "float32"}, {"name": "ConstantFolding/StatefulPartitionedCall/hc_experimental_v7_2/mutation_rate_mid/Gelu/truediv_recip", "shape": [], "dtype": "float32"}, {"name": "StatefulPartitionedCall/hc_experimental_v7_2/mutation_rate/MatMul/ReadVariableOp", "shape": [576, 1], "dtype": "float32"}, {"name": "StatefulPartitionedCall/hc_experimental_v7_2/mutation_rate/BiasAdd/ReadVariableOp", "shape": [1], "dtype": "float32"}, {"name": "StatefulPartitionedCall/hc_experimental_v7_2/conv_residual_feature_extraction_block_14/conv1d_and__batch_norm_75/conv1d_239/Conv1D/ExpandDims/dim", "shape": [], "dtype": "int32"}, {"name": "StatefulPartitionedCall/hc_experimental_v7_2/conv_residual_feature_extraction_block_14/conv1d_and__batch_norm_75/conv1d_239/Conv1D/ExpandDims_1", "shape": [1, 2, 128, 128], "dtype": "float32"}, {"name": "StatefulPartitionedCall/hc_experimental_v7_2/conv_residual_feature_extraction_block_14/conv1d_and__batch_norm_75/conv1d_239/BiasAdd/ReadVariableOp", "shape": [128], "dtype": "float32"}, {"name": "StatefulPartitionedCall/hc_experimental_v7_2/conv_residual_feature_extraction_block_14/conv1d_and__batch_norm_75/conv1d_240/Conv1D/ExpandDims/dim", "shape": [], "dtype": "int32"}, {"name": "StatefulPartitionedCall/hc_experimental_v7_2/conv_residual_feature_extraction_block_14/conv1d_and__batch_norm_75/conv1d_240/Conv1D/ExpandDims_1", "shape": [1, 2, 128, 128], "dtype": "float32"}, {"name": "StatefulPartitionedCall/hc_experimental_v7_2/conv_residual_feature_extraction_block_14/conv1d_and__batch_norm_75/conv1d_240/BiasAdd/ReadVariableOp", "shape": [128], "dtype": "float32"}, {"name": "StatefulPartitionedCall/hc_experimental_v7_2/conv_residual_feature_extraction_block_14/conv1d_and__batch_norm_75/conv1d_241/Conv1D/ExpandDims/dim", "shape": [], "dtype": "int32"}, {"name": "StatefulPartitionedCall/hc_experimental_v7_2/conv_residual_feature_extraction_block_14/conv1d_and__batch_norm_75/conv1d_241/Conv1D/ExpandDims_1", "shape": [1, 2, 128, 128], "dtype": "float32"}, {"name": "StatefulPartitionedCall/hc_experimental_v7_2/conv_residual_feature_extraction_block_14/conv1d_and__batch_norm_75/conv1d_241/BiasAdd/ReadVariableOp", "shape": [128], "dtype": "float32"}, {"name": "StatefulPartitionedCall/hc_experimental_v7_2/conv_residual_feature_extraction_block_14/conv1d_and__batch_norm_75/batch_normalization_75/batchnorm/mul", "shape": [128], "dtype": "float32"}, {"name": "StatefulPartitionedCall/hc_experimental_v7_2/conv_residual_feature_extraction_block_14/conv1d_and__batch_norm_75/batch_normalization_75/batchnorm/sub", "shape": [128], "dtype": "float32"}, {"name": "StatefulPartitionedCall/hc_experimental_v7_2/conv_residual_feature_extraction_block_14/conv1d_and__batch_norm_75/max_pooling1d_143/ExpandDims/dim", "shape": [], "dtype": "int32"}, {"name": "StatefulPartitionedCall/hc_experimental_v7_2/conv_residual_feature_extraction_block_14/conv1d_and__batch_norm_74/conv1d_236/Conv1D/ExpandDims/dim", "shape": [], "dtype": "int32"}, {"name": "StatefulPartitionedCall/hc_experimental_v7_2/conv_residual_feature_extraction_block_14/conv1d_and__batch_norm_74/conv1d_236/Conv1D/ExpandDims_1", "shape": [1, 2, 128, 128], "dtype": "float32"}, {"name": "StatefulPartitionedCall/hc_experimental_v7_2/conv_residual_feature_extraction_block_14/conv1d_and__batch_norm_74/conv1d_236/BiasAdd/ReadVariableOp", "shape": [128], "dtype": "float32"}, {"name": "StatefulPartitionedCall/hc_experimental_v7_2/conv_residual_feature_extraction_block_14/conv1d_and__batch_norm_74/conv1d_237/Conv1D/ExpandDims/dim", "shape": [], "dtype": "int32"}, {"name": "StatefulPartitionedCall/hc_experimental_v7_2/conv_residual_feature_extraction_block_14/conv1d_and__batch_norm_74/conv1d_237/Conv1D/ExpandDims_1", "shape": [1, 2, 128, 128], "dtype": "float32"}, {"name": "StatefulPartitionedCall/hc_experimental_v7_2/conv_residual_feature_extraction_block_14/conv1d_and__batch_norm_74/conv1d_237/BiasAdd/ReadVariableOp", "shape": [128], "dtype": "float32"}, {"name": "StatefulPartitionedCall/hc_experimental_v7_2/conv_residual_feature_extraction_block_14/conv1d_and__batch_norm_74/conv1d_238/Conv1D/ExpandDims/dim", "shape": [], "dtype": "int32"}, {"name": "StatefulPartitionedCall/hc_experimental_v7_2/conv_residual_feature_extraction_block_14/conv1d_and__batch_norm_74/conv1d_238/Conv1D/ExpandDims_1", "shape": [1, 2, 128, 128], "dtype": "float32"}, {"name": "StatefulPartitionedCall/hc_experimental_v7_2/conv_residual_feature_extraction_block_14/conv1d_and__batch_norm_74/conv1d_238/BiasAdd/ReadVariableOp", "shape": [128], "dtype": "float32"}, {"name": "StatefulPartitionedCall/hc_experimental_v7_2/conv_residual_feature_extraction_block_14/conv1d_and__batch_norm_74/batch_normalization_74/batchnorm/mul", "shape": [128], "dtype": "float32"}, {"name": "StatefulPartitionedCall/hc_experimental_v7_2/conv_residual_feature_extraction_block_14/conv1d_and__batch_norm_74/batch_normalization_74/batchnorm/sub", "shape": [128], "dtype": "float32"}, {"name": "StatefulPartitionedCall/hc_experimental_v7_2/conv_residual_feature_extraction_block_14/conv1d_and__batch_norm_74/max_pooling1d_142/ExpandDims/dim", "shape": [], "dtype": "int32"}, {"name": "StatefulPartitionedCall/hc_experimental_v7_2/conv_residual_feature_extraction_block_14/conv1d_and__batch_norm_73/conv1d_233/Conv1D/ExpandDims/dim", "shape": [], "dtype": "int32"}, {"name": "StatefulPartitionedCall/hc_experimental_v7_2/conv_residual_feature_extraction_block_14/conv1d_and__batch_norm_73/conv1d_233/Conv1D/ExpandDims_1", "shape": [1, 2, 128, 128], "dtype": "float32"}, {"name": "StatefulPartitionedCall/hc_experimental_v7_2/conv_residual_feature_extraction_block_14/conv1d_and__batch_norm_73/conv1d_233/BiasAdd/ReadVariableOp", "shape": [128], "dtype": "float32"}, {"name": "StatefulPartitionedCall/hc_experimental_v7_2/conv_residual_feature_extraction_block_14/conv1d_and__batch_norm_73/conv1d_234/Conv1D/ExpandDims/dim", "shape": [], "dtype": "int32"}, {"name": "StatefulPartitionedCall/hc_experimental_v7_2/conv_residual_feature_extraction_block_14/conv1d_and__batch_norm_73/conv1d_234/Conv1D/ExpandDims_1", "shape": [1, 2, 128, 128], "dtype": "float32"}, {"name": "StatefulPartitionedCall/hc_experimental_v7_2/conv_residual_feature_extraction_block_14/conv1d_and__batch_norm_73/conv1d_234/BiasAdd/ReadVariableOp", "shape": [128], "dtype": "float32"}, {"name": "StatefulPartitionedCall/hc_experimental_v7_2/conv_residual_feature_extraction_block_14/conv1d_and__batch_norm_73/conv1d_235/Conv1D/ExpandDims/dim", "shape": [], "dtype": "int32"}, {"name": "StatefulPartitionedCall/hc_experimental_v7_2/conv_residual_feature_extraction_block_14/conv1d_and__batch_norm_73/conv1d_235/Conv1D/ExpandDims_1", "shape": [1, 2, 128, 128], "dtype": "float32"}, {"name": "StatefulPartitionedCall/hc_experimental_v7_2/conv_residual_feature_extraction_block_14/conv1d_and__batch_norm_73/conv1d_235/BiasAdd/ReadVariableOp", "shape": [128], "dtype": "float32"}, {"name": "StatefulPartitionedCall/hc_experimental_v7_2/conv_residual_feature_extraction_block_14/conv1d_and__batch_norm_73/batch_normalization_73/batchnorm/mul", "shape": [128], "dtype": "float32"}, {"name": "StatefulPartitionedCall/hc_experimental_v7_2/conv_residual_feature_extraction_block_14/conv1d_and__batch_norm_73/batch_normalization_73/batchnorm/sub", "shape": [128], "dtype": "float32"}, {"name": "StatefulPartitionedCall/hc_experimental_v7_2/conv_residual_feature_extraction_block_14/conv1d_and__batch_norm_73/max_pooling1d_141/ExpandDims/dim", "shape": [], "dtype": "int32"}, {"name": "StatefulPartitionedCall/hc_experimental_v7_2/conv_residual_feature_extraction_block_14/conv1d_and__batch_norm_72/conv1d_230/Conv1D/ExpandDims/dim", "shape": [], "dtype": "int32"}, {"name": "StatefulPartitionedCall/hc_experimental_v7_2/conv_residual_feature_extraction_block_14/conv1d_and__batch_norm_72/conv1d_230/Conv1D/ExpandDims_1", "shape": [1, 3, 128, 128], "dtype": "float32"}, {"name": "StatefulPartitionedCall/hc_experimental_v7_2/conv_residual_feature_extraction_block_14/conv1d_and__batch_norm_72/conv1d_230/BiasAdd/ReadVariableOp", "shape": [128], "dtype": "float32"}, {"name": "StatefulPartitionedCall/hc_experimental_v7_2/conv_residual_feature_extraction_block_14/conv1d_and__batch_norm_72/conv1d_231/Conv1D/ExpandDims/dim", "shape": [], "dtype": "int32"}, {"name": "StatefulPartitionedCall/hc_experimental_v7_2/conv_residual_feature_extraction_block_14/conv1d_and__batch_norm_72/conv1d_231/Conv1D/ExpandDims_1", "shape": [1, 3, 128, 128], "dtype": "float32"}, {"name": "StatefulPartitionedCall/hc_experimental_v7_2/conv_residual_feature_extraction_block_14/conv1d_and__batch_norm_72/conv1d_231/BiasAdd/ReadVariableOp", "shape": [128], "dtype": "float32"}, {"name": "StatefulPartitionedCall/hc_experimental_v7_2/conv_residual_feature_extraction_block_14/conv1d_and__batch_norm_72/conv1d_232/Conv1D/ExpandDims/dim", "shape": [], "dtype": "int32"}, {"name": "StatefulPartitionedCall/hc_experimental_v7_2/conv_residual_feature_extraction_block_14/conv1d_and__batch_norm_72/conv1d_232/Conv1D/ExpandDims_1", "shape": [1, 3, 128, 128], "dtype": "float32"}, {"name": "StatefulPartitionedCall/hc_experimental_v7_2/conv_residual_feature_extraction_block_14/conv1d_and__batch_norm_72/conv1d_232/BiasAdd/ReadVariableOp", "shape": [128], "dtype": "float32"}, {"name": "StatefulPartitionedCall/hc_experimental_v7_2/conv_residual_feature_extraction_block_14/conv1d_and__batch_norm_72/batch_normalization_72/batchnorm/mul", "shape": [128], "dtype": "float32"}, {"name": "StatefulPartitionedCall/hc_experimental_v7_2/conv_residual_feature_extraction_block_14/conv1d_and__batch_norm_72/batch_normalization_72/batchnorm/sub", "shape": [128], "dtype": "float32"}, {"name": "StatefulPartitionedCall/hc_experimental_v7_2/conv_residual_feature_extraction_block_14/conv1d_and__batch_norm_72/max_pooling1d_140/ExpandDims/dim", "shape": [], "dtype": "int32"}, {"name": "StatefulPartitionedCall/hc_experimental_v7_2/conv_residual_feature_extraction_block_14/conv1d_and__batch_norm_71/conv1d_227/Conv1D/ExpandDims/dim", "shape": [], "dtype": "int32"}, {"name": "StatefulPartitionedCall/hc_experimental_v7_2/conv_residual_feature_extraction_block_14/conv1d_and__batch_norm_71/conv1d_227/Conv1D/ExpandDims_1", "shape": [1, 3, 128, 128], "dtype": "float32"}, {"name": "StatefulPartitionedCall/hc_experimental_v7_2/conv_residual_feature_extraction_block_14/conv1d_and__batch_norm_71/conv1d_227/BiasAdd/ReadVariableOp", "shape": [128], "dtype": "float32"}, {"name": "StatefulPartitionedCall/hc_experimental_v7_2/conv_residual_feature_extraction_block_14/conv1d_and__batch_norm_71/conv1d_228/Conv1D/ExpandDims/dim", "shape": [], "dtype": "int32"}, {"name": "StatefulPartitionedCall/hc_experimental_v7_2/conv_residual_feature_extraction_block_14/conv1d_and__batch_norm_71/conv1d_228/Conv1D/ExpandDims_1", "shape": [1, 3, 128, 128], "dtype": "float32"}, {"name": "StatefulPartitionedCall/hc_experimental_v7_2/conv_residual_feature_extraction_block_14/conv1d_and__batch_norm_71/conv1d_228/BiasAdd/ReadVariableOp", "shape": [128], "dtype": "float32"}, {"name": "StatefulPartitionedCall/hc_experimental_v7_2/conv_residual_feature_extraction_block_14/conv1d_and__batch_norm_71/conv1d_229/Conv1D/ExpandDims/dim", "shape": [], "dtype": "int32"}, {"name": "StatefulPartitionedCall/hc_experimental_v7_2/conv_residual_feature_extraction_block_14/conv1d_and__batch_norm_71/conv1d_229/Conv1D/ExpandDims_1", "shape": [1, 3, 128, 128], "dtype": "float32"}, {"name": "StatefulPartitionedCall/hc_experimental_v7_2/conv_residual_feature_extraction_block_14/conv1d_and__batch_norm_71/conv1d_229/BiasAdd/ReadVariableOp", "shape": [128], "dtype": "float32"}, {"name": "StatefulPartitionedCall/hc_experimental_v7_2/conv_residual_feature_extraction_block_14/conv1d_and__batch_norm_71/batch_normalization_71/batchnorm/mul", "shape": [128], "dtype": "float32"}, {"name": "StatefulPartitionedCall/hc_experimental_v7_2/conv_residual_feature_extraction_block_14/conv1d_and__batch_norm_71/batch_normalization_71/batchnorm/sub", "shape": [128], "dtype": "float32"}, {"name": "StatefulPartitionedCall/hc_experimental_v7_2/conv_residual_feature_extraction_block_14/conv1d_and__batch_norm_71/max_pooling1d_139/ExpandDims/dim", "shape": [], "dtype": "int32"}, {"name": "StatefulPartitionedCall/hc_experimental_v7_2/conv_residual_feature_extraction_block_14/conv1d_and__batch_norm_70/conv1d_224/Conv1D/ExpandDims/dim", "shape": [], "dtype": "int32"}, {"name": "StatefulPartitionedCall/hc_experimental_v7_2/conv_residual_feature_extraction_block_14/conv1d_and__batch_norm_70/conv1d_224/Conv1D/ExpandDims_1", "shape": [1, 3, 32, 128], "dtype": "float32"}, {"name": "StatefulPartitionedCall/hc_experimental_v7_2/conv_residual_feature_extraction_block_14/conv1d_and__batch_norm_70/conv1d_224/BiasAdd/ReadVariableOp", "shape": [128], "dtype": "float32"}, {"name": "StatefulPartitionedCall/hc_experimental_v7_2/conv_residual_feature_extraction_block_14/conv1d_and__batch_norm_70/conv1d_225/Conv1D/ExpandDims/dim", "shape": [], "dtype": "int32"}, {"name": "StatefulPartitionedCall/hc_experimental_v7_2/conv_residual_feature_extraction_block_14/conv1d_and__batch_norm_70/conv1d_225/Conv1D/ExpandDims_1", "shape": [1, 3, 128, 128], "dtype": "float32"}, {"name": "StatefulPartitionedCall/hc_experimental_v7_2/conv_residual_feature_extraction_block_14/conv1d_and__batch_norm_70/conv1d_225/BiasAdd/ReadVariableOp", "shape": [128], "dtype": "float32"}, {"name": "StatefulPartitionedCall/hc_experimental_v7_2/conv_residual_feature_extraction_block_14/conv1d_and__batch_norm_70/conv1d_226/Conv1D/ExpandDims/dim", "shape": [], "dtype": "int32"}, {"name": "StatefulPartitionedCall/hc_experimental_v7_2/conv_residual_feature_extraction_block_14/conv1d_and__batch_norm_70/conv1d_226/Conv1D/ExpandDims_1", "shape": [1, 3, 128, 128], "dtype": "float32"}, {"name": "StatefulPartitionedCall/hc_experimental_v7_2/conv_residual_feature_extraction_block_14/conv1d_and__batch_norm_70/conv1d_226/BiasAdd/ReadVariableOp", "shape": [128], "dtype": "float32"}, {"name": "StatefulPartitionedCall/hc_experimental_v7_2/conv_residual_feature_extraction_block_14/conv1d_and__batch_norm_70/batch_normalization_70/batchnorm/mul", "shape": [128], "dtype": "float32"}, {"name": "StatefulPartitionedCall/hc_experimental_v7_2/conv_residual_feature_extraction_block_14/conv1d_and__batch_norm_70/batch_normalization_70/batchnorm/sub", "shape": [128], "dtype": "float32"}, {"name": "StatefulPartitionedCall/hc_experimental_v7_2/conv_residual_feature_extraction_block_14/conv1d_and__batch_norm_70/max_pooling1d_138/ExpandDims/dim", "shape": [], "dtype": "int32"}, {"name": "StatefulPartitionedCall/hc_experimental_v7_2/conv_residual_feature_extraction_block_14/conv1d_242/Conv1D/ExpandDims/dim", "shape": [], "dtype": "int32"}, {"name": "StatefulPartitionedCall/hc_experimental_v7_2/conv_residual_feature_extraction_block_14/conv1d_242/Conv1D/ExpandDims_1", "shape": [1, 5, 32, 128], "dtype": "float32"}, {"name": "StatefulPartitionedCall/hc_experimental_v7_2/conv_residual_feature_extraction_block_14/conv1d_242/BiasAdd/ReadVariableOp", "shape": [128], "dtype": "float32"}, {"name": "StatefulPartitionedCall/hc_experimental_v7_2/conv_residual_feature_extraction_block_14/max_pooling1d_144/ExpandDims/dim", "shape": [], "dtype": "int32"}, {"name": "StatefulPartitionedCall/hc_experimental_v7_2/conv_residual_feature_extraction_block_14/max_pooling1d_144/ExpandDims_1/dim", "shape": [], "dtype": "int32"}, {"name": "StatefulPartitionedCall/hc_experimental_v7_2/conv_residual_feature_extraction_block_14/max_pooling1d_145/ExpandDims/dim", "shape": [], "dtype": "int32"}, {"name": "StatefulPartitionedCall/hc_experimental_v7_2/conv_residual_feature_extraction_block_14/max_pooling1d_146/ExpandDims/dim", "shape": [], "dtype": "int32"}, {"name": "StatefulPartitionedCall/hc_experimental_v7_2/conv_residual_feature_extraction_block_14/max_pooling1d_147/ExpandDims/dim", "shape": [], "dtype": "int32"}, {"name": "StatefulPartitionedCall/hc_experimental_v7_2/conv_residual_feature_extraction_block_14/max_pooling1d_148/ExpandDims/dim", "shape": [], "dtype": "int32"}, {"name": "StatefulPartitionedCall/hc_experimental_v7_2/conv_residual_feature_extraction_block_14/max_pooling1d_149/ExpandDims/dim", "shape": [], "dtype": "int32"}, {"name": "StatefulPartitionedCall/hc_experimental_v7_2/conv_residual_feature_extraction_block_14/flatten_16/Const", "shape": [2], "dtype": "int32"}, {"name": "StatefulPartitionedCall/hc_experimental_v7_2/conv_residual_feature_extraction_block_14/dense_14/MatMul/ReadVariableOp", "shape": [512, 576], "dtype": "float32"}, {"name": "StatefulPartitionedCall/hc_experimental_v7_2/conv_residual_feature_extraction_block_14/dense_14/BiasAdd/ReadVariableOp", "shape": [576], "dtype": "float32"}, {"name": "StatefulPartitionedCall/hc_experimental_v7_2/productive/MatMul/ReadVariableOp", "shape": [576, 1], "dtype": "float32"}, {"name": "StatefulPartitionedCall/hc_experimental_v7_2/productive/BiasAdd/ReadVariableOp", "shape": [1], "dtype": "float32"}, {"name": "StatefulPartitionedCall/hc_experimental_v7_2/conv_residual_feature_extraction_block_18/conv1d_and__batch_norm_93/conv1d_297/Conv1D/ExpandDims/dim", "shape": [], "dtype": "int32"}, {"name": "StatefulPartitionedCall/hc_experimental_v7_2/conv_residual_feature_extraction_block_18/conv1d_and__batch_norm_93/conv1d_297/Conv1D/ExpandDims_1", "shape": [1, 2, 128, 128], "dtype": "float32"}, {"name": "StatefulPartitionedCall/hc_experimental_v7_2/conv_residual_feature_extraction_block_18/conv1d_and__batch_norm_93/conv1d_297/BiasAdd/ReadVariableOp", "shape": [128], "dtype": "float32"}, {"name": "StatefulPartitionedCall/hc_experimental_v7_2/conv_residual_feature_extraction_block_18/conv1d_and__batch_norm_93/conv1d_298/Conv1D/ExpandDims/dim", "shape": [], "dtype": "int32"}, {"name": "StatefulPartitionedCall/hc_experimental_v7_2/conv_residual_feature_extraction_block_18/conv1d_and__batch_norm_93/conv1d_298/Conv1D/ExpandDims_1", "shape": [1, 2, 128, 128], "dtype": "float32"}, {"name": "StatefulPartitionedCall/hc_experimental_v7_2/conv_residual_feature_extraction_block_18/conv1d_and__batch_norm_93/conv1d_298/BiasAdd/ReadVariableOp", "shape": [128], "dtype": "float32"}, {"name": "StatefulPartitionedCall/hc_experimental_v7_2/conv_residual_feature_extraction_block_18/conv1d_and__batch_norm_93/conv1d_299/Conv1D/ExpandDims/dim", "shape": [], "dtype": "int32"}, {"name": "StatefulPartitionedCall/hc_experimental_v7_2/conv_residual_feature_extraction_block_18/conv1d_and__batch_norm_93/conv1d_299/Conv1D/ExpandDims_1", "shape": [1, 2, 128, 128], "dtype": "float32"}, {"name": "StatefulPartitionedCall/hc_experimental_v7_2/conv_residual_feature_extraction_block_18/conv1d_and__batch_norm_93/conv1d_299/BiasAdd/ReadVariableOp", "shape": [128], "dtype": "float32"}, {"name": "StatefulPartitionedCall/hc_experimental_v7_2/conv_residual_feature_extraction_block_18/conv1d_and__batch_norm_93/batch_normalization_93/batchnorm/mul", "shape": [128], "dtype": "float32"}, {"name": "StatefulPartitionedCall/hc_experimental_v7_2/conv_residual_feature_extraction_block_18/conv1d_and__batch_norm_93/batch_normalization_93/batchnorm/sub", "shape": [128], "dtype": "float32"}, {"name": "StatefulPartitionedCall/hc_experimental_v7_2/conv_residual_feature_extraction_block_18/conv1d_and__batch_norm_93/max_pooling1d_179/ExpandDims/dim", "shape": [], "dtype": "int32"}, {"name": "StatefulPartitionedCall/hc_experimental_v7_2/conv_residual_feature_extraction_block_18/conv1d_and__batch_norm_92/conv1d_294/Conv1D/ExpandDims/dim", "shape": [], "dtype": "int32"}, {"name": "StatefulPartitionedCall/hc_experimental_v7_2/conv_residual_feature_extraction_block_18/conv1d_and__batch_norm_92/conv1d_294/Conv1D/ExpandDims_1", "shape": [1, 2, 128, 128], "dtype": "float32"}, {"name": "StatefulPartitionedCall/hc_experimental_v7_2/conv_residual_feature_extraction_block_18/conv1d_and__batch_norm_92/conv1d_294/BiasAdd/ReadVariableOp", "shape": [128], "dtype": "float32"}, {"name": "StatefulPartitionedCall/hc_experimental_v7_2/conv_residual_feature_extraction_block_18/conv1d_and__batch_norm_92/conv1d_295/Conv1D/ExpandDims/dim", "shape": [], "dtype": "int32"}, {"name": "StatefulPartitionedCall/hc_experimental_v7_2/conv_residual_feature_extraction_block_18/conv1d_and__batch_norm_92/conv1d_295/Conv1D/ExpandDims_1", "shape": [1, 2, 128, 128], "dtype": "float32"}, {"name": "StatefulPartitionedCall/hc_experimental_v7_2/conv_residual_feature_extraction_block_18/conv1d_and__batch_norm_92/conv1d_295/BiasAdd/ReadVariableOp", "shape": [128], "dtype": "float32"}, {"name": "StatefulPartitionedCall/hc_experimental_v7_2/conv_residual_feature_extraction_block_18/conv1d_and__batch_norm_92/conv1d_296/Conv1D/ExpandDims/dim", "shape": [], "dtype": "int32"}, {"name": "StatefulPartitionedCall/hc_experimental_v7_2/conv_residual_feature_extraction_block_18/conv1d_and__batch_norm_92/conv1d_296/Conv1D/ExpandDims_1", "shape": [1, 2, 128, 128], "dtype": "float32"}, {"name": "StatefulPartitionedCall/hc_experimental_v7_2/conv_residual_feature_extraction_block_18/conv1d_and__batch_norm_92/conv1d_296/BiasAdd/ReadVariableOp", "shape": [128], "dtype": "float32"}, {"name": "StatefulPartitionedCall/hc_experimental_v7_2/conv_residual_feature_extraction_block_18/conv1d_and__batch_norm_92/batch_normalization_92/batchnorm/mul", "shape": [128], "dtype": "float32"}, {"name": "StatefulPartitionedCall/hc_experimental_v7_2/conv_residual_feature_extraction_block_18/conv1d_and__batch_norm_92/batch_normalization_92/batchnorm/sub", "shape": [128], "dtype": "float32"}, {"name": "StatefulPartitionedCall/hc_experimental_v7_2/conv_residual_feature_extraction_block_18/conv1d_and__batch_norm_92/max_pooling1d_178/ExpandDims/dim", "shape": [], "dtype": "int32"}, {"name": "StatefulPartitionedCall/hc_experimental_v7_2/conv_residual_feature_extraction_block_18/conv1d_and__batch_norm_91/conv1d_291/Conv1D/ExpandDims/dim", "shape": [], "dtype": "int32"}, {"name": "StatefulPartitionedCall/hc_experimental_v7_2/conv_residual_feature_extraction_block_18/conv1d_and__batch_norm_91/conv1d_291/Conv1D/ExpandDims_1", "shape": [1, 2, 128, 128], "dtype": "float32"}, {"name": "StatefulPartitionedCall/hc_experimental_v7_2/conv_residual_feature_extraction_block_18/conv1d_and__batch_norm_91/conv1d_291/BiasAdd/ReadVariableOp", "shape": [128], "dtype": "float32"}, {"name": "StatefulPartitionedCall/hc_experimental_v7_2/conv_residual_feature_extraction_block_18/conv1d_and__batch_norm_91/conv1d_292/Conv1D/ExpandDims/dim", "shape": [], "dtype": "int32"}, {"name": "StatefulPartitionedCall/hc_experimental_v7_2/conv_residual_feature_extraction_block_18/conv1d_and__batch_norm_91/conv1d_292/Conv1D/ExpandDims_1", "shape": [1, 2, 128, 128], "dtype": "float32"}, {"name": "StatefulPartitionedCall/hc_experimental_v7_2/conv_residual_feature_extraction_block_18/conv1d_and__batch_norm_91/conv1d_292/BiasAdd/ReadVariableOp", "shape": [128], "dtype": "float32"}, {"name": "StatefulPartitionedCall/hc_experimental_v7_2/conv_residual_feature_extraction_block_18/conv1d_and__batch_norm_91/conv1d_293/Conv1D/ExpandDims/dim", "shape": [], "dtype": "int32"}, {"name": "StatefulPartitionedCall/hc_experimental_v7_2/conv_residual_feature_extraction_block_18/conv1d_and__batch_norm_91/conv1d_293/Conv1D/ExpandDims_1", "shape": [1, 2, 128, 128], "dtype": "float32"}, {"name": "StatefulPartitionedCall/hc_experimental_v7_2/conv_residual_feature_extraction_block_18/conv1d_and__batch_norm_91/conv1d_293/BiasAdd/ReadVariableOp", "shape": [128], "dtype": "float32"}, {"name": "StatefulPartitionedCall/hc_experimental_v7_2/conv_residual_feature_extraction_block_18/conv1d_and__batch_norm_91/batch_normalization_91/batchnorm/mul", "shape": [128], "dtype": "float32"}, {"name": "StatefulPartitionedCall/hc_experimental_v7_2/conv_residual_feature_extraction_block_18/conv1d_and__batch_norm_91/batch_normalization_91/batchnorm/sub", "shape": [128], "dtype": "float32"}, {"name": "StatefulPartitionedCall/hc_experimental_v7_2/conv_residual_feature_extraction_block_18/conv1d_and__batch_norm_91/max_pooling1d_177/ExpandDims/dim", "shape": [], "dtype": "int32"}, {"name": "StatefulPartitionedCall/hc_experimental_v7_2/conv_residual_feature_extraction_block_18/conv1d_and__batch_norm_90/conv1d_288/Conv1D/ExpandDims/dim", "shape": [], "dtype": "int32"}, {"name": "StatefulPartitionedCall/hc_experimental_v7_2/conv_residual_feature_extraction_block_18/conv1d_and__batch_norm_90/conv1d_288/Conv1D/ExpandDims_1", "shape": [1, 3, 128, 128], "dtype": "float32"}, {"name": "StatefulPartitionedCall/hc_experimental_v7_2/conv_residual_feature_extraction_block_18/conv1d_and__batch_norm_90/conv1d_288/BiasAdd/ReadVariableOp", "shape": [128], "dtype": "float32"}, {"name": "StatefulPartitionedCall/hc_experimental_v7_2/conv_residual_feature_extraction_block_18/conv1d_and__batch_norm_90/conv1d_289/Conv1D/ExpandDims/dim", "shape": [], "dtype": "int32"}, {"name": "StatefulPartitionedCall/hc_experimental_v7_2/conv_residual_feature_extraction_block_18/conv1d_and__batch_norm_90/conv1d_289/Conv1D/ExpandDims_1", "shape": [1, 3, 128, 128], "dtype": "float32"}, {"name": "StatefulPartitionedCall/hc_experimental_v7_2/conv_residual_feature_extraction_block_18/conv1d_and__batch_norm_90/conv1d_289/BiasAdd/ReadVariableOp", "shape": [128], "dtype": "float32"}, {"name": "StatefulPartitionedCall/hc_experimental_v7_2/conv_residual_feature_extraction_block_18/conv1d_and__batch_norm_90/conv1d_290/Conv1D/ExpandDims/dim", "shape": [], "dtype": "int32"}, {"name": "StatefulPartitionedCall/hc_experimental_v7_2/conv_residual_feature_extraction_block_18/conv1d_and__batch_norm_90/conv1d_290/Conv1D/ExpandDims_1", "shape": [1, 3, 128, 128], "dtype": "float32"}, {"name": "StatefulPartitionedCall/hc_experimental_v7_2/conv_residual_feature_extraction_block_18/conv1d_and__batch_norm_90/conv1d_290/BiasAdd/ReadVariableOp", "shape": [128], "dtype": "float32"}, {"name": "StatefulPartitionedCall/hc_experimental_v7_2/conv_residual_feature_extraction_block_18/conv1d_and__batch_norm_90/batch_normalization_90/batchnorm/mul", "shape": [128], "dtype": "float32"}, {"name": "StatefulPartitionedCall/hc_experimental_v7_2/conv_residual_feature_extraction_block_18/conv1d_and__batch_norm_90/batch_normalization_90/batchnorm/sub", "shape": [128], "dtype": "float32"}, {"name": "StatefulPartitionedCall/hc_experimental_v7_2/conv_residual_feature_extraction_block_18/conv1d_and__batch_norm_90/max_pooling1d_176/ExpandDims/dim", "shape": [], "dtype": "int32"}, {"name": "StatefulPartitionedCall/hc_experimental_v7_2/conv_residual_feature_extraction_block_18/conv1d_and__batch_norm_89/conv1d_285/Conv1D/ExpandDims/dim", "shape": [], "dtype": "int32"}, {"name": "StatefulPartitionedCall/hc_experimental_v7_2/conv_residual_feature_extraction_block_18/conv1d_and__batch_norm_89/conv1d_285/Conv1D/ExpandDims_1", "shape": [1, 3, 128, 128], "dtype": "float32"}, {"name": "StatefulPartitionedCall/hc_experimental_v7_2/conv_residual_feature_extraction_block_18/conv1d_and__batch_norm_89/conv1d_285/BiasAdd/ReadVariableOp", "shape": [128], "dtype": "float32"}, {"name": "StatefulPartitionedCall/hc_experimental_v7_2/conv_residual_feature_extraction_block_18/conv1d_and__batch_norm_89/conv1d_286/Conv1D/ExpandDims/dim", "shape": [], "dtype": "int32"}, {"name": "StatefulPartitionedCall/hc_experimental_v7_2/conv_residual_feature_extraction_block_18/conv1d_and__batch_norm_89/conv1d_286/Conv1D/ExpandDims_1", "shape": [1, 3, 128, 128], "dtype": "float32"}, {"name": "StatefulPartitionedCall/hc_experimental_v7_2/conv_residual_feature_extraction_block_18/conv1d_and__batch_norm_89/conv1d_286/BiasAdd/ReadVariableOp", "shape": [128], "dtype": "float32"}, {"name": "StatefulPartitionedCall/hc_experimental_v7_2/conv_residual_feature_extraction_block_18/conv1d_and__batch_norm_89/conv1d_287/Conv1D/ExpandDims/dim", "shape": [], "dtype": "int32"}, {"name": "StatefulPartitionedCall/hc_experimental_v7_2/conv_residual_feature_extraction_block_18/conv1d_and__batch_norm_89/conv1d_287/Conv1D/ExpandDims_1", "shape": [1, 3, 128, 128], "dtype": "float32"}, {"name": "StatefulPartitionedCall/hc_experimental_v7_2/conv_residual_feature_extraction_block_18/conv1d_and__batch_norm_89/conv1d_287/BiasAdd/ReadVariableOp", "shape": [128], "dtype": "float32"}, {"name": "StatefulPartitionedCall/hc_experimental_v7_2/conv_residual_feature_extraction_block_18/conv1d_and__batch_norm_89/batch_normalization_89/batchnorm/mul", "shape": [128], "dtype": "float32"}, {"name": "StatefulPartitionedCall/hc_experimental_v7_2/conv_residual_feature_extraction_block_18/conv1d_and__batch_norm_89/batch_normalization_89/batchnorm/sub", "shape": [128], "dtype": "float32"}, {"name": "StatefulPartitionedCall/hc_experimental_v7_2/conv_residual_feature_extraction_block_18/conv1d_and__batch_norm_89/max_pooling1d_175/ExpandDims/dim", "shape": [], "dtype": "int32"}, {"name": "StatefulPartitionedCall/hc_experimental_v7_2/conv_residual_feature_extraction_block_18/conv1d_and__batch_norm_88/conv1d_282/Conv1D/ExpandDims/dim", "shape": [], "dtype": "int32"}, {"name": "StatefulPartitionedCall/hc_experimental_v7_2/conv_residual_feature_extraction_block_18/conv1d_and__batch_norm_88/conv1d_282/Conv1D/ExpandDims_1", "shape": [1, 3, 32, 128], "dtype": "float32"}, {"name": "StatefulPartitionedCall/hc_experimental_v7_2/conv_residual_feature_extraction_block_18/conv1d_and__batch_norm_88/conv1d_282/BiasAdd/ReadVariableOp", "shape": [128], "dtype": "float32"}, {"name": "StatefulPartitionedCall/hc_experimental_v7_2/conv_residual_feature_extraction_block_18/conv1d_and__batch_norm_88/conv1d_283/Conv1D/ExpandDims/dim", "shape": [], "dtype": "int32"}, {"name": "StatefulPartitionedCall/hc_experimental_v7_2/conv_residual_feature_extraction_block_18/conv1d_and__batch_norm_88/conv1d_283/Conv1D/ExpandDims_1", "shape": [1, 3, 128, 128], "dtype": "float32"}, {"name": "StatefulPartitionedCall/hc_experimental_v7_2/conv_residual_feature_extraction_block_18/conv1d_and__batch_norm_88/conv1d_283/BiasAdd/ReadVariableOp", "shape": [128], "dtype": "float32"}, {"name": "StatefulPartitionedCall/hc_experimental_v7_2/conv_residual_feature_extraction_block_18/conv1d_and__batch_norm_88/conv1d_284/Conv1D/ExpandDims/dim", "shape": [], "dtype": "int32"}, {"name": "StatefulPartitionedCall/hc_experimental_v7_2/conv_residual_feature_extraction_block_18/conv1d_and__batch_norm_88/conv1d_284/Conv1D/ExpandDims_1", "shape": [1, 3, 128, 128], "dtype": "float32"}, {"name": "StatefulPartitionedCall/hc_experimental_v7_2/conv_residual_feature_extraction_block_18/conv1d_and__batch_norm_88/conv1d_284/BiasAdd/ReadVariableOp", "shape": [128], "dtype": "float32"}, {"name": "StatefulPartitionedCall/hc_experimental_v7_2/conv_residual_feature_extraction_block_18/conv1d_and__batch_norm_88/batch_normalization_88/batchnorm/mul", "shape": [128], "dtype": "float32"}, {"name": "StatefulPartitionedCall/hc_experimental_v7_2/conv_residual_feature_extraction_block_18/conv1d_and__batch_norm_88/batch_normalization_88/batchnorm/sub", "shape": [128], "dtype": "float32"}, {"name": "StatefulPartitionedCall/hc_experimental_v7_2/conv_residual_feature_extraction_block_18/conv1d_and__batch_norm_88/max_pooling1d_174/ExpandDims/dim", "shape": [], "dtype": "int32"}, {"name": "StatefulPartitionedCall/hc_experimental_v7_2/v_start/Gelu/mul/x", "shape": [], "dtype": "float32"}, {"name": "StatefulPartitionedCall/hc_experimental_v7_2/v_start/Gelu/add/x", "shape": [], "dtype": "float32"}, {"name": "StatefulPartitionedCall/hc_experimental_v7_2/v_start/MatMul/ReadVariableOp", "shape": [576, 1], "dtype": "float32"}, {"name": "StatefulPartitionedCall/hc_experimental_v7_2/v_start/BiasAdd/ReadVariableOp", "shape": [1], "dtype": "float32"}, {"name": "ConstantFolding/StatefulPartitionedCall/hc_experimental_v7_2/v_start/Gelu/truediv_recip", "shape": [], "dtype": "float32"}, {"name": "StatefulPartitionedCall/hc_experimental_v7_2/cutout_layer_6/Max/reduction_indices", "shape": [], "dtype": "int32"}, {"name": "StatefulPartitionedCall/hc_experimental_v7_2/cutout_layer_6/clip_by_value/Minimum/y", "shape": [], "dtype": "float32"}, {"name": "StatefulPartitionedCall/hc_experimental_v7_2/cutout_layer_6/clip_by_value/y", "shape": [], "dtype": "float32"}, {"name": "StatefulPartitionedCall/hc_experimental_v7_2/cutout_layer_6/Cast", "shape": [576], "dtype": "float32"}, {"name": "StatefulPartitionedCall/hc_experimental_v7_2/v_end/Gelu/mul/x", "shape": [], "dtype": "float32"}, {"name": "StatefulPartitionedCall/hc_experimental_v7_2/v_end/Gelu/add/x", "shape": [], "dtype": "float32"}, {"name": "StatefulPartitionedCall/hc_experimental_v7_2/conv_residual_feature_extraction_block_15/conv1d_and__batch_norm_79/conv1d_252/Conv1D/ExpandDims/dim", "shape": [], "dtype": "int32"}, {"name": "StatefulPartitionedCall/hc_experimental_v7_2/conv_residual_feature_extraction_block_15/conv1d_and__batch_norm_79/conv1d_252/Conv1D/ExpandDims_1", "shape": [1, 2, 128, 128], "dtype": "float32"}, {"name": "StatefulPartitionedCall/hc_experimental_v7_2/conv_residual_feature_extraction_block_15/conv1d_and__batch_norm_79/conv1d_252/BiasAdd/ReadVariableOp", "shape": [128], "dtype": "float32"}, {"name": "StatefulPartitionedCall/hc_experimental_v7_2/conv_residual_feature_extraction_block_15/conv1d_and__batch_norm_79/conv1d_253/Conv1D/ExpandDims/dim", "shape": [], "dtype": "int32"}, {"name": "StatefulPartitionedCall/hc_experimental_v7_2/conv_residual_feature_extraction_block_15/conv1d_and__batch_norm_79/conv1d_253/Conv1D/ExpandDims_1", "shape": [1, 2, 128, 128], "dtype": "float32"}, {"name": "StatefulPartitionedCall/hc_experimental_v7_2/conv_residual_feature_extraction_block_15/conv1d_and__batch_norm_79/conv1d_253/BiasAdd/ReadVariableOp", "shape": [128], "dtype": "float32"}, {"name": "StatefulPartitionedCall/hc_experimental_v7_2/conv_residual_feature_extraction_block_15/conv1d_and__batch_norm_79/conv1d_254/Conv1D/ExpandDims/dim", "shape": [], "dtype": "int32"}, {"name": "StatefulPartitionedCall/hc_experimental_v7_2/conv_residual_feature_extraction_block_15/conv1d_and__batch_norm_79/conv1d_254/Conv1D/ExpandDims_1", "shape": [1, 2, 128, 128], "dtype": "float32"}, {"name": "StatefulPartitionedCall/hc_experimental_v7_2/conv_residual_feature_extraction_block_15/conv1d_and__batch_norm_79/conv1d_254/BiasAdd/ReadVariableOp", "shape": [128], "dtype": "float32"}, {"name": "StatefulPartitionedCall/hc_experimental_v7_2/conv_residual_feature_extraction_block_15/conv1d_and__batch_norm_79/batch_normalization_79/batchnorm/mul", "shape": [128], "dtype": "float32"}, {"name": "StatefulPartitionedCall/hc_experimental_v7_2/conv_residual_feature_extraction_block_15/conv1d_and__batch_norm_79/batch_normalization_79/batchnorm/sub", "shape": [128], "dtype": "float32"}, {"name": "StatefulPartitionedCall/hc_experimental_v7_2/conv_residual_feature_extraction_block_15/conv1d_and__batch_norm_79/max_pooling1d_153/ExpandDims/dim", "shape": [], "dtype": "int32"}, {"name": "StatefulPartitionedCall/hc_experimental_v7_2/conv_residual_feature_extraction_block_15/conv1d_and__batch_norm_78/conv1d_249/Conv1D/ExpandDims/dim", "shape": [], "dtype": "int32"}, {"name": "StatefulPartitionedCall/hc_experimental_v7_2/conv_residual_feature_extraction_block_15/conv1d_and__batch_norm_78/conv1d_249/Conv1D/ExpandDims_1", "shape": [1, 3, 128, 128], "dtype": "float32"}, {"name": "StatefulPartitionedCall/hc_experimental_v7_2/conv_residual_feature_extraction_block_15/conv1d_and__batch_norm_78/conv1d_249/BiasAdd/ReadVariableOp", "shape": [128], "dtype": "float32"}, {"name": "StatefulPartitionedCall/hc_experimental_v7_2/conv_residual_feature_extraction_block_15/conv1d_and__batch_norm_78/conv1d_250/Conv1D/ExpandDims/dim", "shape": [], "dtype": "int32"}, {"name": "StatefulPartitionedCall/hc_experimental_v7_2/conv_residual_feature_extraction_block_15/conv1d_and__batch_norm_78/conv1d_250/Conv1D/ExpandDims_1", "shape": [1, 3, 128, 128], "dtype": "float32"}, {"name": "StatefulPartitionedCall/hc_experimental_v7_2/conv_residual_feature_extraction_block_15/conv1d_and__batch_norm_78/conv1d_250/BiasAdd/ReadVariableOp", "shape": [128], "dtype": "float32"}, {"name": "StatefulPartitionedCall/hc_experimental_v7_2/conv_residual_feature_extraction_block_15/conv1d_and__batch_norm_78/conv1d_251/Conv1D/ExpandDims/dim", "shape": [], "dtype": "int32"}, {"name": "StatefulPartitionedCall/hc_experimental_v7_2/conv_residual_feature_extraction_block_15/conv1d_and__batch_norm_78/conv1d_251/Conv1D/ExpandDims_1", "shape": [1, 3, 128, 128], "dtype": "float32"}, {"name": "StatefulPartitionedCall/hc_experimental_v7_2/conv_residual_feature_extraction_block_15/conv1d_and__batch_norm_78/conv1d_251/BiasAdd/ReadVariableOp", "shape": [128], "dtype": "float32"}, {"name": "StatefulPartitionedCall/hc_experimental_v7_2/conv_residual_feature_extraction_block_15/conv1d_and__batch_norm_78/batch_normalization_78/batchnorm/mul", "shape": [128], "dtype": "float32"}, {"name": "StatefulPartitionedCall/hc_experimental_v7_2/conv_residual_feature_extraction_block_15/conv1d_and__batch_norm_78/batch_normalization_78/batchnorm/sub", "shape": [128], "dtype": "float32"}, {"name": "StatefulPartitionedCall/hc_experimental_v7_2/conv_residual_feature_extraction_block_15/conv1d_and__batch_norm_78/max_pooling1d_152/ExpandDims/dim", "shape": [], "dtype": "int32"}, {"name": "StatefulPartitionedCall/hc_experimental_v7_2/conv_residual_feature_extraction_block_15/conv1d_and__batch_norm_77/conv1d_246/Conv1D/ExpandDims/dim", "shape": [], "dtype": "int32"}, {"name": "StatefulPartitionedCall/hc_experimental_v7_2/conv_residual_feature_extraction_block_15/conv1d_and__batch_norm_77/conv1d_246/Conv1D/ExpandDims_1", "shape": [1, 3, 128, 128], "dtype": "float32"}, {"name": "StatefulPartitionedCall/hc_experimental_v7_2/conv_residual_feature_extraction_block_15/conv1d_and__batch_norm_77/conv1d_246/BiasAdd/ReadVariableOp", "shape": [128], "dtype": "float32"}, {"name": "StatefulPartitionedCall/hc_experimental_v7_2/conv_residual_feature_extraction_block_15/conv1d_and__batch_norm_77/conv1d_247/Conv1D/ExpandDims/dim", "shape": [], "dtype": "int32"}, {"name": "StatefulPartitionedCall/hc_experimental_v7_2/conv_residual_feature_extraction_block_15/conv1d_and__batch_norm_77/conv1d_247/Conv1D/ExpandDims_1", "shape": [1, 3, 128, 128], "dtype": "float32"}, {"name": "StatefulPartitionedCall/hc_experimental_v7_2/conv_residual_feature_extraction_block_15/conv1d_and__batch_norm_77/conv1d_247/BiasAdd/ReadVariableOp", "shape": [128], "dtype": "float32"}, {"name": "StatefulPartitionedCall/hc_experimental_v7_2/conv_residual_feature_extraction_block_15/conv1d_and__batch_norm_77/conv1d_248/Conv1D/ExpandDims/dim", "shape": [], "dtype": "int32"}, {"name": "StatefulPartitionedCall/hc_experimental_v7_2/conv_residual_feature_extraction_block_15/conv1d_and__batch_norm_77/conv1d_248/Conv1D/ExpandDims_1", "shape": [1, 3, 128, 128], "dtype": "float32"}, {"name": "StatefulPartitionedCall/hc_experimental_v7_2/conv_residual_feature_extraction_block_15/conv1d_and__batch_norm_77/conv1d_248/BiasAdd/ReadVariableOp", "shape": [128], "dtype": "float32"}, {"name": "StatefulPartitionedCall/hc_experimental_v7_2/conv_residual_feature_extraction_block_15/conv1d_and__batch_norm_77/batch_normalization_77/batchnorm/mul", "shape": [128], "dtype": "float32"}, {"name": "StatefulPartitionedCall/hc_experimental_v7_2/conv_residual_feature_extraction_block_15/conv1d_and__batch_norm_77/batch_normalization_77/batchnorm/sub", "shape": [128], "dtype": "float32"}, {"name": "StatefulPartitionedCall/hc_experimental_v7_2/conv_residual_feature_extraction_block_15/conv1d_and__batch_norm_77/max_pooling1d_151/ExpandDims/dim", "shape": [], "dtype": "int32"}, {"name": "StatefulPartitionedCall/hc_experimental_v7_2/conv_residual_feature_extraction_block_15/conv1d_and__batch_norm_76/conv1d_243/Conv1D/ExpandDims/dim", "shape": [], "dtype": "int32"}, {"name": "StatefulPartitionedCall/hc_experimental_v7_2/conv_residual_feature_extraction_block_15/conv1d_and__batch_norm_76/conv1d_243/Conv1D/ExpandDims_1", "shape": [1, 3, 32, 128], "dtype": "float32"}, {"name": "StatefulPartitionedCall/hc_experimental_v7_2/conv_residual_feature_extraction_block_15/conv1d_and__batch_norm_76/conv1d_243/BiasAdd/ReadVariableOp", "shape": [128], "dtype": "float32"}, {"name": "StatefulPartitionedCall/hc_experimental_v7_2/conv_residual_feature_extraction_block_15/conv1d_and__batch_norm_76/conv1d_244/Conv1D/ExpandDims/dim", "shape": [], "dtype": "int32"}, {"name": "StatefulPartitionedCall/hc_experimental_v7_2/conv_residual_feature_extraction_block_15/conv1d_and__batch_norm_76/conv1d_244/Conv1D/ExpandDims_1", "shape": [1, 3, 128, 128], "dtype": "float32"}, {"name": "StatefulPartitionedCall/hc_experimental_v7_2/conv_residual_feature_extraction_block_15/conv1d_and__batch_norm_76/conv1d_244/BiasAdd/ReadVariableOp", "shape": [128], "dtype": "float32"}, {"name": "StatefulPartitionedCall/hc_experimental_v7_2/conv_residual_feature_extraction_block_15/conv1d_and__batch_norm_76/conv1d_245/Conv1D/ExpandDims/dim", "shape": [], "dtype": "int32"}, {"name": "StatefulPartitionedCall/hc_experimental_v7_2/conv_residual_feature_extraction_block_15/conv1d_and__batch_norm_76/conv1d_245/Conv1D/ExpandDims_1", "shape": [1, 3, 128, 128], "dtype": "float32"}, {"name": "StatefulPartitionedCall/hc_experimental_v7_2/conv_residual_feature_extraction_block_15/conv1d_and__batch_norm_76/conv1d_245/BiasAdd/ReadVariableOp", "shape": [128], "dtype": "float32"}, {"name": "StatefulPartitionedCall/hc_experimental_v7_2/conv_residual_feature_extraction_block_15/conv1d_and__batch_norm_76/batch_normalization_76/batchnorm/mul", "shape": [128], "dtype": "float32"}, {"name": "StatefulPartitionedCall/hc_experimental_v7_2/conv_residual_feature_extraction_block_15/conv1d_and__batch_norm_76/batch_normalization_76/batchnorm/sub", "shape": [128], "dtype": "float32"}, {"name": "StatefulPartitionedCall/hc_experimental_v7_2/conv_residual_feature_extraction_block_15/conv1d_and__batch_norm_76/max_pooling1d_150/ExpandDims/dim", "shape": [], "dtype": "int32"}, {"name": "unknown_0", "shape": [6, 32], "dtype": "float32"}, {"name": "StatefulPartitionedCall/hc_experimental_v7_2/Reshape/shape", "shape": [2], "dtype": "int32"}, {"name": "StatefulPartitionedCall/hc_experimental_v7_2/token_and_position_embedding_2/embedding_4/embedding_lookup/axis", "shape": [], "dtype": "int32"}, {"name": "StatefulPartitionedCall/hc_experimental_v7_2/token_and_position_embedding_2/embedding_5/embedding_lookup", "shape": [576, 32], "dtype": "float32"}, {"name": "StatefulPartitionedCall/hc_experimental_v7_2/conv_residual_feature_extraction_block_15/conv1d_255/Conv1D/ExpandDims/dim", "shape": [], "dtype": "int32"}, {"name": "StatefulPartitionedCall/hc_experimental_v7_2/conv_residual_feature_extraction_block_15/conv1d_255/Conv1D/ExpandDims_1", "shape": [1, 5, 32, 128], "dtype": "float32"}, {"name": "StatefulPartitionedCall/hc_experimental_v7_2/conv_residual_feature_extraction_block_15/conv1d_255/BiasAdd/ReadVariableOp", "shape": [128], "dtype": "float32"}, {"name": "StatefulPartitionedCall/hc_experimental_v7_2/conv_residual_feature_extraction_block_15/max_pooling1d_154/ExpandDims/dim", "shape": [], "dtype": "int32"}, {"name": "StatefulPartitionedCall/hc_experimental_v7_2/conv_residual_feature_extraction_block_15/max_pooling1d_154/ExpandDims_1/dim", "shape": [], "dtype": "int32"}, {"name": "StatefulPartitionedCall/hc_experimental_v7_2/conv_residual_feature_extraction_block_15/max_pooling1d_155/ExpandDims/dim", "shape": [], "dtype": "int32"}, {"name": "StatefulPartitionedCall/hc_experimental_v7_2/conv_residual_feature_extraction_block_15/max_pooling1d_156/ExpandDims/dim", "shape": [], "dtype": "int32"}, {"name": "StatefulPartitionedCall/hc_experimental_v7_2/conv_residual_feature_extraction_block_15/max_pooling1d_157/ExpandDims/dim", "shape": [], "dtype": "int32"}, {"name": "StatefulPartitionedCall/hc_experimental_v7_2/conv_residual_feature_extraction_block_15/flatten_17/Const", "shape": [2], "dtype": "int32"}, {"name": "StatefulPartitionedCall/hc_experimental_v7_2/conv_residual_feature_extraction_block_15/dense_15/MatMul/ReadVariableOp", "shape": [2304, 576], "dtype": "float32"}, {"name": "StatefulPartitionedCall/hc_experimental_v7_2/conv_residual_feature_extraction_block_15/dense_15/BiasAdd/ReadVariableOp", "shape": [576], "dtype": "float32"}, {"name": "StatefulPartitionedCall/hc_experimental_v7_2/v_end/MatMul/ReadVariableOp", "shape": [576, 1], "dtype": "float32"}, {"name": "StatefulPartitionedCall/hc_experimental_v7_2/v_end/BiasAdd/ReadVariableOp", "shape": [1], "dtype": "float32"}, {"name": "ConstantFolding/StatefulPartitionedCall/hc_experimental_v7_2/v_end/Gelu/truediv_recip", "shape": [], "dtype": "float32"}, {"name": "StatefulPartitionedCall/hc_experimental_v7_2/cutout_layer_6/Max_1/reduction_indices", "shape": [], "dtype": "int32"}, {"name": "StatefulPartitionedCall/hc_experimental_v7_2/cutout_layer_6/clip_by_value_1/Minimum/y", "shape": [], "dtype": "float32"}, {"name": "StatefulPartitionedCall/hc_experimental_v7_2/cutout_layer_6/clip_by_value_1/y", "shape": [], "dtype": "float32"}, {"name": "StatefulPartitionedCall/hc_experimental_v7_2/ExpandDims/dim", "shape": [], "dtype": "int32"}, {"name": "StatefulPartitionedCall/hc_experimental_v7_2/conv_residual_feature_extraction_block_18/conv1d_300/Conv1D/ExpandDims/dim", "shape": [], "dtype": "int32"}, {"name": "StatefulPartitionedCall/hc_experimental_v7_2/conv_residual_feature_extraction_block_18/conv1d_300/Conv1D/ExpandDims_1", "shape": [1, 5, 32, 128], "dtype": "float32"}, {"name": "StatefulPartitionedCall/hc_experimental_v7_2/conv_residual_feature_extraction_block_18/conv1d_300/BiasAdd/ReadVariableOp", "shape": [128], "dtype": "float32"}, {"name": "StatefulPartitionedCall/hc_experimental_v7_2/conv_residual_feature_extraction_block_18/max_pooling1d_180/ExpandDims/dim", "shape": [], "dtype": "int32"}, {"name": "StatefulPartitionedCall/hc_experimental_v7_2/conv_residual_feature_extraction_block_18/max_pooling1d_180/ExpandDims_1/dim", "shape": [], "dtype": "int32"}, {"name": "StatefulPartitionedCall/hc_experimental_v7_2/conv_residual_feature_extraction_block_18/max_pooling1d_181/ExpandDims/dim", "shape": [], "dtype": "int32"}, {"name": "StatefulPartitionedCall/hc_experimental_v7_2/conv_residual_feature_extraction_block_18/max_pooling1d_182/ExpandDims/dim", "shape": [], "dtype": "int32"}, {"name": "StatefulPartitionedCall/hc_experimental_v7_2/conv_residual_feature_extraction_block_18/max_pooling1d_183/ExpandDims/dim", "shape": [], "dtype": "int32"}, {"name": "StatefulPartitionedCall/hc_experimental_v7_2/conv_residual_feature_extraction_block_18/max_pooling1d_184/ExpandDims/dim", "shape": [], "dtype": "int32"}, {"name": "StatefulPartitionedCall/hc_experimental_v7_2/conv_residual_feature_extraction_block_18/max_pooling1d_185/ExpandDims/dim", "shape": [], "dtype": "int32"}, {"name": "StatefulPartitionedCall/hc_experimental_v7_2/conv_residual_feature_extraction_block_18/flatten_20/Const", "shape": [2], "dtype": "int32"}, {"name": "StatefulPartitionedCall/hc_experimental_v7_2/conv_residual_feature_extraction_block_18/dense_18/MatMul/ReadVariableOp", "shape": [512, 576], "dtype": "float32"}, {"name": "StatefulPartitionedCall/hc_experimental_v7_2/conv_residual_feature_extraction_block_18/dense_18/BiasAdd/ReadVariableOp", "shape": [576], "dtype": "float32"}, {"name": "StatefulPartitionedCall/hc_experimental_v7_2/v_allele_middle/MatMul/ReadVariableOp", "shape": [576, 396], "dtype": "float32"}, {"name": "StatefulPartitionedCall/hc_experimental_v7_2/v_allele_middle/BiasAdd/ReadVariableOp", "shape": [396], "dtype": "float32"}, {"name": "StatefulPartitionedCall/hc_experimental_v7_2/v_allele/MatMul/ReadVariableOp", "shape": [396, 198], "dtype": "float32"}, {"name": "StatefulPartitionedCall/hc_experimental_v7_2/v_allele/BiasAdd/ReadVariableOp", "shape": [198], "dtype": "float32"}]}]}